!const = !cheddar.constant
!ct = !cheddar.ciphertext
!ctx = !cheddar.context
!encoder = !cheddar.encoder
!evk = !cheddar.eval_key
!pt = !cheddar.plaintext
!ui = !cheddar.user_interface
#layout = #tensor_ext.layout<"{ [i0, i1] -> [ct, slot] : i0 = 0 and ct = 0 and (-i1 + slot) mod 16 = 0 and 0 <= i1 <= 9 and 0 <= slot <= 1023 }">
#original_type = #tensor_ext.original_type<originalType = tensor<1x10xf32>, layout = #layout>
module @jit_func attributes {backend.cheddar, cheddar.P = array<i64: 1152921504608747521, 1152921504614055937, 1152921504615628801>, cheddar.Q = array<i64: 36028797017456641, 35184366911489, 35184376545281, 35184367828993, 35184373989377, 35184368025601, 35184373006337, 35184368877569, 35184372744193>, cheddar.logDefaultScale = 45 : i64, cheddar.logN = 15 : i64, ckks.reduced_error = false, ckks.scale_policy = "precise", jax.uses_shape_polymorphism = false, mhlo.num_partitions = 1 : i32, mhlo.num_replicas = 1 : i32, scheme.actual_slot_count = 16384 : i64, scheme.requested_slot_count = 1024 : i64} {
  func.func private @_assign_layout_15821473625446445388(%arg0: tensor<1x10xf32>) -> tensor<1x1024xf32> attributes {client.pack_func = {func_name = "mnist"}} {
    %c0 = arith.constant 0 : index
    %c16_i32 = arith.constant 16 : i32
    %c6_i32 = arith.constant 6 : i32
    %cst = arith.constant dense<0.000000e+00> : tensor<1x1024xf32>
    %c0_i32 = arith.constant 0 : i32
    %c1_i32 = arith.constant 1 : i32
    %c1024_i32 = arith.constant 1024 : i32
    %0 = scf.for %arg1 = %c0_i32 to %c1024_i32 step %c1_i32 iter_args(%arg2 = %cst) -> (tensor<1x1024xf32>)  : i32 {
      %1 = arith.addi %arg1, %c6_i32 : i32
      %2 = arith.floordivsi %1, %c16_i32 : i32
      %3 = arith.muli %2, %c16_i32 : i32
      %4 = arith.subi %1, %3 : i32
      %5 = arith.cmpi sge, %4, %c6_i32 : i32
      %6 = scf.if %5 -> (tensor<1x1024xf32>) {
        %7 = arith.floordivsi %arg1, %c16_i32 : i32
        %8 = arith.muli %7, %c16_i32 : i32
        %9 = arith.subi %arg1, %8 : i32
        %10 = arith.index_cast %9 : i32 to index
        %extracted = tensor.extract %arg0[%c0, %10] : tensor<1x10xf32>
        %11 = arith.index_cast %arg1 : i32 to index
        %inserted = tensor.insert %extracted into %arg2[%c0, %11] : tensor<1x1024xf32>
        scf.yield %inserted : tensor<1x1024xf32>
      } else {
        scf.yield %arg2 : tensor<1x1024xf32>
      }
      scf.yield %6 : tensor<1x1024xf32>
    }
    return %0 : tensor<1x1024xf32>
  }
  func.func private @_assign_layout_3845548051979842882(%arg0: tensor<10x512xf32>) -> tensor<16x1024xf32> attributes {client.pack_func = {func_name = "mnist"}} {
    %c511_i32 = arith.constant 511 : i32
    %c1018_i32 = arith.constant 1018 : i32
    %c512_i32 = arith.constant 512 : i32
    %c1535_i32 = arith.constant 1535 : i32
    %c6_i32 = arith.constant 6 : i32
    %c9_i32 = arith.constant 9 : i32
    %c16_i32 = arith.constant 16 : i32
    %cst = arith.constant dense<0.000000e+00> : tensor<16x1024xf32>
    %c0_i32 = arith.constant 0 : i32
    %c1_i32 = arith.constant 1 : i32
    %0 = scf.for %arg1 = %c0_i32 to %c16_i32 step %c1_i32 iter_args(%arg2 = %cst) -> (tensor<16x1024xf32>)  : i32 {
      %1 = scf.for %arg3 = %c0_i32 to %c1018_i32 step %c1_i32 iter_args(%arg4 = %arg2) -> (tensor<16x1024xf32>)  : i32 {
        %2 = arith.floordivsi %arg3, %c16_i32 : i32
        %3 = arith.muli %2, %c16_i32 : i32
        %4 = arith.subi %arg3, %3 : i32
        %5 = arith.cmpi sle, %4, %c9_i32 : i32
        %6 = scf.if %5 -> (tensor<16x1024xf32>) {
          %7 = arith.addi %arg3, %c6_i32 : i32
          %8 = arith.floordivsi %7, %c16_i32 : i32
          %9 = arith.muli %8, %c16_i32 : i32
          %10 = arith.subi %7, %9 : i32
          %11 = arith.subi %10, %c6_i32 : i32
          %12 = arith.subi %c0_i32, %arg1 : i32
          %13 = arith.subi %12, %arg3 : i32
          %14 = arith.addi %13, %c1535_i32 : i32
          %15 = arith.floordivsi %14, %c512_i32 : i32
          %16 = arith.muli %15, %c512_i32 : i32
          %17 = arith.subi %14, %16 : i32
          %18 = arith.subi %c511_i32, %17 : i32
          %19 = arith.index_cast %11 : i32 to index
          %20 = arith.index_cast %18 : i32 to index
          %extracted = tensor.extract %arg0[%19, %20] : tensor<10x512xf32>
          %21 = arith.index_cast %arg1 : i32 to index
          %22 = arith.index_cast %arg3 : i32 to index
          %inserted = tensor.insert %extracted into %arg4[%21, %22] : tensor<16x1024xf32>
          scf.yield %inserted : tensor<16x1024xf32>
        } else {
          scf.yield %arg4 : tensor<16x1024xf32>
        }
        scf.yield %6 : tensor<16x1024xf32>
      }
      scf.yield %1 : tensor<16x1024xf32>
    }
    return %0 : tensor<16x1024xf32>
  }
  func.func private @_assign_layout_16896438402451138524(%arg0: tensor<1x512xf32>) -> tensor<1x1024xf32> attributes {client.pack_func = {func_name = "mnist"}} {
    %c0 = arith.constant 0 : index
    %c512_i32 = arith.constant 512 : i32
    %cst = arith.constant dense<0.000000e+00> : tensor<1x1024xf32>
    %c0_i32 = arith.constant 0 : i32
    %c1_i32 = arith.constant 1 : i32
    %c1024_i32 = arith.constant 1024 : i32
    %0 = scf.for %arg1 = %c0_i32 to %c1024_i32 step %c1_i32 iter_args(%arg2 = %cst) -> (tensor<1x1024xf32>)  : i32 {
      %1 = arith.floordivsi %arg1, %c512_i32 : i32
      %2 = arith.muli %1, %c512_i32 : i32
      %3 = arith.subi %arg1, %2 : i32
      %4 = arith.index_cast %3 : i32 to index
      %extracted = tensor.extract %arg0[%c0, %4] : tensor<1x512xf32>
      %5 = arith.index_cast %arg1 : i32 to index
      %inserted = tensor.insert %extracted into %arg2[%c0, %5] : tensor<1x1024xf32>
      scf.yield %inserted : tensor<1x1024xf32>
    }
    return %0 : tensor<1x1024xf32>
  }
  func.func private @_assign_layout_2641823626983415177(%arg0: tensor<512x784xf32>) -> tensor<512x1024xf32> attributes {client.pack_func = {func_name = "mnist"}} {
    %c783_i32 = arith.constant 783 : i32
    %c1807_i32 = arith.constant 1807 : i32
    %c512_i32 = arith.constant 512 : i32
    %c1024_i32 = arith.constant 1024 : i32
    %c240_i32 = arith.constant 240 : i32
    %cst = arith.constant dense<0.000000e+00> : tensor<512x1024xf32>
    %c0_i32 = arith.constant 0 : i32
    %c1_i32 = arith.constant 1 : i32
    %0 = scf.for %arg1 = %c0_i32 to %c512_i32 step %c1_i32 iter_args(%arg2 = %cst) -> (tensor<512x1024xf32>)  : i32 {
      %1 = scf.for %arg3 = %c0_i32 to %c1024_i32 step %c1_i32 iter_args(%arg4 = %arg2) -> (tensor<512x1024xf32>)  : i32 {
        %2 = arith.addi %arg1, %arg3 : i32
        %3 = arith.addi %2, %c240_i32 : i32
        %4 = arith.floordivsi %3, %c1024_i32 : i32
        %5 = arith.muli %4, %c1024_i32 : i32
        %6 = arith.subi %3, %5 : i32
        %7 = arith.cmpi sge, %6, %c240_i32 : i32
        %8 = scf.if %7 -> (tensor<512x1024xf32>) {
          %9 = arith.floordivsi %arg3, %c512_i32 : i32
          %10 = arith.muli %9, %c512_i32 : i32
          %11 = arith.subi %arg3, %10 : i32
          %12 = arith.subi %c0_i32, %arg1 : i32
          %13 = arith.subi %12, %arg3 : i32
          %14 = arith.addi %13, %c1807_i32 : i32
          %15 = arith.floordivsi %14, %c1024_i32 : i32
          %16 = arith.muli %15, %c1024_i32 : i32
          %17 = arith.subi %14, %16 : i32
          %18 = arith.subi %c783_i32, %17 : i32
          %19 = arith.index_cast %11 : i32 to index
          %20 = arith.index_cast %18 : i32 to index
          %extracted = tensor.extract %arg0[%19, %20] : tensor<512x784xf32>
          %21 = arith.index_cast %arg1 : i32 to index
          %22 = arith.index_cast %arg3 : i32 to index
          %inserted = tensor.insert %extracted into %arg4[%21, %22] : tensor<512x1024xf32>
          scf.yield %inserted : tensor<512x1024xf32>
        } else {
          scf.yield %arg4 : tensor<512x1024xf32>
        }
        scf.yield %8 : tensor<512x1024xf32>
      }
      scf.yield %1 : tensor<512x1024xf32>
    }
    return %0 : tensor<512x1024xf32>
  }
  func.func @mnist__preprocessing(%ctx: !ctx, %encoder: !encoder, %ui: !ui, %arg0: tensor<512x784xf32>, %arg1: tensor<512xf32>, %arg2: tensor<10x512xf32>, %arg3: tensor<10xf32>) -> (tensor<77x!pt>, tensor<77x!pt>, tensor<77x!pt>, tensor<77x!pt>, tensor<77x!pt>, tensor<77x!pt>, tensor<72x!pt>, tensor<5x!pt>) attributes {client.pack_func = {func_name = "mnist"}} {
    %cst = arith.constant dense<-1.26569366> : tensor<1x512xf32>
    %cst_0 = arith.constant dense<2.000000e+00> : tensor<1x512xf32>
    %cst_1 = arith.constant dense<4.30750513> : tensor<1x512xf32>
    %cst_2 = arith.constant dense<1.000000e+01> : tensor<1x512xf32>
    %cst_3 = arith.constant dense<1.000000e+00> : tensor<1x512xf32>
    %cst_4 = arith.constant dense<6.33939934> : tensor<1x512xf32>
    %cst_5 = arith.constant dense<5.000000e-02> : tensor<1x512xf32>
    %expanded = tensor.expand_shape %arg1 [[0, 1]] output_shape [1, 512] : tensor<512xf32> into tensor<1x512xf32>
    %expanded_6 = tensor.expand_shape %arg3 [[0, 1]] output_shape [1, 10] : tensor<10xf32> into tensor<1x10xf32>
    %0 = call @_assign_layout_2641823626983415177(%arg0) : (tensor<512x784xf32>) -> tensor<512x1024xf32>
    %1 = call @_assign_layout_16896438402451138524(%expanded) : (tensor<1x512xf32>) -> tensor<1x1024xf32>
    %2 = call @_assign_layout_16896438402451138524(%cst_5) : (tensor<1x512xf32>) -> tensor<1x1024xf32>
    %3 = call @_assign_layout_16896438402451138524(%cst_2) : (tensor<1x512xf32>) -> tensor<1x1024xf32>
    %4 = call @_assign_layout_16896438402451138524(%cst_4) : (tensor<1x512xf32>) -> tensor<1x1024xf32>
    %5 = call @_assign_layout_16896438402451138524(%cst_0) : (tensor<1x512xf32>) -> tensor<1x1024xf32>
    %6 = call @_assign_layout_16896438402451138524(%cst_3) : (tensor<1x512xf32>) -> tensor<1x1024xf32>
    %7 = call @_assign_layout_16896438402451138524(%cst_1) : (tensor<1x512xf32>) -> tensor<1x1024xf32>
    %8 = call @_assign_layout_16896438402451138524(%cst) : (tensor<1x512xf32>) -> tensor<1x1024xf32>
    %9 = call @_assign_layout_3845548051979842882(%arg2) : (tensor<10x512xf32>) -> tensor<16x1024xf32>
    %10 = call @_assign_layout_15821473625446445388(%expanded_6) : (tensor<1x10xf32>) -> tensor<1x1024xf32>
    %extracted_slice = tensor.extract_slice %9[4, 0] [1, 1020] [1, 1] : tensor<16x1024xf32> to tensor<1x1020xf32>
    %extracted_slice_7 = tensor.extract_slice %9[4, 1020] [1, 4] [1, 1] : tensor<16x1024xf32> to tensor<1x4xf32>
    %11 = tensor.empty() : tensor<1x1024xf32>
    %inserted_slice = tensor.insert_slice %extracted_slice into %11[0, 4] [1, 1020] [1, 1] : tensor<1x1020xf32> into tensor<1x1024xf32>
    %inserted_slice_8 = tensor.insert_slice %extracted_slice_7 into %inserted_slice[0, 0] [1, 4] [1, 1] : tensor<1x4xf32> into tensor<1x1024xf32>
    %extracted_slice_9 = tensor.extract_slice %9[5, 0] [1, 1020] [1, 1] : tensor<16x1024xf32> to tensor<1x1020xf32>
    %extracted_slice_10 = tensor.extract_slice %9[5, 1020] [1, 4] [1, 1] : tensor<16x1024xf32> to tensor<1x4xf32>
    %inserted_slice_11 = tensor.insert_slice %extracted_slice_9 into %11[0, 4] [1, 1020] [1, 1] : tensor<1x1020xf32> into tensor<1x1024xf32>
    %inserted_slice_12 = tensor.insert_slice %extracted_slice_10 into %inserted_slice_11[0, 0] [1, 4] [1, 1] : tensor<1x4xf32> into tensor<1x1024xf32>
    %extracted_slice_13 = tensor.extract_slice %9[6, 0] [1, 1020] [1, 1] : tensor<16x1024xf32> to tensor<1x1020xf32>
    %extracted_slice_14 = tensor.extract_slice %9[6, 1020] [1, 4] [1, 1] : tensor<16x1024xf32> to tensor<1x4xf32>
    %inserted_slice_15 = tensor.insert_slice %extracted_slice_13 into %11[0, 4] [1, 1020] [1, 1] : tensor<1x1020xf32> into tensor<1x1024xf32>
    %inserted_slice_16 = tensor.insert_slice %extracted_slice_14 into %inserted_slice_15[0, 0] [1, 4] [1, 1] : tensor<1x4xf32> into tensor<1x1024xf32>
    %extracted_slice_17 = tensor.extract_slice %9[7, 0] [1, 1020] [1, 1] : tensor<16x1024xf32> to tensor<1x1020xf32>
    %extracted_slice_18 = tensor.extract_slice %9[7, 1020] [1, 4] [1, 1] : tensor<16x1024xf32> to tensor<1x4xf32>
    %inserted_slice_19 = tensor.insert_slice %extracted_slice_17 into %11[0, 4] [1, 1020] [1, 1] : tensor<1x1020xf32> into tensor<1x1024xf32>
    %inserted_slice_20 = tensor.insert_slice %extracted_slice_18 into %inserted_slice_19[0, 0] [1, 4] [1, 1] : tensor<1x4xf32> into tensor<1x1024xf32>
    %extracted_slice_21 = tensor.extract_slice %9[8, 0] [1, 1016] [1, 1] : tensor<16x1024xf32> to tensor<1x1016xf32>
    %extracted_slice_22 = tensor.extract_slice %9[8, 1016] [1, 8] [1, 1] : tensor<16x1024xf32> to tensor<1x8xf32>
    %inserted_slice_23 = tensor.insert_slice %extracted_slice_21 into %11[0, 8] [1, 1016] [1, 1] : tensor<1x1016xf32> into tensor<1x1024xf32>
    %inserted_slice_24 = tensor.insert_slice %extracted_slice_22 into %inserted_slice_23[0, 0] [1, 8] [1, 1] : tensor<1x8xf32> into tensor<1x1024xf32>
    %extracted_slice_25 = tensor.extract_slice %9[9, 0] [1, 1016] [1, 1] : tensor<16x1024xf32> to tensor<1x1016xf32>
    %extracted_slice_26 = tensor.extract_slice %9[9, 1016] [1, 8] [1, 1] : tensor<16x1024xf32> to tensor<1x8xf32>
    %inserted_slice_27 = tensor.insert_slice %extracted_slice_25 into %11[0, 8] [1, 1016] [1, 1] : tensor<1x1016xf32> into tensor<1x1024xf32>
    %inserted_slice_28 = tensor.insert_slice %extracted_slice_26 into %inserted_slice_27[0, 0] [1, 8] [1, 1] : tensor<1x8xf32> into tensor<1x1024xf32>
    %extracted_slice_29 = tensor.extract_slice %9[10, 0] [1, 1016] [1, 1] : tensor<16x1024xf32> to tensor<1x1016xf32>
    %extracted_slice_30 = tensor.extract_slice %9[10, 1016] [1, 8] [1, 1] : tensor<16x1024xf32> to tensor<1x8xf32>
    %inserted_slice_31 = tensor.insert_slice %extracted_slice_29 into %11[0, 8] [1, 1016] [1, 1] : tensor<1x1016xf32> into tensor<1x1024xf32>
    %inserted_slice_32 = tensor.insert_slice %extracted_slice_30 into %inserted_slice_31[0, 0] [1, 8] [1, 1] : tensor<1x8xf32> into tensor<1x1024xf32>
    %extracted_slice_33 = tensor.extract_slice %9[11, 0] [1, 1016] [1, 1] : tensor<16x1024xf32> to tensor<1x1016xf32>
    %extracted_slice_34 = tensor.extract_slice %9[11, 1016] [1, 8] [1, 1] : tensor<16x1024xf32> to tensor<1x8xf32>
    %inserted_slice_35 = tensor.insert_slice %extracted_slice_33 into %11[0, 8] [1, 1016] [1, 1] : tensor<1x1016xf32> into tensor<1x1024xf32>
    %inserted_slice_36 = tensor.insert_slice %extracted_slice_34 into %inserted_slice_35[0, 0] [1, 8] [1, 1] : tensor<1x8xf32> into tensor<1x1024xf32>
    %extracted_slice_37 = tensor.extract_slice %9[12, 0] [1, 1012] [1, 1] : tensor<16x1024xf32> to tensor<1x1012xf32>
    %extracted_slice_38 = tensor.extract_slice %9[12, 1012] [1, 12] [1, 1] : tensor<16x1024xf32> to tensor<1x12xf32>
    %inserted_slice_39 = tensor.insert_slice %extracted_slice_37 into %11[0, 12] [1, 1012] [1, 1] : tensor<1x1012xf32> into tensor<1x1024xf32>
    %inserted_slice_40 = tensor.insert_slice %extracted_slice_38 into %inserted_slice_39[0, 0] [1, 12] [1, 1] : tensor<1x12xf32> into tensor<1x1024xf32>
    %extracted_slice_41 = tensor.extract_slice %9[13, 0] [1, 1012] [1, 1] : tensor<16x1024xf32> to tensor<1x1012xf32>
    %extracted_slice_42 = tensor.extract_slice %9[13, 1012] [1, 12] [1, 1] : tensor<16x1024xf32> to tensor<1x12xf32>
    %inserted_slice_43 = tensor.insert_slice %extracted_slice_41 into %11[0, 12] [1, 1012] [1, 1] : tensor<1x1012xf32> into tensor<1x1024xf32>
    %inserted_slice_44 = tensor.insert_slice %extracted_slice_42 into %inserted_slice_43[0, 0] [1, 12] [1, 1] : tensor<1x12xf32> into tensor<1x1024xf32>
    %extracted_slice_45 = tensor.extract_slice %9[14, 0] [1, 1012] [1, 1] : tensor<16x1024xf32> to tensor<1x1012xf32>
    %extracted_slice_46 = tensor.extract_slice %9[14, 1012] [1, 12] [1, 1] : tensor<16x1024xf32> to tensor<1x12xf32>
    %inserted_slice_47 = tensor.insert_slice %extracted_slice_45 into %11[0, 12] [1, 1012] [1, 1] : tensor<1x1012xf32> into tensor<1x1024xf32>
    %inserted_slice_48 = tensor.insert_slice %extracted_slice_46 into %inserted_slice_47[0, 0] [1, 12] [1, 1] : tensor<1x12xf32> into tensor<1x1024xf32>
    %extracted_slice_49 = tensor.extract_slice %9[15, 0] [1, 1012] [1, 1] : tensor<16x1024xf32> to tensor<1x1012xf32>
    %extracted_slice_50 = tensor.extract_slice %9[15, 1012] [1, 12] [1, 1] : tensor<16x1024xf32> to tensor<1x12xf32>
    %inserted_slice_51 = tensor.insert_slice %extracted_slice_49 into %11[0, 12] [1, 1012] [1, 1] : tensor<1x1012xf32> into tensor<1x1024xf32>
    %inserted_slice_52 = tensor.insert_slice %extracted_slice_50 into %inserted_slice_51[0, 0] [1, 12] [1, 1] : tensor<1x12xf32> into tensor<1x1024xf32>
    %extracted_slice_53 = tensor.extract_slice %0[23, 0] [1, 1001] [1, 1] : tensor<512x1024xf32> to tensor<1x1001xf32>
    %extracted_slice_54 = tensor.extract_slice %0[23, 1001] [1, 23] [1, 1] : tensor<512x1024xf32> to tensor<1x23xf32>
    %inserted_slice_55 = tensor.insert_slice %extracted_slice_53 into %11[0, 23] [1, 1001] [1, 1] : tensor<1x1001xf32> into tensor<1x1024xf32>
    %inserted_slice_56 = tensor.insert_slice %extracted_slice_54 into %inserted_slice_55[0, 0] [1, 23] [1, 1] : tensor<1x23xf32> into tensor<1x1024xf32>
    %extracted_slice_57 = tensor.extract_slice %0[24, 0] [1, 1001] [1, 1] : tensor<512x1024xf32> to tensor<1x1001xf32>
    %extracted_slice_58 = tensor.extract_slice %0[24, 1001] [1, 23] [1, 1] : tensor<512x1024xf32> to tensor<1x23xf32>
    %inserted_slice_59 = tensor.insert_slice %extracted_slice_57 into %11[0, 23] [1, 1001] [1, 1] : tensor<1x1001xf32> into tensor<1x1024xf32>
    %inserted_slice_60 = tensor.insert_slice %extracted_slice_58 into %inserted_slice_59[0, 0] [1, 23] [1, 1] : tensor<1x23xf32> into tensor<1x1024xf32>
    %extracted_slice_61 = tensor.extract_slice %0[25, 0] [1, 1001] [1, 1] : tensor<512x1024xf32> to tensor<1x1001xf32>
    %extracted_slice_62 = tensor.extract_slice %0[25, 1001] [1, 23] [1, 1] : tensor<512x1024xf32> to tensor<1x23xf32>
    %inserted_slice_63 = tensor.insert_slice %extracted_slice_61 into %11[0, 23] [1, 1001] [1, 1] : tensor<1x1001xf32> into tensor<1x1024xf32>
    %inserted_slice_64 = tensor.insert_slice %extracted_slice_62 into %inserted_slice_63[0, 0] [1, 23] [1, 1] : tensor<1x23xf32> into tensor<1x1024xf32>
    %extracted_slice_65 = tensor.extract_slice %0[26, 0] [1, 1001] [1, 1] : tensor<512x1024xf32> to tensor<1x1001xf32>
    %extracted_slice_66 = tensor.extract_slice %0[26, 1001] [1, 23] [1, 1] : tensor<512x1024xf32> to tensor<1x23xf32>
    %inserted_slice_67 = tensor.insert_slice %extracted_slice_65 into %11[0, 23] [1, 1001] [1, 1] : tensor<1x1001xf32> into tensor<1x1024xf32>
    %inserted_slice_68 = tensor.insert_slice %extracted_slice_66 into %inserted_slice_67[0, 0] [1, 23] [1, 1] : tensor<1x23xf32> into tensor<1x1024xf32>
    %extracted_slice_69 = tensor.extract_slice %0[27, 0] [1, 1001] [1, 1] : tensor<512x1024xf32> to tensor<1x1001xf32>
    %extracted_slice_70 = tensor.extract_slice %0[27, 1001] [1, 23] [1, 1] : tensor<512x1024xf32> to tensor<1x23xf32>
    %inserted_slice_71 = tensor.insert_slice %extracted_slice_69 into %11[0, 23] [1, 1001] [1, 1] : tensor<1x1001xf32> into tensor<1x1024xf32>
    %inserted_slice_72 = tensor.insert_slice %extracted_slice_70 into %inserted_slice_71[0, 0] [1, 23] [1, 1] : tensor<1x23xf32> into tensor<1x1024xf32>
    %extracted_slice_73 = tensor.extract_slice %0[28, 0] [1, 1001] [1, 1] : tensor<512x1024xf32> to tensor<1x1001xf32>
    %extracted_slice_74 = tensor.extract_slice %0[28, 1001] [1, 23] [1, 1] : tensor<512x1024xf32> to tensor<1x23xf32>
    %inserted_slice_75 = tensor.insert_slice %extracted_slice_73 into %11[0, 23] [1, 1001] [1, 1] : tensor<1x1001xf32> into tensor<1x1024xf32>
    %inserted_slice_76 = tensor.insert_slice %extracted_slice_74 into %inserted_slice_75[0, 0] [1, 23] [1, 1] : tensor<1x23xf32> into tensor<1x1024xf32>
    %extracted_slice_77 = tensor.extract_slice %0[29, 0] [1, 1001] [1, 1] : tensor<512x1024xf32> to tensor<1x1001xf32>
    %extracted_slice_78 = tensor.extract_slice %0[29, 1001] [1, 23] [1, 1] : tensor<512x1024xf32> to tensor<1x23xf32>
    %inserted_slice_79 = tensor.insert_slice %extracted_slice_77 into %11[0, 23] [1, 1001] [1, 1] : tensor<1x1001xf32> into tensor<1x1024xf32>
    %inserted_slice_80 = tensor.insert_slice %extracted_slice_78 into %inserted_slice_79[0, 0] [1, 23] [1, 1] : tensor<1x23xf32> into tensor<1x1024xf32>
    %extracted_slice_81 = tensor.extract_slice %0[30, 0] [1, 1001] [1, 1] : tensor<512x1024xf32> to tensor<1x1001xf32>
    %extracted_slice_82 = tensor.extract_slice %0[30, 1001] [1, 23] [1, 1] : tensor<512x1024xf32> to tensor<1x23xf32>
    %inserted_slice_83 = tensor.insert_slice %extracted_slice_81 into %11[0, 23] [1, 1001] [1, 1] : tensor<1x1001xf32> into tensor<1x1024xf32>
    %inserted_slice_84 = tensor.insert_slice %extracted_slice_82 into %inserted_slice_83[0, 0] [1, 23] [1, 1] : tensor<1x23xf32> into tensor<1x1024xf32>
    %extracted_slice_85 = tensor.extract_slice %0[31, 0] [1, 1001] [1, 1] : tensor<512x1024xf32> to tensor<1x1001xf32>
    %extracted_slice_86 = tensor.extract_slice %0[31, 1001] [1, 23] [1, 1] : tensor<512x1024xf32> to tensor<1x23xf32>
    %inserted_slice_87 = tensor.insert_slice %extracted_slice_85 into %11[0, 23] [1, 1001] [1, 1] : tensor<1x1001xf32> into tensor<1x1024xf32>
    %inserted_slice_88 = tensor.insert_slice %extracted_slice_86 into %inserted_slice_87[0, 0] [1, 23] [1, 1] : tensor<1x23xf32> into tensor<1x1024xf32>
    %extracted_slice_89 = tensor.extract_slice %0[32, 0] [1, 1001] [1, 1] : tensor<512x1024xf32> to tensor<1x1001xf32>
    %extracted_slice_90 = tensor.extract_slice %0[32, 1001] [1, 23] [1, 1] : tensor<512x1024xf32> to tensor<1x23xf32>
    %inserted_slice_91 = tensor.insert_slice %extracted_slice_89 into %11[0, 23] [1, 1001] [1, 1] : tensor<1x1001xf32> into tensor<1x1024xf32>
    %inserted_slice_92 = tensor.insert_slice %extracted_slice_90 into %inserted_slice_91[0, 0] [1, 23] [1, 1] : tensor<1x23xf32> into tensor<1x1024xf32>
    %extracted_slice_93 = tensor.extract_slice %0[33, 0] [1, 1001] [1, 1] : tensor<512x1024xf32> to tensor<1x1001xf32>
    %extracted_slice_94 = tensor.extract_slice %0[33, 1001] [1, 23] [1, 1] : tensor<512x1024xf32> to tensor<1x23xf32>
    %inserted_slice_95 = tensor.insert_slice %extracted_slice_93 into %11[0, 23] [1, 1001] [1, 1] : tensor<1x1001xf32> into tensor<1x1024xf32>
    %inserted_slice_96 = tensor.insert_slice %extracted_slice_94 into %inserted_slice_95[0, 0] [1, 23] [1, 1] : tensor<1x23xf32> into tensor<1x1024xf32>
    %extracted_slice_97 = tensor.extract_slice %0[34, 0] [1, 1001] [1, 1] : tensor<512x1024xf32> to tensor<1x1001xf32>
    %extracted_slice_98 = tensor.extract_slice %0[34, 1001] [1, 23] [1, 1] : tensor<512x1024xf32> to tensor<1x23xf32>
    %inserted_slice_99 = tensor.insert_slice %extracted_slice_97 into %11[0, 23] [1, 1001] [1, 1] : tensor<1x1001xf32> into tensor<1x1024xf32>
    %inserted_slice_100 = tensor.insert_slice %extracted_slice_98 into %inserted_slice_99[0, 0] [1, 23] [1, 1] : tensor<1x23xf32> into tensor<1x1024xf32>
    %extracted_slice_101 = tensor.extract_slice %0[35, 0] [1, 1001] [1, 1] : tensor<512x1024xf32> to tensor<1x1001xf32>
    %extracted_slice_102 = tensor.extract_slice %0[35, 1001] [1, 23] [1, 1] : tensor<512x1024xf32> to tensor<1x23xf32>
    %inserted_slice_103 = tensor.insert_slice %extracted_slice_101 into %11[0, 23] [1, 1001] [1, 1] : tensor<1x1001xf32> into tensor<1x1024xf32>
    %inserted_slice_104 = tensor.insert_slice %extracted_slice_102 into %inserted_slice_103[0, 0] [1, 23] [1, 1] : tensor<1x23xf32> into tensor<1x1024xf32>
    %extracted_slice_105 = tensor.extract_slice %0[36, 0] [1, 1001] [1, 1] : tensor<512x1024xf32> to tensor<1x1001xf32>
    %extracted_slice_106 = tensor.extract_slice %0[36, 1001] [1, 23] [1, 1] : tensor<512x1024xf32> to tensor<1x23xf32>
    %inserted_slice_107 = tensor.insert_slice %extracted_slice_105 into %11[0, 23] [1, 1001] [1, 1] : tensor<1x1001xf32> into tensor<1x1024xf32>
    %inserted_slice_108 = tensor.insert_slice %extracted_slice_106 into %inserted_slice_107[0, 0] [1, 23] [1, 1] : tensor<1x23xf32> into tensor<1x1024xf32>
    %extracted_slice_109 = tensor.extract_slice %0[37, 0] [1, 1001] [1, 1] : tensor<512x1024xf32> to tensor<1x1001xf32>
    %extracted_slice_110 = tensor.extract_slice %0[37, 1001] [1, 23] [1, 1] : tensor<512x1024xf32> to tensor<1x23xf32>
    %inserted_slice_111 = tensor.insert_slice %extracted_slice_109 into %11[0, 23] [1, 1001] [1, 1] : tensor<1x1001xf32> into tensor<1x1024xf32>
    %inserted_slice_112 = tensor.insert_slice %extracted_slice_110 into %inserted_slice_111[0, 0] [1, 23] [1, 1] : tensor<1x23xf32> into tensor<1x1024xf32>
    %extracted_slice_113 = tensor.extract_slice %0[38, 0] [1, 1001] [1, 1] : tensor<512x1024xf32> to tensor<1x1001xf32>
    %extracted_slice_114 = tensor.extract_slice %0[38, 1001] [1, 23] [1, 1] : tensor<512x1024xf32> to tensor<1x23xf32>
    %inserted_slice_115 = tensor.insert_slice %extracted_slice_113 into %11[0, 23] [1, 1001] [1, 1] : tensor<1x1001xf32> into tensor<1x1024xf32>
    %inserted_slice_116 = tensor.insert_slice %extracted_slice_114 into %inserted_slice_115[0, 0] [1, 23] [1, 1] : tensor<1x23xf32> into tensor<1x1024xf32>
    %extracted_slice_117 = tensor.extract_slice %0[39, 0] [1, 1001] [1, 1] : tensor<512x1024xf32> to tensor<1x1001xf32>
    %extracted_slice_118 = tensor.extract_slice %0[39, 1001] [1, 23] [1, 1] : tensor<512x1024xf32> to tensor<1x23xf32>
    %inserted_slice_119 = tensor.insert_slice %extracted_slice_117 into %11[0, 23] [1, 1001] [1, 1] : tensor<1x1001xf32> into tensor<1x1024xf32>
    %inserted_slice_120 = tensor.insert_slice %extracted_slice_118 into %inserted_slice_119[0, 0] [1, 23] [1, 1] : tensor<1x23xf32> into tensor<1x1024xf32>
    %extracted_slice_121 = tensor.extract_slice %0[40, 0] [1, 1001] [1, 1] : tensor<512x1024xf32> to tensor<1x1001xf32>
    %extracted_slice_122 = tensor.extract_slice %0[40, 1001] [1, 23] [1, 1] : tensor<512x1024xf32> to tensor<1x23xf32>
    %inserted_slice_123 = tensor.insert_slice %extracted_slice_121 into %11[0, 23] [1, 1001] [1, 1] : tensor<1x1001xf32> into tensor<1x1024xf32>
    %inserted_slice_124 = tensor.insert_slice %extracted_slice_122 into %inserted_slice_123[0, 0] [1, 23] [1, 1] : tensor<1x23xf32> into tensor<1x1024xf32>
    %extracted_slice_125 = tensor.extract_slice %0[41, 0] [1, 1001] [1, 1] : tensor<512x1024xf32> to tensor<1x1001xf32>
    %extracted_slice_126 = tensor.extract_slice %0[41, 1001] [1, 23] [1, 1] : tensor<512x1024xf32> to tensor<1x23xf32>
    %inserted_slice_127 = tensor.insert_slice %extracted_slice_125 into %11[0, 23] [1, 1001] [1, 1] : tensor<1x1001xf32> into tensor<1x1024xf32>
    %inserted_slice_128 = tensor.insert_slice %extracted_slice_126 into %inserted_slice_127[0, 0] [1, 23] [1, 1] : tensor<1x23xf32> into tensor<1x1024xf32>
    %extracted_slice_129 = tensor.extract_slice %0[42, 0] [1, 1001] [1, 1] : tensor<512x1024xf32> to tensor<1x1001xf32>
    %extracted_slice_130 = tensor.extract_slice %0[42, 1001] [1, 23] [1, 1] : tensor<512x1024xf32> to tensor<1x23xf32>
    %inserted_slice_131 = tensor.insert_slice %extracted_slice_129 into %11[0, 23] [1, 1001] [1, 1] : tensor<1x1001xf32> into tensor<1x1024xf32>
    %inserted_slice_132 = tensor.insert_slice %extracted_slice_130 into %inserted_slice_131[0, 0] [1, 23] [1, 1] : tensor<1x23xf32> into tensor<1x1024xf32>
    %extracted_slice_133 = tensor.extract_slice %0[43, 0] [1, 1001] [1, 1] : tensor<512x1024xf32> to tensor<1x1001xf32>
    %extracted_slice_134 = tensor.extract_slice %0[43, 1001] [1, 23] [1, 1] : tensor<512x1024xf32> to tensor<1x23xf32>
    %inserted_slice_135 = tensor.insert_slice %extracted_slice_133 into %11[0, 23] [1, 1001] [1, 1] : tensor<1x1001xf32> into tensor<1x1024xf32>
    %inserted_slice_136 = tensor.insert_slice %extracted_slice_134 into %inserted_slice_135[0, 0] [1, 23] [1, 1] : tensor<1x23xf32> into tensor<1x1024xf32>
    %extracted_slice_137 = tensor.extract_slice %0[44, 0] [1, 1001] [1, 1] : tensor<512x1024xf32> to tensor<1x1001xf32>
    %extracted_slice_138 = tensor.extract_slice %0[44, 1001] [1, 23] [1, 1] : tensor<512x1024xf32> to tensor<1x23xf32>
    %inserted_slice_139 = tensor.insert_slice %extracted_slice_137 into %11[0, 23] [1, 1001] [1, 1] : tensor<1x1001xf32> into tensor<1x1024xf32>
    %inserted_slice_140 = tensor.insert_slice %extracted_slice_138 into %inserted_slice_139[0, 0] [1, 23] [1, 1] : tensor<1x23xf32> into tensor<1x1024xf32>
    %extracted_slice_141 = tensor.extract_slice %0[45, 0] [1, 1001] [1, 1] : tensor<512x1024xf32> to tensor<1x1001xf32>
    %extracted_slice_142 = tensor.extract_slice %0[45, 1001] [1, 23] [1, 1] : tensor<512x1024xf32> to tensor<1x23xf32>
    %inserted_slice_143 = tensor.insert_slice %extracted_slice_141 into %11[0, 23] [1, 1001] [1, 1] : tensor<1x1001xf32> into tensor<1x1024xf32>
    %inserted_slice_144 = tensor.insert_slice %extracted_slice_142 into %inserted_slice_143[0, 0] [1, 23] [1, 1] : tensor<1x23xf32> into tensor<1x1024xf32>
    %extracted_slice_145 = tensor.extract_slice %0[46, 0] [1, 978] [1, 1] : tensor<512x1024xf32> to tensor<1x978xf32>
    %extracted_slice_146 = tensor.extract_slice %0[46, 978] [1, 46] [1, 1] : tensor<512x1024xf32> to tensor<1x46xf32>
    %inserted_slice_147 = tensor.insert_slice %extracted_slice_145 into %11[0, 46] [1, 978] [1, 1] : tensor<1x978xf32> into tensor<1x1024xf32>
    %inserted_slice_148 = tensor.insert_slice %extracted_slice_146 into %inserted_slice_147[0, 0] [1, 46] [1, 1] : tensor<1x46xf32> into tensor<1x1024xf32>
    %extracted_slice_149 = tensor.extract_slice %0[47, 0] [1, 978] [1, 1] : tensor<512x1024xf32> to tensor<1x978xf32>
    %extracted_slice_150 = tensor.extract_slice %0[47, 978] [1, 46] [1, 1] : tensor<512x1024xf32> to tensor<1x46xf32>
    %inserted_slice_151 = tensor.insert_slice %extracted_slice_149 into %11[0, 46] [1, 978] [1, 1] : tensor<1x978xf32> into tensor<1x1024xf32>
    %inserted_slice_152 = tensor.insert_slice %extracted_slice_150 into %inserted_slice_151[0, 0] [1, 46] [1, 1] : tensor<1x46xf32> into tensor<1x1024xf32>
    %extracted_slice_153 = tensor.extract_slice %0[48, 0] [1, 978] [1, 1] : tensor<512x1024xf32> to tensor<1x978xf32>
    %extracted_slice_154 = tensor.extract_slice %0[48, 978] [1, 46] [1, 1] : tensor<512x1024xf32> to tensor<1x46xf32>
    %inserted_slice_155 = tensor.insert_slice %extracted_slice_153 into %11[0, 46] [1, 978] [1, 1] : tensor<1x978xf32> into tensor<1x1024xf32>
    %inserted_slice_156 = tensor.insert_slice %extracted_slice_154 into %inserted_slice_155[0, 0] [1, 46] [1, 1] : tensor<1x46xf32> into tensor<1x1024xf32>
    %extracted_slice_157 = tensor.extract_slice %0[49, 0] [1, 978] [1, 1] : tensor<512x1024xf32> to tensor<1x978xf32>
    %extracted_slice_158 = tensor.extract_slice %0[49, 978] [1, 46] [1, 1] : tensor<512x1024xf32> to tensor<1x46xf32>
    %inserted_slice_159 = tensor.insert_slice %extracted_slice_157 into %11[0, 46] [1, 978] [1, 1] : tensor<1x978xf32> into tensor<1x1024xf32>
    %inserted_slice_160 = tensor.insert_slice %extracted_slice_158 into %inserted_slice_159[0, 0] [1, 46] [1, 1] : tensor<1x46xf32> into tensor<1x1024xf32>
    %extracted_slice_161 = tensor.extract_slice %0[50, 0] [1, 978] [1, 1] : tensor<512x1024xf32> to tensor<1x978xf32>
    %extracted_slice_162 = tensor.extract_slice %0[50, 978] [1, 46] [1, 1] : tensor<512x1024xf32> to tensor<1x46xf32>
    %inserted_slice_163 = tensor.insert_slice %extracted_slice_161 into %11[0, 46] [1, 978] [1, 1] : tensor<1x978xf32> into tensor<1x1024xf32>
    %inserted_slice_164 = tensor.insert_slice %extracted_slice_162 into %inserted_slice_163[0, 0] [1, 46] [1, 1] : tensor<1x46xf32> into tensor<1x1024xf32>
    %extracted_slice_165 = tensor.extract_slice %0[51, 0] [1, 978] [1, 1] : tensor<512x1024xf32> to tensor<1x978xf32>
    %extracted_slice_166 = tensor.extract_slice %0[51, 978] [1, 46] [1, 1] : tensor<512x1024xf32> to tensor<1x46xf32>
    %inserted_slice_167 = tensor.insert_slice %extracted_slice_165 into %11[0, 46] [1, 978] [1, 1] : tensor<1x978xf32> into tensor<1x1024xf32>
    %inserted_slice_168 = tensor.insert_slice %extracted_slice_166 into %inserted_slice_167[0, 0] [1, 46] [1, 1] : tensor<1x46xf32> into tensor<1x1024xf32>
    %extracted_slice_169 = tensor.extract_slice %0[52, 0] [1, 978] [1, 1] : tensor<512x1024xf32> to tensor<1x978xf32>
    %extracted_slice_170 = tensor.extract_slice %0[52, 978] [1, 46] [1, 1] : tensor<512x1024xf32> to tensor<1x46xf32>
    %inserted_slice_171 = tensor.insert_slice %extracted_slice_169 into %11[0, 46] [1, 978] [1, 1] : tensor<1x978xf32> into tensor<1x1024xf32>
    %inserted_slice_172 = tensor.insert_slice %extracted_slice_170 into %inserted_slice_171[0, 0] [1, 46] [1, 1] : tensor<1x46xf32> into tensor<1x1024xf32>
    %extracted_slice_173 = tensor.extract_slice %0[53, 0] [1, 978] [1, 1] : tensor<512x1024xf32> to tensor<1x978xf32>
    %extracted_slice_174 = tensor.extract_slice %0[53, 978] [1, 46] [1, 1] : tensor<512x1024xf32> to tensor<1x46xf32>
    %inserted_slice_175 = tensor.insert_slice %extracted_slice_173 into %11[0, 46] [1, 978] [1, 1] : tensor<1x978xf32> into tensor<1x1024xf32>
    %inserted_slice_176 = tensor.insert_slice %extracted_slice_174 into %inserted_slice_175[0, 0] [1, 46] [1, 1] : tensor<1x46xf32> into tensor<1x1024xf32>
    %extracted_slice_177 = tensor.extract_slice %0[54, 0] [1, 978] [1, 1] : tensor<512x1024xf32> to tensor<1x978xf32>
    %extracted_slice_178 = tensor.extract_slice %0[54, 978] [1, 46] [1, 1] : tensor<512x1024xf32> to tensor<1x46xf32>
    %inserted_slice_179 = tensor.insert_slice %extracted_slice_177 into %11[0, 46] [1, 978] [1, 1] : tensor<1x978xf32> into tensor<1x1024xf32>
    %inserted_slice_180 = tensor.insert_slice %extracted_slice_178 into %inserted_slice_179[0, 0] [1, 46] [1, 1] : tensor<1x46xf32> into tensor<1x1024xf32>
    %extracted_slice_181 = tensor.extract_slice %0[55, 0] [1, 978] [1, 1] : tensor<512x1024xf32> to tensor<1x978xf32>
    %extracted_slice_182 = tensor.extract_slice %0[55, 978] [1, 46] [1, 1] : tensor<512x1024xf32> to tensor<1x46xf32>
    %inserted_slice_183 = tensor.insert_slice %extracted_slice_181 into %11[0, 46] [1, 978] [1, 1] : tensor<1x978xf32> into tensor<1x1024xf32>
    %inserted_slice_184 = tensor.insert_slice %extracted_slice_182 into %inserted_slice_183[0, 0] [1, 46] [1, 1] : tensor<1x46xf32> into tensor<1x1024xf32>
    %extracted_slice_185 = tensor.extract_slice %0[56, 0] [1, 978] [1, 1] : tensor<512x1024xf32> to tensor<1x978xf32>
    %extracted_slice_186 = tensor.extract_slice %0[56, 978] [1, 46] [1, 1] : tensor<512x1024xf32> to tensor<1x46xf32>
    %inserted_slice_187 = tensor.insert_slice %extracted_slice_185 into %11[0, 46] [1, 978] [1, 1] : tensor<1x978xf32> into tensor<1x1024xf32>
    %inserted_slice_188 = tensor.insert_slice %extracted_slice_186 into %inserted_slice_187[0, 0] [1, 46] [1, 1] : tensor<1x46xf32> into tensor<1x1024xf32>
    %extracted_slice_189 = tensor.extract_slice %0[57, 0] [1, 978] [1, 1] : tensor<512x1024xf32> to tensor<1x978xf32>
    %extracted_slice_190 = tensor.extract_slice %0[57, 978] [1, 46] [1, 1] : tensor<512x1024xf32> to tensor<1x46xf32>
    %inserted_slice_191 = tensor.insert_slice %extracted_slice_189 into %11[0, 46] [1, 978] [1, 1] : tensor<1x978xf32> into tensor<1x1024xf32>
    %inserted_slice_192 = tensor.insert_slice %extracted_slice_190 into %inserted_slice_191[0, 0] [1, 46] [1, 1] : tensor<1x46xf32> into tensor<1x1024xf32>
    %extracted_slice_193 = tensor.extract_slice %0[58, 0] [1, 978] [1, 1] : tensor<512x1024xf32> to tensor<1x978xf32>
    %extracted_slice_194 = tensor.extract_slice %0[58, 978] [1, 46] [1, 1] : tensor<512x1024xf32> to tensor<1x46xf32>
    %inserted_slice_195 = tensor.insert_slice %extracted_slice_193 into %11[0, 46] [1, 978] [1, 1] : tensor<1x978xf32> into tensor<1x1024xf32>
    %inserted_slice_196 = tensor.insert_slice %extracted_slice_194 into %inserted_slice_195[0, 0] [1, 46] [1, 1] : tensor<1x46xf32> into tensor<1x1024xf32>
    %extracted_slice_197 = tensor.extract_slice %0[59, 0] [1, 978] [1, 1] : tensor<512x1024xf32> to tensor<1x978xf32>
    %extracted_slice_198 = tensor.extract_slice %0[59, 978] [1, 46] [1, 1] : tensor<512x1024xf32> to tensor<1x46xf32>
    %inserted_slice_199 = tensor.insert_slice %extracted_slice_197 into %11[0, 46] [1, 978] [1, 1] : tensor<1x978xf32> into tensor<1x1024xf32>
    %inserted_slice_200 = tensor.insert_slice %extracted_slice_198 into %inserted_slice_199[0, 0] [1, 46] [1, 1] : tensor<1x46xf32> into tensor<1x1024xf32>
    %extracted_slice_201 = tensor.extract_slice %0[60, 0] [1, 978] [1, 1] : tensor<512x1024xf32> to tensor<1x978xf32>
    %extracted_slice_202 = tensor.extract_slice %0[60, 978] [1, 46] [1, 1] : tensor<512x1024xf32> to tensor<1x46xf32>
    %inserted_slice_203 = tensor.insert_slice %extracted_slice_201 into %11[0, 46] [1, 978] [1, 1] : tensor<1x978xf32> into tensor<1x1024xf32>
    %inserted_slice_204 = tensor.insert_slice %extracted_slice_202 into %inserted_slice_203[0, 0] [1, 46] [1, 1] : tensor<1x46xf32> into tensor<1x1024xf32>
    %extracted_slice_205 = tensor.extract_slice %0[61, 0] [1, 978] [1, 1] : tensor<512x1024xf32> to tensor<1x978xf32>
    %extracted_slice_206 = tensor.extract_slice %0[61, 978] [1, 46] [1, 1] : tensor<512x1024xf32> to tensor<1x46xf32>
    %inserted_slice_207 = tensor.insert_slice %extracted_slice_205 into %11[0, 46] [1, 978] [1, 1] : tensor<1x978xf32> into tensor<1x1024xf32>
    %inserted_slice_208 = tensor.insert_slice %extracted_slice_206 into %inserted_slice_207[0, 0] [1, 46] [1, 1] : tensor<1x46xf32> into tensor<1x1024xf32>
    %extracted_slice_209 = tensor.extract_slice %0[62, 0] [1, 978] [1, 1] : tensor<512x1024xf32> to tensor<1x978xf32>
    %extracted_slice_210 = tensor.extract_slice %0[62, 978] [1, 46] [1, 1] : tensor<512x1024xf32> to tensor<1x46xf32>
    %inserted_slice_211 = tensor.insert_slice %extracted_slice_209 into %11[0, 46] [1, 978] [1, 1] : tensor<1x978xf32> into tensor<1x1024xf32>
    %inserted_slice_212 = tensor.insert_slice %extracted_slice_210 into %inserted_slice_211[0, 0] [1, 46] [1, 1] : tensor<1x46xf32> into tensor<1x1024xf32>
    %extracted_slice_213 = tensor.extract_slice %0[63, 0] [1, 978] [1, 1] : tensor<512x1024xf32> to tensor<1x978xf32>
    %extracted_slice_214 = tensor.extract_slice %0[63, 978] [1, 46] [1, 1] : tensor<512x1024xf32> to tensor<1x46xf32>
    %inserted_slice_215 = tensor.insert_slice %extracted_slice_213 into %11[0, 46] [1, 978] [1, 1] : tensor<1x978xf32> into tensor<1x1024xf32>
    %inserted_slice_216 = tensor.insert_slice %extracted_slice_214 into %inserted_slice_215[0, 0] [1, 46] [1, 1] : tensor<1x46xf32> into tensor<1x1024xf32>
    %extracted_slice_217 = tensor.extract_slice %0[64, 0] [1, 978] [1, 1] : tensor<512x1024xf32> to tensor<1x978xf32>
    %extracted_slice_218 = tensor.extract_slice %0[64, 978] [1, 46] [1, 1] : tensor<512x1024xf32> to tensor<1x46xf32>
    %inserted_slice_219 = tensor.insert_slice %extracted_slice_217 into %11[0, 46] [1, 978] [1, 1] : tensor<1x978xf32> into tensor<1x1024xf32>
    %inserted_slice_220 = tensor.insert_slice %extracted_slice_218 into %inserted_slice_219[0, 0] [1, 46] [1, 1] : tensor<1x46xf32> into tensor<1x1024xf32>
    %extracted_slice_221 = tensor.extract_slice %0[65, 0] [1, 978] [1, 1] : tensor<512x1024xf32> to tensor<1x978xf32>
    %extracted_slice_222 = tensor.extract_slice %0[65, 978] [1, 46] [1, 1] : tensor<512x1024xf32> to tensor<1x46xf32>
    %inserted_slice_223 = tensor.insert_slice %extracted_slice_221 into %11[0, 46] [1, 978] [1, 1] : tensor<1x978xf32> into tensor<1x1024xf32>
    %inserted_slice_224 = tensor.insert_slice %extracted_slice_222 into %inserted_slice_223[0, 0] [1, 46] [1, 1] : tensor<1x46xf32> into tensor<1x1024xf32>
    %extracted_slice_225 = tensor.extract_slice %0[66, 0] [1, 978] [1, 1] : tensor<512x1024xf32> to tensor<1x978xf32>
    %extracted_slice_226 = tensor.extract_slice %0[66, 978] [1, 46] [1, 1] : tensor<512x1024xf32> to tensor<1x46xf32>
    %inserted_slice_227 = tensor.insert_slice %extracted_slice_225 into %11[0, 46] [1, 978] [1, 1] : tensor<1x978xf32> into tensor<1x1024xf32>
    %inserted_slice_228 = tensor.insert_slice %extracted_slice_226 into %inserted_slice_227[0, 0] [1, 46] [1, 1] : tensor<1x46xf32> into tensor<1x1024xf32>
    %extracted_slice_229 = tensor.extract_slice %0[67, 0] [1, 978] [1, 1] : tensor<512x1024xf32> to tensor<1x978xf32>
    %extracted_slice_230 = tensor.extract_slice %0[67, 978] [1, 46] [1, 1] : tensor<512x1024xf32> to tensor<1x46xf32>
    %inserted_slice_231 = tensor.insert_slice %extracted_slice_229 into %11[0, 46] [1, 978] [1, 1] : tensor<1x978xf32> into tensor<1x1024xf32>
    %inserted_slice_232 = tensor.insert_slice %extracted_slice_230 into %inserted_slice_231[0, 0] [1, 46] [1, 1] : tensor<1x46xf32> into tensor<1x1024xf32>
    %extracted_slice_233 = tensor.extract_slice %0[68, 0] [1, 978] [1, 1] : tensor<512x1024xf32> to tensor<1x978xf32>
    %extracted_slice_234 = tensor.extract_slice %0[68, 978] [1, 46] [1, 1] : tensor<512x1024xf32> to tensor<1x46xf32>
    %inserted_slice_235 = tensor.insert_slice %extracted_slice_233 into %11[0, 46] [1, 978] [1, 1] : tensor<1x978xf32> into tensor<1x1024xf32>
    %inserted_slice_236 = tensor.insert_slice %extracted_slice_234 into %inserted_slice_235[0, 0] [1, 46] [1, 1] : tensor<1x46xf32> into tensor<1x1024xf32>
    %extracted_slice_237 = tensor.extract_slice %0[69, 0] [1, 955] [1, 1] : tensor<512x1024xf32> to tensor<1x955xf32>
    %extracted_slice_238 = tensor.extract_slice %0[69, 955] [1, 69] [1, 1] : tensor<512x1024xf32> to tensor<1x69xf32>
    %inserted_slice_239 = tensor.insert_slice %extracted_slice_237 into %11[0, 69] [1, 955] [1, 1] : tensor<1x955xf32> into tensor<1x1024xf32>
    %inserted_slice_240 = tensor.insert_slice %extracted_slice_238 into %inserted_slice_239[0, 0] [1, 69] [1, 1] : tensor<1x69xf32> into tensor<1x1024xf32>
    %extracted_slice_241 = tensor.extract_slice %0[70, 0] [1, 955] [1, 1] : tensor<512x1024xf32> to tensor<1x955xf32>
    %extracted_slice_242 = tensor.extract_slice %0[70, 955] [1, 69] [1, 1] : tensor<512x1024xf32> to tensor<1x69xf32>
    %inserted_slice_243 = tensor.insert_slice %extracted_slice_241 into %11[0, 69] [1, 955] [1, 1] : tensor<1x955xf32> into tensor<1x1024xf32>
    %inserted_slice_244 = tensor.insert_slice %extracted_slice_242 into %inserted_slice_243[0, 0] [1, 69] [1, 1] : tensor<1x69xf32> into tensor<1x1024xf32>
    %extracted_slice_245 = tensor.extract_slice %0[71, 0] [1, 955] [1, 1] : tensor<512x1024xf32> to tensor<1x955xf32>
    %extracted_slice_246 = tensor.extract_slice %0[71, 955] [1, 69] [1, 1] : tensor<512x1024xf32> to tensor<1x69xf32>
    %inserted_slice_247 = tensor.insert_slice %extracted_slice_245 into %11[0, 69] [1, 955] [1, 1] : tensor<1x955xf32> into tensor<1x1024xf32>
    %inserted_slice_248 = tensor.insert_slice %extracted_slice_246 into %inserted_slice_247[0, 0] [1, 69] [1, 1] : tensor<1x69xf32> into tensor<1x1024xf32>
    %extracted_slice_249 = tensor.extract_slice %0[72, 0] [1, 955] [1, 1] : tensor<512x1024xf32> to tensor<1x955xf32>
    %extracted_slice_250 = tensor.extract_slice %0[72, 955] [1, 69] [1, 1] : tensor<512x1024xf32> to tensor<1x69xf32>
    %inserted_slice_251 = tensor.insert_slice %extracted_slice_249 into %11[0, 69] [1, 955] [1, 1] : tensor<1x955xf32> into tensor<1x1024xf32>
    %inserted_slice_252 = tensor.insert_slice %extracted_slice_250 into %inserted_slice_251[0, 0] [1, 69] [1, 1] : tensor<1x69xf32> into tensor<1x1024xf32>
    %extracted_slice_253 = tensor.extract_slice %0[73, 0] [1, 955] [1, 1] : tensor<512x1024xf32> to tensor<1x955xf32>
    %extracted_slice_254 = tensor.extract_slice %0[73, 955] [1, 69] [1, 1] : tensor<512x1024xf32> to tensor<1x69xf32>
    %inserted_slice_255 = tensor.insert_slice %extracted_slice_253 into %11[0, 69] [1, 955] [1, 1] : tensor<1x955xf32> into tensor<1x1024xf32>
    %inserted_slice_256 = tensor.insert_slice %extracted_slice_254 into %inserted_slice_255[0, 0] [1, 69] [1, 1] : tensor<1x69xf32> into tensor<1x1024xf32>
    %extracted_slice_257 = tensor.extract_slice %0[74, 0] [1, 955] [1, 1] : tensor<512x1024xf32> to tensor<1x955xf32>
    %extracted_slice_258 = tensor.extract_slice %0[74, 955] [1, 69] [1, 1] : tensor<512x1024xf32> to tensor<1x69xf32>
    %inserted_slice_259 = tensor.insert_slice %extracted_slice_257 into %11[0, 69] [1, 955] [1, 1] : tensor<1x955xf32> into tensor<1x1024xf32>
    %inserted_slice_260 = tensor.insert_slice %extracted_slice_258 into %inserted_slice_259[0, 0] [1, 69] [1, 1] : tensor<1x69xf32> into tensor<1x1024xf32>
    %extracted_slice_261 = tensor.extract_slice %0[75, 0] [1, 955] [1, 1] : tensor<512x1024xf32> to tensor<1x955xf32>
    %extracted_slice_262 = tensor.extract_slice %0[75, 955] [1, 69] [1, 1] : tensor<512x1024xf32> to tensor<1x69xf32>
    %inserted_slice_263 = tensor.insert_slice %extracted_slice_261 into %11[0, 69] [1, 955] [1, 1] : tensor<1x955xf32> into tensor<1x1024xf32>
    %inserted_slice_264 = tensor.insert_slice %extracted_slice_262 into %inserted_slice_263[0, 0] [1, 69] [1, 1] : tensor<1x69xf32> into tensor<1x1024xf32>
    %extracted_slice_265 = tensor.extract_slice %0[76, 0] [1, 955] [1, 1] : tensor<512x1024xf32> to tensor<1x955xf32>
    %extracted_slice_266 = tensor.extract_slice %0[76, 955] [1, 69] [1, 1] : tensor<512x1024xf32> to tensor<1x69xf32>
    %inserted_slice_267 = tensor.insert_slice %extracted_slice_265 into %11[0, 69] [1, 955] [1, 1] : tensor<1x955xf32> into tensor<1x1024xf32>
    %inserted_slice_268 = tensor.insert_slice %extracted_slice_266 into %inserted_slice_267[0, 0] [1, 69] [1, 1] : tensor<1x69xf32> into tensor<1x1024xf32>
    %extracted_slice_269 = tensor.extract_slice %0[77, 0] [1, 955] [1, 1] : tensor<512x1024xf32> to tensor<1x955xf32>
    %extracted_slice_270 = tensor.extract_slice %0[77, 955] [1, 69] [1, 1] : tensor<512x1024xf32> to tensor<1x69xf32>
    %inserted_slice_271 = tensor.insert_slice %extracted_slice_269 into %11[0, 69] [1, 955] [1, 1] : tensor<1x955xf32> into tensor<1x1024xf32>
    %inserted_slice_272 = tensor.insert_slice %extracted_slice_270 into %inserted_slice_271[0, 0] [1, 69] [1, 1] : tensor<1x69xf32> into tensor<1x1024xf32>
    %extracted_slice_273 = tensor.extract_slice %0[78, 0] [1, 955] [1, 1] : tensor<512x1024xf32> to tensor<1x955xf32>
    %extracted_slice_274 = tensor.extract_slice %0[78, 955] [1, 69] [1, 1] : tensor<512x1024xf32> to tensor<1x69xf32>
    %inserted_slice_275 = tensor.insert_slice %extracted_slice_273 into %11[0, 69] [1, 955] [1, 1] : tensor<1x955xf32> into tensor<1x1024xf32>
    %inserted_slice_276 = tensor.insert_slice %extracted_slice_274 into %inserted_slice_275[0, 0] [1, 69] [1, 1] : tensor<1x69xf32> into tensor<1x1024xf32>
    %extracted_slice_277 = tensor.extract_slice %0[79, 0] [1, 955] [1, 1] : tensor<512x1024xf32> to tensor<1x955xf32>
    %extracted_slice_278 = tensor.extract_slice %0[79, 955] [1, 69] [1, 1] : tensor<512x1024xf32> to tensor<1x69xf32>
    %inserted_slice_279 = tensor.insert_slice %extracted_slice_277 into %11[0, 69] [1, 955] [1, 1] : tensor<1x955xf32> into tensor<1x1024xf32>
    %inserted_slice_280 = tensor.insert_slice %extracted_slice_278 into %inserted_slice_279[0, 0] [1, 69] [1, 1] : tensor<1x69xf32> into tensor<1x1024xf32>
    %extracted_slice_281 = tensor.extract_slice %0[80, 0] [1, 955] [1, 1] : tensor<512x1024xf32> to tensor<1x955xf32>
    %extracted_slice_282 = tensor.extract_slice %0[80, 955] [1, 69] [1, 1] : tensor<512x1024xf32> to tensor<1x69xf32>
    %inserted_slice_283 = tensor.insert_slice %extracted_slice_281 into %11[0, 69] [1, 955] [1, 1] : tensor<1x955xf32> into tensor<1x1024xf32>
    %inserted_slice_284 = tensor.insert_slice %extracted_slice_282 into %inserted_slice_283[0, 0] [1, 69] [1, 1] : tensor<1x69xf32> into tensor<1x1024xf32>
    %extracted_slice_285 = tensor.extract_slice %0[81, 0] [1, 955] [1, 1] : tensor<512x1024xf32> to tensor<1x955xf32>
    %extracted_slice_286 = tensor.extract_slice %0[81, 955] [1, 69] [1, 1] : tensor<512x1024xf32> to tensor<1x69xf32>
    %inserted_slice_287 = tensor.insert_slice %extracted_slice_285 into %11[0, 69] [1, 955] [1, 1] : tensor<1x955xf32> into tensor<1x1024xf32>
    %inserted_slice_288 = tensor.insert_slice %extracted_slice_286 into %inserted_slice_287[0, 0] [1, 69] [1, 1] : tensor<1x69xf32> into tensor<1x1024xf32>
    %extracted_slice_289 = tensor.extract_slice %0[82, 0] [1, 955] [1, 1] : tensor<512x1024xf32> to tensor<1x955xf32>
    %extracted_slice_290 = tensor.extract_slice %0[82, 955] [1, 69] [1, 1] : tensor<512x1024xf32> to tensor<1x69xf32>
    %inserted_slice_291 = tensor.insert_slice %extracted_slice_289 into %11[0, 69] [1, 955] [1, 1] : tensor<1x955xf32> into tensor<1x1024xf32>
    %inserted_slice_292 = tensor.insert_slice %extracted_slice_290 into %inserted_slice_291[0, 0] [1, 69] [1, 1] : tensor<1x69xf32> into tensor<1x1024xf32>
    %extracted_slice_293 = tensor.extract_slice %0[83, 0] [1, 955] [1, 1] : tensor<512x1024xf32> to tensor<1x955xf32>
    %extracted_slice_294 = tensor.extract_slice %0[83, 955] [1, 69] [1, 1] : tensor<512x1024xf32> to tensor<1x69xf32>
    %inserted_slice_295 = tensor.insert_slice %extracted_slice_293 into %11[0, 69] [1, 955] [1, 1] : tensor<1x955xf32> into tensor<1x1024xf32>
    %inserted_slice_296 = tensor.insert_slice %extracted_slice_294 into %inserted_slice_295[0, 0] [1, 69] [1, 1] : tensor<1x69xf32> into tensor<1x1024xf32>
    %extracted_slice_297 = tensor.extract_slice %0[84, 0] [1, 955] [1, 1] : tensor<512x1024xf32> to tensor<1x955xf32>
    %extracted_slice_298 = tensor.extract_slice %0[84, 955] [1, 69] [1, 1] : tensor<512x1024xf32> to tensor<1x69xf32>
    %inserted_slice_299 = tensor.insert_slice %extracted_slice_297 into %11[0, 69] [1, 955] [1, 1] : tensor<1x955xf32> into tensor<1x1024xf32>
    %inserted_slice_300 = tensor.insert_slice %extracted_slice_298 into %inserted_slice_299[0, 0] [1, 69] [1, 1] : tensor<1x69xf32> into tensor<1x1024xf32>
    %extracted_slice_301 = tensor.extract_slice %0[85, 0] [1, 955] [1, 1] : tensor<512x1024xf32> to tensor<1x955xf32>
    %extracted_slice_302 = tensor.extract_slice %0[85, 955] [1, 69] [1, 1] : tensor<512x1024xf32> to tensor<1x69xf32>
    %inserted_slice_303 = tensor.insert_slice %extracted_slice_301 into %11[0, 69] [1, 955] [1, 1] : tensor<1x955xf32> into tensor<1x1024xf32>
    %inserted_slice_304 = tensor.insert_slice %extracted_slice_302 into %inserted_slice_303[0, 0] [1, 69] [1, 1] : tensor<1x69xf32> into tensor<1x1024xf32>
    %extracted_slice_305 = tensor.extract_slice %0[86, 0] [1, 955] [1, 1] : tensor<512x1024xf32> to tensor<1x955xf32>
    %extracted_slice_306 = tensor.extract_slice %0[86, 955] [1, 69] [1, 1] : tensor<512x1024xf32> to tensor<1x69xf32>
    %inserted_slice_307 = tensor.insert_slice %extracted_slice_305 into %11[0, 69] [1, 955] [1, 1] : tensor<1x955xf32> into tensor<1x1024xf32>
    %inserted_slice_308 = tensor.insert_slice %extracted_slice_306 into %inserted_slice_307[0, 0] [1, 69] [1, 1] : tensor<1x69xf32> into tensor<1x1024xf32>
    %extracted_slice_309 = tensor.extract_slice %0[87, 0] [1, 955] [1, 1] : tensor<512x1024xf32> to tensor<1x955xf32>
    %extracted_slice_310 = tensor.extract_slice %0[87, 955] [1, 69] [1, 1] : tensor<512x1024xf32> to tensor<1x69xf32>
    %inserted_slice_311 = tensor.insert_slice %extracted_slice_309 into %11[0, 69] [1, 955] [1, 1] : tensor<1x955xf32> into tensor<1x1024xf32>
    %inserted_slice_312 = tensor.insert_slice %extracted_slice_310 into %inserted_slice_311[0, 0] [1, 69] [1, 1] : tensor<1x69xf32> into tensor<1x1024xf32>
    %extracted_slice_313 = tensor.extract_slice %0[88, 0] [1, 955] [1, 1] : tensor<512x1024xf32> to tensor<1x955xf32>
    %extracted_slice_314 = tensor.extract_slice %0[88, 955] [1, 69] [1, 1] : tensor<512x1024xf32> to tensor<1x69xf32>
    %inserted_slice_315 = tensor.insert_slice %extracted_slice_313 into %11[0, 69] [1, 955] [1, 1] : tensor<1x955xf32> into tensor<1x1024xf32>
    %inserted_slice_316 = tensor.insert_slice %extracted_slice_314 into %inserted_slice_315[0, 0] [1, 69] [1, 1] : tensor<1x69xf32> into tensor<1x1024xf32>
    %extracted_slice_317 = tensor.extract_slice %0[89, 0] [1, 955] [1, 1] : tensor<512x1024xf32> to tensor<1x955xf32>
    %extracted_slice_318 = tensor.extract_slice %0[89, 955] [1, 69] [1, 1] : tensor<512x1024xf32> to tensor<1x69xf32>
    %inserted_slice_319 = tensor.insert_slice %extracted_slice_317 into %11[0, 69] [1, 955] [1, 1] : tensor<1x955xf32> into tensor<1x1024xf32>
    %inserted_slice_320 = tensor.insert_slice %extracted_slice_318 into %inserted_slice_319[0, 0] [1, 69] [1, 1] : tensor<1x69xf32> into tensor<1x1024xf32>
    %extracted_slice_321 = tensor.extract_slice %0[90, 0] [1, 955] [1, 1] : tensor<512x1024xf32> to tensor<1x955xf32>
    %extracted_slice_322 = tensor.extract_slice %0[90, 955] [1, 69] [1, 1] : tensor<512x1024xf32> to tensor<1x69xf32>
    %inserted_slice_323 = tensor.insert_slice %extracted_slice_321 into %11[0, 69] [1, 955] [1, 1] : tensor<1x955xf32> into tensor<1x1024xf32>
    %inserted_slice_324 = tensor.insert_slice %extracted_slice_322 into %inserted_slice_323[0, 0] [1, 69] [1, 1] : tensor<1x69xf32> into tensor<1x1024xf32>
    %extracted_slice_325 = tensor.extract_slice %0[91, 0] [1, 955] [1, 1] : tensor<512x1024xf32> to tensor<1x955xf32>
    %extracted_slice_326 = tensor.extract_slice %0[91, 955] [1, 69] [1, 1] : tensor<512x1024xf32> to tensor<1x69xf32>
    %inserted_slice_327 = tensor.insert_slice %extracted_slice_325 into %11[0, 69] [1, 955] [1, 1] : tensor<1x955xf32> into tensor<1x1024xf32>
    %inserted_slice_328 = tensor.insert_slice %extracted_slice_326 into %inserted_slice_327[0, 0] [1, 69] [1, 1] : tensor<1x69xf32> into tensor<1x1024xf32>
    %extracted_slice_329 = tensor.extract_slice %0[92, 0] [1, 932] [1, 1] : tensor<512x1024xf32> to tensor<1x932xf32>
    %extracted_slice_330 = tensor.extract_slice %0[92, 932] [1, 92] [1, 1] : tensor<512x1024xf32> to tensor<1x92xf32>
    %inserted_slice_331 = tensor.insert_slice %extracted_slice_329 into %11[0, 92] [1, 932] [1, 1] : tensor<1x932xf32> into tensor<1x1024xf32>
    %inserted_slice_332 = tensor.insert_slice %extracted_slice_330 into %inserted_slice_331[0, 0] [1, 92] [1, 1] : tensor<1x92xf32> into tensor<1x1024xf32>
    %extracted_slice_333 = tensor.extract_slice %0[93, 0] [1, 932] [1, 1] : tensor<512x1024xf32> to tensor<1x932xf32>
    %extracted_slice_334 = tensor.extract_slice %0[93, 932] [1, 92] [1, 1] : tensor<512x1024xf32> to tensor<1x92xf32>
    %inserted_slice_335 = tensor.insert_slice %extracted_slice_333 into %11[0, 92] [1, 932] [1, 1] : tensor<1x932xf32> into tensor<1x1024xf32>
    %inserted_slice_336 = tensor.insert_slice %extracted_slice_334 into %inserted_slice_335[0, 0] [1, 92] [1, 1] : tensor<1x92xf32> into tensor<1x1024xf32>
    %extracted_slice_337 = tensor.extract_slice %0[94, 0] [1, 932] [1, 1] : tensor<512x1024xf32> to tensor<1x932xf32>
    %extracted_slice_338 = tensor.extract_slice %0[94, 932] [1, 92] [1, 1] : tensor<512x1024xf32> to tensor<1x92xf32>
    %inserted_slice_339 = tensor.insert_slice %extracted_slice_337 into %11[0, 92] [1, 932] [1, 1] : tensor<1x932xf32> into tensor<1x1024xf32>
    %inserted_slice_340 = tensor.insert_slice %extracted_slice_338 into %inserted_slice_339[0, 0] [1, 92] [1, 1] : tensor<1x92xf32> into tensor<1x1024xf32>
    %extracted_slice_341 = tensor.extract_slice %0[95, 0] [1, 932] [1, 1] : tensor<512x1024xf32> to tensor<1x932xf32>
    %extracted_slice_342 = tensor.extract_slice %0[95, 932] [1, 92] [1, 1] : tensor<512x1024xf32> to tensor<1x92xf32>
    %inserted_slice_343 = tensor.insert_slice %extracted_slice_341 into %11[0, 92] [1, 932] [1, 1] : tensor<1x932xf32> into tensor<1x1024xf32>
    %inserted_slice_344 = tensor.insert_slice %extracted_slice_342 into %inserted_slice_343[0, 0] [1, 92] [1, 1] : tensor<1x92xf32> into tensor<1x1024xf32>
    %extracted_slice_345 = tensor.extract_slice %0[96, 0] [1, 932] [1, 1] : tensor<512x1024xf32> to tensor<1x932xf32>
    %extracted_slice_346 = tensor.extract_slice %0[96, 932] [1, 92] [1, 1] : tensor<512x1024xf32> to tensor<1x92xf32>
    %inserted_slice_347 = tensor.insert_slice %extracted_slice_345 into %11[0, 92] [1, 932] [1, 1] : tensor<1x932xf32> into tensor<1x1024xf32>
    %inserted_slice_348 = tensor.insert_slice %extracted_slice_346 into %inserted_slice_347[0, 0] [1, 92] [1, 1] : tensor<1x92xf32> into tensor<1x1024xf32>
    %extracted_slice_349 = tensor.extract_slice %0[97, 0] [1, 932] [1, 1] : tensor<512x1024xf32> to tensor<1x932xf32>
    %extracted_slice_350 = tensor.extract_slice %0[97, 932] [1, 92] [1, 1] : tensor<512x1024xf32> to tensor<1x92xf32>
    %inserted_slice_351 = tensor.insert_slice %extracted_slice_349 into %11[0, 92] [1, 932] [1, 1] : tensor<1x932xf32> into tensor<1x1024xf32>
    %inserted_slice_352 = tensor.insert_slice %extracted_slice_350 into %inserted_slice_351[0, 0] [1, 92] [1, 1] : tensor<1x92xf32> into tensor<1x1024xf32>
    %extracted_slice_353 = tensor.extract_slice %0[98, 0] [1, 932] [1, 1] : tensor<512x1024xf32> to tensor<1x932xf32>
    %extracted_slice_354 = tensor.extract_slice %0[98, 932] [1, 92] [1, 1] : tensor<512x1024xf32> to tensor<1x92xf32>
    %inserted_slice_355 = tensor.insert_slice %extracted_slice_353 into %11[0, 92] [1, 932] [1, 1] : tensor<1x932xf32> into tensor<1x1024xf32>
    %inserted_slice_356 = tensor.insert_slice %extracted_slice_354 into %inserted_slice_355[0, 0] [1, 92] [1, 1] : tensor<1x92xf32> into tensor<1x1024xf32>
    %extracted_slice_357 = tensor.extract_slice %0[99, 0] [1, 932] [1, 1] : tensor<512x1024xf32> to tensor<1x932xf32>
    %extracted_slice_358 = tensor.extract_slice %0[99, 932] [1, 92] [1, 1] : tensor<512x1024xf32> to tensor<1x92xf32>
    %inserted_slice_359 = tensor.insert_slice %extracted_slice_357 into %11[0, 92] [1, 932] [1, 1] : tensor<1x932xf32> into tensor<1x1024xf32>
    %inserted_slice_360 = tensor.insert_slice %extracted_slice_358 into %inserted_slice_359[0, 0] [1, 92] [1, 1] : tensor<1x92xf32> into tensor<1x1024xf32>
    %extracted_slice_361 = tensor.extract_slice %0[100, 0] [1, 932] [1, 1] : tensor<512x1024xf32> to tensor<1x932xf32>
    %extracted_slice_362 = tensor.extract_slice %0[100, 932] [1, 92] [1, 1] : tensor<512x1024xf32> to tensor<1x92xf32>
    %inserted_slice_363 = tensor.insert_slice %extracted_slice_361 into %11[0, 92] [1, 932] [1, 1] : tensor<1x932xf32> into tensor<1x1024xf32>
    %inserted_slice_364 = tensor.insert_slice %extracted_slice_362 into %inserted_slice_363[0, 0] [1, 92] [1, 1] : tensor<1x92xf32> into tensor<1x1024xf32>
    %extracted_slice_365 = tensor.extract_slice %0[101, 0] [1, 932] [1, 1] : tensor<512x1024xf32> to tensor<1x932xf32>
    %extracted_slice_366 = tensor.extract_slice %0[101, 932] [1, 92] [1, 1] : tensor<512x1024xf32> to tensor<1x92xf32>
    %inserted_slice_367 = tensor.insert_slice %extracted_slice_365 into %11[0, 92] [1, 932] [1, 1] : tensor<1x932xf32> into tensor<1x1024xf32>
    %inserted_slice_368 = tensor.insert_slice %extracted_slice_366 into %inserted_slice_367[0, 0] [1, 92] [1, 1] : tensor<1x92xf32> into tensor<1x1024xf32>
    %extracted_slice_369 = tensor.extract_slice %0[102, 0] [1, 932] [1, 1] : tensor<512x1024xf32> to tensor<1x932xf32>
    %extracted_slice_370 = tensor.extract_slice %0[102, 932] [1, 92] [1, 1] : tensor<512x1024xf32> to tensor<1x92xf32>
    %inserted_slice_371 = tensor.insert_slice %extracted_slice_369 into %11[0, 92] [1, 932] [1, 1] : tensor<1x932xf32> into tensor<1x1024xf32>
    %inserted_slice_372 = tensor.insert_slice %extracted_slice_370 into %inserted_slice_371[0, 0] [1, 92] [1, 1] : tensor<1x92xf32> into tensor<1x1024xf32>
    %extracted_slice_373 = tensor.extract_slice %0[103, 0] [1, 932] [1, 1] : tensor<512x1024xf32> to tensor<1x932xf32>
    %extracted_slice_374 = tensor.extract_slice %0[103, 932] [1, 92] [1, 1] : tensor<512x1024xf32> to tensor<1x92xf32>
    %inserted_slice_375 = tensor.insert_slice %extracted_slice_373 into %11[0, 92] [1, 932] [1, 1] : tensor<1x932xf32> into tensor<1x1024xf32>
    %inserted_slice_376 = tensor.insert_slice %extracted_slice_374 into %inserted_slice_375[0, 0] [1, 92] [1, 1] : tensor<1x92xf32> into tensor<1x1024xf32>
    %extracted_slice_377 = tensor.extract_slice %0[104, 0] [1, 932] [1, 1] : tensor<512x1024xf32> to tensor<1x932xf32>
    %extracted_slice_378 = tensor.extract_slice %0[104, 932] [1, 92] [1, 1] : tensor<512x1024xf32> to tensor<1x92xf32>
    %inserted_slice_379 = tensor.insert_slice %extracted_slice_377 into %11[0, 92] [1, 932] [1, 1] : tensor<1x932xf32> into tensor<1x1024xf32>
    %inserted_slice_380 = tensor.insert_slice %extracted_slice_378 into %inserted_slice_379[0, 0] [1, 92] [1, 1] : tensor<1x92xf32> into tensor<1x1024xf32>
    %extracted_slice_381 = tensor.extract_slice %0[105, 0] [1, 932] [1, 1] : tensor<512x1024xf32> to tensor<1x932xf32>
    %extracted_slice_382 = tensor.extract_slice %0[105, 932] [1, 92] [1, 1] : tensor<512x1024xf32> to tensor<1x92xf32>
    %inserted_slice_383 = tensor.insert_slice %extracted_slice_381 into %11[0, 92] [1, 932] [1, 1] : tensor<1x932xf32> into tensor<1x1024xf32>
    %inserted_slice_384 = tensor.insert_slice %extracted_slice_382 into %inserted_slice_383[0, 0] [1, 92] [1, 1] : tensor<1x92xf32> into tensor<1x1024xf32>
    %extracted_slice_385 = tensor.extract_slice %0[106, 0] [1, 932] [1, 1] : tensor<512x1024xf32> to tensor<1x932xf32>
    %extracted_slice_386 = tensor.extract_slice %0[106, 932] [1, 92] [1, 1] : tensor<512x1024xf32> to tensor<1x92xf32>
    %inserted_slice_387 = tensor.insert_slice %extracted_slice_385 into %11[0, 92] [1, 932] [1, 1] : tensor<1x932xf32> into tensor<1x1024xf32>
    %inserted_slice_388 = tensor.insert_slice %extracted_slice_386 into %inserted_slice_387[0, 0] [1, 92] [1, 1] : tensor<1x92xf32> into tensor<1x1024xf32>
    %extracted_slice_389 = tensor.extract_slice %0[107, 0] [1, 932] [1, 1] : tensor<512x1024xf32> to tensor<1x932xf32>
    %extracted_slice_390 = tensor.extract_slice %0[107, 932] [1, 92] [1, 1] : tensor<512x1024xf32> to tensor<1x92xf32>
    %inserted_slice_391 = tensor.insert_slice %extracted_slice_389 into %11[0, 92] [1, 932] [1, 1] : tensor<1x932xf32> into tensor<1x1024xf32>
    %inserted_slice_392 = tensor.insert_slice %extracted_slice_390 into %inserted_slice_391[0, 0] [1, 92] [1, 1] : tensor<1x92xf32> into tensor<1x1024xf32>
    %extracted_slice_393 = tensor.extract_slice %0[108, 0] [1, 932] [1, 1] : tensor<512x1024xf32> to tensor<1x932xf32>
    %extracted_slice_394 = tensor.extract_slice %0[108, 932] [1, 92] [1, 1] : tensor<512x1024xf32> to tensor<1x92xf32>
    %inserted_slice_395 = tensor.insert_slice %extracted_slice_393 into %11[0, 92] [1, 932] [1, 1] : tensor<1x932xf32> into tensor<1x1024xf32>
    %inserted_slice_396 = tensor.insert_slice %extracted_slice_394 into %inserted_slice_395[0, 0] [1, 92] [1, 1] : tensor<1x92xf32> into tensor<1x1024xf32>
    %extracted_slice_397 = tensor.extract_slice %0[109, 0] [1, 932] [1, 1] : tensor<512x1024xf32> to tensor<1x932xf32>
    %extracted_slice_398 = tensor.extract_slice %0[109, 932] [1, 92] [1, 1] : tensor<512x1024xf32> to tensor<1x92xf32>
    %inserted_slice_399 = tensor.insert_slice %extracted_slice_397 into %11[0, 92] [1, 932] [1, 1] : tensor<1x932xf32> into tensor<1x1024xf32>
    %inserted_slice_400 = tensor.insert_slice %extracted_slice_398 into %inserted_slice_399[0, 0] [1, 92] [1, 1] : tensor<1x92xf32> into tensor<1x1024xf32>
    %extracted_slice_401 = tensor.extract_slice %0[110, 0] [1, 932] [1, 1] : tensor<512x1024xf32> to tensor<1x932xf32>
    %extracted_slice_402 = tensor.extract_slice %0[110, 932] [1, 92] [1, 1] : tensor<512x1024xf32> to tensor<1x92xf32>
    %inserted_slice_403 = tensor.insert_slice %extracted_slice_401 into %11[0, 92] [1, 932] [1, 1] : tensor<1x932xf32> into tensor<1x1024xf32>
    %inserted_slice_404 = tensor.insert_slice %extracted_slice_402 into %inserted_slice_403[0, 0] [1, 92] [1, 1] : tensor<1x92xf32> into tensor<1x1024xf32>
    %extracted_slice_405 = tensor.extract_slice %0[111, 0] [1, 932] [1, 1] : tensor<512x1024xf32> to tensor<1x932xf32>
    %extracted_slice_406 = tensor.extract_slice %0[111, 932] [1, 92] [1, 1] : tensor<512x1024xf32> to tensor<1x92xf32>
    %inserted_slice_407 = tensor.insert_slice %extracted_slice_405 into %11[0, 92] [1, 932] [1, 1] : tensor<1x932xf32> into tensor<1x1024xf32>
    %inserted_slice_408 = tensor.insert_slice %extracted_slice_406 into %inserted_slice_407[0, 0] [1, 92] [1, 1] : tensor<1x92xf32> into tensor<1x1024xf32>
    %extracted_slice_409 = tensor.extract_slice %0[112, 0] [1, 932] [1, 1] : tensor<512x1024xf32> to tensor<1x932xf32>
    %extracted_slice_410 = tensor.extract_slice %0[112, 932] [1, 92] [1, 1] : tensor<512x1024xf32> to tensor<1x92xf32>
    %inserted_slice_411 = tensor.insert_slice %extracted_slice_409 into %11[0, 92] [1, 932] [1, 1] : tensor<1x932xf32> into tensor<1x1024xf32>
    %inserted_slice_412 = tensor.insert_slice %extracted_slice_410 into %inserted_slice_411[0, 0] [1, 92] [1, 1] : tensor<1x92xf32> into tensor<1x1024xf32>
    %extracted_slice_413 = tensor.extract_slice %0[113, 0] [1, 932] [1, 1] : tensor<512x1024xf32> to tensor<1x932xf32>
    %extracted_slice_414 = tensor.extract_slice %0[113, 932] [1, 92] [1, 1] : tensor<512x1024xf32> to tensor<1x92xf32>
    %inserted_slice_415 = tensor.insert_slice %extracted_slice_413 into %11[0, 92] [1, 932] [1, 1] : tensor<1x932xf32> into tensor<1x1024xf32>
    %inserted_slice_416 = tensor.insert_slice %extracted_slice_414 into %inserted_slice_415[0, 0] [1, 92] [1, 1] : tensor<1x92xf32> into tensor<1x1024xf32>
    %extracted_slice_417 = tensor.extract_slice %0[114, 0] [1, 932] [1, 1] : tensor<512x1024xf32> to tensor<1x932xf32>
    %extracted_slice_418 = tensor.extract_slice %0[114, 932] [1, 92] [1, 1] : tensor<512x1024xf32> to tensor<1x92xf32>
    %inserted_slice_419 = tensor.insert_slice %extracted_slice_417 into %11[0, 92] [1, 932] [1, 1] : tensor<1x932xf32> into tensor<1x1024xf32>
    %inserted_slice_420 = tensor.insert_slice %extracted_slice_418 into %inserted_slice_419[0, 0] [1, 92] [1, 1] : tensor<1x92xf32> into tensor<1x1024xf32>
    %extracted_slice_421 = tensor.extract_slice %0[115, 0] [1, 909] [1, 1] : tensor<512x1024xf32> to tensor<1x909xf32>
    %extracted_slice_422 = tensor.extract_slice %0[115, 909] [1, 115] [1, 1] : tensor<512x1024xf32> to tensor<1x115xf32>
    %inserted_slice_423 = tensor.insert_slice %extracted_slice_421 into %11[0, 115] [1, 909] [1, 1] : tensor<1x909xf32> into tensor<1x1024xf32>
    %inserted_slice_424 = tensor.insert_slice %extracted_slice_422 into %inserted_slice_423[0, 0] [1, 115] [1, 1] : tensor<1x115xf32> into tensor<1x1024xf32>
    %extracted_slice_425 = tensor.extract_slice %0[116, 0] [1, 909] [1, 1] : tensor<512x1024xf32> to tensor<1x909xf32>
    %extracted_slice_426 = tensor.extract_slice %0[116, 909] [1, 115] [1, 1] : tensor<512x1024xf32> to tensor<1x115xf32>
    %inserted_slice_427 = tensor.insert_slice %extracted_slice_425 into %11[0, 115] [1, 909] [1, 1] : tensor<1x909xf32> into tensor<1x1024xf32>
    %inserted_slice_428 = tensor.insert_slice %extracted_slice_426 into %inserted_slice_427[0, 0] [1, 115] [1, 1] : tensor<1x115xf32> into tensor<1x1024xf32>
    %extracted_slice_429 = tensor.extract_slice %0[117, 0] [1, 909] [1, 1] : tensor<512x1024xf32> to tensor<1x909xf32>
    %extracted_slice_430 = tensor.extract_slice %0[117, 909] [1, 115] [1, 1] : tensor<512x1024xf32> to tensor<1x115xf32>
    %inserted_slice_431 = tensor.insert_slice %extracted_slice_429 into %11[0, 115] [1, 909] [1, 1] : tensor<1x909xf32> into tensor<1x1024xf32>
    %inserted_slice_432 = tensor.insert_slice %extracted_slice_430 into %inserted_slice_431[0, 0] [1, 115] [1, 1] : tensor<1x115xf32> into tensor<1x1024xf32>
    %extracted_slice_433 = tensor.extract_slice %0[118, 0] [1, 909] [1, 1] : tensor<512x1024xf32> to tensor<1x909xf32>
    %extracted_slice_434 = tensor.extract_slice %0[118, 909] [1, 115] [1, 1] : tensor<512x1024xf32> to tensor<1x115xf32>
    %inserted_slice_435 = tensor.insert_slice %extracted_slice_433 into %11[0, 115] [1, 909] [1, 1] : tensor<1x909xf32> into tensor<1x1024xf32>
    %inserted_slice_436 = tensor.insert_slice %extracted_slice_434 into %inserted_slice_435[0, 0] [1, 115] [1, 1] : tensor<1x115xf32> into tensor<1x1024xf32>
    %extracted_slice_437 = tensor.extract_slice %0[119, 0] [1, 909] [1, 1] : tensor<512x1024xf32> to tensor<1x909xf32>
    %extracted_slice_438 = tensor.extract_slice %0[119, 909] [1, 115] [1, 1] : tensor<512x1024xf32> to tensor<1x115xf32>
    %inserted_slice_439 = tensor.insert_slice %extracted_slice_437 into %11[0, 115] [1, 909] [1, 1] : tensor<1x909xf32> into tensor<1x1024xf32>
    %inserted_slice_440 = tensor.insert_slice %extracted_slice_438 into %inserted_slice_439[0, 0] [1, 115] [1, 1] : tensor<1x115xf32> into tensor<1x1024xf32>
    %extracted_slice_441 = tensor.extract_slice %0[120, 0] [1, 909] [1, 1] : tensor<512x1024xf32> to tensor<1x909xf32>
    %extracted_slice_442 = tensor.extract_slice %0[120, 909] [1, 115] [1, 1] : tensor<512x1024xf32> to tensor<1x115xf32>
    %inserted_slice_443 = tensor.insert_slice %extracted_slice_441 into %11[0, 115] [1, 909] [1, 1] : tensor<1x909xf32> into tensor<1x1024xf32>
    %inserted_slice_444 = tensor.insert_slice %extracted_slice_442 into %inserted_slice_443[0, 0] [1, 115] [1, 1] : tensor<1x115xf32> into tensor<1x1024xf32>
    %extracted_slice_445 = tensor.extract_slice %0[121, 0] [1, 909] [1, 1] : tensor<512x1024xf32> to tensor<1x909xf32>
    %extracted_slice_446 = tensor.extract_slice %0[121, 909] [1, 115] [1, 1] : tensor<512x1024xf32> to tensor<1x115xf32>
    %inserted_slice_447 = tensor.insert_slice %extracted_slice_445 into %11[0, 115] [1, 909] [1, 1] : tensor<1x909xf32> into tensor<1x1024xf32>
    %inserted_slice_448 = tensor.insert_slice %extracted_slice_446 into %inserted_slice_447[0, 0] [1, 115] [1, 1] : tensor<1x115xf32> into tensor<1x1024xf32>
    %extracted_slice_449 = tensor.extract_slice %0[122, 0] [1, 909] [1, 1] : tensor<512x1024xf32> to tensor<1x909xf32>
    %extracted_slice_450 = tensor.extract_slice %0[122, 909] [1, 115] [1, 1] : tensor<512x1024xf32> to tensor<1x115xf32>
    %inserted_slice_451 = tensor.insert_slice %extracted_slice_449 into %11[0, 115] [1, 909] [1, 1] : tensor<1x909xf32> into tensor<1x1024xf32>
    %inserted_slice_452 = tensor.insert_slice %extracted_slice_450 into %inserted_slice_451[0, 0] [1, 115] [1, 1] : tensor<1x115xf32> into tensor<1x1024xf32>
    %extracted_slice_453 = tensor.extract_slice %0[123, 0] [1, 909] [1, 1] : tensor<512x1024xf32> to tensor<1x909xf32>
    %extracted_slice_454 = tensor.extract_slice %0[123, 909] [1, 115] [1, 1] : tensor<512x1024xf32> to tensor<1x115xf32>
    %inserted_slice_455 = tensor.insert_slice %extracted_slice_453 into %11[0, 115] [1, 909] [1, 1] : tensor<1x909xf32> into tensor<1x1024xf32>
    %inserted_slice_456 = tensor.insert_slice %extracted_slice_454 into %inserted_slice_455[0, 0] [1, 115] [1, 1] : tensor<1x115xf32> into tensor<1x1024xf32>
    %extracted_slice_457 = tensor.extract_slice %0[124, 0] [1, 909] [1, 1] : tensor<512x1024xf32> to tensor<1x909xf32>
    %extracted_slice_458 = tensor.extract_slice %0[124, 909] [1, 115] [1, 1] : tensor<512x1024xf32> to tensor<1x115xf32>
    %inserted_slice_459 = tensor.insert_slice %extracted_slice_457 into %11[0, 115] [1, 909] [1, 1] : tensor<1x909xf32> into tensor<1x1024xf32>
    %inserted_slice_460 = tensor.insert_slice %extracted_slice_458 into %inserted_slice_459[0, 0] [1, 115] [1, 1] : tensor<1x115xf32> into tensor<1x1024xf32>
    %extracted_slice_461 = tensor.extract_slice %0[125, 0] [1, 909] [1, 1] : tensor<512x1024xf32> to tensor<1x909xf32>
    %extracted_slice_462 = tensor.extract_slice %0[125, 909] [1, 115] [1, 1] : tensor<512x1024xf32> to tensor<1x115xf32>
    %inserted_slice_463 = tensor.insert_slice %extracted_slice_461 into %11[0, 115] [1, 909] [1, 1] : tensor<1x909xf32> into tensor<1x1024xf32>
    %inserted_slice_464 = tensor.insert_slice %extracted_slice_462 into %inserted_slice_463[0, 0] [1, 115] [1, 1] : tensor<1x115xf32> into tensor<1x1024xf32>
    %extracted_slice_465 = tensor.extract_slice %0[126, 0] [1, 909] [1, 1] : tensor<512x1024xf32> to tensor<1x909xf32>
    %extracted_slice_466 = tensor.extract_slice %0[126, 909] [1, 115] [1, 1] : tensor<512x1024xf32> to tensor<1x115xf32>
    %inserted_slice_467 = tensor.insert_slice %extracted_slice_465 into %11[0, 115] [1, 909] [1, 1] : tensor<1x909xf32> into tensor<1x1024xf32>
    %inserted_slice_468 = tensor.insert_slice %extracted_slice_466 into %inserted_slice_467[0, 0] [1, 115] [1, 1] : tensor<1x115xf32> into tensor<1x1024xf32>
    %extracted_slice_469 = tensor.extract_slice %0[127, 0] [1, 909] [1, 1] : tensor<512x1024xf32> to tensor<1x909xf32>
    %extracted_slice_470 = tensor.extract_slice %0[127, 909] [1, 115] [1, 1] : tensor<512x1024xf32> to tensor<1x115xf32>
    %inserted_slice_471 = tensor.insert_slice %extracted_slice_469 into %11[0, 115] [1, 909] [1, 1] : tensor<1x909xf32> into tensor<1x1024xf32>
    %inserted_slice_472 = tensor.insert_slice %extracted_slice_470 into %inserted_slice_471[0, 0] [1, 115] [1, 1] : tensor<1x115xf32> into tensor<1x1024xf32>
    %extracted_slice_473 = tensor.extract_slice %0[128, 0] [1, 909] [1, 1] : tensor<512x1024xf32> to tensor<1x909xf32>
    %extracted_slice_474 = tensor.extract_slice %0[128, 909] [1, 115] [1, 1] : tensor<512x1024xf32> to tensor<1x115xf32>
    %inserted_slice_475 = tensor.insert_slice %extracted_slice_473 into %11[0, 115] [1, 909] [1, 1] : tensor<1x909xf32> into tensor<1x1024xf32>
    %inserted_slice_476 = tensor.insert_slice %extracted_slice_474 into %inserted_slice_475[0, 0] [1, 115] [1, 1] : tensor<1x115xf32> into tensor<1x1024xf32>
    %extracted_slice_477 = tensor.extract_slice %0[129, 0] [1, 909] [1, 1] : tensor<512x1024xf32> to tensor<1x909xf32>
    %extracted_slice_478 = tensor.extract_slice %0[129, 909] [1, 115] [1, 1] : tensor<512x1024xf32> to tensor<1x115xf32>
    %inserted_slice_479 = tensor.insert_slice %extracted_slice_477 into %11[0, 115] [1, 909] [1, 1] : tensor<1x909xf32> into tensor<1x1024xf32>
    %inserted_slice_480 = tensor.insert_slice %extracted_slice_478 into %inserted_slice_479[0, 0] [1, 115] [1, 1] : tensor<1x115xf32> into tensor<1x1024xf32>
    %extracted_slice_481 = tensor.extract_slice %0[130, 0] [1, 909] [1, 1] : tensor<512x1024xf32> to tensor<1x909xf32>
    %extracted_slice_482 = tensor.extract_slice %0[130, 909] [1, 115] [1, 1] : tensor<512x1024xf32> to tensor<1x115xf32>
    %inserted_slice_483 = tensor.insert_slice %extracted_slice_481 into %11[0, 115] [1, 909] [1, 1] : tensor<1x909xf32> into tensor<1x1024xf32>
    %inserted_slice_484 = tensor.insert_slice %extracted_slice_482 into %inserted_slice_483[0, 0] [1, 115] [1, 1] : tensor<1x115xf32> into tensor<1x1024xf32>
    %extracted_slice_485 = tensor.extract_slice %0[131, 0] [1, 909] [1, 1] : tensor<512x1024xf32> to tensor<1x909xf32>
    %extracted_slice_486 = tensor.extract_slice %0[131, 909] [1, 115] [1, 1] : tensor<512x1024xf32> to tensor<1x115xf32>
    %inserted_slice_487 = tensor.insert_slice %extracted_slice_485 into %11[0, 115] [1, 909] [1, 1] : tensor<1x909xf32> into tensor<1x1024xf32>
    %inserted_slice_488 = tensor.insert_slice %extracted_slice_486 into %inserted_slice_487[0, 0] [1, 115] [1, 1] : tensor<1x115xf32> into tensor<1x1024xf32>
    %extracted_slice_489 = tensor.extract_slice %0[132, 0] [1, 909] [1, 1] : tensor<512x1024xf32> to tensor<1x909xf32>
    %extracted_slice_490 = tensor.extract_slice %0[132, 909] [1, 115] [1, 1] : tensor<512x1024xf32> to tensor<1x115xf32>
    %inserted_slice_491 = tensor.insert_slice %extracted_slice_489 into %11[0, 115] [1, 909] [1, 1] : tensor<1x909xf32> into tensor<1x1024xf32>
    %inserted_slice_492 = tensor.insert_slice %extracted_slice_490 into %inserted_slice_491[0, 0] [1, 115] [1, 1] : tensor<1x115xf32> into tensor<1x1024xf32>
    %extracted_slice_493 = tensor.extract_slice %0[133, 0] [1, 909] [1, 1] : tensor<512x1024xf32> to tensor<1x909xf32>
    %extracted_slice_494 = tensor.extract_slice %0[133, 909] [1, 115] [1, 1] : tensor<512x1024xf32> to tensor<1x115xf32>
    %inserted_slice_495 = tensor.insert_slice %extracted_slice_493 into %11[0, 115] [1, 909] [1, 1] : tensor<1x909xf32> into tensor<1x1024xf32>
    %inserted_slice_496 = tensor.insert_slice %extracted_slice_494 into %inserted_slice_495[0, 0] [1, 115] [1, 1] : tensor<1x115xf32> into tensor<1x1024xf32>
    %extracted_slice_497 = tensor.extract_slice %0[134, 0] [1, 909] [1, 1] : tensor<512x1024xf32> to tensor<1x909xf32>
    %extracted_slice_498 = tensor.extract_slice %0[134, 909] [1, 115] [1, 1] : tensor<512x1024xf32> to tensor<1x115xf32>
    %inserted_slice_499 = tensor.insert_slice %extracted_slice_497 into %11[0, 115] [1, 909] [1, 1] : tensor<1x909xf32> into tensor<1x1024xf32>
    %inserted_slice_500 = tensor.insert_slice %extracted_slice_498 into %inserted_slice_499[0, 0] [1, 115] [1, 1] : tensor<1x115xf32> into tensor<1x1024xf32>
    %extracted_slice_501 = tensor.extract_slice %0[135, 0] [1, 909] [1, 1] : tensor<512x1024xf32> to tensor<1x909xf32>
    %extracted_slice_502 = tensor.extract_slice %0[135, 909] [1, 115] [1, 1] : tensor<512x1024xf32> to tensor<1x115xf32>
    %inserted_slice_503 = tensor.insert_slice %extracted_slice_501 into %11[0, 115] [1, 909] [1, 1] : tensor<1x909xf32> into tensor<1x1024xf32>
    %inserted_slice_504 = tensor.insert_slice %extracted_slice_502 into %inserted_slice_503[0, 0] [1, 115] [1, 1] : tensor<1x115xf32> into tensor<1x1024xf32>
    %extracted_slice_505 = tensor.extract_slice %0[136, 0] [1, 909] [1, 1] : tensor<512x1024xf32> to tensor<1x909xf32>
    %extracted_slice_506 = tensor.extract_slice %0[136, 909] [1, 115] [1, 1] : tensor<512x1024xf32> to tensor<1x115xf32>
    %inserted_slice_507 = tensor.insert_slice %extracted_slice_505 into %11[0, 115] [1, 909] [1, 1] : tensor<1x909xf32> into tensor<1x1024xf32>
    %inserted_slice_508 = tensor.insert_slice %extracted_slice_506 into %inserted_slice_507[0, 0] [1, 115] [1, 1] : tensor<1x115xf32> into tensor<1x1024xf32>
    %extracted_slice_509 = tensor.extract_slice %0[137, 0] [1, 909] [1, 1] : tensor<512x1024xf32> to tensor<1x909xf32>
    %extracted_slice_510 = tensor.extract_slice %0[137, 909] [1, 115] [1, 1] : tensor<512x1024xf32> to tensor<1x115xf32>
    %inserted_slice_511 = tensor.insert_slice %extracted_slice_509 into %11[0, 115] [1, 909] [1, 1] : tensor<1x909xf32> into tensor<1x1024xf32>
    %inserted_slice_512 = tensor.insert_slice %extracted_slice_510 into %inserted_slice_511[0, 0] [1, 115] [1, 1] : tensor<1x115xf32> into tensor<1x1024xf32>
    %extracted_slice_513 = tensor.extract_slice %0[138, 0] [1, 886] [1, 1] : tensor<512x1024xf32> to tensor<1x886xf32>
    %extracted_slice_514 = tensor.extract_slice %0[138, 886] [1, 138] [1, 1] : tensor<512x1024xf32> to tensor<1x138xf32>
    %inserted_slice_515 = tensor.insert_slice %extracted_slice_513 into %11[0, 138] [1, 886] [1, 1] : tensor<1x886xf32> into tensor<1x1024xf32>
    %inserted_slice_516 = tensor.insert_slice %extracted_slice_514 into %inserted_slice_515[0, 0] [1, 138] [1, 1] : tensor<1x138xf32> into tensor<1x1024xf32>
    %extracted_slice_517 = tensor.extract_slice %0[139, 0] [1, 886] [1, 1] : tensor<512x1024xf32> to tensor<1x886xf32>
    %extracted_slice_518 = tensor.extract_slice %0[139, 886] [1, 138] [1, 1] : tensor<512x1024xf32> to tensor<1x138xf32>
    %inserted_slice_519 = tensor.insert_slice %extracted_slice_517 into %11[0, 138] [1, 886] [1, 1] : tensor<1x886xf32> into tensor<1x1024xf32>
    %inserted_slice_520 = tensor.insert_slice %extracted_slice_518 into %inserted_slice_519[0, 0] [1, 138] [1, 1] : tensor<1x138xf32> into tensor<1x1024xf32>
    %extracted_slice_521 = tensor.extract_slice %0[140, 0] [1, 886] [1, 1] : tensor<512x1024xf32> to tensor<1x886xf32>
    %extracted_slice_522 = tensor.extract_slice %0[140, 886] [1, 138] [1, 1] : tensor<512x1024xf32> to tensor<1x138xf32>
    %inserted_slice_523 = tensor.insert_slice %extracted_slice_521 into %11[0, 138] [1, 886] [1, 1] : tensor<1x886xf32> into tensor<1x1024xf32>
    %inserted_slice_524 = tensor.insert_slice %extracted_slice_522 into %inserted_slice_523[0, 0] [1, 138] [1, 1] : tensor<1x138xf32> into tensor<1x1024xf32>
    %extracted_slice_525 = tensor.extract_slice %0[141, 0] [1, 886] [1, 1] : tensor<512x1024xf32> to tensor<1x886xf32>
    %extracted_slice_526 = tensor.extract_slice %0[141, 886] [1, 138] [1, 1] : tensor<512x1024xf32> to tensor<1x138xf32>
    %inserted_slice_527 = tensor.insert_slice %extracted_slice_525 into %11[0, 138] [1, 886] [1, 1] : tensor<1x886xf32> into tensor<1x1024xf32>
    %inserted_slice_528 = tensor.insert_slice %extracted_slice_526 into %inserted_slice_527[0, 0] [1, 138] [1, 1] : tensor<1x138xf32> into tensor<1x1024xf32>
    %extracted_slice_529 = tensor.extract_slice %0[142, 0] [1, 886] [1, 1] : tensor<512x1024xf32> to tensor<1x886xf32>
    %extracted_slice_530 = tensor.extract_slice %0[142, 886] [1, 138] [1, 1] : tensor<512x1024xf32> to tensor<1x138xf32>
    %inserted_slice_531 = tensor.insert_slice %extracted_slice_529 into %11[0, 138] [1, 886] [1, 1] : tensor<1x886xf32> into tensor<1x1024xf32>
    %inserted_slice_532 = tensor.insert_slice %extracted_slice_530 into %inserted_slice_531[0, 0] [1, 138] [1, 1] : tensor<1x138xf32> into tensor<1x1024xf32>
    %extracted_slice_533 = tensor.extract_slice %0[143, 0] [1, 886] [1, 1] : tensor<512x1024xf32> to tensor<1x886xf32>
    %extracted_slice_534 = tensor.extract_slice %0[143, 886] [1, 138] [1, 1] : tensor<512x1024xf32> to tensor<1x138xf32>
    %inserted_slice_535 = tensor.insert_slice %extracted_slice_533 into %11[0, 138] [1, 886] [1, 1] : tensor<1x886xf32> into tensor<1x1024xf32>
    %inserted_slice_536 = tensor.insert_slice %extracted_slice_534 into %inserted_slice_535[0, 0] [1, 138] [1, 1] : tensor<1x138xf32> into tensor<1x1024xf32>
    %extracted_slice_537 = tensor.extract_slice %0[144, 0] [1, 886] [1, 1] : tensor<512x1024xf32> to tensor<1x886xf32>
    %extracted_slice_538 = tensor.extract_slice %0[144, 886] [1, 138] [1, 1] : tensor<512x1024xf32> to tensor<1x138xf32>
    %inserted_slice_539 = tensor.insert_slice %extracted_slice_537 into %11[0, 138] [1, 886] [1, 1] : tensor<1x886xf32> into tensor<1x1024xf32>
    %inserted_slice_540 = tensor.insert_slice %extracted_slice_538 into %inserted_slice_539[0, 0] [1, 138] [1, 1] : tensor<1x138xf32> into tensor<1x1024xf32>
    %extracted_slice_541 = tensor.extract_slice %0[145, 0] [1, 886] [1, 1] : tensor<512x1024xf32> to tensor<1x886xf32>
    %extracted_slice_542 = tensor.extract_slice %0[145, 886] [1, 138] [1, 1] : tensor<512x1024xf32> to tensor<1x138xf32>
    %inserted_slice_543 = tensor.insert_slice %extracted_slice_541 into %11[0, 138] [1, 886] [1, 1] : tensor<1x886xf32> into tensor<1x1024xf32>
    %inserted_slice_544 = tensor.insert_slice %extracted_slice_542 into %inserted_slice_543[0, 0] [1, 138] [1, 1] : tensor<1x138xf32> into tensor<1x1024xf32>
    %extracted_slice_545 = tensor.extract_slice %0[146, 0] [1, 886] [1, 1] : tensor<512x1024xf32> to tensor<1x886xf32>
    %extracted_slice_546 = tensor.extract_slice %0[146, 886] [1, 138] [1, 1] : tensor<512x1024xf32> to tensor<1x138xf32>
    %inserted_slice_547 = tensor.insert_slice %extracted_slice_545 into %11[0, 138] [1, 886] [1, 1] : tensor<1x886xf32> into tensor<1x1024xf32>
    %inserted_slice_548 = tensor.insert_slice %extracted_slice_546 into %inserted_slice_547[0, 0] [1, 138] [1, 1] : tensor<1x138xf32> into tensor<1x1024xf32>
    %extracted_slice_549 = tensor.extract_slice %0[147, 0] [1, 886] [1, 1] : tensor<512x1024xf32> to tensor<1x886xf32>
    %extracted_slice_550 = tensor.extract_slice %0[147, 886] [1, 138] [1, 1] : tensor<512x1024xf32> to tensor<1x138xf32>
    %inserted_slice_551 = tensor.insert_slice %extracted_slice_549 into %11[0, 138] [1, 886] [1, 1] : tensor<1x886xf32> into tensor<1x1024xf32>
    %inserted_slice_552 = tensor.insert_slice %extracted_slice_550 into %inserted_slice_551[0, 0] [1, 138] [1, 1] : tensor<1x138xf32> into tensor<1x1024xf32>
    %extracted_slice_553 = tensor.extract_slice %0[148, 0] [1, 886] [1, 1] : tensor<512x1024xf32> to tensor<1x886xf32>
    %extracted_slice_554 = tensor.extract_slice %0[148, 886] [1, 138] [1, 1] : tensor<512x1024xf32> to tensor<1x138xf32>
    %inserted_slice_555 = tensor.insert_slice %extracted_slice_553 into %11[0, 138] [1, 886] [1, 1] : tensor<1x886xf32> into tensor<1x1024xf32>
    %inserted_slice_556 = tensor.insert_slice %extracted_slice_554 into %inserted_slice_555[0, 0] [1, 138] [1, 1] : tensor<1x138xf32> into tensor<1x1024xf32>
    %extracted_slice_557 = tensor.extract_slice %0[149, 0] [1, 886] [1, 1] : tensor<512x1024xf32> to tensor<1x886xf32>
    %extracted_slice_558 = tensor.extract_slice %0[149, 886] [1, 138] [1, 1] : tensor<512x1024xf32> to tensor<1x138xf32>
    %inserted_slice_559 = tensor.insert_slice %extracted_slice_557 into %11[0, 138] [1, 886] [1, 1] : tensor<1x886xf32> into tensor<1x1024xf32>
    %inserted_slice_560 = tensor.insert_slice %extracted_slice_558 into %inserted_slice_559[0, 0] [1, 138] [1, 1] : tensor<1x138xf32> into tensor<1x1024xf32>
    %extracted_slice_561 = tensor.extract_slice %0[150, 0] [1, 886] [1, 1] : tensor<512x1024xf32> to tensor<1x886xf32>
    %extracted_slice_562 = tensor.extract_slice %0[150, 886] [1, 138] [1, 1] : tensor<512x1024xf32> to tensor<1x138xf32>
    %inserted_slice_563 = tensor.insert_slice %extracted_slice_561 into %11[0, 138] [1, 886] [1, 1] : tensor<1x886xf32> into tensor<1x1024xf32>
    %inserted_slice_564 = tensor.insert_slice %extracted_slice_562 into %inserted_slice_563[0, 0] [1, 138] [1, 1] : tensor<1x138xf32> into tensor<1x1024xf32>
    %extracted_slice_565 = tensor.extract_slice %0[151, 0] [1, 886] [1, 1] : tensor<512x1024xf32> to tensor<1x886xf32>
    %extracted_slice_566 = tensor.extract_slice %0[151, 886] [1, 138] [1, 1] : tensor<512x1024xf32> to tensor<1x138xf32>
    %inserted_slice_567 = tensor.insert_slice %extracted_slice_565 into %11[0, 138] [1, 886] [1, 1] : tensor<1x886xf32> into tensor<1x1024xf32>
    %inserted_slice_568 = tensor.insert_slice %extracted_slice_566 into %inserted_slice_567[0, 0] [1, 138] [1, 1] : tensor<1x138xf32> into tensor<1x1024xf32>
    %extracted_slice_569 = tensor.extract_slice %0[152, 0] [1, 886] [1, 1] : tensor<512x1024xf32> to tensor<1x886xf32>
    %extracted_slice_570 = tensor.extract_slice %0[152, 886] [1, 138] [1, 1] : tensor<512x1024xf32> to tensor<1x138xf32>
    %inserted_slice_571 = tensor.insert_slice %extracted_slice_569 into %11[0, 138] [1, 886] [1, 1] : tensor<1x886xf32> into tensor<1x1024xf32>
    %inserted_slice_572 = tensor.insert_slice %extracted_slice_570 into %inserted_slice_571[0, 0] [1, 138] [1, 1] : tensor<1x138xf32> into tensor<1x1024xf32>
    %extracted_slice_573 = tensor.extract_slice %0[153, 0] [1, 886] [1, 1] : tensor<512x1024xf32> to tensor<1x886xf32>
    %extracted_slice_574 = tensor.extract_slice %0[153, 886] [1, 138] [1, 1] : tensor<512x1024xf32> to tensor<1x138xf32>
    %inserted_slice_575 = tensor.insert_slice %extracted_slice_573 into %11[0, 138] [1, 886] [1, 1] : tensor<1x886xf32> into tensor<1x1024xf32>
    %inserted_slice_576 = tensor.insert_slice %extracted_slice_574 into %inserted_slice_575[0, 0] [1, 138] [1, 1] : tensor<1x138xf32> into tensor<1x1024xf32>
    %extracted_slice_577 = tensor.extract_slice %0[154, 0] [1, 886] [1, 1] : tensor<512x1024xf32> to tensor<1x886xf32>
    %extracted_slice_578 = tensor.extract_slice %0[154, 886] [1, 138] [1, 1] : tensor<512x1024xf32> to tensor<1x138xf32>
    %inserted_slice_579 = tensor.insert_slice %extracted_slice_577 into %11[0, 138] [1, 886] [1, 1] : tensor<1x886xf32> into tensor<1x1024xf32>
    %inserted_slice_580 = tensor.insert_slice %extracted_slice_578 into %inserted_slice_579[0, 0] [1, 138] [1, 1] : tensor<1x138xf32> into tensor<1x1024xf32>
    %extracted_slice_581 = tensor.extract_slice %0[155, 0] [1, 886] [1, 1] : tensor<512x1024xf32> to tensor<1x886xf32>
    %extracted_slice_582 = tensor.extract_slice %0[155, 886] [1, 138] [1, 1] : tensor<512x1024xf32> to tensor<1x138xf32>
    %inserted_slice_583 = tensor.insert_slice %extracted_slice_581 into %11[0, 138] [1, 886] [1, 1] : tensor<1x886xf32> into tensor<1x1024xf32>
    %inserted_slice_584 = tensor.insert_slice %extracted_slice_582 into %inserted_slice_583[0, 0] [1, 138] [1, 1] : tensor<1x138xf32> into tensor<1x1024xf32>
    %extracted_slice_585 = tensor.extract_slice %0[156, 0] [1, 886] [1, 1] : tensor<512x1024xf32> to tensor<1x886xf32>
    %extracted_slice_586 = tensor.extract_slice %0[156, 886] [1, 138] [1, 1] : tensor<512x1024xf32> to tensor<1x138xf32>
    %inserted_slice_587 = tensor.insert_slice %extracted_slice_585 into %11[0, 138] [1, 886] [1, 1] : tensor<1x886xf32> into tensor<1x1024xf32>
    %inserted_slice_588 = tensor.insert_slice %extracted_slice_586 into %inserted_slice_587[0, 0] [1, 138] [1, 1] : tensor<1x138xf32> into tensor<1x1024xf32>
    %extracted_slice_589 = tensor.extract_slice %0[157, 0] [1, 886] [1, 1] : tensor<512x1024xf32> to tensor<1x886xf32>
    %extracted_slice_590 = tensor.extract_slice %0[157, 886] [1, 138] [1, 1] : tensor<512x1024xf32> to tensor<1x138xf32>
    %inserted_slice_591 = tensor.insert_slice %extracted_slice_589 into %11[0, 138] [1, 886] [1, 1] : tensor<1x886xf32> into tensor<1x1024xf32>
    %inserted_slice_592 = tensor.insert_slice %extracted_slice_590 into %inserted_slice_591[0, 0] [1, 138] [1, 1] : tensor<1x138xf32> into tensor<1x1024xf32>
    %extracted_slice_593 = tensor.extract_slice %0[158, 0] [1, 886] [1, 1] : tensor<512x1024xf32> to tensor<1x886xf32>
    %extracted_slice_594 = tensor.extract_slice %0[158, 886] [1, 138] [1, 1] : tensor<512x1024xf32> to tensor<1x138xf32>
    %inserted_slice_595 = tensor.insert_slice %extracted_slice_593 into %11[0, 138] [1, 886] [1, 1] : tensor<1x886xf32> into tensor<1x1024xf32>
    %inserted_slice_596 = tensor.insert_slice %extracted_slice_594 into %inserted_slice_595[0, 0] [1, 138] [1, 1] : tensor<1x138xf32> into tensor<1x1024xf32>
    %extracted_slice_597 = tensor.extract_slice %0[159, 0] [1, 886] [1, 1] : tensor<512x1024xf32> to tensor<1x886xf32>
    %extracted_slice_598 = tensor.extract_slice %0[159, 886] [1, 138] [1, 1] : tensor<512x1024xf32> to tensor<1x138xf32>
    %inserted_slice_599 = tensor.insert_slice %extracted_slice_597 into %11[0, 138] [1, 886] [1, 1] : tensor<1x886xf32> into tensor<1x1024xf32>
    %inserted_slice_600 = tensor.insert_slice %extracted_slice_598 into %inserted_slice_599[0, 0] [1, 138] [1, 1] : tensor<1x138xf32> into tensor<1x1024xf32>
    %extracted_slice_601 = tensor.extract_slice %0[160, 0] [1, 886] [1, 1] : tensor<512x1024xf32> to tensor<1x886xf32>
    %extracted_slice_602 = tensor.extract_slice %0[160, 886] [1, 138] [1, 1] : tensor<512x1024xf32> to tensor<1x138xf32>
    %inserted_slice_603 = tensor.insert_slice %extracted_slice_601 into %11[0, 138] [1, 886] [1, 1] : tensor<1x886xf32> into tensor<1x1024xf32>
    %inserted_slice_604 = tensor.insert_slice %extracted_slice_602 into %inserted_slice_603[0, 0] [1, 138] [1, 1] : tensor<1x138xf32> into tensor<1x1024xf32>
    %extracted_slice_605 = tensor.extract_slice %0[161, 0] [1, 863] [1, 1] : tensor<512x1024xf32> to tensor<1x863xf32>
    %extracted_slice_606 = tensor.extract_slice %0[161, 863] [1, 161] [1, 1] : tensor<512x1024xf32> to tensor<1x161xf32>
    %inserted_slice_607 = tensor.insert_slice %extracted_slice_605 into %11[0, 161] [1, 863] [1, 1] : tensor<1x863xf32> into tensor<1x1024xf32>
    %inserted_slice_608 = tensor.insert_slice %extracted_slice_606 into %inserted_slice_607[0, 0] [1, 161] [1, 1] : tensor<1x161xf32> into tensor<1x1024xf32>
    %extracted_slice_609 = tensor.extract_slice %0[162, 0] [1, 863] [1, 1] : tensor<512x1024xf32> to tensor<1x863xf32>
    %extracted_slice_610 = tensor.extract_slice %0[162, 863] [1, 161] [1, 1] : tensor<512x1024xf32> to tensor<1x161xf32>
    %inserted_slice_611 = tensor.insert_slice %extracted_slice_609 into %11[0, 161] [1, 863] [1, 1] : tensor<1x863xf32> into tensor<1x1024xf32>
    %inserted_slice_612 = tensor.insert_slice %extracted_slice_610 into %inserted_slice_611[0, 0] [1, 161] [1, 1] : tensor<1x161xf32> into tensor<1x1024xf32>
    %extracted_slice_613 = tensor.extract_slice %0[163, 0] [1, 863] [1, 1] : tensor<512x1024xf32> to tensor<1x863xf32>
    %extracted_slice_614 = tensor.extract_slice %0[163, 863] [1, 161] [1, 1] : tensor<512x1024xf32> to tensor<1x161xf32>
    %inserted_slice_615 = tensor.insert_slice %extracted_slice_613 into %11[0, 161] [1, 863] [1, 1] : tensor<1x863xf32> into tensor<1x1024xf32>
    %inserted_slice_616 = tensor.insert_slice %extracted_slice_614 into %inserted_slice_615[0, 0] [1, 161] [1, 1] : tensor<1x161xf32> into tensor<1x1024xf32>
    %extracted_slice_617 = tensor.extract_slice %0[164, 0] [1, 863] [1, 1] : tensor<512x1024xf32> to tensor<1x863xf32>
    %extracted_slice_618 = tensor.extract_slice %0[164, 863] [1, 161] [1, 1] : tensor<512x1024xf32> to tensor<1x161xf32>
    %inserted_slice_619 = tensor.insert_slice %extracted_slice_617 into %11[0, 161] [1, 863] [1, 1] : tensor<1x863xf32> into tensor<1x1024xf32>
    %inserted_slice_620 = tensor.insert_slice %extracted_slice_618 into %inserted_slice_619[0, 0] [1, 161] [1, 1] : tensor<1x161xf32> into tensor<1x1024xf32>
    %extracted_slice_621 = tensor.extract_slice %0[165, 0] [1, 863] [1, 1] : tensor<512x1024xf32> to tensor<1x863xf32>
    %extracted_slice_622 = tensor.extract_slice %0[165, 863] [1, 161] [1, 1] : tensor<512x1024xf32> to tensor<1x161xf32>
    %inserted_slice_623 = tensor.insert_slice %extracted_slice_621 into %11[0, 161] [1, 863] [1, 1] : tensor<1x863xf32> into tensor<1x1024xf32>
    %inserted_slice_624 = tensor.insert_slice %extracted_slice_622 into %inserted_slice_623[0, 0] [1, 161] [1, 1] : tensor<1x161xf32> into tensor<1x1024xf32>
    %extracted_slice_625 = tensor.extract_slice %0[166, 0] [1, 863] [1, 1] : tensor<512x1024xf32> to tensor<1x863xf32>
    %extracted_slice_626 = tensor.extract_slice %0[166, 863] [1, 161] [1, 1] : tensor<512x1024xf32> to tensor<1x161xf32>
    %inserted_slice_627 = tensor.insert_slice %extracted_slice_625 into %11[0, 161] [1, 863] [1, 1] : tensor<1x863xf32> into tensor<1x1024xf32>
    %inserted_slice_628 = tensor.insert_slice %extracted_slice_626 into %inserted_slice_627[0, 0] [1, 161] [1, 1] : tensor<1x161xf32> into tensor<1x1024xf32>
    %extracted_slice_629 = tensor.extract_slice %0[167, 0] [1, 863] [1, 1] : tensor<512x1024xf32> to tensor<1x863xf32>
    %extracted_slice_630 = tensor.extract_slice %0[167, 863] [1, 161] [1, 1] : tensor<512x1024xf32> to tensor<1x161xf32>
    %inserted_slice_631 = tensor.insert_slice %extracted_slice_629 into %11[0, 161] [1, 863] [1, 1] : tensor<1x863xf32> into tensor<1x1024xf32>
    %inserted_slice_632 = tensor.insert_slice %extracted_slice_630 into %inserted_slice_631[0, 0] [1, 161] [1, 1] : tensor<1x161xf32> into tensor<1x1024xf32>
    %extracted_slice_633 = tensor.extract_slice %0[168, 0] [1, 863] [1, 1] : tensor<512x1024xf32> to tensor<1x863xf32>
    %extracted_slice_634 = tensor.extract_slice %0[168, 863] [1, 161] [1, 1] : tensor<512x1024xf32> to tensor<1x161xf32>
    %inserted_slice_635 = tensor.insert_slice %extracted_slice_633 into %11[0, 161] [1, 863] [1, 1] : tensor<1x863xf32> into tensor<1x1024xf32>
    %inserted_slice_636 = tensor.insert_slice %extracted_slice_634 into %inserted_slice_635[0, 0] [1, 161] [1, 1] : tensor<1x161xf32> into tensor<1x1024xf32>
    %extracted_slice_637 = tensor.extract_slice %0[169, 0] [1, 863] [1, 1] : tensor<512x1024xf32> to tensor<1x863xf32>
    %extracted_slice_638 = tensor.extract_slice %0[169, 863] [1, 161] [1, 1] : tensor<512x1024xf32> to tensor<1x161xf32>
    %inserted_slice_639 = tensor.insert_slice %extracted_slice_637 into %11[0, 161] [1, 863] [1, 1] : tensor<1x863xf32> into tensor<1x1024xf32>
    %inserted_slice_640 = tensor.insert_slice %extracted_slice_638 into %inserted_slice_639[0, 0] [1, 161] [1, 1] : tensor<1x161xf32> into tensor<1x1024xf32>
    %extracted_slice_641 = tensor.extract_slice %0[170, 0] [1, 863] [1, 1] : tensor<512x1024xf32> to tensor<1x863xf32>
    %extracted_slice_642 = tensor.extract_slice %0[170, 863] [1, 161] [1, 1] : tensor<512x1024xf32> to tensor<1x161xf32>
    %inserted_slice_643 = tensor.insert_slice %extracted_slice_641 into %11[0, 161] [1, 863] [1, 1] : tensor<1x863xf32> into tensor<1x1024xf32>
    %inserted_slice_644 = tensor.insert_slice %extracted_slice_642 into %inserted_slice_643[0, 0] [1, 161] [1, 1] : tensor<1x161xf32> into tensor<1x1024xf32>
    %extracted_slice_645 = tensor.extract_slice %0[171, 0] [1, 863] [1, 1] : tensor<512x1024xf32> to tensor<1x863xf32>
    %extracted_slice_646 = tensor.extract_slice %0[171, 863] [1, 161] [1, 1] : tensor<512x1024xf32> to tensor<1x161xf32>
    %inserted_slice_647 = tensor.insert_slice %extracted_slice_645 into %11[0, 161] [1, 863] [1, 1] : tensor<1x863xf32> into tensor<1x1024xf32>
    %inserted_slice_648 = tensor.insert_slice %extracted_slice_646 into %inserted_slice_647[0, 0] [1, 161] [1, 1] : tensor<1x161xf32> into tensor<1x1024xf32>
    %extracted_slice_649 = tensor.extract_slice %0[172, 0] [1, 863] [1, 1] : tensor<512x1024xf32> to tensor<1x863xf32>
    %extracted_slice_650 = tensor.extract_slice %0[172, 863] [1, 161] [1, 1] : tensor<512x1024xf32> to tensor<1x161xf32>
    %inserted_slice_651 = tensor.insert_slice %extracted_slice_649 into %11[0, 161] [1, 863] [1, 1] : tensor<1x863xf32> into tensor<1x1024xf32>
    %inserted_slice_652 = tensor.insert_slice %extracted_slice_650 into %inserted_slice_651[0, 0] [1, 161] [1, 1] : tensor<1x161xf32> into tensor<1x1024xf32>
    %extracted_slice_653 = tensor.extract_slice %0[173, 0] [1, 863] [1, 1] : tensor<512x1024xf32> to tensor<1x863xf32>
    %extracted_slice_654 = tensor.extract_slice %0[173, 863] [1, 161] [1, 1] : tensor<512x1024xf32> to tensor<1x161xf32>
    %inserted_slice_655 = tensor.insert_slice %extracted_slice_653 into %11[0, 161] [1, 863] [1, 1] : tensor<1x863xf32> into tensor<1x1024xf32>
    %inserted_slice_656 = tensor.insert_slice %extracted_slice_654 into %inserted_slice_655[0, 0] [1, 161] [1, 1] : tensor<1x161xf32> into tensor<1x1024xf32>
    %extracted_slice_657 = tensor.extract_slice %0[174, 0] [1, 863] [1, 1] : tensor<512x1024xf32> to tensor<1x863xf32>
    %extracted_slice_658 = tensor.extract_slice %0[174, 863] [1, 161] [1, 1] : tensor<512x1024xf32> to tensor<1x161xf32>
    %inserted_slice_659 = tensor.insert_slice %extracted_slice_657 into %11[0, 161] [1, 863] [1, 1] : tensor<1x863xf32> into tensor<1x1024xf32>
    %inserted_slice_660 = tensor.insert_slice %extracted_slice_658 into %inserted_slice_659[0, 0] [1, 161] [1, 1] : tensor<1x161xf32> into tensor<1x1024xf32>
    %extracted_slice_661 = tensor.extract_slice %0[175, 0] [1, 863] [1, 1] : tensor<512x1024xf32> to tensor<1x863xf32>
    %extracted_slice_662 = tensor.extract_slice %0[175, 863] [1, 161] [1, 1] : tensor<512x1024xf32> to tensor<1x161xf32>
    %inserted_slice_663 = tensor.insert_slice %extracted_slice_661 into %11[0, 161] [1, 863] [1, 1] : tensor<1x863xf32> into tensor<1x1024xf32>
    %inserted_slice_664 = tensor.insert_slice %extracted_slice_662 into %inserted_slice_663[0, 0] [1, 161] [1, 1] : tensor<1x161xf32> into tensor<1x1024xf32>
    %extracted_slice_665 = tensor.extract_slice %0[176, 0] [1, 863] [1, 1] : tensor<512x1024xf32> to tensor<1x863xf32>
    %extracted_slice_666 = tensor.extract_slice %0[176, 863] [1, 161] [1, 1] : tensor<512x1024xf32> to tensor<1x161xf32>
    %inserted_slice_667 = tensor.insert_slice %extracted_slice_665 into %11[0, 161] [1, 863] [1, 1] : tensor<1x863xf32> into tensor<1x1024xf32>
    %inserted_slice_668 = tensor.insert_slice %extracted_slice_666 into %inserted_slice_667[0, 0] [1, 161] [1, 1] : tensor<1x161xf32> into tensor<1x1024xf32>
    %extracted_slice_669 = tensor.extract_slice %0[177, 0] [1, 863] [1, 1] : tensor<512x1024xf32> to tensor<1x863xf32>
    %extracted_slice_670 = tensor.extract_slice %0[177, 863] [1, 161] [1, 1] : tensor<512x1024xf32> to tensor<1x161xf32>
    %inserted_slice_671 = tensor.insert_slice %extracted_slice_669 into %11[0, 161] [1, 863] [1, 1] : tensor<1x863xf32> into tensor<1x1024xf32>
    %inserted_slice_672 = tensor.insert_slice %extracted_slice_670 into %inserted_slice_671[0, 0] [1, 161] [1, 1] : tensor<1x161xf32> into tensor<1x1024xf32>
    %extracted_slice_673 = tensor.extract_slice %0[178, 0] [1, 863] [1, 1] : tensor<512x1024xf32> to tensor<1x863xf32>
    %extracted_slice_674 = tensor.extract_slice %0[178, 863] [1, 161] [1, 1] : tensor<512x1024xf32> to tensor<1x161xf32>
    %inserted_slice_675 = tensor.insert_slice %extracted_slice_673 into %11[0, 161] [1, 863] [1, 1] : tensor<1x863xf32> into tensor<1x1024xf32>
    %inserted_slice_676 = tensor.insert_slice %extracted_slice_674 into %inserted_slice_675[0, 0] [1, 161] [1, 1] : tensor<1x161xf32> into tensor<1x1024xf32>
    %extracted_slice_677 = tensor.extract_slice %0[179, 0] [1, 863] [1, 1] : tensor<512x1024xf32> to tensor<1x863xf32>
    %extracted_slice_678 = tensor.extract_slice %0[179, 863] [1, 161] [1, 1] : tensor<512x1024xf32> to tensor<1x161xf32>
    %inserted_slice_679 = tensor.insert_slice %extracted_slice_677 into %11[0, 161] [1, 863] [1, 1] : tensor<1x863xf32> into tensor<1x1024xf32>
    %inserted_slice_680 = tensor.insert_slice %extracted_slice_678 into %inserted_slice_679[0, 0] [1, 161] [1, 1] : tensor<1x161xf32> into tensor<1x1024xf32>
    %extracted_slice_681 = tensor.extract_slice %0[180, 0] [1, 863] [1, 1] : tensor<512x1024xf32> to tensor<1x863xf32>
    %extracted_slice_682 = tensor.extract_slice %0[180, 863] [1, 161] [1, 1] : tensor<512x1024xf32> to tensor<1x161xf32>
    %inserted_slice_683 = tensor.insert_slice %extracted_slice_681 into %11[0, 161] [1, 863] [1, 1] : tensor<1x863xf32> into tensor<1x1024xf32>
    %inserted_slice_684 = tensor.insert_slice %extracted_slice_682 into %inserted_slice_683[0, 0] [1, 161] [1, 1] : tensor<1x161xf32> into tensor<1x1024xf32>
    %extracted_slice_685 = tensor.extract_slice %0[181, 0] [1, 863] [1, 1] : tensor<512x1024xf32> to tensor<1x863xf32>
    %extracted_slice_686 = tensor.extract_slice %0[181, 863] [1, 161] [1, 1] : tensor<512x1024xf32> to tensor<1x161xf32>
    %inserted_slice_687 = tensor.insert_slice %extracted_slice_685 into %11[0, 161] [1, 863] [1, 1] : tensor<1x863xf32> into tensor<1x1024xf32>
    %inserted_slice_688 = tensor.insert_slice %extracted_slice_686 into %inserted_slice_687[0, 0] [1, 161] [1, 1] : tensor<1x161xf32> into tensor<1x1024xf32>
    %extracted_slice_689 = tensor.extract_slice %0[182, 0] [1, 863] [1, 1] : tensor<512x1024xf32> to tensor<1x863xf32>
    %extracted_slice_690 = tensor.extract_slice %0[182, 863] [1, 161] [1, 1] : tensor<512x1024xf32> to tensor<1x161xf32>
    %inserted_slice_691 = tensor.insert_slice %extracted_slice_689 into %11[0, 161] [1, 863] [1, 1] : tensor<1x863xf32> into tensor<1x1024xf32>
    %inserted_slice_692 = tensor.insert_slice %extracted_slice_690 into %inserted_slice_691[0, 0] [1, 161] [1, 1] : tensor<1x161xf32> into tensor<1x1024xf32>
    %extracted_slice_693 = tensor.extract_slice %0[183, 0] [1, 863] [1, 1] : tensor<512x1024xf32> to tensor<1x863xf32>
    %extracted_slice_694 = tensor.extract_slice %0[183, 863] [1, 161] [1, 1] : tensor<512x1024xf32> to tensor<1x161xf32>
    %inserted_slice_695 = tensor.insert_slice %extracted_slice_693 into %11[0, 161] [1, 863] [1, 1] : tensor<1x863xf32> into tensor<1x1024xf32>
    %inserted_slice_696 = tensor.insert_slice %extracted_slice_694 into %inserted_slice_695[0, 0] [1, 161] [1, 1] : tensor<1x161xf32> into tensor<1x1024xf32>
    %extracted_slice_697 = tensor.extract_slice %0[184, 0] [1, 840] [1, 1] : tensor<512x1024xf32> to tensor<1x840xf32>
    %extracted_slice_698 = tensor.extract_slice %0[184, 840] [1, 184] [1, 1] : tensor<512x1024xf32> to tensor<1x184xf32>
    %inserted_slice_699 = tensor.insert_slice %extracted_slice_697 into %11[0, 184] [1, 840] [1, 1] : tensor<1x840xf32> into tensor<1x1024xf32>
    %inserted_slice_700 = tensor.insert_slice %extracted_slice_698 into %inserted_slice_699[0, 0] [1, 184] [1, 1] : tensor<1x184xf32> into tensor<1x1024xf32>
    %extracted_slice_701 = tensor.extract_slice %0[185, 0] [1, 840] [1, 1] : tensor<512x1024xf32> to tensor<1x840xf32>
    %extracted_slice_702 = tensor.extract_slice %0[185, 840] [1, 184] [1, 1] : tensor<512x1024xf32> to tensor<1x184xf32>
    %inserted_slice_703 = tensor.insert_slice %extracted_slice_701 into %11[0, 184] [1, 840] [1, 1] : tensor<1x840xf32> into tensor<1x1024xf32>
    %inserted_slice_704 = tensor.insert_slice %extracted_slice_702 into %inserted_slice_703[0, 0] [1, 184] [1, 1] : tensor<1x184xf32> into tensor<1x1024xf32>
    %extracted_slice_705 = tensor.extract_slice %0[186, 0] [1, 840] [1, 1] : tensor<512x1024xf32> to tensor<1x840xf32>
    %extracted_slice_706 = tensor.extract_slice %0[186, 840] [1, 184] [1, 1] : tensor<512x1024xf32> to tensor<1x184xf32>
    %inserted_slice_707 = tensor.insert_slice %extracted_slice_705 into %11[0, 184] [1, 840] [1, 1] : tensor<1x840xf32> into tensor<1x1024xf32>
    %inserted_slice_708 = tensor.insert_slice %extracted_slice_706 into %inserted_slice_707[0, 0] [1, 184] [1, 1] : tensor<1x184xf32> into tensor<1x1024xf32>
    %extracted_slice_709 = tensor.extract_slice %0[187, 0] [1, 840] [1, 1] : tensor<512x1024xf32> to tensor<1x840xf32>
    %extracted_slice_710 = tensor.extract_slice %0[187, 840] [1, 184] [1, 1] : tensor<512x1024xf32> to tensor<1x184xf32>
    %inserted_slice_711 = tensor.insert_slice %extracted_slice_709 into %11[0, 184] [1, 840] [1, 1] : tensor<1x840xf32> into tensor<1x1024xf32>
    %inserted_slice_712 = tensor.insert_slice %extracted_slice_710 into %inserted_slice_711[0, 0] [1, 184] [1, 1] : tensor<1x184xf32> into tensor<1x1024xf32>
    %extracted_slice_713 = tensor.extract_slice %0[188, 0] [1, 840] [1, 1] : tensor<512x1024xf32> to tensor<1x840xf32>
    %extracted_slice_714 = tensor.extract_slice %0[188, 840] [1, 184] [1, 1] : tensor<512x1024xf32> to tensor<1x184xf32>
    %inserted_slice_715 = tensor.insert_slice %extracted_slice_713 into %11[0, 184] [1, 840] [1, 1] : tensor<1x840xf32> into tensor<1x1024xf32>
    %inserted_slice_716 = tensor.insert_slice %extracted_slice_714 into %inserted_slice_715[0, 0] [1, 184] [1, 1] : tensor<1x184xf32> into tensor<1x1024xf32>
    %extracted_slice_717 = tensor.extract_slice %0[189, 0] [1, 840] [1, 1] : tensor<512x1024xf32> to tensor<1x840xf32>
    %extracted_slice_718 = tensor.extract_slice %0[189, 840] [1, 184] [1, 1] : tensor<512x1024xf32> to tensor<1x184xf32>
    %inserted_slice_719 = tensor.insert_slice %extracted_slice_717 into %11[0, 184] [1, 840] [1, 1] : tensor<1x840xf32> into tensor<1x1024xf32>
    %inserted_slice_720 = tensor.insert_slice %extracted_slice_718 into %inserted_slice_719[0, 0] [1, 184] [1, 1] : tensor<1x184xf32> into tensor<1x1024xf32>
    %extracted_slice_721 = tensor.extract_slice %0[190, 0] [1, 840] [1, 1] : tensor<512x1024xf32> to tensor<1x840xf32>
    %extracted_slice_722 = tensor.extract_slice %0[190, 840] [1, 184] [1, 1] : tensor<512x1024xf32> to tensor<1x184xf32>
    %inserted_slice_723 = tensor.insert_slice %extracted_slice_721 into %11[0, 184] [1, 840] [1, 1] : tensor<1x840xf32> into tensor<1x1024xf32>
    %inserted_slice_724 = tensor.insert_slice %extracted_slice_722 into %inserted_slice_723[0, 0] [1, 184] [1, 1] : tensor<1x184xf32> into tensor<1x1024xf32>
    %extracted_slice_725 = tensor.extract_slice %0[191, 0] [1, 840] [1, 1] : tensor<512x1024xf32> to tensor<1x840xf32>
    %extracted_slice_726 = tensor.extract_slice %0[191, 840] [1, 184] [1, 1] : tensor<512x1024xf32> to tensor<1x184xf32>
    %inserted_slice_727 = tensor.insert_slice %extracted_slice_725 into %11[0, 184] [1, 840] [1, 1] : tensor<1x840xf32> into tensor<1x1024xf32>
    %inserted_slice_728 = tensor.insert_slice %extracted_slice_726 into %inserted_slice_727[0, 0] [1, 184] [1, 1] : tensor<1x184xf32> into tensor<1x1024xf32>
    %extracted_slice_729 = tensor.extract_slice %0[192, 0] [1, 840] [1, 1] : tensor<512x1024xf32> to tensor<1x840xf32>
    %extracted_slice_730 = tensor.extract_slice %0[192, 840] [1, 184] [1, 1] : tensor<512x1024xf32> to tensor<1x184xf32>
    %inserted_slice_731 = tensor.insert_slice %extracted_slice_729 into %11[0, 184] [1, 840] [1, 1] : tensor<1x840xf32> into tensor<1x1024xf32>
    %inserted_slice_732 = tensor.insert_slice %extracted_slice_730 into %inserted_slice_731[0, 0] [1, 184] [1, 1] : tensor<1x184xf32> into tensor<1x1024xf32>
    %extracted_slice_733 = tensor.extract_slice %0[193, 0] [1, 840] [1, 1] : tensor<512x1024xf32> to tensor<1x840xf32>
    %extracted_slice_734 = tensor.extract_slice %0[193, 840] [1, 184] [1, 1] : tensor<512x1024xf32> to tensor<1x184xf32>
    %inserted_slice_735 = tensor.insert_slice %extracted_slice_733 into %11[0, 184] [1, 840] [1, 1] : tensor<1x840xf32> into tensor<1x1024xf32>
    %inserted_slice_736 = tensor.insert_slice %extracted_slice_734 into %inserted_slice_735[0, 0] [1, 184] [1, 1] : tensor<1x184xf32> into tensor<1x1024xf32>
    %extracted_slice_737 = tensor.extract_slice %0[194, 0] [1, 840] [1, 1] : tensor<512x1024xf32> to tensor<1x840xf32>
    %extracted_slice_738 = tensor.extract_slice %0[194, 840] [1, 184] [1, 1] : tensor<512x1024xf32> to tensor<1x184xf32>
    %inserted_slice_739 = tensor.insert_slice %extracted_slice_737 into %11[0, 184] [1, 840] [1, 1] : tensor<1x840xf32> into tensor<1x1024xf32>
    %inserted_slice_740 = tensor.insert_slice %extracted_slice_738 into %inserted_slice_739[0, 0] [1, 184] [1, 1] : tensor<1x184xf32> into tensor<1x1024xf32>
    %extracted_slice_741 = tensor.extract_slice %0[195, 0] [1, 840] [1, 1] : tensor<512x1024xf32> to tensor<1x840xf32>
    %extracted_slice_742 = tensor.extract_slice %0[195, 840] [1, 184] [1, 1] : tensor<512x1024xf32> to tensor<1x184xf32>
    %inserted_slice_743 = tensor.insert_slice %extracted_slice_741 into %11[0, 184] [1, 840] [1, 1] : tensor<1x840xf32> into tensor<1x1024xf32>
    %inserted_slice_744 = tensor.insert_slice %extracted_slice_742 into %inserted_slice_743[0, 0] [1, 184] [1, 1] : tensor<1x184xf32> into tensor<1x1024xf32>
    %extracted_slice_745 = tensor.extract_slice %0[196, 0] [1, 840] [1, 1] : tensor<512x1024xf32> to tensor<1x840xf32>
    %extracted_slice_746 = tensor.extract_slice %0[196, 840] [1, 184] [1, 1] : tensor<512x1024xf32> to tensor<1x184xf32>
    %inserted_slice_747 = tensor.insert_slice %extracted_slice_745 into %11[0, 184] [1, 840] [1, 1] : tensor<1x840xf32> into tensor<1x1024xf32>
    %inserted_slice_748 = tensor.insert_slice %extracted_slice_746 into %inserted_slice_747[0, 0] [1, 184] [1, 1] : tensor<1x184xf32> into tensor<1x1024xf32>
    %extracted_slice_749 = tensor.extract_slice %0[197, 0] [1, 840] [1, 1] : tensor<512x1024xf32> to tensor<1x840xf32>
    %extracted_slice_750 = tensor.extract_slice %0[197, 840] [1, 184] [1, 1] : tensor<512x1024xf32> to tensor<1x184xf32>
    %inserted_slice_751 = tensor.insert_slice %extracted_slice_749 into %11[0, 184] [1, 840] [1, 1] : tensor<1x840xf32> into tensor<1x1024xf32>
    %inserted_slice_752 = tensor.insert_slice %extracted_slice_750 into %inserted_slice_751[0, 0] [1, 184] [1, 1] : tensor<1x184xf32> into tensor<1x1024xf32>
    %extracted_slice_753 = tensor.extract_slice %0[198, 0] [1, 840] [1, 1] : tensor<512x1024xf32> to tensor<1x840xf32>
    %extracted_slice_754 = tensor.extract_slice %0[198, 840] [1, 184] [1, 1] : tensor<512x1024xf32> to tensor<1x184xf32>
    %inserted_slice_755 = tensor.insert_slice %extracted_slice_753 into %11[0, 184] [1, 840] [1, 1] : tensor<1x840xf32> into tensor<1x1024xf32>
    %inserted_slice_756 = tensor.insert_slice %extracted_slice_754 into %inserted_slice_755[0, 0] [1, 184] [1, 1] : tensor<1x184xf32> into tensor<1x1024xf32>
    %extracted_slice_757 = tensor.extract_slice %0[199, 0] [1, 840] [1, 1] : tensor<512x1024xf32> to tensor<1x840xf32>
    %extracted_slice_758 = tensor.extract_slice %0[199, 840] [1, 184] [1, 1] : tensor<512x1024xf32> to tensor<1x184xf32>
    %inserted_slice_759 = tensor.insert_slice %extracted_slice_757 into %11[0, 184] [1, 840] [1, 1] : tensor<1x840xf32> into tensor<1x1024xf32>
    %inserted_slice_760 = tensor.insert_slice %extracted_slice_758 into %inserted_slice_759[0, 0] [1, 184] [1, 1] : tensor<1x184xf32> into tensor<1x1024xf32>
    %extracted_slice_761 = tensor.extract_slice %0[200, 0] [1, 840] [1, 1] : tensor<512x1024xf32> to tensor<1x840xf32>
    %extracted_slice_762 = tensor.extract_slice %0[200, 840] [1, 184] [1, 1] : tensor<512x1024xf32> to tensor<1x184xf32>
    %inserted_slice_763 = tensor.insert_slice %extracted_slice_761 into %11[0, 184] [1, 840] [1, 1] : tensor<1x840xf32> into tensor<1x1024xf32>
    %inserted_slice_764 = tensor.insert_slice %extracted_slice_762 into %inserted_slice_763[0, 0] [1, 184] [1, 1] : tensor<1x184xf32> into tensor<1x1024xf32>
    %extracted_slice_765 = tensor.extract_slice %0[201, 0] [1, 840] [1, 1] : tensor<512x1024xf32> to tensor<1x840xf32>
    %extracted_slice_766 = tensor.extract_slice %0[201, 840] [1, 184] [1, 1] : tensor<512x1024xf32> to tensor<1x184xf32>
    %inserted_slice_767 = tensor.insert_slice %extracted_slice_765 into %11[0, 184] [1, 840] [1, 1] : tensor<1x840xf32> into tensor<1x1024xf32>
    %inserted_slice_768 = tensor.insert_slice %extracted_slice_766 into %inserted_slice_767[0, 0] [1, 184] [1, 1] : tensor<1x184xf32> into tensor<1x1024xf32>
    %extracted_slice_769 = tensor.extract_slice %0[202, 0] [1, 840] [1, 1] : tensor<512x1024xf32> to tensor<1x840xf32>
    %extracted_slice_770 = tensor.extract_slice %0[202, 840] [1, 184] [1, 1] : tensor<512x1024xf32> to tensor<1x184xf32>
    %inserted_slice_771 = tensor.insert_slice %extracted_slice_769 into %11[0, 184] [1, 840] [1, 1] : tensor<1x840xf32> into tensor<1x1024xf32>
    %inserted_slice_772 = tensor.insert_slice %extracted_slice_770 into %inserted_slice_771[0, 0] [1, 184] [1, 1] : tensor<1x184xf32> into tensor<1x1024xf32>
    %extracted_slice_773 = tensor.extract_slice %0[203, 0] [1, 840] [1, 1] : tensor<512x1024xf32> to tensor<1x840xf32>
    %extracted_slice_774 = tensor.extract_slice %0[203, 840] [1, 184] [1, 1] : tensor<512x1024xf32> to tensor<1x184xf32>
    %inserted_slice_775 = tensor.insert_slice %extracted_slice_773 into %11[0, 184] [1, 840] [1, 1] : tensor<1x840xf32> into tensor<1x1024xf32>
    %inserted_slice_776 = tensor.insert_slice %extracted_slice_774 into %inserted_slice_775[0, 0] [1, 184] [1, 1] : tensor<1x184xf32> into tensor<1x1024xf32>
    %extracted_slice_777 = tensor.extract_slice %0[204, 0] [1, 840] [1, 1] : tensor<512x1024xf32> to tensor<1x840xf32>
    %extracted_slice_778 = tensor.extract_slice %0[204, 840] [1, 184] [1, 1] : tensor<512x1024xf32> to tensor<1x184xf32>
    %inserted_slice_779 = tensor.insert_slice %extracted_slice_777 into %11[0, 184] [1, 840] [1, 1] : tensor<1x840xf32> into tensor<1x1024xf32>
    %inserted_slice_780 = tensor.insert_slice %extracted_slice_778 into %inserted_slice_779[0, 0] [1, 184] [1, 1] : tensor<1x184xf32> into tensor<1x1024xf32>
    %extracted_slice_781 = tensor.extract_slice %0[205, 0] [1, 840] [1, 1] : tensor<512x1024xf32> to tensor<1x840xf32>
    %extracted_slice_782 = tensor.extract_slice %0[205, 840] [1, 184] [1, 1] : tensor<512x1024xf32> to tensor<1x184xf32>
    %inserted_slice_783 = tensor.insert_slice %extracted_slice_781 into %11[0, 184] [1, 840] [1, 1] : tensor<1x840xf32> into tensor<1x1024xf32>
    %inserted_slice_784 = tensor.insert_slice %extracted_slice_782 into %inserted_slice_783[0, 0] [1, 184] [1, 1] : tensor<1x184xf32> into tensor<1x1024xf32>
    %extracted_slice_785 = tensor.extract_slice %0[206, 0] [1, 840] [1, 1] : tensor<512x1024xf32> to tensor<1x840xf32>
    %extracted_slice_786 = tensor.extract_slice %0[206, 840] [1, 184] [1, 1] : tensor<512x1024xf32> to tensor<1x184xf32>
    %inserted_slice_787 = tensor.insert_slice %extracted_slice_785 into %11[0, 184] [1, 840] [1, 1] : tensor<1x840xf32> into tensor<1x1024xf32>
    %inserted_slice_788 = tensor.insert_slice %extracted_slice_786 into %inserted_slice_787[0, 0] [1, 184] [1, 1] : tensor<1x184xf32> into tensor<1x1024xf32>
    %extracted_slice_789 = tensor.extract_slice %0[207, 0] [1, 817] [1, 1] : tensor<512x1024xf32> to tensor<1x817xf32>
    %extracted_slice_790 = tensor.extract_slice %0[207, 817] [1, 207] [1, 1] : tensor<512x1024xf32> to tensor<1x207xf32>
    %inserted_slice_791 = tensor.insert_slice %extracted_slice_789 into %11[0, 207] [1, 817] [1, 1] : tensor<1x817xf32> into tensor<1x1024xf32>
    %inserted_slice_792 = tensor.insert_slice %extracted_slice_790 into %inserted_slice_791[0, 0] [1, 207] [1, 1] : tensor<1x207xf32> into tensor<1x1024xf32>
    %extracted_slice_793 = tensor.extract_slice %0[208, 0] [1, 817] [1, 1] : tensor<512x1024xf32> to tensor<1x817xf32>
    %extracted_slice_794 = tensor.extract_slice %0[208, 817] [1, 207] [1, 1] : tensor<512x1024xf32> to tensor<1x207xf32>
    %inserted_slice_795 = tensor.insert_slice %extracted_slice_793 into %11[0, 207] [1, 817] [1, 1] : tensor<1x817xf32> into tensor<1x1024xf32>
    %inserted_slice_796 = tensor.insert_slice %extracted_slice_794 into %inserted_slice_795[0, 0] [1, 207] [1, 1] : tensor<1x207xf32> into tensor<1x1024xf32>
    %extracted_slice_797 = tensor.extract_slice %0[209, 0] [1, 817] [1, 1] : tensor<512x1024xf32> to tensor<1x817xf32>
    %extracted_slice_798 = tensor.extract_slice %0[209, 817] [1, 207] [1, 1] : tensor<512x1024xf32> to tensor<1x207xf32>
    %inserted_slice_799 = tensor.insert_slice %extracted_slice_797 into %11[0, 207] [1, 817] [1, 1] : tensor<1x817xf32> into tensor<1x1024xf32>
    %inserted_slice_800 = tensor.insert_slice %extracted_slice_798 into %inserted_slice_799[0, 0] [1, 207] [1, 1] : tensor<1x207xf32> into tensor<1x1024xf32>
    %extracted_slice_801 = tensor.extract_slice %0[210, 0] [1, 817] [1, 1] : tensor<512x1024xf32> to tensor<1x817xf32>
    %extracted_slice_802 = tensor.extract_slice %0[210, 817] [1, 207] [1, 1] : tensor<512x1024xf32> to tensor<1x207xf32>
    %inserted_slice_803 = tensor.insert_slice %extracted_slice_801 into %11[0, 207] [1, 817] [1, 1] : tensor<1x817xf32> into tensor<1x1024xf32>
    %inserted_slice_804 = tensor.insert_slice %extracted_slice_802 into %inserted_slice_803[0, 0] [1, 207] [1, 1] : tensor<1x207xf32> into tensor<1x1024xf32>
    %extracted_slice_805 = tensor.extract_slice %0[211, 0] [1, 817] [1, 1] : tensor<512x1024xf32> to tensor<1x817xf32>
    %extracted_slice_806 = tensor.extract_slice %0[211, 817] [1, 207] [1, 1] : tensor<512x1024xf32> to tensor<1x207xf32>
    %inserted_slice_807 = tensor.insert_slice %extracted_slice_805 into %11[0, 207] [1, 817] [1, 1] : tensor<1x817xf32> into tensor<1x1024xf32>
    %inserted_slice_808 = tensor.insert_slice %extracted_slice_806 into %inserted_slice_807[0, 0] [1, 207] [1, 1] : tensor<1x207xf32> into tensor<1x1024xf32>
    %extracted_slice_809 = tensor.extract_slice %0[212, 0] [1, 817] [1, 1] : tensor<512x1024xf32> to tensor<1x817xf32>
    %extracted_slice_810 = tensor.extract_slice %0[212, 817] [1, 207] [1, 1] : tensor<512x1024xf32> to tensor<1x207xf32>
    %inserted_slice_811 = tensor.insert_slice %extracted_slice_809 into %11[0, 207] [1, 817] [1, 1] : tensor<1x817xf32> into tensor<1x1024xf32>
    %inserted_slice_812 = tensor.insert_slice %extracted_slice_810 into %inserted_slice_811[0, 0] [1, 207] [1, 1] : tensor<1x207xf32> into tensor<1x1024xf32>
    %extracted_slice_813 = tensor.extract_slice %0[213, 0] [1, 817] [1, 1] : tensor<512x1024xf32> to tensor<1x817xf32>
    %extracted_slice_814 = tensor.extract_slice %0[213, 817] [1, 207] [1, 1] : tensor<512x1024xf32> to tensor<1x207xf32>
    %inserted_slice_815 = tensor.insert_slice %extracted_slice_813 into %11[0, 207] [1, 817] [1, 1] : tensor<1x817xf32> into tensor<1x1024xf32>
    %inserted_slice_816 = tensor.insert_slice %extracted_slice_814 into %inserted_slice_815[0, 0] [1, 207] [1, 1] : tensor<1x207xf32> into tensor<1x1024xf32>
    %extracted_slice_817 = tensor.extract_slice %0[214, 0] [1, 817] [1, 1] : tensor<512x1024xf32> to tensor<1x817xf32>
    %extracted_slice_818 = tensor.extract_slice %0[214, 817] [1, 207] [1, 1] : tensor<512x1024xf32> to tensor<1x207xf32>
    %inserted_slice_819 = tensor.insert_slice %extracted_slice_817 into %11[0, 207] [1, 817] [1, 1] : tensor<1x817xf32> into tensor<1x1024xf32>
    %inserted_slice_820 = tensor.insert_slice %extracted_slice_818 into %inserted_slice_819[0, 0] [1, 207] [1, 1] : tensor<1x207xf32> into tensor<1x1024xf32>
    %extracted_slice_821 = tensor.extract_slice %0[215, 0] [1, 817] [1, 1] : tensor<512x1024xf32> to tensor<1x817xf32>
    %extracted_slice_822 = tensor.extract_slice %0[215, 817] [1, 207] [1, 1] : tensor<512x1024xf32> to tensor<1x207xf32>
    %inserted_slice_823 = tensor.insert_slice %extracted_slice_821 into %11[0, 207] [1, 817] [1, 1] : tensor<1x817xf32> into tensor<1x1024xf32>
    %inserted_slice_824 = tensor.insert_slice %extracted_slice_822 into %inserted_slice_823[0, 0] [1, 207] [1, 1] : tensor<1x207xf32> into tensor<1x1024xf32>
    %extracted_slice_825 = tensor.extract_slice %0[216, 0] [1, 817] [1, 1] : tensor<512x1024xf32> to tensor<1x817xf32>
    %extracted_slice_826 = tensor.extract_slice %0[216, 817] [1, 207] [1, 1] : tensor<512x1024xf32> to tensor<1x207xf32>
    %inserted_slice_827 = tensor.insert_slice %extracted_slice_825 into %11[0, 207] [1, 817] [1, 1] : tensor<1x817xf32> into tensor<1x1024xf32>
    %inserted_slice_828 = tensor.insert_slice %extracted_slice_826 into %inserted_slice_827[0, 0] [1, 207] [1, 1] : tensor<1x207xf32> into tensor<1x1024xf32>
    %extracted_slice_829 = tensor.extract_slice %0[217, 0] [1, 817] [1, 1] : tensor<512x1024xf32> to tensor<1x817xf32>
    %extracted_slice_830 = tensor.extract_slice %0[217, 817] [1, 207] [1, 1] : tensor<512x1024xf32> to tensor<1x207xf32>
    %inserted_slice_831 = tensor.insert_slice %extracted_slice_829 into %11[0, 207] [1, 817] [1, 1] : tensor<1x817xf32> into tensor<1x1024xf32>
    %inserted_slice_832 = tensor.insert_slice %extracted_slice_830 into %inserted_slice_831[0, 0] [1, 207] [1, 1] : tensor<1x207xf32> into tensor<1x1024xf32>
    %extracted_slice_833 = tensor.extract_slice %0[218, 0] [1, 817] [1, 1] : tensor<512x1024xf32> to tensor<1x817xf32>
    %extracted_slice_834 = tensor.extract_slice %0[218, 817] [1, 207] [1, 1] : tensor<512x1024xf32> to tensor<1x207xf32>
    %inserted_slice_835 = tensor.insert_slice %extracted_slice_833 into %11[0, 207] [1, 817] [1, 1] : tensor<1x817xf32> into tensor<1x1024xf32>
    %inserted_slice_836 = tensor.insert_slice %extracted_slice_834 into %inserted_slice_835[0, 0] [1, 207] [1, 1] : tensor<1x207xf32> into tensor<1x1024xf32>
    %extracted_slice_837 = tensor.extract_slice %0[219, 0] [1, 817] [1, 1] : tensor<512x1024xf32> to tensor<1x817xf32>
    %extracted_slice_838 = tensor.extract_slice %0[219, 817] [1, 207] [1, 1] : tensor<512x1024xf32> to tensor<1x207xf32>
    %inserted_slice_839 = tensor.insert_slice %extracted_slice_837 into %11[0, 207] [1, 817] [1, 1] : tensor<1x817xf32> into tensor<1x1024xf32>
    %inserted_slice_840 = tensor.insert_slice %extracted_slice_838 into %inserted_slice_839[0, 0] [1, 207] [1, 1] : tensor<1x207xf32> into tensor<1x1024xf32>
    %extracted_slice_841 = tensor.extract_slice %0[220, 0] [1, 817] [1, 1] : tensor<512x1024xf32> to tensor<1x817xf32>
    %extracted_slice_842 = tensor.extract_slice %0[220, 817] [1, 207] [1, 1] : tensor<512x1024xf32> to tensor<1x207xf32>
    %inserted_slice_843 = tensor.insert_slice %extracted_slice_841 into %11[0, 207] [1, 817] [1, 1] : tensor<1x817xf32> into tensor<1x1024xf32>
    %inserted_slice_844 = tensor.insert_slice %extracted_slice_842 into %inserted_slice_843[0, 0] [1, 207] [1, 1] : tensor<1x207xf32> into tensor<1x1024xf32>
    %extracted_slice_845 = tensor.extract_slice %0[221, 0] [1, 817] [1, 1] : tensor<512x1024xf32> to tensor<1x817xf32>
    %extracted_slice_846 = tensor.extract_slice %0[221, 817] [1, 207] [1, 1] : tensor<512x1024xf32> to tensor<1x207xf32>
    %inserted_slice_847 = tensor.insert_slice %extracted_slice_845 into %11[0, 207] [1, 817] [1, 1] : tensor<1x817xf32> into tensor<1x1024xf32>
    %inserted_slice_848 = tensor.insert_slice %extracted_slice_846 into %inserted_slice_847[0, 0] [1, 207] [1, 1] : tensor<1x207xf32> into tensor<1x1024xf32>
    %extracted_slice_849 = tensor.extract_slice %0[222, 0] [1, 817] [1, 1] : tensor<512x1024xf32> to tensor<1x817xf32>
    %extracted_slice_850 = tensor.extract_slice %0[222, 817] [1, 207] [1, 1] : tensor<512x1024xf32> to tensor<1x207xf32>
    %inserted_slice_851 = tensor.insert_slice %extracted_slice_849 into %11[0, 207] [1, 817] [1, 1] : tensor<1x817xf32> into tensor<1x1024xf32>
    %inserted_slice_852 = tensor.insert_slice %extracted_slice_850 into %inserted_slice_851[0, 0] [1, 207] [1, 1] : tensor<1x207xf32> into tensor<1x1024xf32>
    %extracted_slice_853 = tensor.extract_slice %0[223, 0] [1, 817] [1, 1] : tensor<512x1024xf32> to tensor<1x817xf32>
    %extracted_slice_854 = tensor.extract_slice %0[223, 817] [1, 207] [1, 1] : tensor<512x1024xf32> to tensor<1x207xf32>
    %inserted_slice_855 = tensor.insert_slice %extracted_slice_853 into %11[0, 207] [1, 817] [1, 1] : tensor<1x817xf32> into tensor<1x1024xf32>
    %inserted_slice_856 = tensor.insert_slice %extracted_slice_854 into %inserted_slice_855[0, 0] [1, 207] [1, 1] : tensor<1x207xf32> into tensor<1x1024xf32>
    %extracted_slice_857 = tensor.extract_slice %0[224, 0] [1, 817] [1, 1] : tensor<512x1024xf32> to tensor<1x817xf32>
    %extracted_slice_858 = tensor.extract_slice %0[224, 817] [1, 207] [1, 1] : tensor<512x1024xf32> to tensor<1x207xf32>
    %inserted_slice_859 = tensor.insert_slice %extracted_slice_857 into %11[0, 207] [1, 817] [1, 1] : tensor<1x817xf32> into tensor<1x1024xf32>
    %inserted_slice_860 = tensor.insert_slice %extracted_slice_858 into %inserted_slice_859[0, 0] [1, 207] [1, 1] : tensor<1x207xf32> into tensor<1x1024xf32>
    %extracted_slice_861 = tensor.extract_slice %0[225, 0] [1, 817] [1, 1] : tensor<512x1024xf32> to tensor<1x817xf32>
    %extracted_slice_862 = tensor.extract_slice %0[225, 817] [1, 207] [1, 1] : tensor<512x1024xf32> to tensor<1x207xf32>
    %inserted_slice_863 = tensor.insert_slice %extracted_slice_861 into %11[0, 207] [1, 817] [1, 1] : tensor<1x817xf32> into tensor<1x1024xf32>
    %inserted_slice_864 = tensor.insert_slice %extracted_slice_862 into %inserted_slice_863[0, 0] [1, 207] [1, 1] : tensor<1x207xf32> into tensor<1x1024xf32>
    %extracted_slice_865 = tensor.extract_slice %0[226, 0] [1, 817] [1, 1] : tensor<512x1024xf32> to tensor<1x817xf32>
    %extracted_slice_866 = tensor.extract_slice %0[226, 817] [1, 207] [1, 1] : tensor<512x1024xf32> to tensor<1x207xf32>
    %inserted_slice_867 = tensor.insert_slice %extracted_slice_865 into %11[0, 207] [1, 817] [1, 1] : tensor<1x817xf32> into tensor<1x1024xf32>
    %inserted_slice_868 = tensor.insert_slice %extracted_slice_866 into %inserted_slice_867[0, 0] [1, 207] [1, 1] : tensor<1x207xf32> into tensor<1x1024xf32>
    %extracted_slice_869 = tensor.extract_slice %0[227, 0] [1, 817] [1, 1] : tensor<512x1024xf32> to tensor<1x817xf32>
    %extracted_slice_870 = tensor.extract_slice %0[227, 817] [1, 207] [1, 1] : tensor<512x1024xf32> to tensor<1x207xf32>
    %inserted_slice_871 = tensor.insert_slice %extracted_slice_869 into %11[0, 207] [1, 817] [1, 1] : tensor<1x817xf32> into tensor<1x1024xf32>
    %inserted_slice_872 = tensor.insert_slice %extracted_slice_870 into %inserted_slice_871[0, 0] [1, 207] [1, 1] : tensor<1x207xf32> into tensor<1x1024xf32>
    %extracted_slice_873 = tensor.extract_slice %0[228, 0] [1, 817] [1, 1] : tensor<512x1024xf32> to tensor<1x817xf32>
    %extracted_slice_874 = tensor.extract_slice %0[228, 817] [1, 207] [1, 1] : tensor<512x1024xf32> to tensor<1x207xf32>
    %inserted_slice_875 = tensor.insert_slice %extracted_slice_873 into %11[0, 207] [1, 817] [1, 1] : tensor<1x817xf32> into tensor<1x1024xf32>
    %inserted_slice_876 = tensor.insert_slice %extracted_slice_874 into %inserted_slice_875[0, 0] [1, 207] [1, 1] : tensor<1x207xf32> into tensor<1x1024xf32>
    %extracted_slice_877 = tensor.extract_slice %0[229, 0] [1, 817] [1, 1] : tensor<512x1024xf32> to tensor<1x817xf32>
    %extracted_slice_878 = tensor.extract_slice %0[229, 817] [1, 207] [1, 1] : tensor<512x1024xf32> to tensor<1x207xf32>
    %inserted_slice_879 = tensor.insert_slice %extracted_slice_877 into %11[0, 207] [1, 817] [1, 1] : tensor<1x817xf32> into tensor<1x1024xf32>
    %inserted_slice_880 = tensor.insert_slice %extracted_slice_878 into %inserted_slice_879[0, 0] [1, 207] [1, 1] : tensor<1x207xf32> into tensor<1x1024xf32>
    %extracted_slice_881 = tensor.extract_slice %0[230, 0] [1, 794] [1, 1] : tensor<512x1024xf32> to tensor<1x794xf32>
    %extracted_slice_882 = tensor.extract_slice %0[230, 794] [1, 230] [1, 1] : tensor<512x1024xf32> to tensor<1x230xf32>
    %inserted_slice_883 = tensor.insert_slice %extracted_slice_881 into %11[0, 230] [1, 794] [1, 1] : tensor<1x794xf32> into tensor<1x1024xf32>
    %inserted_slice_884 = tensor.insert_slice %extracted_slice_882 into %inserted_slice_883[0, 0] [1, 230] [1, 1] : tensor<1x230xf32> into tensor<1x1024xf32>
    %extracted_slice_885 = tensor.extract_slice %0[231, 0] [1, 794] [1, 1] : tensor<512x1024xf32> to tensor<1x794xf32>
    %extracted_slice_886 = tensor.extract_slice %0[231, 794] [1, 230] [1, 1] : tensor<512x1024xf32> to tensor<1x230xf32>
    %inserted_slice_887 = tensor.insert_slice %extracted_slice_885 into %11[0, 230] [1, 794] [1, 1] : tensor<1x794xf32> into tensor<1x1024xf32>
    %inserted_slice_888 = tensor.insert_slice %extracted_slice_886 into %inserted_slice_887[0, 0] [1, 230] [1, 1] : tensor<1x230xf32> into tensor<1x1024xf32>
    %extracted_slice_889 = tensor.extract_slice %0[232, 0] [1, 794] [1, 1] : tensor<512x1024xf32> to tensor<1x794xf32>
    %extracted_slice_890 = tensor.extract_slice %0[232, 794] [1, 230] [1, 1] : tensor<512x1024xf32> to tensor<1x230xf32>
    %inserted_slice_891 = tensor.insert_slice %extracted_slice_889 into %11[0, 230] [1, 794] [1, 1] : tensor<1x794xf32> into tensor<1x1024xf32>
    %inserted_slice_892 = tensor.insert_slice %extracted_slice_890 into %inserted_slice_891[0, 0] [1, 230] [1, 1] : tensor<1x230xf32> into tensor<1x1024xf32>
    %extracted_slice_893 = tensor.extract_slice %0[233, 0] [1, 794] [1, 1] : tensor<512x1024xf32> to tensor<1x794xf32>
    %extracted_slice_894 = tensor.extract_slice %0[233, 794] [1, 230] [1, 1] : tensor<512x1024xf32> to tensor<1x230xf32>
    %inserted_slice_895 = tensor.insert_slice %extracted_slice_893 into %11[0, 230] [1, 794] [1, 1] : tensor<1x794xf32> into tensor<1x1024xf32>
    %inserted_slice_896 = tensor.insert_slice %extracted_slice_894 into %inserted_slice_895[0, 0] [1, 230] [1, 1] : tensor<1x230xf32> into tensor<1x1024xf32>
    %extracted_slice_897 = tensor.extract_slice %0[234, 0] [1, 794] [1, 1] : tensor<512x1024xf32> to tensor<1x794xf32>
    %extracted_slice_898 = tensor.extract_slice %0[234, 794] [1, 230] [1, 1] : tensor<512x1024xf32> to tensor<1x230xf32>
    %inserted_slice_899 = tensor.insert_slice %extracted_slice_897 into %11[0, 230] [1, 794] [1, 1] : tensor<1x794xf32> into tensor<1x1024xf32>
    %inserted_slice_900 = tensor.insert_slice %extracted_slice_898 into %inserted_slice_899[0, 0] [1, 230] [1, 1] : tensor<1x230xf32> into tensor<1x1024xf32>
    %extracted_slice_901 = tensor.extract_slice %0[235, 0] [1, 794] [1, 1] : tensor<512x1024xf32> to tensor<1x794xf32>
    %extracted_slice_902 = tensor.extract_slice %0[235, 794] [1, 230] [1, 1] : tensor<512x1024xf32> to tensor<1x230xf32>
    %inserted_slice_903 = tensor.insert_slice %extracted_slice_901 into %11[0, 230] [1, 794] [1, 1] : tensor<1x794xf32> into tensor<1x1024xf32>
    %inserted_slice_904 = tensor.insert_slice %extracted_slice_902 into %inserted_slice_903[0, 0] [1, 230] [1, 1] : tensor<1x230xf32> into tensor<1x1024xf32>
    %extracted_slice_905 = tensor.extract_slice %0[236, 0] [1, 794] [1, 1] : tensor<512x1024xf32> to tensor<1x794xf32>
    %extracted_slice_906 = tensor.extract_slice %0[236, 794] [1, 230] [1, 1] : tensor<512x1024xf32> to tensor<1x230xf32>
    %inserted_slice_907 = tensor.insert_slice %extracted_slice_905 into %11[0, 230] [1, 794] [1, 1] : tensor<1x794xf32> into tensor<1x1024xf32>
    %inserted_slice_908 = tensor.insert_slice %extracted_slice_906 into %inserted_slice_907[0, 0] [1, 230] [1, 1] : tensor<1x230xf32> into tensor<1x1024xf32>
    %extracted_slice_909 = tensor.extract_slice %0[237, 0] [1, 794] [1, 1] : tensor<512x1024xf32> to tensor<1x794xf32>
    %extracted_slice_910 = tensor.extract_slice %0[237, 794] [1, 230] [1, 1] : tensor<512x1024xf32> to tensor<1x230xf32>
    %inserted_slice_911 = tensor.insert_slice %extracted_slice_909 into %11[0, 230] [1, 794] [1, 1] : tensor<1x794xf32> into tensor<1x1024xf32>
    %inserted_slice_912 = tensor.insert_slice %extracted_slice_910 into %inserted_slice_911[0, 0] [1, 230] [1, 1] : tensor<1x230xf32> into tensor<1x1024xf32>
    %extracted_slice_913 = tensor.extract_slice %0[238, 0] [1, 794] [1, 1] : tensor<512x1024xf32> to tensor<1x794xf32>
    %extracted_slice_914 = tensor.extract_slice %0[238, 794] [1, 230] [1, 1] : tensor<512x1024xf32> to tensor<1x230xf32>
    %inserted_slice_915 = tensor.insert_slice %extracted_slice_913 into %11[0, 230] [1, 794] [1, 1] : tensor<1x794xf32> into tensor<1x1024xf32>
    %inserted_slice_916 = tensor.insert_slice %extracted_slice_914 into %inserted_slice_915[0, 0] [1, 230] [1, 1] : tensor<1x230xf32> into tensor<1x1024xf32>
    %extracted_slice_917 = tensor.extract_slice %0[239, 0] [1, 794] [1, 1] : tensor<512x1024xf32> to tensor<1x794xf32>
    %extracted_slice_918 = tensor.extract_slice %0[239, 794] [1, 230] [1, 1] : tensor<512x1024xf32> to tensor<1x230xf32>
    %inserted_slice_919 = tensor.insert_slice %extracted_slice_917 into %11[0, 230] [1, 794] [1, 1] : tensor<1x794xf32> into tensor<1x1024xf32>
    %inserted_slice_920 = tensor.insert_slice %extracted_slice_918 into %inserted_slice_919[0, 0] [1, 230] [1, 1] : tensor<1x230xf32> into tensor<1x1024xf32>
    %extracted_slice_921 = tensor.extract_slice %0[240, 0] [1, 794] [1, 1] : tensor<512x1024xf32> to tensor<1x794xf32>
    %extracted_slice_922 = tensor.extract_slice %0[240, 794] [1, 230] [1, 1] : tensor<512x1024xf32> to tensor<1x230xf32>
    %inserted_slice_923 = tensor.insert_slice %extracted_slice_921 into %11[0, 230] [1, 794] [1, 1] : tensor<1x794xf32> into tensor<1x1024xf32>
    %inserted_slice_924 = tensor.insert_slice %extracted_slice_922 into %inserted_slice_923[0, 0] [1, 230] [1, 1] : tensor<1x230xf32> into tensor<1x1024xf32>
    %extracted_slice_925 = tensor.extract_slice %0[241, 0] [1, 794] [1, 1] : tensor<512x1024xf32> to tensor<1x794xf32>
    %extracted_slice_926 = tensor.extract_slice %0[241, 794] [1, 230] [1, 1] : tensor<512x1024xf32> to tensor<1x230xf32>
    %inserted_slice_927 = tensor.insert_slice %extracted_slice_925 into %11[0, 230] [1, 794] [1, 1] : tensor<1x794xf32> into tensor<1x1024xf32>
    %inserted_slice_928 = tensor.insert_slice %extracted_slice_926 into %inserted_slice_927[0, 0] [1, 230] [1, 1] : tensor<1x230xf32> into tensor<1x1024xf32>
    %extracted_slice_929 = tensor.extract_slice %0[242, 0] [1, 794] [1, 1] : tensor<512x1024xf32> to tensor<1x794xf32>
    %extracted_slice_930 = tensor.extract_slice %0[242, 794] [1, 230] [1, 1] : tensor<512x1024xf32> to tensor<1x230xf32>
    %inserted_slice_931 = tensor.insert_slice %extracted_slice_929 into %11[0, 230] [1, 794] [1, 1] : tensor<1x794xf32> into tensor<1x1024xf32>
    %inserted_slice_932 = tensor.insert_slice %extracted_slice_930 into %inserted_slice_931[0, 0] [1, 230] [1, 1] : tensor<1x230xf32> into tensor<1x1024xf32>
    %extracted_slice_933 = tensor.extract_slice %0[243, 0] [1, 794] [1, 1] : tensor<512x1024xf32> to tensor<1x794xf32>
    %extracted_slice_934 = tensor.extract_slice %0[243, 794] [1, 230] [1, 1] : tensor<512x1024xf32> to tensor<1x230xf32>
    %inserted_slice_935 = tensor.insert_slice %extracted_slice_933 into %11[0, 230] [1, 794] [1, 1] : tensor<1x794xf32> into tensor<1x1024xf32>
    %inserted_slice_936 = tensor.insert_slice %extracted_slice_934 into %inserted_slice_935[0, 0] [1, 230] [1, 1] : tensor<1x230xf32> into tensor<1x1024xf32>
    %extracted_slice_937 = tensor.extract_slice %0[244, 0] [1, 794] [1, 1] : tensor<512x1024xf32> to tensor<1x794xf32>
    %extracted_slice_938 = tensor.extract_slice %0[244, 794] [1, 230] [1, 1] : tensor<512x1024xf32> to tensor<1x230xf32>
    %inserted_slice_939 = tensor.insert_slice %extracted_slice_937 into %11[0, 230] [1, 794] [1, 1] : tensor<1x794xf32> into tensor<1x1024xf32>
    %inserted_slice_940 = tensor.insert_slice %extracted_slice_938 into %inserted_slice_939[0, 0] [1, 230] [1, 1] : tensor<1x230xf32> into tensor<1x1024xf32>
    %extracted_slice_941 = tensor.extract_slice %0[245, 0] [1, 794] [1, 1] : tensor<512x1024xf32> to tensor<1x794xf32>
    %extracted_slice_942 = tensor.extract_slice %0[245, 794] [1, 230] [1, 1] : tensor<512x1024xf32> to tensor<1x230xf32>
    %inserted_slice_943 = tensor.insert_slice %extracted_slice_941 into %11[0, 230] [1, 794] [1, 1] : tensor<1x794xf32> into tensor<1x1024xf32>
    %inserted_slice_944 = tensor.insert_slice %extracted_slice_942 into %inserted_slice_943[0, 0] [1, 230] [1, 1] : tensor<1x230xf32> into tensor<1x1024xf32>
    %extracted_slice_945 = tensor.extract_slice %0[246, 0] [1, 794] [1, 1] : tensor<512x1024xf32> to tensor<1x794xf32>
    %extracted_slice_946 = tensor.extract_slice %0[246, 794] [1, 230] [1, 1] : tensor<512x1024xf32> to tensor<1x230xf32>
    %inserted_slice_947 = tensor.insert_slice %extracted_slice_945 into %11[0, 230] [1, 794] [1, 1] : tensor<1x794xf32> into tensor<1x1024xf32>
    %inserted_slice_948 = tensor.insert_slice %extracted_slice_946 into %inserted_slice_947[0, 0] [1, 230] [1, 1] : tensor<1x230xf32> into tensor<1x1024xf32>
    %extracted_slice_949 = tensor.extract_slice %0[247, 0] [1, 794] [1, 1] : tensor<512x1024xf32> to tensor<1x794xf32>
    %extracted_slice_950 = tensor.extract_slice %0[247, 794] [1, 230] [1, 1] : tensor<512x1024xf32> to tensor<1x230xf32>
    %inserted_slice_951 = tensor.insert_slice %extracted_slice_949 into %11[0, 230] [1, 794] [1, 1] : tensor<1x794xf32> into tensor<1x1024xf32>
    %inserted_slice_952 = tensor.insert_slice %extracted_slice_950 into %inserted_slice_951[0, 0] [1, 230] [1, 1] : tensor<1x230xf32> into tensor<1x1024xf32>
    %extracted_slice_953 = tensor.extract_slice %0[248, 0] [1, 794] [1, 1] : tensor<512x1024xf32> to tensor<1x794xf32>
    %extracted_slice_954 = tensor.extract_slice %0[248, 794] [1, 230] [1, 1] : tensor<512x1024xf32> to tensor<1x230xf32>
    %inserted_slice_955 = tensor.insert_slice %extracted_slice_953 into %11[0, 230] [1, 794] [1, 1] : tensor<1x794xf32> into tensor<1x1024xf32>
    %inserted_slice_956 = tensor.insert_slice %extracted_slice_954 into %inserted_slice_955[0, 0] [1, 230] [1, 1] : tensor<1x230xf32> into tensor<1x1024xf32>
    %extracted_slice_957 = tensor.extract_slice %0[249, 0] [1, 794] [1, 1] : tensor<512x1024xf32> to tensor<1x794xf32>
    %extracted_slice_958 = tensor.extract_slice %0[249, 794] [1, 230] [1, 1] : tensor<512x1024xf32> to tensor<1x230xf32>
    %inserted_slice_959 = tensor.insert_slice %extracted_slice_957 into %11[0, 230] [1, 794] [1, 1] : tensor<1x794xf32> into tensor<1x1024xf32>
    %inserted_slice_960 = tensor.insert_slice %extracted_slice_958 into %inserted_slice_959[0, 0] [1, 230] [1, 1] : tensor<1x230xf32> into tensor<1x1024xf32>
    %extracted_slice_961 = tensor.extract_slice %0[250, 0] [1, 794] [1, 1] : tensor<512x1024xf32> to tensor<1x794xf32>
    %extracted_slice_962 = tensor.extract_slice %0[250, 794] [1, 230] [1, 1] : tensor<512x1024xf32> to tensor<1x230xf32>
    %inserted_slice_963 = tensor.insert_slice %extracted_slice_961 into %11[0, 230] [1, 794] [1, 1] : tensor<1x794xf32> into tensor<1x1024xf32>
    %inserted_slice_964 = tensor.insert_slice %extracted_slice_962 into %inserted_slice_963[0, 0] [1, 230] [1, 1] : tensor<1x230xf32> into tensor<1x1024xf32>
    %extracted_slice_965 = tensor.extract_slice %0[251, 0] [1, 794] [1, 1] : tensor<512x1024xf32> to tensor<1x794xf32>
    %extracted_slice_966 = tensor.extract_slice %0[251, 794] [1, 230] [1, 1] : tensor<512x1024xf32> to tensor<1x230xf32>
    %inserted_slice_967 = tensor.insert_slice %extracted_slice_965 into %11[0, 230] [1, 794] [1, 1] : tensor<1x794xf32> into tensor<1x1024xf32>
    %inserted_slice_968 = tensor.insert_slice %extracted_slice_966 into %inserted_slice_967[0, 0] [1, 230] [1, 1] : tensor<1x230xf32> into tensor<1x1024xf32>
    %extracted_slice_969 = tensor.extract_slice %0[252, 0] [1, 794] [1, 1] : tensor<512x1024xf32> to tensor<1x794xf32>
    %extracted_slice_970 = tensor.extract_slice %0[252, 794] [1, 230] [1, 1] : tensor<512x1024xf32> to tensor<1x230xf32>
    %inserted_slice_971 = tensor.insert_slice %extracted_slice_969 into %11[0, 230] [1, 794] [1, 1] : tensor<1x794xf32> into tensor<1x1024xf32>
    %inserted_slice_972 = tensor.insert_slice %extracted_slice_970 into %inserted_slice_971[0, 0] [1, 230] [1, 1] : tensor<1x230xf32> into tensor<1x1024xf32>
    %extracted_slice_973 = tensor.extract_slice %0[253, 0] [1, 771] [1, 1] : tensor<512x1024xf32> to tensor<1x771xf32>
    %extracted_slice_974 = tensor.extract_slice %0[253, 771] [1, 253] [1, 1] : tensor<512x1024xf32> to tensor<1x253xf32>
    %inserted_slice_975 = tensor.insert_slice %extracted_slice_973 into %11[0, 253] [1, 771] [1, 1] : tensor<1x771xf32> into tensor<1x1024xf32>
    %inserted_slice_976 = tensor.insert_slice %extracted_slice_974 into %inserted_slice_975[0, 0] [1, 253] [1, 1] : tensor<1x253xf32> into tensor<1x1024xf32>
    %extracted_slice_977 = tensor.extract_slice %0[254, 0] [1, 771] [1, 1] : tensor<512x1024xf32> to tensor<1x771xf32>
    %extracted_slice_978 = tensor.extract_slice %0[254, 771] [1, 253] [1, 1] : tensor<512x1024xf32> to tensor<1x253xf32>
    %inserted_slice_979 = tensor.insert_slice %extracted_slice_977 into %11[0, 253] [1, 771] [1, 1] : tensor<1x771xf32> into tensor<1x1024xf32>
    %inserted_slice_980 = tensor.insert_slice %extracted_slice_978 into %inserted_slice_979[0, 0] [1, 253] [1, 1] : tensor<1x253xf32> into tensor<1x1024xf32>
    %extracted_slice_981 = tensor.extract_slice %0[255, 0] [1, 771] [1, 1] : tensor<512x1024xf32> to tensor<1x771xf32>
    %extracted_slice_982 = tensor.extract_slice %0[255, 771] [1, 253] [1, 1] : tensor<512x1024xf32> to tensor<1x253xf32>
    %inserted_slice_983 = tensor.insert_slice %extracted_slice_981 into %11[0, 253] [1, 771] [1, 1] : tensor<1x771xf32> into tensor<1x1024xf32>
    %inserted_slice_984 = tensor.insert_slice %extracted_slice_982 into %inserted_slice_983[0, 0] [1, 253] [1, 1] : tensor<1x253xf32> into tensor<1x1024xf32>
    %extracted_slice_985 = tensor.extract_slice %0[256, 0] [1, 771] [1, 1] : tensor<512x1024xf32> to tensor<1x771xf32>
    %extracted_slice_986 = tensor.extract_slice %0[256, 771] [1, 253] [1, 1] : tensor<512x1024xf32> to tensor<1x253xf32>
    %inserted_slice_987 = tensor.insert_slice %extracted_slice_985 into %11[0, 253] [1, 771] [1, 1] : tensor<1x771xf32> into tensor<1x1024xf32>
    %inserted_slice_988 = tensor.insert_slice %extracted_slice_986 into %inserted_slice_987[0, 0] [1, 253] [1, 1] : tensor<1x253xf32> into tensor<1x1024xf32>
    %extracted_slice_989 = tensor.extract_slice %0[257, 0] [1, 771] [1, 1] : tensor<512x1024xf32> to tensor<1x771xf32>
    %extracted_slice_990 = tensor.extract_slice %0[257, 771] [1, 253] [1, 1] : tensor<512x1024xf32> to tensor<1x253xf32>
    %inserted_slice_991 = tensor.insert_slice %extracted_slice_989 into %11[0, 253] [1, 771] [1, 1] : tensor<1x771xf32> into tensor<1x1024xf32>
    %inserted_slice_992 = tensor.insert_slice %extracted_slice_990 into %inserted_slice_991[0, 0] [1, 253] [1, 1] : tensor<1x253xf32> into tensor<1x1024xf32>
    %extracted_slice_993 = tensor.extract_slice %0[258, 0] [1, 771] [1, 1] : tensor<512x1024xf32> to tensor<1x771xf32>
    %extracted_slice_994 = tensor.extract_slice %0[258, 771] [1, 253] [1, 1] : tensor<512x1024xf32> to tensor<1x253xf32>
    %inserted_slice_995 = tensor.insert_slice %extracted_slice_993 into %11[0, 253] [1, 771] [1, 1] : tensor<1x771xf32> into tensor<1x1024xf32>
    %inserted_slice_996 = tensor.insert_slice %extracted_slice_994 into %inserted_slice_995[0, 0] [1, 253] [1, 1] : tensor<1x253xf32> into tensor<1x1024xf32>
    %extracted_slice_997 = tensor.extract_slice %0[259, 0] [1, 771] [1, 1] : tensor<512x1024xf32> to tensor<1x771xf32>
    %extracted_slice_998 = tensor.extract_slice %0[259, 771] [1, 253] [1, 1] : tensor<512x1024xf32> to tensor<1x253xf32>
    %inserted_slice_999 = tensor.insert_slice %extracted_slice_997 into %11[0, 253] [1, 771] [1, 1] : tensor<1x771xf32> into tensor<1x1024xf32>
    %inserted_slice_1000 = tensor.insert_slice %extracted_slice_998 into %inserted_slice_999[0, 0] [1, 253] [1, 1] : tensor<1x253xf32> into tensor<1x1024xf32>
    %extracted_slice_1001 = tensor.extract_slice %0[260, 0] [1, 771] [1, 1] : tensor<512x1024xf32> to tensor<1x771xf32>
    %extracted_slice_1002 = tensor.extract_slice %0[260, 771] [1, 253] [1, 1] : tensor<512x1024xf32> to tensor<1x253xf32>
    %inserted_slice_1003 = tensor.insert_slice %extracted_slice_1001 into %11[0, 253] [1, 771] [1, 1] : tensor<1x771xf32> into tensor<1x1024xf32>
    %inserted_slice_1004 = tensor.insert_slice %extracted_slice_1002 into %inserted_slice_1003[0, 0] [1, 253] [1, 1] : tensor<1x253xf32> into tensor<1x1024xf32>
    %extracted_slice_1005 = tensor.extract_slice %0[261, 0] [1, 771] [1, 1] : tensor<512x1024xf32> to tensor<1x771xf32>
    %extracted_slice_1006 = tensor.extract_slice %0[261, 771] [1, 253] [1, 1] : tensor<512x1024xf32> to tensor<1x253xf32>
    %inserted_slice_1007 = tensor.insert_slice %extracted_slice_1005 into %11[0, 253] [1, 771] [1, 1] : tensor<1x771xf32> into tensor<1x1024xf32>
    %inserted_slice_1008 = tensor.insert_slice %extracted_slice_1006 into %inserted_slice_1007[0, 0] [1, 253] [1, 1] : tensor<1x253xf32> into tensor<1x1024xf32>
    %extracted_slice_1009 = tensor.extract_slice %0[262, 0] [1, 771] [1, 1] : tensor<512x1024xf32> to tensor<1x771xf32>
    %extracted_slice_1010 = tensor.extract_slice %0[262, 771] [1, 253] [1, 1] : tensor<512x1024xf32> to tensor<1x253xf32>
    %inserted_slice_1011 = tensor.insert_slice %extracted_slice_1009 into %11[0, 253] [1, 771] [1, 1] : tensor<1x771xf32> into tensor<1x1024xf32>
    %inserted_slice_1012 = tensor.insert_slice %extracted_slice_1010 into %inserted_slice_1011[0, 0] [1, 253] [1, 1] : tensor<1x253xf32> into tensor<1x1024xf32>
    %extracted_slice_1013 = tensor.extract_slice %0[263, 0] [1, 771] [1, 1] : tensor<512x1024xf32> to tensor<1x771xf32>
    %extracted_slice_1014 = tensor.extract_slice %0[263, 771] [1, 253] [1, 1] : tensor<512x1024xf32> to tensor<1x253xf32>
    %inserted_slice_1015 = tensor.insert_slice %extracted_slice_1013 into %11[0, 253] [1, 771] [1, 1] : tensor<1x771xf32> into tensor<1x1024xf32>
    %inserted_slice_1016 = tensor.insert_slice %extracted_slice_1014 into %inserted_slice_1015[0, 0] [1, 253] [1, 1] : tensor<1x253xf32> into tensor<1x1024xf32>
    %extracted_slice_1017 = tensor.extract_slice %0[264, 0] [1, 771] [1, 1] : tensor<512x1024xf32> to tensor<1x771xf32>
    %extracted_slice_1018 = tensor.extract_slice %0[264, 771] [1, 253] [1, 1] : tensor<512x1024xf32> to tensor<1x253xf32>
    %inserted_slice_1019 = tensor.insert_slice %extracted_slice_1017 into %11[0, 253] [1, 771] [1, 1] : tensor<1x771xf32> into tensor<1x1024xf32>
    %inserted_slice_1020 = tensor.insert_slice %extracted_slice_1018 into %inserted_slice_1019[0, 0] [1, 253] [1, 1] : tensor<1x253xf32> into tensor<1x1024xf32>
    %extracted_slice_1021 = tensor.extract_slice %0[265, 0] [1, 771] [1, 1] : tensor<512x1024xf32> to tensor<1x771xf32>
    %extracted_slice_1022 = tensor.extract_slice %0[265, 771] [1, 253] [1, 1] : tensor<512x1024xf32> to tensor<1x253xf32>
    %inserted_slice_1023 = tensor.insert_slice %extracted_slice_1021 into %11[0, 253] [1, 771] [1, 1] : tensor<1x771xf32> into tensor<1x1024xf32>
    %inserted_slice_1024 = tensor.insert_slice %extracted_slice_1022 into %inserted_slice_1023[0, 0] [1, 253] [1, 1] : tensor<1x253xf32> into tensor<1x1024xf32>
    %extracted_slice_1025 = tensor.extract_slice %0[266, 0] [1, 771] [1, 1] : tensor<512x1024xf32> to tensor<1x771xf32>
    %extracted_slice_1026 = tensor.extract_slice %0[266, 771] [1, 253] [1, 1] : tensor<512x1024xf32> to tensor<1x253xf32>
    %inserted_slice_1027 = tensor.insert_slice %extracted_slice_1025 into %11[0, 253] [1, 771] [1, 1] : tensor<1x771xf32> into tensor<1x1024xf32>
    %inserted_slice_1028 = tensor.insert_slice %extracted_slice_1026 into %inserted_slice_1027[0, 0] [1, 253] [1, 1] : tensor<1x253xf32> into tensor<1x1024xf32>
    %extracted_slice_1029 = tensor.extract_slice %0[267, 0] [1, 771] [1, 1] : tensor<512x1024xf32> to tensor<1x771xf32>
    %extracted_slice_1030 = tensor.extract_slice %0[267, 771] [1, 253] [1, 1] : tensor<512x1024xf32> to tensor<1x253xf32>
    %inserted_slice_1031 = tensor.insert_slice %extracted_slice_1029 into %11[0, 253] [1, 771] [1, 1] : tensor<1x771xf32> into tensor<1x1024xf32>
    %inserted_slice_1032 = tensor.insert_slice %extracted_slice_1030 into %inserted_slice_1031[0, 0] [1, 253] [1, 1] : tensor<1x253xf32> into tensor<1x1024xf32>
    %extracted_slice_1033 = tensor.extract_slice %0[268, 0] [1, 771] [1, 1] : tensor<512x1024xf32> to tensor<1x771xf32>
    %extracted_slice_1034 = tensor.extract_slice %0[268, 771] [1, 253] [1, 1] : tensor<512x1024xf32> to tensor<1x253xf32>
    %inserted_slice_1035 = tensor.insert_slice %extracted_slice_1033 into %11[0, 253] [1, 771] [1, 1] : tensor<1x771xf32> into tensor<1x1024xf32>
    %inserted_slice_1036 = tensor.insert_slice %extracted_slice_1034 into %inserted_slice_1035[0, 0] [1, 253] [1, 1] : tensor<1x253xf32> into tensor<1x1024xf32>
    %extracted_slice_1037 = tensor.extract_slice %0[269, 0] [1, 771] [1, 1] : tensor<512x1024xf32> to tensor<1x771xf32>
    %extracted_slice_1038 = tensor.extract_slice %0[269, 771] [1, 253] [1, 1] : tensor<512x1024xf32> to tensor<1x253xf32>
    %inserted_slice_1039 = tensor.insert_slice %extracted_slice_1037 into %11[0, 253] [1, 771] [1, 1] : tensor<1x771xf32> into tensor<1x1024xf32>
    %inserted_slice_1040 = tensor.insert_slice %extracted_slice_1038 into %inserted_slice_1039[0, 0] [1, 253] [1, 1] : tensor<1x253xf32> into tensor<1x1024xf32>
    %extracted_slice_1041 = tensor.extract_slice %0[270, 0] [1, 771] [1, 1] : tensor<512x1024xf32> to tensor<1x771xf32>
…
    %ct_1211 = cheddar.add %ctx, %ct_1205, %ct_1210 : (!ctx, !ct, !ct) -> !ct
    %ct_1212 = cheddar.add %ctx, %ct_1200, %ct_1211 : (!ctx, !ct, !ct) -> !ct
    %evk_1213 = cheddar.get_rot_key %ui {distance = -1 : i64} : (!ui) -> !evk
    %ct_1214 = cheddar.hrot %ctx, %ct_1212, %evk_1213, %c299 : (!ctx, !ct, !evk, index) -> !ct
    %ct_1215 = cheddar.mult_plain %ctx, %extracted_538, %extracted_321 : (!ctx, !ct, !pt) -> !ct
    %ct_1216 = cheddar.mult_plain %ctx, %ct_539, %extracted_322 : (!ctx, !ct, !pt) -> !ct
    %ct_1217 = cheddar.mult_plain %ctx, %ct_542, %extracted_323 : (!ctx, !ct, !pt) -> !ct
    %ct_1218 = cheddar.mult_plain %ctx, %ct_545, %extracted_324 : (!ctx, !ct, !pt) -> !ct
    %ct_1219 = cheddar.mult_plain %ctx, %ct_548, %extracted_325 : (!ctx, !ct, !pt) -> !ct
    %ct_1220 = cheddar.mult_plain %ctx, %ct_551, %extracted_326 : (!ctx, !ct, !pt) -> !ct
    %ct_1221 = cheddar.mult_plain %ctx, %ct_554, %extracted_327 : (!ctx, !ct, !pt) -> !ct
    %ct_1222 = cheddar.mult_plain %ctx, %ct_557, %extracted_328 : (!ctx, !ct, !pt) -> !ct
    %ct_1223 = cheddar.mult_plain %ctx, %ct_560, %extracted_329 : (!ctx, !ct, !pt) -> !ct
    %ct_1224 = cheddar.mult_plain %ctx, %ct_563, %extracted_330 : (!ctx, !ct, !pt) -> !ct
    %ct_1225 = cheddar.mult_plain %ctx, %ct_566, %extracted_331 : (!ctx, !ct, !pt) -> !ct
    %ct_1226 = cheddar.mult_plain %ctx, %ct_569, %extracted_332 : (!ctx, !ct, !pt) -> !ct
    %ct_1227 = cheddar.mult_plain %ctx, %ct_572, %extracted_333 : (!ctx, !ct, !pt) -> !ct
    %ct_1228 = cheddar.mult_plain %ctx, %ct_575, %extracted_334 : (!ctx, !ct, !pt) -> !ct
    %ct_1229 = cheddar.mult_plain %ctx, %ct_578, %extracted_335 : (!ctx, !ct, !pt) -> !ct
    %ct_1230 = cheddar.mult_plain %ctx, %ct_581, %extracted_336 : (!ctx, !ct, !pt) -> !ct
    %ct_1231 = cheddar.mult_plain %ctx, %ct_584, %extracted_337 : (!ctx, !ct, !pt) -> !ct
    %ct_1232 = cheddar.mult_plain %ctx, %ct_587, %extracted_338 : (!ctx, !ct, !pt) -> !ct
    %ct_1233 = cheddar.mult_plain %ctx, %ct_590, %extracted_339 : (!ctx, !ct, !pt) -> !ct
    %ct_1234 = cheddar.mult_plain %ctx, %ct_593, %extracted_340 : (!ctx, !ct, !pt) -> !ct
    %ct_1235 = cheddar.mult_plain %ctx, %ct_596, %extracted_341 : (!ctx, !ct, !pt) -> !ct
    %ct_1236 = cheddar.mult_plain %ctx, %ct_599, %extracted_342 : (!ctx, !ct, !pt) -> !ct
    %ct_1237 = cheddar.mult_plain %ctx, %ct_602, %extracted_343 : (!ctx, !ct, !pt) -> !ct
    %ct_1238 = cheddar.add %ctx, %ct_1215, %ct_1216 : (!ctx, !ct, !ct) -> !ct
    %ct_1239 = cheddar.add %ctx, %ct_1217, %ct_1218 : (!ctx, !ct, !ct) -> !ct
    %ct_1240 = cheddar.add %ctx, %ct_1239, %ct_1219 : (!ctx, !ct, !ct) -> !ct
    %ct_1241 = cheddar.add %ctx, %ct_1238, %ct_1240 : (!ctx, !ct, !ct) -> !ct
    %ct_1242 = cheddar.add %ctx, %ct_1220, %ct_1221 : (!ctx, !ct, !ct) -> !ct
    %ct_1243 = cheddar.add %ctx, %ct_1242, %ct_1222 : (!ctx, !ct, !ct) -> !ct
    %ct_1244 = cheddar.add %ctx, %ct_1223, %ct_1224 : (!ctx, !ct, !ct) -> !ct
    %ct_1245 = cheddar.add %ctx, %ct_1244, %ct_1225 : (!ctx, !ct, !ct) -> !ct
    %ct_1246 = cheddar.add %ctx, %ct_1243, %ct_1245 : (!ctx, !ct, !ct) -> !ct
    %ct_1247 = cheddar.add %ctx, %ct_1241, %ct_1246 : (!ctx, !ct, !ct) -> !ct
    %ct_1248 = cheddar.add %ctx, %ct_1226, %ct_1227 : (!ctx, !ct, !ct) -> !ct
    %ct_1249 = cheddar.add %ctx, %ct_1248, %ct_1228 : (!ctx, !ct, !ct) -> !ct
    %ct_1250 = cheddar.add %ctx, %ct_1229, %ct_1230 : (!ctx, !ct, !ct) -> !ct
    %ct_1251 = cheddar.add %ctx, %ct_1250, %ct_1231 : (!ctx, !ct, !ct) -> !ct
    %ct_1252 = cheddar.add %ctx, %ct_1249, %ct_1251 : (!ctx, !ct, !ct) -> !ct
    %ct_1253 = cheddar.add %ctx, %ct_1232, %ct_1233 : (!ctx, !ct, !ct) -> !ct
    %ct_1254 = cheddar.add %ctx, %ct_1253, %ct_1234 : (!ctx, !ct, !ct) -> !ct
    %ct_1255 = cheddar.add %ctx, %ct_1235, %ct_1236 : (!ctx, !ct, !ct) -> !ct
    %ct_1256 = cheddar.add %ctx, %ct_1255, %ct_1237 : (!ctx, !ct, !ct) -> !ct
    %ct_1257 = cheddar.add %ctx, %ct_1254, %ct_1256 : (!ctx, !ct, !ct) -> !ct
    %ct_1258 = cheddar.add %ctx, %ct_1252, %ct_1257 : (!ctx, !ct, !ct) -> !ct
    %ct_1259 = cheddar.add %ctx, %ct_1247, %ct_1258 : (!ctx, !ct, !ct) -> !ct
    %evk_1260 = cheddar.get_rot_key %ui {distance = -1 : i64} : (!ui) -> !evk
    %ct_1261 = cheddar.hrot %ctx, %ct_1259, %evk_1260, %c322 : (!ctx, !ct, !evk, index) -> !ct
    %ct_1262 = cheddar.mult_plain %ctx, %extracted_538, %extracted_344 : (!ctx, !ct, !pt) -> !ct
    %ct_1263 = cheddar.mult_plain %ctx, %ct_539, %extracted_345 : (!ctx, !ct, !pt) -> !ct
    %ct_1264 = cheddar.mult_plain %ctx, %ct_542, %extracted_346 : (!ctx, !ct, !pt) -> !ct
    %ct_1265 = cheddar.mult_plain %ctx, %ct_545, %extracted_347 : (!ctx, !ct, !pt) -> !ct
    %ct_1266 = cheddar.mult_plain %ctx, %ct_548, %extracted_348 : (!ctx, !ct, !pt) -> !ct
    %ct_1267 = cheddar.mult_plain %ctx, %ct_551, %extracted_349 : (!ctx, !ct, !pt) -> !ct
    %ct_1268 = cheddar.mult_plain %ctx, %ct_554, %extracted_350 : (!ctx, !ct, !pt) -> !ct
    %ct_1269 = cheddar.mult_plain %ctx, %ct_557, %extracted_351 : (!ctx, !ct, !pt) -> !ct
    %ct_1270 = cheddar.mult_plain %ctx, %ct_560, %extracted_352 : (!ctx, !ct, !pt) -> !ct
    %ct_1271 = cheddar.mult_plain %ctx, %ct_563, %extracted_353 : (!ctx, !ct, !pt) -> !ct
    %ct_1272 = cheddar.mult_plain %ctx, %ct_566, %extracted_354 : (!ctx, !ct, !pt) -> !ct
    %ct_1273 = cheddar.mult_plain %ctx, %ct_569, %extracted_355 : (!ctx, !ct, !pt) -> !ct
    %ct_1274 = cheddar.mult_plain %ctx, %ct_572, %extracted_356 : (!ctx, !ct, !pt) -> !ct
    %ct_1275 = cheddar.mult_plain %ctx, %ct_575, %extracted_357 : (!ctx, !ct, !pt) -> !ct
    %ct_1276 = cheddar.mult_plain %ctx, %ct_578, %extracted_358 : (!ctx, !ct, !pt) -> !ct
    %ct_1277 = cheddar.mult_plain %ctx, %ct_581, %extracted_359 : (!ctx, !ct, !pt) -> !ct
    %ct_1278 = cheddar.mult_plain %ctx, %ct_584, %extracted_360 : (!ctx, !ct, !pt) -> !ct
    %ct_1279 = cheddar.mult_plain %ctx, %ct_587, %extracted_361 : (!ctx, !ct, !pt) -> !ct
    %ct_1280 = cheddar.mult_plain %ctx, %ct_590, %extracted_362 : (!ctx, !ct, !pt) -> !ct
    %ct_1281 = cheddar.mult_plain %ctx, %ct_593, %extracted_363 : (!ctx, !ct, !pt) -> !ct
    %ct_1282 = cheddar.mult_plain %ctx, %ct_596, %extracted_364 : (!ctx, !ct, !pt) -> !ct
    %ct_1283 = cheddar.mult_plain %ctx, %ct_599, %extracted_365 : (!ctx, !ct, !pt) -> !ct
    %ct_1284 = cheddar.mult_plain %ctx, %ct_602, %extracted_366 : (!ctx, !ct, !pt) -> !ct
    %ct_1285 = cheddar.add %ctx, %ct_1262, %ct_1263 : (!ctx, !ct, !ct) -> !ct
    %ct_1286 = cheddar.add %ctx, %ct_1264, %ct_1265 : (!ctx, !ct, !ct) -> !ct
    %ct_1287 = cheddar.add %ctx, %ct_1286, %ct_1266 : (!ctx, !ct, !ct) -> !ct
    %ct_1288 = cheddar.add %ctx, %ct_1285, %ct_1287 : (!ctx, !ct, !ct) -> !ct
    %ct_1289 = cheddar.add %ctx, %ct_1267, %ct_1268 : (!ctx, !ct, !ct) -> !ct
    %ct_1290 = cheddar.add %ctx, %ct_1289, %ct_1269 : (!ctx, !ct, !ct) -> !ct
    %ct_1291 = cheddar.add %ctx, %ct_1270, %ct_1271 : (!ctx, !ct, !ct) -> !ct
    %ct_1292 = cheddar.add %ctx, %ct_1291, %ct_1272 : (!ctx, !ct, !ct) -> !ct
    %ct_1293 = cheddar.add %ctx, %ct_1290, %ct_1292 : (!ctx, !ct, !ct) -> !ct
    %ct_1294 = cheddar.add %ctx, %ct_1288, %ct_1293 : (!ctx, !ct, !ct) -> !ct
    %ct_1295 = cheddar.add %ctx, %ct_1273, %ct_1274 : (!ctx, !ct, !ct) -> !ct
    %ct_1296 = cheddar.add %ctx, %ct_1295, %ct_1275 : (!ctx, !ct, !ct) -> !ct
    %ct_1297 = cheddar.add %ctx, %ct_1276, %ct_1277 : (!ctx, !ct, !ct) -> !ct
    %ct_1298 = cheddar.add %ctx, %ct_1297, %ct_1278 : (!ctx, !ct, !ct) -> !ct
    %ct_1299 = cheddar.add %ctx, %ct_1296, %ct_1298 : (!ctx, !ct, !ct) -> !ct
    %ct_1300 = cheddar.add %ctx, %ct_1279, %ct_1280 : (!ctx, !ct, !ct) -> !ct
    %ct_1301 = cheddar.add %ctx, %ct_1300, %ct_1281 : (!ctx, !ct, !ct) -> !ct
    %ct_1302 = cheddar.add %ctx, %ct_1282, %ct_1283 : (!ctx, !ct, !ct) -> !ct
    %ct_1303 = cheddar.add %ctx, %ct_1302, %ct_1284 : (!ctx, !ct, !ct) -> !ct
    %ct_1304 = cheddar.add %ctx, %ct_1301, %ct_1303 : (!ctx, !ct, !ct) -> !ct
    %ct_1305 = cheddar.add %ctx, %ct_1299, %ct_1304 : (!ctx, !ct, !ct) -> !ct
    %ct_1306 = cheddar.add %ctx, %ct_1294, %ct_1305 : (!ctx, !ct, !ct) -> !ct
    %evk_1307 = cheddar.get_rot_key %ui {distance = -1 : i64} : (!ui) -> !evk
    %ct_1308 = cheddar.hrot %ctx, %ct_1306, %evk_1307, %c345 : (!ctx, !ct, !evk, index) -> !ct
    %ct_1309 = cheddar.mult_plain %ctx, %extracted_538, %extracted_367 : (!ctx, !ct, !pt) -> !ct
    %ct_1310 = cheddar.mult_plain %ctx, %ct_539, %extracted_368 : (!ctx, !ct, !pt) -> !ct
    %ct_1311 = cheddar.mult_plain %ctx, %ct_542, %extracted_369 : (!ctx, !ct, !pt) -> !ct
    %ct_1312 = cheddar.mult_plain %ctx, %ct_545, %extracted_370 : (!ctx, !ct, !pt) -> !ct
    %ct_1313 = cheddar.mult_plain %ctx, %ct_548, %extracted_371 : (!ctx, !ct, !pt) -> !ct
    %ct_1314 = cheddar.mult_plain %ctx, %ct_551, %extracted_372 : (!ctx, !ct, !pt) -> !ct
    %ct_1315 = cheddar.mult_plain %ctx, %ct_554, %extracted_373 : (!ctx, !ct, !pt) -> !ct
    %ct_1316 = cheddar.mult_plain %ctx, %ct_557, %extracted_374 : (!ctx, !ct, !pt) -> !ct
    %ct_1317 = cheddar.mult_plain %ctx, %ct_560, %extracted_375 : (!ctx, !ct, !pt) -> !ct
    %ct_1318 = cheddar.mult_plain %ctx, %ct_563, %extracted_376 : (!ctx, !ct, !pt) -> !ct
    %ct_1319 = cheddar.mult_plain %ctx, %ct_566, %extracted_377 : (!ctx, !ct, !pt) -> !ct
    %ct_1320 = cheddar.mult_plain %ctx, %ct_569, %extracted_378 : (!ctx, !ct, !pt) -> !ct
    %ct_1321 = cheddar.mult_plain %ctx, %ct_572, %extracted_379 : (!ctx, !ct, !pt) -> !ct
    %ct_1322 = cheddar.mult_plain %ctx, %ct_575, %extracted_380 : (!ctx, !ct, !pt) -> !ct
    %ct_1323 = cheddar.mult_plain %ctx, %ct_578, %extracted_381 : (!ctx, !ct, !pt) -> !ct
    %ct_1324 = cheddar.mult_plain %ctx, %ct_581, %extracted_382 : (!ctx, !ct, !pt) -> !ct
    %ct_1325 = cheddar.mult_plain %ctx, %ct_584, %extracted_383 : (!ctx, !ct, !pt) -> !ct
    %ct_1326 = cheddar.mult_plain %ctx, %ct_587, %extracted_384 : (!ctx, !ct, !pt) -> !ct
    %ct_1327 = cheddar.mult_plain %ctx, %ct_590, %extracted_385 : (!ctx, !ct, !pt) -> !ct
    %ct_1328 = cheddar.mult_plain %ctx, %ct_593, %extracted_386 : (!ctx, !ct, !pt) -> !ct
    %ct_1329 = cheddar.mult_plain %ctx, %ct_596, %extracted_387 : (!ctx, !ct, !pt) -> !ct
    %ct_1330 = cheddar.mult_plain %ctx, %ct_599, %extracted_388 : (!ctx, !ct, !pt) -> !ct
    %ct_1331 = cheddar.mult_plain %ctx, %ct_602, %extracted_389 : (!ctx, !ct, !pt) -> !ct
    %ct_1332 = cheddar.add %ctx, %ct_1309, %ct_1310 : (!ctx, !ct, !ct) -> !ct
    %ct_1333 = cheddar.add %ctx, %ct_1311, %ct_1312 : (!ctx, !ct, !ct) -> !ct
    %ct_1334 = cheddar.add %ctx, %ct_1333, %ct_1313 : (!ctx, !ct, !ct) -> !ct
    %ct_1335 = cheddar.add %ctx, %ct_1332, %ct_1334 : (!ctx, !ct, !ct) -> !ct
    %ct_1336 = cheddar.add %ctx, %ct_1314, %ct_1315 : (!ctx, !ct, !ct) -> !ct
    %ct_1337 = cheddar.add %ctx, %ct_1336, %ct_1316 : (!ctx, !ct, !ct) -> !ct
    %ct_1338 = cheddar.add %ctx, %ct_1317, %ct_1318 : (!ctx, !ct, !ct) -> !ct
    %ct_1339 = cheddar.add %ctx, %ct_1338, %ct_1319 : (!ctx, !ct, !ct) -> !ct
    %ct_1340 = cheddar.add %ctx, %ct_1337, %ct_1339 : (!ctx, !ct, !ct) -> !ct
    %ct_1341 = cheddar.add %ctx, %ct_1335, %ct_1340 : (!ctx, !ct, !ct) -> !ct
    %ct_1342 = cheddar.add %ctx, %ct_1320, %ct_1321 : (!ctx, !ct, !ct) -> !ct
    %ct_1343 = cheddar.add %ctx, %ct_1342, %ct_1322 : (!ctx, !ct, !ct) -> !ct
    %ct_1344 = cheddar.add %ctx, %ct_1323, %ct_1324 : (!ctx, !ct, !ct) -> !ct
    %ct_1345 = cheddar.add %ctx, %ct_1344, %ct_1325 : (!ctx, !ct, !ct) -> !ct
    %ct_1346 = cheddar.add %ctx, %ct_1343, %ct_1345 : (!ctx, !ct, !ct) -> !ct
    %ct_1347 = cheddar.add %ctx, %ct_1326, %ct_1327 : (!ctx, !ct, !ct) -> !ct
    %ct_1348 = cheddar.add %ctx, %ct_1347, %ct_1328 : (!ctx, !ct, !ct) -> !ct
    %ct_1349 = cheddar.add %ctx, %ct_1329, %ct_1330 : (!ctx, !ct, !ct) -> !ct
    %ct_1350 = cheddar.add %ctx, %ct_1349, %ct_1331 : (!ctx, !ct, !ct) -> !ct
    %ct_1351 = cheddar.add %ctx, %ct_1348, %ct_1350 : (!ctx, !ct, !ct) -> !ct
    %ct_1352 = cheddar.add %ctx, %ct_1346, %ct_1351 : (!ctx, !ct, !ct) -> !ct
    %ct_1353 = cheddar.add %ctx, %ct_1341, %ct_1352 : (!ctx, !ct, !ct) -> !ct
    %evk_1354 = cheddar.get_rot_key %ui {distance = -1 : i64} : (!ui) -> !evk
    %ct_1355 = cheddar.hrot %ctx, %ct_1353, %evk_1354, %c368 : (!ctx, !ct, !evk, index) -> !ct
    %ct_1356 = cheddar.mult_plain %ctx, %extracted_538, %extracted_390 : (!ctx, !ct, !pt) -> !ct
    %ct_1357 = cheddar.mult_plain %ctx, %ct_539, %extracted_391 : (!ctx, !ct, !pt) -> !ct
    %ct_1358 = cheddar.mult_plain %ctx, %ct_542, %extracted_392 : (!ctx, !ct, !pt) -> !ct
    %ct_1359 = cheddar.mult_plain %ctx, %ct_545, %extracted_393 : (!ctx, !ct, !pt) -> !ct
    %ct_1360 = cheddar.mult_plain %ctx, %ct_548, %extracted_394 : (!ctx, !ct, !pt) -> !ct
    %ct_1361 = cheddar.mult_plain %ctx, %ct_551, %extracted_395 : (!ctx, !ct, !pt) -> !ct
    %ct_1362 = cheddar.mult_plain %ctx, %ct_554, %extracted_396 : (!ctx, !ct, !pt) -> !ct
    %ct_1363 = cheddar.mult_plain %ctx, %ct_557, %extracted_397 : (!ctx, !ct, !pt) -> !ct
    %ct_1364 = cheddar.mult_plain %ctx, %ct_560, %extracted_398 : (!ctx, !ct, !pt) -> !ct
    %ct_1365 = cheddar.mult_plain %ctx, %ct_563, %extracted_399 : (!ctx, !ct, !pt) -> !ct
    %ct_1366 = cheddar.mult_plain %ctx, %ct_566, %extracted_400 : (!ctx, !ct, !pt) -> !ct
    %ct_1367 = cheddar.mult_plain %ctx, %ct_569, %extracted_401 : (!ctx, !ct, !pt) -> !ct
    %ct_1368 = cheddar.mult_plain %ctx, %ct_572, %extracted_402 : (!ctx, !ct, !pt) -> !ct
    %ct_1369 = cheddar.mult_plain %ctx, %ct_575, %extracted_403 : (!ctx, !ct, !pt) -> !ct
    %ct_1370 = cheddar.mult_plain %ctx, %ct_578, %extracted_404 : (!ctx, !ct, !pt) -> !ct
    %ct_1371 = cheddar.mult_plain %ctx, %ct_581, %extracted_405 : (!ctx, !ct, !pt) -> !ct
    %ct_1372 = cheddar.mult_plain %ctx, %ct_584, %extracted_406 : (!ctx, !ct, !pt) -> !ct
    %ct_1373 = cheddar.mult_plain %ctx, %ct_587, %extracted_407 : (!ctx, !ct, !pt) -> !ct
    %ct_1374 = cheddar.mult_plain %ctx, %ct_590, %extracted_408 : (!ctx, !ct, !pt) -> !ct
    %ct_1375 = cheddar.mult_plain %ctx, %ct_593, %extracted_409 : (!ctx, !ct, !pt) -> !ct
    %ct_1376 = cheddar.mult_plain %ctx, %ct_596, %extracted_410 : (!ctx, !ct, !pt) -> !ct
    %ct_1377 = cheddar.mult_plain %ctx, %ct_599, %extracted_411 : (!ctx, !ct, !pt) -> !ct
    %ct_1378 = cheddar.mult_plain %ctx, %ct_602, %extracted_412 : (!ctx, !ct, !pt) -> !ct
    %ct_1379 = cheddar.add %ctx, %ct_1356, %ct_1357 : (!ctx, !ct, !ct) -> !ct
    %ct_1380 = cheddar.add %ctx, %ct_1358, %ct_1359 : (!ctx, !ct, !ct) -> !ct
    %ct_1381 = cheddar.add %ctx, %ct_1380, %ct_1360 : (!ctx, !ct, !ct) -> !ct
    %ct_1382 = cheddar.add %ctx, %ct_1379, %ct_1381 : (!ctx, !ct, !ct) -> !ct
    %ct_1383 = cheddar.add %ctx, %ct_1361, %ct_1362 : (!ctx, !ct, !ct) -> !ct
    %ct_1384 = cheddar.add %ctx, %ct_1383, %ct_1363 : (!ctx, !ct, !ct) -> !ct
    %ct_1385 = cheddar.add %ctx, %ct_1364, %ct_1365 : (!ctx, !ct, !ct) -> !ct
    %ct_1386 = cheddar.add %ctx, %ct_1385, %ct_1366 : (!ctx, !ct, !ct) -> !ct
    %ct_1387 = cheddar.add %ctx, %ct_1384, %ct_1386 : (!ctx, !ct, !ct) -> !ct
    %ct_1388 = cheddar.add %ctx, %ct_1382, %ct_1387 : (!ctx, !ct, !ct) -> !ct
    %ct_1389 = cheddar.add %ctx, %ct_1367, %ct_1368 : (!ctx, !ct, !ct) -> !ct
    %ct_1390 = cheddar.add %ctx, %ct_1389, %ct_1369 : (!ctx, !ct, !ct) -> !ct
    %ct_1391 = cheddar.add %ctx, %ct_1370, %ct_1371 : (!ctx, !ct, !ct) -> !ct
    %ct_1392 = cheddar.add %ctx, %ct_1391, %ct_1372 : (!ctx, !ct, !ct) -> !ct
    %ct_1393 = cheddar.add %ctx, %ct_1390, %ct_1392 : (!ctx, !ct, !ct) -> !ct
    %ct_1394 = cheddar.add %ctx, %ct_1373, %ct_1374 : (!ctx, !ct, !ct) -> !ct
    %ct_1395 = cheddar.add %ctx, %ct_1394, %ct_1375 : (!ctx, !ct, !ct) -> !ct
    %ct_1396 = cheddar.add %ctx, %ct_1376, %ct_1377 : (!ctx, !ct, !ct) -> !ct
    %ct_1397 = cheddar.add %ctx, %ct_1396, %ct_1378 : (!ctx, !ct, !ct) -> !ct
    %ct_1398 = cheddar.add %ctx, %ct_1395, %ct_1397 : (!ctx, !ct, !ct) -> !ct
    %ct_1399 = cheddar.add %ctx, %ct_1393, %ct_1398 : (!ctx, !ct, !ct) -> !ct
    %ct_1400 = cheddar.add %ctx, %ct_1388, %ct_1399 : (!ctx, !ct, !ct) -> !ct
    %evk_1401 = cheddar.get_rot_key %ui {distance = -1 : i64} : (!ui) -> !evk
    %ct_1402 = cheddar.hrot %ctx, %ct_1400, %evk_1401, %c391 : (!ctx, !ct, !evk, index) -> !ct
    %ct_1403 = cheddar.mult_plain %ctx, %extracted_538, %extracted_413 : (!ctx, !ct, !pt) -> !ct
    %ct_1404 = cheddar.mult_plain %ctx, %ct_539, %extracted_414 : (!ctx, !ct, !pt) -> !ct
    %ct_1405 = cheddar.mult_plain %ctx, %ct_542, %extracted_415 : (!ctx, !ct, !pt) -> !ct
    %ct_1406 = cheddar.mult_plain %ctx, %ct_545, %extracted_416 : (!ctx, !ct, !pt) -> !ct
    %ct_1407 = cheddar.mult_plain %ctx, %ct_548, %extracted_417 : (!ctx, !ct, !pt) -> !ct
    %ct_1408 = cheddar.mult_plain %ctx, %ct_551, %extracted_418 : (!ctx, !ct, !pt) -> !ct
    %ct_1409 = cheddar.mult_plain %ctx, %ct_554, %extracted_419 : (!ctx, !ct, !pt) -> !ct
    %ct_1410 = cheddar.mult_plain %ctx, %ct_557, %extracted_420 : (!ctx, !ct, !pt) -> !ct
    %ct_1411 = cheddar.mult_plain %ctx, %ct_560, %extracted_421 : (!ctx, !ct, !pt) -> !ct
    %ct_1412 = cheddar.mult_plain %ctx, %ct_563, %extracted_422 : (!ctx, !ct, !pt) -> !ct
    %ct_1413 = cheddar.mult_plain %ctx, %ct_566, %extracted_423 : (!ctx, !ct, !pt) -> !ct
    %ct_1414 = cheddar.mult_plain %ctx, %ct_569, %extracted_424 : (!ctx, !ct, !pt) -> !ct
    %ct_1415 = cheddar.mult_plain %ctx, %ct_572, %extracted_425 : (!ctx, !ct, !pt) -> !ct
    %ct_1416 = cheddar.mult_plain %ctx, %ct_575, %extracted_426 : (!ctx, !ct, !pt) -> !ct
    %ct_1417 = cheddar.mult_plain %ctx, %ct_578, %extracted_427 : (!ctx, !ct, !pt) -> !ct
    %ct_1418 = cheddar.mult_plain %ctx, %ct_581, %extracted_428 : (!ctx, !ct, !pt) -> !ct
    %ct_1419 = cheddar.mult_plain %ctx, %ct_584, %extracted_429 : (!ctx, !ct, !pt) -> !ct
    %ct_1420 = cheddar.mult_plain %ctx, %ct_587, %extracted_430 : (!ctx, !ct, !pt) -> !ct
    %ct_1421 = cheddar.mult_plain %ctx, %ct_590, %extracted_431 : (!ctx, !ct, !pt) -> !ct
    %ct_1422 = cheddar.mult_plain %ctx, %ct_593, %extracted_432 : (!ctx, !ct, !pt) -> !ct
    %ct_1423 = cheddar.mult_plain %ctx, %ct_596, %extracted_433 : (!ctx, !ct, !pt) -> !ct
    %ct_1424 = cheddar.mult_plain %ctx, %ct_599, %extracted_434 : (!ctx, !ct, !pt) -> !ct
    %ct_1425 = cheddar.mult_plain %ctx, %ct_602, %extracted_435 : (!ctx, !ct, !pt) -> !ct
    %ct_1426 = cheddar.add %ctx, %ct_1403, %ct_1404 : (!ctx, !ct, !ct) -> !ct
    %ct_1427 = cheddar.add %ctx, %ct_1405, %ct_1406 : (!ctx, !ct, !ct) -> !ct
    %ct_1428 = cheddar.add %ctx, %ct_1427, %ct_1407 : (!ctx, !ct, !ct) -> !ct
    %ct_1429 = cheddar.add %ctx, %ct_1426, %ct_1428 : (!ctx, !ct, !ct) -> !ct
    %ct_1430 = cheddar.add %ctx, %ct_1408, %ct_1409 : (!ctx, !ct, !ct) -> !ct
    %ct_1431 = cheddar.add %ctx, %ct_1430, %ct_1410 : (!ctx, !ct, !ct) -> !ct
    %ct_1432 = cheddar.add %ctx, %ct_1411, %ct_1412 : (!ctx, !ct, !ct) -> !ct
    %ct_1433 = cheddar.add %ctx, %ct_1432, %ct_1413 : (!ctx, !ct, !ct) -> !ct
    %ct_1434 = cheddar.add %ctx, %ct_1431, %ct_1433 : (!ctx, !ct, !ct) -> !ct
    %ct_1435 = cheddar.add %ctx, %ct_1429, %ct_1434 : (!ctx, !ct, !ct) -> !ct
    %ct_1436 = cheddar.add %ctx, %ct_1414, %ct_1415 : (!ctx, !ct, !ct) -> !ct
    %ct_1437 = cheddar.add %ctx, %ct_1436, %ct_1416 : (!ctx, !ct, !ct) -> !ct
    %ct_1438 = cheddar.add %ctx, %ct_1417, %ct_1418 : (!ctx, !ct, !ct) -> !ct
    %ct_1439 = cheddar.add %ctx, %ct_1438, %ct_1419 : (!ctx, !ct, !ct) -> !ct
    %ct_1440 = cheddar.add %ctx, %ct_1437, %ct_1439 : (!ctx, !ct, !ct) -> !ct
    %ct_1441 = cheddar.add %ctx, %ct_1420, %ct_1421 : (!ctx, !ct, !ct) -> !ct
    %ct_1442 = cheddar.add %ctx, %ct_1441, %ct_1422 : (!ctx, !ct, !ct) -> !ct
    %ct_1443 = cheddar.add %ctx, %ct_1423, %ct_1424 : (!ctx, !ct, !ct) -> !ct
    %ct_1444 = cheddar.add %ctx, %ct_1443, %ct_1425 : (!ctx, !ct, !ct) -> !ct
    %ct_1445 = cheddar.add %ctx, %ct_1442, %ct_1444 : (!ctx, !ct, !ct) -> !ct
    %ct_1446 = cheddar.add %ctx, %ct_1440, %ct_1445 : (!ctx, !ct, !ct) -> !ct
    %ct_1447 = cheddar.add %ctx, %ct_1435, %ct_1446 : (!ctx, !ct, !ct) -> !ct
    %evk_1448 = cheddar.get_rot_key %ui {distance = -1 : i64} : (!ui) -> !evk
    %ct_1449 = cheddar.hrot %ctx, %ct_1447, %evk_1448, %c414 : (!ctx, !ct, !evk, index) -> !ct
    %ct_1450 = cheddar.mult_plain %ctx, %extracted_538, %extracted_436 : (!ctx, !ct, !pt) -> !ct
    %ct_1451 = cheddar.mult_plain %ctx, %ct_539, %extracted_437 : (!ctx, !ct, !pt) -> !ct
    %ct_1452 = cheddar.mult_plain %ctx, %ct_542, %extracted_438 : (!ctx, !ct, !pt) -> !ct
    %ct_1453 = cheddar.mult_plain %ctx, %ct_545, %extracted_439 : (!ctx, !ct, !pt) -> !ct
    %ct_1454 = cheddar.mult_plain %ctx, %ct_548, %extracted_440 : (!ctx, !ct, !pt) -> !ct
    %ct_1455 = cheddar.mult_plain %ctx, %ct_551, %extracted_441 : (!ctx, !ct, !pt) -> !ct
    %ct_1456 = cheddar.mult_plain %ctx, %ct_554, %extracted_442 : (!ctx, !ct, !pt) -> !ct
    %ct_1457 = cheddar.mult_plain %ctx, %ct_557, %extracted_443 : (!ctx, !ct, !pt) -> !ct
    %ct_1458 = cheddar.mult_plain %ctx, %ct_560, %extracted_444 : (!ctx, !ct, !pt) -> !ct
    %ct_1459 = cheddar.mult_plain %ctx, %ct_563, %extracted_445 : (!ctx, !ct, !pt) -> !ct
    %ct_1460 = cheddar.mult_plain %ctx, %ct_566, %extracted_446 : (!ctx, !ct, !pt) -> !ct
    %ct_1461 = cheddar.mult_plain %ctx, %ct_569, %extracted_447 : (!ctx, !ct, !pt) -> !ct
    %ct_1462 = cheddar.mult_plain %ctx, %ct_572, %extracted_448 : (!ctx, !ct, !pt) -> !ct
    %ct_1463 = cheddar.mult_plain %ctx, %ct_575, %extracted_449 : (!ctx, !ct, !pt) -> !ct
    %ct_1464 = cheddar.mult_plain %ctx, %ct_578, %extracted_450 : (!ctx, !ct, !pt) -> !ct
    %ct_1465 = cheddar.mult_plain %ctx, %ct_581, %extracted_451 : (!ctx, !ct, !pt) -> !ct
    %ct_1466 = cheddar.mult_plain %ctx, %ct_584, %extracted_452 : (!ctx, !ct, !pt) -> !ct
    %ct_1467 = cheddar.mult_plain %ctx, %ct_587, %extracted_453 : (!ctx, !ct, !pt) -> !ct
    %ct_1468 = cheddar.mult_plain %ctx, %ct_590, %extracted_454 : (!ctx, !ct, !pt) -> !ct
    %ct_1469 = cheddar.mult_plain %ctx, %ct_593, %extracted_455 : (!ctx, !ct, !pt) -> !ct
    %ct_1470 = cheddar.mult_plain %ctx, %ct_596, %extracted_456 : (!ctx, !ct, !pt) -> !ct
    %ct_1471 = cheddar.mult_plain %ctx, %ct_599, %extracted_457 : (!ctx, !ct, !pt) -> !ct
    %ct_1472 = cheddar.mult_plain %ctx, %ct_602, %extracted_458 : (!ctx, !ct, !pt) -> !ct
    %ct_1473 = cheddar.add %ctx, %ct_1450, %ct_1451 : (!ctx, !ct, !ct) -> !ct
    %ct_1474 = cheddar.add %ctx, %ct_1452, %ct_1453 : (!ctx, !ct, !ct) -> !ct
    %ct_1475 = cheddar.add %ctx, %ct_1474, %ct_1454 : (!ctx, !ct, !ct) -> !ct
    %ct_1476 = cheddar.add %ctx, %ct_1473, %ct_1475 : (!ctx, !ct, !ct) -> !ct
    %ct_1477 = cheddar.add %ctx, %ct_1455, %ct_1456 : (!ctx, !ct, !ct) -> !ct
    %ct_1478 = cheddar.add %ctx, %ct_1477, %ct_1457 : (!ctx, !ct, !ct) -> !ct
    %ct_1479 = cheddar.add %ctx, %ct_1458, %ct_1459 : (!ctx, !ct, !ct) -> !ct
    %ct_1480 = cheddar.add %ctx, %ct_1479, %ct_1460 : (!ctx, !ct, !ct) -> !ct
    %ct_1481 = cheddar.add %ctx, %ct_1478, %ct_1480 : (!ctx, !ct, !ct) -> !ct
    %ct_1482 = cheddar.add %ctx, %ct_1476, %ct_1481 : (!ctx, !ct, !ct) -> !ct
    %ct_1483 = cheddar.add %ctx, %ct_1461, %ct_1462 : (!ctx, !ct, !ct) -> !ct
    %ct_1484 = cheddar.add %ctx, %ct_1483, %ct_1463 : (!ctx, !ct, !ct) -> !ct
    %ct_1485 = cheddar.add %ctx, %ct_1464, %ct_1465 : (!ctx, !ct, !ct) -> !ct
    %ct_1486 = cheddar.add %ctx, %ct_1485, %ct_1466 : (!ctx, !ct, !ct) -> !ct
    %ct_1487 = cheddar.add %ctx, %ct_1484, %ct_1486 : (!ctx, !ct, !ct) -> !ct
    %ct_1488 = cheddar.add %ctx, %ct_1467, %ct_1468 : (!ctx, !ct, !ct) -> !ct
    %ct_1489 = cheddar.add %ctx, %ct_1488, %ct_1469 : (!ctx, !ct, !ct) -> !ct
    %ct_1490 = cheddar.add %ctx, %ct_1470, %ct_1471 : (!ctx, !ct, !ct) -> !ct
    %ct_1491 = cheddar.add %ctx, %ct_1490, %ct_1472 : (!ctx, !ct, !ct) -> !ct
    %ct_1492 = cheddar.add %ctx, %ct_1489, %ct_1491 : (!ctx, !ct, !ct) -> !ct
    %ct_1493 = cheddar.add %ctx, %ct_1487, %ct_1492 : (!ctx, !ct, !ct) -> !ct
    %ct_1494 = cheddar.add %ctx, %ct_1482, %ct_1493 : (!ctx, !ct, !ct) -> !ct
    %evk_1495 = cheddar.get_rot_key %ui {distance = -1 : i64} : (!ui) -> !evk
    %ct_1496 = cheddar.hrot %ctx, %ct_1494, %evk_1495, %c437 : (!ctx, !ct, !evk, index) -> !ct
    %ct_1497 = cheddar.mult_plain %ctx, %extracted_538, %extracted_459 : (!ctx, !ct, !pt) -> !ct
    %ct_1498 = cheddar.mult_plain %ctx, %ct_539, %extracted_460 : (!ctx, !ct, !pt) -> !ct
    %ct_1499 = cheddar.mult_plain %ctx, %ct_542, %extracted_461 : (!ctx, !ct, !pt) -> !ct
    %ct_1500 = cheddar.mult_plain %ctx, %ct_545, %extracted_462 : (!ctx, !ct, !pt) -> !ct
    %ct_1501 = cheddar.mult_plain %ctx, %ct_548, %extracted_463 : (!ctx, !ct, !pt) -> !ct
    %ct_1502 = cheddar.mult_plain %ctx, %ct_551, %extracted_464 : (!ctx, !ct, !pt) -> !ct
    %ct_1503 = cheddar.mult_plain %ctx, %ct_554, %extracted_465 : (!ctx, !ct, !pt) -> !ct
    %ct_1504 = cheddar.mult_plain %ctx, %ct_557, %extracted_466 : (!ctx, !ct, !pt) -> !ct
    %ct_1505 = cheddar.mult_plain %ctx, %ct_560, %extracted_467 : (!ctx, !ct, !pt) -> !ct
    %ct_1506 = cheddar.mult_plain %ctx, %ct_563, %extracted_468 : (!ctx, !ct, !pt) -> !ct
    %ct_1507 = cheddar.mult_plain %ctx, %ct_566, %extracted_469 : (!ctx, !ct, !pt) -> !ct
    %ct_1508 = cheddar.mult_plain %ctx, %ct_569, %extracted_470 : (!ctx, !ct, !pt) -> !ct
    %ct_1509 = cheddar.mult_plain %ctx, %ct_572, %extracted_471 : (!ctx, !ct, !pt) -> !ct
    %ct_1510 = cheddar.mult_plain %ctx, %ct_575, %extracted_472 : (!ctx, !ct, !pt) -> !ct
    %ct_1511 = cheddar.mult_plain %ctx, %ct_578, %extracted_473 : (!ctx, !ct, !pt) -> !ct
    %ct_1512 = cheddar.mult_plain %ctx, %ct_581, %extracted_474 : (!ctx, !ct, !pt) -> !ct
    %ct_1513 = cheddar.mult_plain %ctx, %ct_584, %extracted_475 : (!ctx, !ct, !pt) -> !ct
    %ct_1514 = cheddar.mult_plain %ctx, %ct_587, %extracted_476 : (!ctx, !ct, !pt) -> !ct
    %ct_1515 = cheddar.mult_plain %ctx, %ct_590, %extracted_477 : (!ctx, !ct, !pt) -> !ct
    %ct_1516 = cheddar.mult_plain %ctx, %ct_593, %extracted_478 : (!ctx, !ct, !pt) -> !ct
    %ct_1517 = cheddar.mult_plain %ctx, %ct_596, %extracted_479 : (!ctx, !ct, !pt) -> !ct
    %ct_1518 = cheddar.mult_plain %ctx, %ct_599, %extracted_480 : (!ctx, !ct, !pt) -> !ct
    %ct_1519 = cheddar.mult_plain %ctx, %ct_602, %extracted_481 : (!ctx, !ct, !pt) -> !ct
    %ct_1520 = cheddar.add %ctx, %ct_1497, %ct_1498 : (!ctx, !ct, !ct) -> !ct
    %ct_1521 = cheddar.add %ctx, %ct_1499, %ct_1500 : (!ctx, !ct, !ct) -> !ct
    %ct_1522 = cheddar.add %ctx, %ct_1521, %ct_1501 : (!ctx, !ct, !ct) -> !ct
    %ct_1523 = cheddar.add %ctx, %ct_1520, %ct_1522 : (!ctx, !ct, !ct) -> !ct
    %ct_1524 = cheddar.add %ctx, %ct_1502, %ct_1503 : (!ctx, !ct, !ct) -> !ct
    %ct_1525 = cheddar.add %ctx, %ct_1524, %ct_1504 : (!ctx, !ct, !ct) -> !ct
    %ct_1526 = cheddar.add %ctx, %ct_1505, %ct_1506 : (!ctx, !ct, !ct) -> !ct
    %ct_1527 = cheddar.add %ctx, %ct_1526, %ct_1507 : (!ctx, !ct, !ct) -> !ct
    %ct_1528 = cheddar.add %ctx, %ct_1525, %ct_1527 : (!ctx, !ct, !ct) -> !ct
    %ct_1529 = cheddar.add %ctx, %ct_1523, %ct_1528 : (!ctx, !ct, !ct) -> !ct
    %ct_1530 = cheddar.add %ctx, %ct_1508, %ct_1509 : (!ctx, !ct, !ct) -> !ct
    %ct_1531 = cheddar.add %ctx, %ct_1530, %ct_1510 : (!ctx, !ct, !ct) -> !ct
    %ct_1532 = cheddar.add %ctx, %ct_1511, %ct_1512 : (!ctx, !ct, !ct) -> !ct
    %ct_1533 = cheddar.add %ctx, %ct_1532, %ct_1513 : (!ctx, !ct, !ct) -> !ct
    %ct_1534 = cheddar.add %ctx, %ct_1531, %ct_1533 : (!ctx, !ct, !ct) -> !ct
    %ct_1535 = cheddar.add %ctx, %ct_1514, %ct_1515 : (!ctx, !ct, !ct) -> !ct
    %ct_1536 = cheddar.add %ctx, %ct_1535, %ct_1516 : (!ctx, !ct, !ct) -> !ct
    %ct_1537 = cheddar.add %ctx, %ct_1517, %ct_1518 : (!ctx, !ct, !ct) -> !ct
    %ct_1538 = cheddar.add %ctx, %ct_1537, %ct_1519 : (!ctx, !ct, !ct) -> !ct
    %ct_1539 = cheddar.add %ctx, %ct_1536, %ct_1538 : (!ctx, !ct, !ct) -> !ct
    %ct_1540 = cheddar.add %ctx, %ct_1534, %ct_1539 : (!ctx, !ct, !ct) -> !ct
    %ct_1541 = cheddar.add %ctx, %ct_1529, %ct_1540 : (!ctx, !ct, !ct) -> !ct
    %evk_1542 = cheddar.get_rot_key %ui {distance = -1 : i64} : (!ui) -> !evk
    %ct_1543 = cheddar.hrot %ctx, %ct_1541, %evk_1542, %c460 : (!ctx, !ct, !evk, index) -> !ct
    %ct_1544 = cheddar.mult_plain %ctx, %extracted_538, %extracted_482 : (!ctx, !ct, !pt) -> !ct
    %ct_1545 = cheddar.mult_plain %ctx, %ct_539, %extracted_483 : (!ctx, !ct, !pt) -> !ct
    %ct_1546 = cheddar.mult_plain %ctx, %ct_542, %extracted_484 : (!ctx, !ct, !pt) -> !ct
    %ct_1547 = cheddar.mult_plain %ctx, %ct_545, %extracted_485 : (!ctx, !ct, !pt) -> !ct
    %ct_1548 = cheddar.mult_plain %ctx, %ct_548, %extracted_486 : (!ctx, !ct, !pt) -> !ct
    %ct_1549 = cheddar.mult_plain %ctx, %ct_551, %extracted_487 : (!ctx, !ct, !pt) -> !ct
    %ct_1550 = cheddar.mult_plain %ctx, %ct_554, %extracted_488 : (!ctx, !ct, !pt) -> !ct
    %ct_1551 = cheddar.mult_plain %ctx, %ct_557, %extracted_489 : (!ctx, !ct, !pt) -> !ct
    %ct_1552 = cheddar.mult_plain %ctx, %ct_560, %extracted_490 : (!ctx, !ct, !pt) -> !ct
    %ct_1553 = cheddar.mult_plain %ctx, %ct_563, %extracted_491 : (!ctx, !ct, !pt) -> !ct
    %ct_1554 = cheddar.mult_plain %ctx, %ct_566, %extracted_492 : (!ctx, !ct, !pt) -> !ct
    %ct_1555 = cheddar.mult_plain %ctx, %ct_569, %extracted_493 : (!ctx, !ct, !pt) -> !ct
    %ct_1556 = cheddar.mult_plain %ctx, %ct_572, %extracted_494 : (!ctx, !ct, !pt) -> !ct
    %ct_1557 = cheddar.mult_plain %ctx, %ct_575, %extracted_495 : (!ctx, !ct, !pt) -> !ct
    %ct_1558 = cheddar.mult_plain %ctx, %ct_578, %extracted_496 : (!ctx, !ct, !pt) -> !ct
    %ct_1559 = cheddar.mult_plain %ctx, %ct_581, %extracted_497 : (!ctx, !ct, !pt) -> !ct
    %ct_1560 = cheddar.mult_plain %ctx, %ct_584, %extracted_498 : (!ctx, !ct, !pt) -> !ct
    %ct_1561 = cheddar.mult_plain %ctx, %ct_587, %extracted_499 : (!ctx, !ct, !pt) -> !ct
    %ct_1562 = cheddar.mult_plain %ctx, %ct_590, %extracted_500 : (!ctx, !ct, !pt) -> !ct
    %ct_1563 = cheddar.mult_plain %ctx, %ct_593, %extracted_501 : (!ctx, !ct, !pt) -> !ct
    %ct_1564 = cheddar.mult_plain %ctx, %ct_596, %extracted_502 : (!ctx, !ct, !pt) -> !ct
    %ct_1565 = cheddar.mult_plain %ctx, %ct_599, %extracted_503 : (!ctx, !ct, !pt) -> !ct
    %ct_1566 = cheddar.mult_plain %ctx, %ct_602, %extracted_504 : (!ctx, !ct, !pt) -> !ct
    %ct_1567 = cheddar.add %ctx, %ct_1544, %ct_1545 : (!ctx, !ct, !ct) -> !ct
    %ct_1568 = cheddar.add %ctx, %ct_1546, %ct_1547 : (!ctx, !ct, !ct) -> !ct
    %ct_1569 = cheddar.add %ctx, %ct_1568, %ct_1548 : (!ctx, !ct, !ct) -> !ct
    %ct_1570 = cheddar.add %ctx, %ct_1567, %ct_1569 : (!ctx, !ct, !ct) -> !ct
    %ct_1571 = cheddar.add %ctx, %ct_1549, %ct_1550 : (!ctx, !ct, !ct) -> !ct
    %ct_1572 = cheddar.add %ctx, %ct_1571, %ct_1551 : (!ctx, !ct, !ct) -> !ct
    %ct_1573 = cheddar.add %ctx, %ct_1552, %ct_1553 : (!ctx, !ct, !ct) -> !ct
    %ct_1574 = cheddar.add %ctx, %ct_1573, %ct_1554 : (!ctx, !ct, !ct) -> !ct
    %ct_1575 = cheddar.add %ctx, %ct_1572, %ct_1574 : (!ctx, !ct, !ct) -> !ct
    %ct_1576 = cheddar.add %ctx, %ct_1570, %ct_1575 : (!ctx, !ct, !ct) -> !ct
    %ct_1577 = cheddar.add %ctx, %ct_1555, %ct_1556 : (!ctx, !ct, !ct) -> !ct
    %ct_1578 = cheddar.add %ctx, %ct_1577, %ct_1557 : (!ctx, !ct, !ct) -> !ct
    %ct_1579 = cheddar.add %ctx, %ct_1558, %ct_1559 : (!ctx, !ct, !ct) -> !ct
    %ct_1580 = cheddar.add %ctx, %ct_1579, %ct_1560 : (!ctx, !ct, !ct) -> !ct
    %ct_1581 = cheddar.add %ctx, %ct_1578, %ct_1580 : (!ctx, !ct, !ct) -> !ct
    %ct_1582 = cheddar.add %ctx, %ct_1561, %ct_1562 : (!ctx, !ct, !ct) -> !ct
    %ct_1583 = cheddar.add %ctx, %ct_1582, %ct_1563 : (!ctx, !ct, !ct) -> !ct
    %ct_1584 = cheddar.add %ctx, %ct_1564, %ct_1565 : (!ctx, !ct, !ct) -> !ct
    %ct_1585 = cheddar.add %ctx, %ct_1584, %ct_1566 : (!ctx, !ct, !ct) -> !ct
    %ct_1586 = cheddar.add %ctx, %ct_1583, %ct_1585 : (!ctx, !ct, !ct) -> !ct
    %ct_1587 = cheddar.add %ctx, %ct_1581, %ct_1586 : (!ctx, !ct, !ct) -> !ct
    %ct_1588 = cheddar.add %ctx, %ct_1576, %ct_1587 : (!ctx, !ct, !ct) -> !ct
    %evk_1589 = cheddar.get_rot_key %ui {distance = -1 : i64} : (!ui) -> !evk
    %ct_1590 = cheddar.hrot %ctx, %ct_1588, %evk_1589, %c483 : (!ctx, !ct, !evk, index) -> !ct
    %ct_1591 = cheddar.mult_plain %ctx, %extracted_538, %extracted_505 : (!ctx, !ct, !pt) -> !ct
    %ct_1592 = cheddar.mult_plain %ctx, %ct_539, %extracted_506 : (!ctx, !ct, !pt) -> !ct
    %ct_1593 = cheddar.mult_plain %ctx, %ct_542, %extracted_507 : (!ctx, !ct, !pt) -> !ct
    %ct_1594 = cheddar.mult_plain %ctx, %ct_545, %extracted_508 : (!ctx, !ct, !pt) -> !ct
    %ct_1595 = cheddar.mult_plain %ctx, %ct_548, %extracted_509 : (!ctx, !ct, !pt) -> !ct
    %ct_1596 = cheddar.mult_plain %ctx, %ct_551, %extracted_510 : (!ctx, !ct, !pt) -> !ct
    %ct_1597 = cheddar.add %ctx, %ct_1591, %ct_1592 : (!ctx, !ct, !ct) -> !ct
    %ct_1598 = cheddar.add %ctx, %ct_1597, %ct_1593 : (!ctx, !ct, !ct) -> !ct
    %ct_1599 = cheddar.add %ctx, %ct_1594, %ct_1595 : (!ctx, !ct, !ct) -> !ct
    %ct_1600 = cheddar.add %ctx, %ct_1599, %ct_1596 : (!ctx, !ct, !ct) -> !ct
    %ct_1601 = cheddar.add %ctx, %ct_1598, %ct_1600 : (!ctx, !ct, !ct) -> !ct
    %evk_1602 = cheddar.get_rot_key %ui {distance = -1 : i64} : (!ui) -> !evk
    %ct_1603 = cheddar.hrot %ctx, %ct_1601, %evk_1602, %c506 : (!ctx, !ct, !evk, index) -> !ct
    %ct_1604 = cheddar.add %ctx, %ct, %ct_540 : (!ctx, !ct, !ct) -> !ct
    %ct_1605 = cheddar.add %ctx, %ct_543, %ct_546 : (!ctx, !ct, !ct) -> !ct
    %ct_1606 = cheddar.add %ctx, %ct_1605, %ct_549 : (!ctx, !ct, !ct) -> !ct
    %ct_1607 = cheddar.add %ctx, %ct_1604, %ct_1606 : (!ctx, !ct, !ct) -> !ct
    %ct_1608 = cheddar.add %ctx, %ct_552, %ct_555 : (!ctx, !ct, !ct) -> !ct
    %ct_1609 = cheddar.add %ctx, %ct_1608, %ct_558 : (!ctx, !ct, !ct) -> !ct
    %ct_1610 = cheddar.add %ctx, %ct_561, %ct_564 : (!ctx, !ct, !ct) -> !ct
    %ct_1611 = cheddar.add %ctx, %ct_1610, %ct_567 : (!ctx, !ct, !ct) -> !ct
    %ct_1612 = cheddar.add %ctx, %ct_1609, %ct_1611 : (!ctx, !ct, !ct) -> !ct
    %ct_1613 = cheddar.add %ctx, %ct_1607, %ct_1612 : (!ctx, !ct, !ct) -> !ct
    %ct_1614 = cheddar.add %ctx, %ct_570, %ct_573 : (!ctx, !ct, !ct) -> !ct
    %ct_1615 = cheddar.add %ctx, %ct_576, %ct_579 : (!ctx, !ct, !ct) -> !ct
    %ct_1616 = cheddar.add %ctx, %ct_1615, %ct_582 : (!ctx, !ct, !ct) -> !ct
    %ct_1617 = cheddar.add %ctx, %ct_1614, %ct_1616 : (!ctx, !ct, !ct) -> !ct
    %ct_1618 = cheddar.add %ctx, %ct_585, %ct_588 : (!ctx, !ct, !ct) -> !ct
    %ct_1619 = cheddar.add %ctx, %ct_1618, %ct_591 : (!ctx, !ct, !ct) -> !ct
    %ct_1620 = cheddar.add %ctx, %ct_594, %ct_597 : (!ctx, !ct, !ct) -> !ct
    %ct_1621 = cheddar.add %ctx, %ct_1620, %ct_600 : (!ctx, !ct, !ct) -> !ct
    %ct_1622 = cheddar.add %ctx, %ct_1619, %ct_1621 : (!ctx, !ct, !ct) -> !ct
    %ct_1623 = cheddar.add %ctx, %ct_1617, %ct_1622 : (!ctx, !ct, !ct) -> !ct
    %ct_1624 = cheddar.add %ctx, %ct_1613, %ct_1623 : (!ctx, !ct, !ct) -> !ct
    %ct_1625 = cheddar.add %ctx, %ct_603, %ct_650 : (!ctx, !ct, !ct) -> !ct
    %ct_1626 = cheddar.add %ctx, %ct_697, %ct_744 : (!ctx, !ct, !ct) -> !ct
    %ct_1627 = cheddar.add %ctx, %ct_1626, %ct_791 : (!ctx, !ct, !ct) -> !ct
    %ct_1628 = cheddar.add %ctx, %ct_1625, %ct_1627 : (!ctx, !ct, !ct) -> !ct
    %ct_1629 = cheddar.add %ctx, %ct_838, %ct_885 : (!ctx, !ct, !ct) -> !ct
    %ct_1630 = cheddar.add %ctx, %ct_1629, %ct_932 : (!ctx, !ct, !ct) -> !ct
    %ct_1631 = cheddar.add %ctx, %ct_979, %ct_1026 : (!ctx, !ct, !ct) -> !ct
    %ct_1632 = cheddar.add %ctx, %ct_1631, %ct_1073 : (!ctx, !ct, !ct) -> !ct
    %ct_1633 = cheddar.add %ctx, %ct_1630, %ct_1632 : (!ctx, !ct, !ct) -> !ct
    %ct_1634 = cheddar.add %ctx, %ct_1628, %ct_1633 : (!ctx, !ct, !ct) -> !ct
    %ct_1635 = cheddar.add %ctx, %ct_1120, %ct_1167 : (!ctx, !ct, !ct) -> !ct
    %ct_1636 = cheddar.add %ctx, %ct_1635, %ct_1214 : (!ctx, !ct, !ct) -> !ct
    %ct_1637 = cheddar.add %ctx, %ct_1261, %ct_1308 : (!ctx, !ct, !ct) -> !ct
    %ct_1638 = cheddar.add %ctx, %ct_1637, %ct_1355 : (!ctx, !ct, !ct) -> !ct
    %ct_1639 = cheddar.add %ctx, %ct_1636, %ct_1638 : (!ctx, !ct, !ct) -> !ct
    %ct_1640 = cheddar.add %ctx, %ct_1402, %ct_1449 : (!ctx, !ct, !ct) -> !ct
    %ct_1641 = cheddar.add %ctx, %ct_1640, %ct_1496 : (!ctx, !ct, !ct) -> !ct
    %ct_1642 = cheddar.add %ctx, %ct_1543, %ct_1590 : (!ctx, !ct, !ct) -> !ct
    %ct_1643 = cheddar.add %ctx, %ct_1642, %ct_1603 : (!ctx, !ct, !ct) -> !ct
    %ct_1644 = cheddar.add %ctx, %ct_1641, %ct_1643 : (!ctx, !ct, !ct) -> !ct
    %ct_1645 = cheddar.add %ctx, %ct_1639, %ct_1644 : (!ctx, !ct, !ct) -> !ct
    %ct_1646 = cheddar.add %ctx, %ct_1634, %ct_1645 : (!ctx, !ct, !ct) -> !ct
    %ct_1647 = cheddar.add %ctx, %ct_1624, %ct_1646 : (!ctx, !ct, !ct) -> !ct
    %evk_1648 = cheddar.get_rot_key %ui {distance = -1 : i64} : (!ui) -> !evk
    %ct_1649 = cheddar.hrot %ctx, %ct_1647, %evk_1648, %c512 : (!ctx, !ct, !evk, index) -> !ct
    %ct_1650 = cheddar.add_plain %ctx, %ct_1647, %extracted_533 : (!ctx, !ct, !pt) -> !ct
    %ct_1651 = cheddar.add %ctx, %ct_1650, %ct_1649 : (!ctx, !ct, !ct) -> !ct
    %ct_1652 = cheddar.rescale %ctx, %ct_1651 : (!ctx, !ct) -> !ct
    %ct_1653 = cheddar.mult_plain %ctx, %ct_1652, %extracted_511 : (!ctx, !ct, !pt) -> !ct
    %ct_1654 = cheddar.rescale %ctx, %ct_1653 : (!ctx, !ct) -> !ct
    %ct_1655 = cheddar.mult_plain %ctx, %ct_1654, %extracted_512 : (!ctx, !ct, !pt) -> !ct
    %ct_1656 = cheddar.mult %ctx, %ct_1654, %ct_1654 : (!ctx, !ct, !ct) -> !ct
    %evk_1657 = cheddar.get_mult_key %ui : (!ui) -> !evk
    %ct_1658 = cheddar.relinearize %ctx, %ct_1656, %evk_1657 : (!ctx, !ct, !evk) -> !ct
    %ct_1659 = cheddar.rescale %ctx, %ct_1658 : (!ctx, !ct) -> !ct
    %ct_1660 = cheddar.mult_plain %ctx, %ct_1659, %extracted_513 : (!ctx, !ct, !pt) -> !ct
    %ct_1661 = cheddar.sub_plain %ctx, %ct_1660, %extracted_534 : (!ctx, !ct, !pt) -> !ct
    %ct_1662 = cheddar.rescale %ctx, %ct_1661 : (!ctx, !ct) -> !ct
    %ct_1663 = cheddar.mult_plain %ctx, %ct_1662, %extracted_514 : (!ctx, !ct, !pt) -> !ct
    %ct_1664 = cheddar.mult %ctx, %ct_1662, %ct_1662 : (!ctx, !ct, !ct) -> !ct
    %evk_1665 = cheddar.get_mult_key %ui : (!ui) -> !evk
    %ct_1666 = cheddar.relinearize %ctx, %ct_1664, %evk_1665 : (!ctx, !ct, !evk) -> !ct
    %ct_1667 = cheddar.rescale %ctx, %ct_1666 : (!ctx, !ct) -> !ct
    %ct_1668 = cheddar.mult_plain %ctx, %ct_1667, %extracted_515 : (!ctx, !ct, !pt) -> !ct
    %ct_1669 = cheddar.sub_plain %ctx, %ct_1668, %extracted_535 : (!ctx, !ct, !pt) -> !ct
    %ct_1670 = cheddar.rescale %ctx, %ct_1669 : (!ctx, !ct) -> !ct
    %ct_1671 = cheddar.mult_plain %ctx, %ct_1670, %extracted_516 : (!ctx, !ct, !pt) -> !ct
    %ct_1672 = cheddar.add_plain %ctx, %ct_1655, %extracted_536 : (!ctx, !ct, !pt) -> !ct
    %ct_1673 = cheddar.rescale %ctx, %ct_1663 : (!ctx, !ct) -> !ct
    %const = cheddar.encode_constant %encoder, %cst {level = 3 : i64, scale = 45 : i64} : (!encoder, f64) -> !const
    %ct_1674 = cheddar.mult_const %ctx, %ct_1673, %const : (!ctx, !ct, !const) -> !ct
    %ct_1675 = cheddar.rescale %ctx, %ct_1674 : (!ctx, !ct) -> !ct
    %const_1676 = cheddar.encode_constant %encoder, %cst {level = 2 : i64, scale = 45 : i64} : (!encoder, f64) -> !const
    %ct_1677 = cheddar.mult_const %ctx, %ct_1675, %const_1676 : (!ctx, !ct, !const) -> !ct
    %ct_1678 = cheddar.add %ctx, %ct_1677, %ct_1671 : (!ctx, !ct, !ct) -> !ct
    %ct_1679 = cheddar.rescale %ctx, %ct_1672 : (!ctx, !ct) -> !ct
    %const_1680 = cheddar.encode_constant %encoder, %cst {level = 5 : i64, scale = 45 : i64} : (!encoder, f64) -> !const
    %ct_1681 = cheddar.mult_const %ctx, %ct_1679, %const_1680 : (!ctx, !ct, !const) -> !ct
    %ct_1682 = cheddar.rescale %ctx, %ct_1681 : (!ctx, !ct) -> !ct
    %const_1683 = cheddar.encode_constant %encoder, %cst {level = 4 : i64, scale = 45 : i64} : (!encoder, f64) -> !const
    %ct_1684 = cheddar.mult_const %ctx, %ct_1682, %const_1683 : (!ctx, !ct, !const) -> !ct
    %ct_1685 = cheddar.rescale %ctx, %ct_1684 : (!ctx, !ct) -> !ct
    %const_1686 = cheddar.encode_constant %encoder, %cst {level = 3 : i64, scale = 45 : i64} : (!encoder, f64) -> !const
    %ct_1687 = cheddar.mult_const %ctx, %ct_1685, %const_1686 : (!ctx, !ct, !const) -> !ct
    %ct_1688 = cheddar.rescale %ctx, %ct_1687 : (!ctx, !ct) -> !ct
    %const_1689 = cheddar.encode_constant %encoder, %cst {level = 2 : i64, scale = 45 : i64} : (!encoder, f64) -> !const
    %ct_1690 = cheddar.mult_const %ctx, %ct_1688, %const_1689 : (!ctx, !ct, !const) -> !ct
    %ct_1691 = cheddar.add %ctx, %ct_1690, %ct_1678 : (!ctx, !ct, !ct) -> !ct
    %ct_1692 = cheddar.rescale %ctx, %ct_1691 : (!ctx, !ct) -> !ct
    %ct_1693 = cheddar.mult_plain %ctx, %ct_1692, %extracted_517 : (!ctx, !ct, !pt) -> !ct
    %evk_1694 = cheddar.get_rot_key %ui {distance = -1 : i64} : (!ui) -> !evk
    %ct_1695 = cheddar.hrot %ctx, %ct_1691, %evk_1694, %c1 : (!ctx, !ct, !evk, index) -> !ct
    %ct_1696 = cheddar.rescale %ctx, %ct_1695 : (!ctx, !ct) -> !ct
    %ct_1697 = cheddar.mult_plain %ctx, %ct_1696, %extracted_518 : (!ctx, !ct, !pt) -> !ct
    %evk_1698 = cheddar.get_rot_key %ui {distance = -1 : i64} : (!ui) -> !evk
    %ct_1699 = cheddar.hrot %ctx, %ct_1691, %evk_1698, %c2 : (!ctx, !ct, !evk, index) -> !ct
    %ct_1700 = cheddar.rescale %ctx, %ct_1699 : (!ctx, !ct) -> !ct
    %ct_1701 = cheddar.mult_plain %ctx, %ct_1700, %extracted_519 : (!ctx, !ct, !pt) -> !ct
    %evk_1702 = cheddar.get_rot_key %ui {distance = -1 : i64} : (!ui) -> !evk
    %ct_1703 = cheddar.hrot %ctx, %ct_1691, %evk_1702, %c3 : (!ctx, !ct, !evk, index) -> !ct
    %ct_1704 = cheddar.rescale %ctx, %ct_1703 : (!ctx, !ct) -> !ct
    %ct_1705 = cheddar.mult_plain %ctx, %ct_1704, %extracted_520 : (!ctx, !ct, !pt) -> !ct
    %ct_1706 = cheddar.mult_plain %ctx, %ct_1692, %extracted_521 : (!ctx, !ct, !pt) -> !ct
    %ct_1707 = cheddar.mult_plain %ctx, %ct_1696, %extracted_522 : (!ctx, !ct, !pt) -> !ct
    %ct_1708 = cheddar.mult_plain %ctx, %ct_1700, %extracted_523 : (!ctx, !ct, !pt) -> !ct
    %ct_1709 = cheddar.mult_plain %ctx, %ct_1704, %extracted_524 : (!ctx, !ct, !pt) -> !ct
    %ct_1710 = cheddar.add %ctx, %ct_1706, %ct_1707 : (!ctx, !ct, !ct) -> !ct
    %ct_1711 = cheddar.add %ctx, %ct_1708, %ct_1709 : (!ctx, !ct, !ct) -> !ct
    %ct_1712 = cheddar.add %ctx, %ct_1710, %ct_1711 : (!ctx, !ct, !ct) -> !ct
    %evk_1713 = cheddar.get_rot_key %ui {distance = -1 : i64} : (!ui) -> !evk
    %ct_1714 = cheddar.hrot %ctx, %ct_1712, %evk_1713, %c4 : (!ctx, !ct, !evk, index) -> !ct
    %ct_1715 = cheddar.mult_plain %ctx, %ct_1692, %extracted_525 : (!ctx, !ct, !pt) -> !ct
    %ct_1716 = cheddar.mult_plain %ctx, %ct_1696, %extracted_526 : (!ctx, !ct, !pt) -> !ct
    %ct_1717 = cheddar.mult_plain %ctx, %ct_1700, %extracted_527 : (!ctx, !ct, !pt) -> !ct
    %ct_1718 = cheddar.mult_plain %ctx, %ct_1704, %extracted_528 : (!ctx, !ct, !pt) -> !ct
    %ct_1719 = cheddar.add %ctx, %ct_1715, %ct_1716 : (!ctx, !ct, !ct) -> !ct
    %ct_1720 = cheddar.add %ctx, %ct_1717, %ct_1718 : (!ctx, !ct, !ct) -> !ct
    %ct_1721 = cheddar.add %ctx, %ct_1719, %ct_1720 : (!ctx, !ct, !ct) -> !ct
    %evk_1722 = cheddar.get_rot_key %ui {distance = -1 : i64} : (!ui) -> !evk
    %ct_1723 = cheddar.hrot %ctx, %ct_1721, %evk_1722, %c8 : (!ctx, !ct, !evk, index) -> !ct
    %ct_1724 = cheddar.mult_plain %ctx, %ct_1692, %extracted_529 : (!ctx, !ct, !pt) -> !ct
    %ct_1725 = cheddar.mult_plain %ctx, %ct_1696, %extracted_530 : (!ctx, !ct, !pt) -> !ct
    %ct_1726 = cheddar.mult_plain %ctx, %ct_1700, %extracted_531 : (!ctx, !ct, !pt) -> !ct
    %ct_1727 = cheddar.mult_plain %ctx, %ct_1704, %extracted_532 : (!ctx, !ct, !pt) -> !ct
    %ct_1728 = cheddar.add %ctx, %ct_1724, %ct_1725 : (!ctx, !ct, !ct) -> !ct
    %ct_1729 = cheddar.add %ctx, %ct_1726, %ct_1727 : (!ctx, !ct, !ct) -> !ct
    %ct_1730 = cheddar.add %ctx, %ct_1728, %ct_1729 : (!ctx, !ct, !ct) -> !ct
    %evk_1731 = cheddar.get_rot_key %ui {distance = -1 : i64} : (!ui) -> !evk
    %ct_1732 = cheddar.hrot %ctx, %ct_1730, %evk_1731, %c12 : (!ctx, !ct, !evk, index) -> !ct
    %ct_1733 = cheddar.add %ctx, %ct_1693, %ct_1697 : (!ctx, !ct, !ct) -> !ct
    %ct_1734 = cheddar.add %ctx, %ct_1733, %ct_1701 : (!ctx, !ct, !ct) -> !ct
    %ct_1735 = cheddar.add %ctx, %ct_1705, %ct_1714 : (!ctx, !ct, !ct) -> !ct
    %ct_1736 = cheddar.add %ctx, %ct_1723, %ct_1732 : (!ctx, !ct, !ct) -> !ct
    %ct_1737 = cheddar.add %ctx, %ct_1735, %ct_1736 : (!ctx, !ct, !ct) -> !ct
    %ct_1738 = cheddar.add %ctx, %ct_1734, %ct_1737 : (!ctx, !ct, !ct) -> !ct
    %evk_1739 = cheddar.get_rot_key %ui {distance = -1 : i64} : (!ui) -> !evk
    %ct_1740 = cheddar.hrot %ctx, %ct_1738, %evk_1739, %c256 : (!ctx, !ct, !evk, index) -> !ct
    %ct_1741 = cheddar.add %ctx, %ct_1738, %ct_1740 : (!ctx, !ct, !ct) -> !ct
    %evk_1742 = cheddar.get_rot_key %ui {distance = -1 : i64} : (!ui) -> !evk
    %ct_1743 = cheddar.hrot %ctx, %ct_1741, %evk_1742, %c128 : (!ctx, !ct, !evk, index) -> !ct
    %ct_1744 = cheddar.add %ctx, %ct_1741, %ct_1743 : (!ctx, !ct, !ct) -> !ct
    %evk_1745 = cheddar.get_rot_key %ui {distance = -1 : i64} : (!ui) -> !evk
    %ct_1746 = cheddar.hrot %ctx, %ct_1744, %evk_1745, %c64 : (!ctx, !ct, !evk, index) -> !ct
    %ct_1747 = cheddar.add %ctx, %ct_1744, %ct_1746 : (!ctx, !ct, !ct) -> !ct
    %evk_1748 = cheddar.get_rot_key %ui {distance = -1 : i64} : (!ui) -> !evk
    %ct_1749 = cheddar.hrot %ctx, %ct_1747, %evk_1748, %c32 : (!ctx, !ct, !evk, index) -> !ct
    %ct_1750 = cheddar.add %ctx, %ct_1747, %ct_1749 : (!ctx, !ct, !ct) -> !ct
    %evk_1751 = cheddar.get_rot_key %ui {distance = -1 : i64} : (!ui) -> !evk
    %ct_1752 = cheddar.hrot %ctx, %ct_1750, %evk_1751, %c16 : (!ctx, !ct, !evk, index) -> !ct
    %ct_1753 = cheddar.add_plain %ctx, %ct_1750, %extracted_537 : (!ctx, !ct, !pt) -> !ct
    %ct_1754 = cheddar.add %ctx, %ct_1753, %ct_1752 : (!ctx, !ct, !ct) -> !ct
    %0 = tensor.empty() : tensor<1x!ct>
    %ct_1755 = cheddar.rescale %ctx, %ct_1754 : (!ctx, !ct) -> !ct
    %inserted = tensor.insert %ct_1755 into %0[%c0] : tensor<1x!ct>
    return %inserted : tensor<1x!ct>
  }
  func.func public @mnist(%ctx: !ctx, %encoder: !encoder, %ui: !ui, %arg0: tensor<512x784xf32> {mhlo.sharding = "{replicated}"}, %arg1: tensor<512xf32> {mhlo.sharding = "{replicated}"}, %arg2: tensor<10x512xf32> {mhlo.sharding = "{replicated}"}, %arg3: tensor<10xf32> {mhlo.sharding = "{replicated}"}, %arg4: tensor<1x!ct> {tensor_ext.original_type = #tensor_ext.original_type<originalType = tensor<1x784xf32>, layout = #tensor_ext.layout<"{ [i0, i1] -> [ct, slot] : i0 = 0 and ct = 0 and (-i1 + slot) mod 1024 = 0 and 0 <= i1 <= 783 and 0 <= slot <= 1023 }">>}) -> (tensor<1x!ct> {jax.result_info = "result[0]", tensor_ext.original_type = #original_type}) {
    %0:8 = call @mnist__preprocessing(%ctx, %encoder, %ui, %arg0, %arg1, %arg2, %arg3) : (!ctx, !encoder, !ui, tensor<512x784xf32>, tensor<512xf32>, tensor<10x512xf32>, tensor<10xf32>) -> (tensor<77x!pt>, tensor<77x!pt>, tensor<77x!pt>, tensor<77x!pt>, tensor<77x!pt>, tensor<77x!pt>, tensor<72x!pt>, tensor<5x!pt>)
    %1 = call @mnist__preprocessed(%ctx, %encoder, %ui, %arg4, %0#0, %0#1, %0#2, %0#3, %0#4, %0#5, %0#6, %0#7) : (!ctx, !encoder, !ui, tensor<1x!ct>, tensor<77x!pt>, tensor<77x!pt>, tensor<77x!pt>, tensor<77x!pt>, tensor<77x!pt>, tensor<77x!pt>, tensor<72x!pt>, tensor<5x!pt>) -> tensor<1x!ct>
    return %1 : tensor<1x!ct>
  }
  func.func @mnist__encrypt__arg4(%ctx: !ctx, %encoder: !encoder, %ui: !ui, %arg0: tensor<1x784xf32>, %ui_0: !ui) -> tensor<1x!ct> attributes {client.enc_func = {func_name = "mnist", index = 4 : i64}} {
    %c0 = arith.constant 0 : index
    %cst = arith.constant dense<0.000000e+00> : tensor<1x1024xf32>
    %c0_i32 = arith.constant 0 : i32
    %c1_i32 = arith.constant 1 : i32
    %c784_i32 = arith.constant 784 : i32
    %0 = scf.for %arg1 = %c0_i32 to %c784_i32 step %c1_i32 iter_args(%arg2 = %cst) -> (tensor<1x1024xf32>)  : i32 {
      %1 = arith.index_cast %arg1 : i32 to index
      %extracted = tensor.extract %arg0[%c0, %1] : tensor<1x784xf32>
      %inserted = tensor.insert %extracted into %arg2[%c0, %1] : tensor<1x1024xf32>
      scf.yield %inserted : tensor<1x1024xf32>
    }
    %extracted_slice = tensor.extract_slice %0[0, 0] [1, 1024] [1, 1] : tensor<1x1024xf32> to tensor<1024xf32>
    %pt = cheddar.encode %encoder, %extracted_slice {level = 8 : i64, scale = 45 : i64} : (!encoder, tensor<1024xf32>) -> !pt
    %ct = cheddar.encrypt %ui, %pt : (!ui, !pt) -> !ct
    %from_elements = tensor.from_elements %ct : tensor<1x!ct>
    return %from_elements : tensor<1x!ct>
  }
  func.func @mnist__decrypt__result0(%ctx: !ctx, %encoder: !encoder, %ui: !ui, %arg0: tensor<1x!ct>, %ui_0: !ui) -> tensor<1x10xf32> attributes {client.dec_func = {func_name = "mnist", index = 0 : i64}} {
    %c0 = arith.constant 0 : index
    %c1024_i32 = arith.constant 1024 : i32
    %c16_i32 = arith.constant 16 : i32
    %c6_i32 = arith.constant 6 : i32
    %c1_i32 = arith.constant 1 : i32
    %c0_i32 = arith.constant 0 : i32
    %cst = arith.constant dense<0.000000e+00> : tensor<1x10xf32>
    %extracted = tensor.extract %arg0[%c0] : tensor<1x!ct>
    %pt = cheddar.decrypt %ui, %extracted : (!ui, !ct) -> !pt
    %0 = cheddar.decode %encoder, %pt : (!encoder, !pt) -> tensor<1x1024xf32>
    %1 = scf.for %arg1 = %c0_i32 to %c1024_i32 step %c1_i32 iter_args(%arg2 = %cst) -> (tensor<1x10xf32>)  : i32 {
      %2 = arith.addi %arg1, %c6_i32 : i32
      %3 = arith.floordivsi %2, %c16_i32 : i32
      %4 = arith.muli %3, %c16_i32 : i32
      %5 = arith.subi %2, %4 : i32
      %6 = arith.cmpi sge, %5, %c6_i32 : i32
      %7 = scf.if %6 -> (tensor<1x10xf32>) {
        %8 = arith.floordivsi %arg1, %c16_i32 : i32
        %9 = arith.muli %8, %c16_i32 : i32
        %10 = arith.subi %arg1, %9 : i32
        %11 = arith.index_cast %arg1 : i32 to index
        %extracted_1 = tensor.extract %0[%c0, %11] : tensor<1x1024xf32>
        %12 = arith.index_cast %10 : i32 to index
        %inserted = tensor.insert %extracted_1 into %arg2[%c0, %12] : tensor<1x10xf32>
        scf.yield %inserted : tensor<1x10xf32>
      } else {
        scf.yield %arg2 : tensor<1x10xf32>
      }
      scf.yield %7 : tensor<1x10xf32>
    }
    return %1 : tensor<1x10xf32>
  }
}
