!Z35184372744193_i64 = !mod_arith.int<35184372744193 : i64>
!Z36028797019488257_i64 = !mod_arith.int<36028797019488257 : i64>
!cc = !openfhe.crypto_context
!params = !openfhe.cc_params
!pk = !openfhe.public_key
!sk = !openfhe.private_key
#alignment = #tensor_ext.alignment<in = [16], out = [16384]>
#inverse_canonical_encoding = #lwe.inverse_canonical_encoding<scaling_factor = 45>
#inverse_canonical_encoding1 = #lwe.inverse_canonical_encoding<scaling_factor = 90>
#key = #lwe.key<>
#modulus_chain_L1_C0 = #lwe.modulus_chain<elements = <36028797019488257 : i64, 35184372744193 : i64>, current = 0>
#modulus_chain_L1_C1 = #lwe.modulus_chain<elements = <36028797019488257 : i64, 35184372744193 : i64>, current = 1>
#ring_f64_1_x16384 = #polynomial.ring<coefficientType = f64, polynomialModulus = <1 + x**16384>>
!rns_L0 = !rns.rns<!Z36028797019488257_i64>
!rns_L1 = !rns.rns<!Z36028797019488257_i64, !Z35184372744193_i64>
#layout = #tensor_ext.layout<map = (d0) -> (d0 mod 16384), alignment = #alignment>
!pt = !lwe.new_lwe_plaintext<application_data = <message_type = tensor<16384xf32>>, plaintext_space = <ring = #ring_f64_1_x16384, encoding = #inverse_canonical_encoding>>
#original_type = #tensor_ext.original_type<originalType = tensor<16xf32>, layout = #layout>
#ring_rns_L0_1_x16384 = #polynomial.ring<coefficientType = !rns_L0, polynomialModulus = <1 + x**16384>>
#ring_rns_L1_1_x16384 = #polynomial.ring<coefficientType = !rns_L1, polynomialModulus = <1 + x**16384>>
#ciphertext_space_L0 = #lwe.ciphertext_space<ring = #ring_rns_L0_1_x16384, encryption_type = mix>
#ciphertext_space_L1 = #lwe.ciphertext_space<ring = #ring_rns_L1_1_x16384, encryption_type = mix>
!ct_L0 = !lwe.new_lwe_ciphertext<application_data = <message_type = tensor<16384xf32>>, plaintext_space = <ring = #ring_f64_1_x16384, encoding = #inverse_canonical_encoding>, ciphertext_space = #ciphertext_space_L0, key = #key, modulus_chain = #modulus_chain_L1_C0>
!ct_L1 = !lwe.new_lwe_ciphertext<application_data = <message_type = tensor<16384xf32>>, plaintext_space = <ring = #ring_f64_1_x16384, encoding = #inverse_canonical_encoding>, ciphertext_space = #ciphertext_space_L1, key = #key, modulus_chain = #modulus_chain_L1_C1>
!ct_L1_1 = !lwe.new_lwe_ciphertext<application_data = <message_type = tensor<16384xf32>>, plaintext_space = <ring = #ring_f64_1_x16384, encoding = #inverse_canonical_encoding1>, ciphertext_space = #ciphertext_space_L1, key = #key, modulus_chain = #modulus_chain_L1_C1>
module attributes {scheme.ckks} {
  func.func @matmul(%cc: !cc, %ct: !ct_L1 {tensor_ext.original_type = #original_type}, %arg0: tensor<16xf32>, %arg1: tensor<16xf32>, %arg2: tensor<16xf32>, %arg3: tensor<16xf32>) -> (!ct_L0 {tensor_ext.original_type = #original_type}) {
    %c0 = arith.constant 0 : index
    %c16384 = arith.constant 16384 : index
    %cst = arith.constant dense<0.000000e+00> : tensor<16384xf32>
    %0 = tensor.empty() : tensor<16384xf32>
    %inserted_slice = tensor.insert_slice %arg1 into %0[0] [16] [1] : tensor<16xf32> into tensor<16384xf32>
    %inserted_slice_0 = tensor.insert_slice %arg2 into %0[0] [16] [1] : tensor<16xf32> into tensor<16384xf32>
    %inserted_slice_1 = tensor.insert_slice %arg3 into %0[0] [16] [1] : tensor<16xf32> into tensor<16384xf32>
    %inserted_slice_2 = tensor.insert_slice %arg2 into %inserted_slice_0[16] [16] [1] : tensor<16xf32> into tensor<16384xf32>
    %inserted_slice_3 = tensor.insert_slice %arg3 into %inserted_slice_1[16] [16] [1] : tensor<16xf32> into tensor<16384xf32>
    %inserted_slice_4 = tensor.insert_slice %arg3 into %inserted_slice_3[32] [16] [1] : tensor<16xf32> into tensor<16384xf32>
    %inserted_slice_5 = tensor.insert_slice %arg3 into %inserted_slice_4[48] [16] [1] : tensor<16xf32> into tensor<16384xf32>
    %inserted_slice_6 = tensor.insert_slice %arg3 into %inserted_slice_5[64] [16] [1] : tensor<16xf32> into tensor<16384xf32>
    %inserted_slice_7 = tensor.insert_slice %arg3 into %inserted_slice_6[80] [16] [1] : tensor<16xf32> into tensor<16384xf32>
    %inserted_slice_8 = tensor.insert_slice %arg3 into %inserted_slice_7[96] [16] [1] : tensor<16xf32> into tensor<16384xf32>
    %inserted_slice_9 = tensor.insert_slice %arg3 into %inserted_slice_8[112] [16] [1] : tensor<16xf32> into tensor<16384xf32>
    %inserted_slice_10 = tensor.insert_slice %arg3 into %inserted_slice_9[128] [16] [1] : tensor<16xf32> into tensor<16384xf32>
    %inserted_slice_11 = tensor.insert_slice %arg3 into %inserted_slice_10[144] [16] [1] : tensor<16xf32> into tensor<16384xf32>
    %inserted_slice_12 = tensor.insert_slice %arg3 into %inserted_slice_11[160] [16] [1] : tensor<16xf32> into tensor<16384xf32>
    %inserted_slice_13 = tensor.insert_slice %arg3 into %inserted_slice_12[176] [16] [1] : tensor<16xf32> into tensor<16384xf32>
    %inserted_slice_14 = tensor.insert_slice %arg3 into %inserted_slice_13[192] [16] [1] : tensor<16xf32> into tensor<16384xf32>
    %inserted_slice_15 = tensor.insert_slice %arg3 into %inserted_slice_14[208] [16] [1] : tensor<16xf32> into tensor<16384xf32>
    %inserted_slice_16 = tensor.insert_slice %arg3 into %inserted_slice_15[224] [16] [1] : tensor<16xf32> into tensor<16384xf32>
    %inserted_slice_17 = tensor.insert_slice %arg3 into %inserted_slice_16[240] [16] [1] : tensor<16xf32> into tensor<16384xf32>
    %inserted_slice_18 = tensor.insert_slice %arg3 into %inserted_slice_17[256] [16] [1] : tensor<16xf32> into tensor<16384xf32>
    %inserted_slice_19 = tensor.insert_slice %arg3 into %inserted_slice_18[272] [16] [1] : tensor<16xf32> into tensor<16384xf32>
    %inserted_slice_20 = tensor.insert_slice %arg3 into %inserted_slice_19[288] [16] [1] : tensor<16xf32> into tensor<16384xf32>
    %inserted_slice_21 = tensor.insert_slice %arg3 into %inserted_slice_20[304] [16] [1] : tensor<16xf32> into tensor<16384xf32>
    %inserted_slice_22 = tensor.insert_slice %arg3 into %inserted_slice_21[320] [16] [1] : tensor<16xf32> into tensor<16384xf32>
    %inserted_slice_23 = tensor.insert_slice %arg3 into %inserted_slice_22[336] [16] [1] : tensor<16xf32> into tensor<16384xf32>
    %inserted_slice_24 = tensor.insert_slice %arg3 into %inserted_slice_23[352] [16] [1] : tensor<16xf32> into tensor<16384xf32>
    %inserted_slice_25 = tensor.insert_slice %arg3 into %inserted_slice_24[368] [16] [1] : tensor<16xf32> into tensor<16384xf32>
    %inserted_slice_26 = tensor.insert_slice %arg3 into %inserted_slice_25[384] [16] [1] : tensor<16xf32> into tensor<16384xf32>
    %inserted_slice_27 = tensor.insert_slice %arg3 into %inserted_slice_26[400] [16] [1] : tensor<16xf32> into tensor<16384xf32>
    %inserted_slice_28 = tensor.insert_slice %arg3 into %inserted_slice_27[416] [16] [1] : tensor<16xf32> into tensor<16384xf32>
    %inserted_slice_29 = tensor.insert_slice %arg3 into %inserted_slice_28[432] [16] [1] : tensor<16xf32> into tensor<16384xf32>
    %inserted_slice_30 = tensor.insert_slice %arg3 into %inserted_slice_29[448] [16] [1] : tensor<16xf32> into tensor<16384xf32>
    %inserted_slice_31 = tensor.insert_slice %arg3 into %inserted_slice_30[464] [16] [1] : tensor<16xf32> into tensor<16384xf32>
    %inserted_slice_32 = tensor.insert_slice %arg3 into %inserted_slice_31[480] [16] [1] : tensor<16xf32> into tensor<16384xf32>
    %inserted_slice_33 = tensor.insert_slice %arg3 into %inserted_slice_32[496] [16] [1] : tensor<16xf32> into tensor<16384xf32>
    %inserted_slice_34 = tensor.insert_slice %arg3 into %inserted_slice_33[512] [16] [1] : tensor<16xf32> into tensor<16384xf32>
    %inserted_slice_35 = tensor.insert_slice %arg3 into %inserted_slice_34[528] [16] [1] : tensor<16xf32> into tensor<16384xf32>
    %inserted_slice_36 = tensor.insert_slice %arg3 into %inserted_slice_35[544] [16] [1] : tensor<16xf32> into tensor<16384xf32>
    %inserted_slice_37 = tensor.insert_slice %arg3 into %inserted_slice_36[560] [16] [1] : tensor<16xf32> into tensor<16384xf32>
    %inserted_slice_38 = tensor.insert_slice %arg3 into %inserted_slice_37[576] [16] [1] : tensor<16xf32> into tensor<16384xf32>
    %inserted_slice_39 = tensor.insert_slice %arg3 into %inserted_slice_38[592] [16] [1] : tensor<16xf32> into tensor<16384xf32>
    %inserted_slice_40 = tensor.insert_slice %arg3 into %inserted_slice_39[608] [16] [1] : tensor<16xf32> into tensor<16384xf32>
    %inserted_slice_41 = tensor.insert_slice %arg3 into %inserted_slice_40[624] [16] [1] : tensor<16xf32> into tensor<16384xf32>
    %inserted_slice_42 = tensor.insert_slice %arg3 into %inserted_slice_41[640] [16] [1] : tensor<16xf32> into tensor<16384xf32>
    %inserted_slice_43 = tensor.insert_slice %arg3 into %inserted_slice_42[656] [16] [1] : tensor<16xf32> into tensor<16384xf32>
    %inserted_slice_44 = tensor.insert_slice %arg3 into %inserted_slice_43[672] [16] [1] : tensor<16xf32> into tensor<16384xf32>
    %inserted_slice_45 = tensor.insert_slice %arg3 into %inserted_slice_44[688] [16] [1] : tensor<16xf32> into tensor<16384xf32>
    %inserted_slice_46 = tensor.insert_slice %arg3 into %inserted_slice_45[704] [16] [1] : tensor<16xf32> into tensor<16384xf32>
    %inserted_slice_47 = tensor.insert_slice %arg3 into %inserted_slice_46[720] [16] [1] : tensor<16xf32> into tensor<16384xf32>
    %inserted_slice_48 = tensor.insert_slice %arg3 into %inserted_slice_47[736] [16] [1] : tensor<16xf32> into tensor<16384xf32>
    %inserted_slice_49 = tensor.insert_slice %arg3 into %inserted_slice_48[752] [16] [1] : tensor<16xf32> into tensor<16384xf32>
    %inserted_slice_50 = tensor.insert_slice %arg3 into %inserted_slice_49[768] [16] [1] : tensor<16xf32> into tensor<16384xf32>
    %inserted_slice_51 = tensor.insert_slice %arg3 into %inserted_slice_50[784] [16] [1] : tensor<16xf32> into tensor<16384xf32>
    %inserted_slice_52 = tensor.insert_slice %arg3 into %inserted_slice_51[800] [16] [1] : tensor<16xf32> into tensor<16384xf32>
    %inserted_slice_53 = tensor.insert_slice %arg3 into %inserted_slice_52[816] [16] [1] : tensor<16xf32> into tensor<16384xf32>
    %inserted_slice_54 = tensor.insert_slice %arg3 into %inserted_slice_53[832] [16] [1] : tensor<16xf32> into tensor<16384xf32>
    %inserted_slice_55 = tensor.insert_slice %arg3 into %inserted_slice_54[848] [16] [1] : tensor<16xf32> into tensor<16384xf32>
    %inserted_slice_56 = tensor.insert_slice %arg3 into %inserted_slice_55[864] [16] [1] : tensor<16xf32> into tensor<16384xf32>
    %inserted_slice_57 = tensor.insert_slice %arg3 into %inserted_slice_56[880] [16] [1] : tensor<16xf32> into tensor<16384xf32>
    %inserted_slice_58 = tensor.insert_slice %arg3 into %inserted_slice_57[896] [16] [1] : tensor<16xf32> into tensor<16384xf32>
    %inserted_slice_59 = tensor.insert_slice %arg3 into %inserted_slice_58[912] [16] [1] : tensor<16xf32> into tensor<16384xf32>
    %inserted_slice_60 = tensor.insert_slice %arg3 into %inserted_slice_59[928] [16] [1] : tensor<16xf32> into tensor<16384xf32>
    %inserted_slice_61 = tensor.insert_slice %arg3 into %inserted_slice_60[944] [16] [1] : tensor<16xf32> into tensor<16384xf32>
    %inserted_slice_62 = tensor.insert_slice %arg3 into %inserted_slice_61[960] [16] [1] : tensor<16xf32> into tensor<16384xf32>
    %inserted_slice_63 = tensor.insert_slice %arg3 into %inserted_slice_62[976] [16] [1] : tensor<16xf32> into tensor<16384xf32>
    %inserted_slice_64 = tensor.insert_slice %arg3 into %inserted_slice_63[992] [16] [1] : tensor<16xf32> into tensor<16384xf32>
    %inserted_slice_65 = tensor.insert_slice %arg3 into %inserted_slice_64[1008] [16] [1] : tensor<16xf32> into tensor<16384xf32>
    %inserted_slice_66 = tensor.insert_slice %arg3 into %inserted_slice_65[1024] [16] [1] : tensor<16xf32> into tensor<16384xf32>
    %inserted_slice_67 = tensor.insert_slice %arg3 into %inserted_slice_66[1040] [16] [1] : tensor<16xf32> into tensor<16384xf32>
    %inserted_slice_68 = tensor.insert_slice %arg3 into %inserted_slice_67[1056] [16] [1] : tensor<16xf32> into tensor<16384xf32>
    %inserted_slice_69 = tensor.insert_slice %arg3 into %inserted_slice_68[1072] [16] [1] : tensor<16xf32> into tensor<16384xf32>
    %inserted_slice_70 = tensor.insert_slice %arg3 into %inserted_slice_69[1088] [16] [1] : tensor<16xf32> into tensor<16384xf32>
    %inserted_slice_71 = tensor.insert_slice %arg3 into %inserted_slice_70[1104] [16] [1] : tensor<16xf32> into tensor<16384xf32>
    %inserted_slice_72 = tensor.insert_slice %arg3 into %inserted_slice_71[1120] [16] [1] : tensor<16xf32> into tensor<16384xf32>
    %inserted_slice_73 = tensor.insert_slice %arg3 into %inserted_slice_72[1136] [16] [1] : tensor<16xf32> into tensor<16384xf32>
    %inserted_slice_74 = tensor.insert_slice %arg3 into %inserted_slice_73[1152] [16] [1] : tensor<16xf32> into tensor<16384xf32>
    %inserted_slice_75 = tensor.insert_slice %arg3 into %inserted_slice_74[1168] [16] [1] : tensor<16xf32> into tensor<16384xf32>
    %inserted_slice_76 = tensor.insert_slice %arg3 into %inserted_slice_75[1184] [16] [1] : tensor<16xf32> into tensor<16384xf32>
    %inserted_slice_77 = tensor.insert_slice %arg3 into %inserted_slice_76[1200] [16] [1] : tensor<16xf32> into tensor<16384xf32>
    %inserted_slice_78 = tensor.insert_slice %arg3 into %inserted_slice_77[1216] [16] [1] : tensor<16xf32> into tensor<16384xf32>
    %inserted_slice_79 = tensor.insert_slice %arg3 into %inserted_slice_78[1232] [16] [1] : tensor<16xf32> into tensor<16384xf32>
    %inserted_slice_80 = tensor.insert_slice %arg3 into %inserted_slice_79[1248] [16] [1] : tensor<16xf32> into tensor<16384xf32>
    %inserted_slice_81 = tensor.insert_slice %arg3 into %inserted_slice_80[1264] [16] [1] : tensor<16xf32> into tensor<16384xf32>
    %inserted_slice_82 = tensor.insert_slice %arg3 into %inserted_slice_81[1280] [16] [1] : tensor<16xf32> into tensor<16384xf32>
    %inserted_slice_83 = tensor.insert_slice %arg3 into %inserted_slice_82[1296] [16] [1] : tensor<16xf32> into tensor<16384xf32>
    %inserted_slice_84 = tensor.insert_slice %arg3 into %inserted_slice_83[1312] [16] [1] : tensor<16xf32> into tensor<16384xf32>
    %inserted_slice_85 = tensor.insert_slice %arg3 into %inserted_slice_84[1328] [16] [1] : tensor<16xf32> into tensor<16384xf32>
    %inserted_slice_86 = tensor.insert_slice %arg3 into %inserted_slice_85[1344] [16] [1] : tensor<16xf32> into tensor<16384xf32>
    %inserted_slice_87 = tensor.insert_slice %arg3 into %inserted_slice_86[1360] [16] [1] : tensor<16xf32> into tensor<16384xf32>
    %inserted_slice_88 = tensor.insert_slice %arg3 into %inserted_slice_87[1376] [16] [1] : tensor<16xf32> into tensor<16384xf32>
    %inserted_slice_89 = tensor.insert_slice %arg3 into %inserted_slice_88[1392] [16] [1] : tensor<16xf32> into tensor<16384xf32>
    %inserted_slice_90 = tensor.insert_slice %arg3 into %inserted_slice_89[1408] [16] [1] : tensor<16xf32> into tensor<16384xf32>
    %inserted_slice_91 = tensor.insert_slice %arg3 into %inserted_slice_90[1424] [16] [1] : tensor<16xf32> into tensor<16384xf32>
    %inserted_slice_92 = tensor.insert_slice %arg3 into %inserted_slice_91[1440] [16] [1] : tensor<16xf32> into tensor<16384xf32>
    %inserted_slice_93 = tensor.insert_slice %arg3 into %inserted_slice_92[1456] [16] [1] : tensor<16xf32> into tensor<16384xf32>
    %inserted_slice_94 = tensor.insert_slice %arg3 into %inserted_slice_93[1472] [16] [1] : tensor<16xf32> into tensor<16384xf32>
    %inserted_slice_95 = tensor.insert_slice %arg3 into %inserted_slice_94[1488] [16] [1] : tensor<16xf32> into tensor<16384xf32>
    %inserted_slice_96 = tensor.insert_slice %arg3 into %inserted_slice_95[1504] [16] [1] : tensor<16xf32> into tensor<16384xf32>
    %inserted_slice_97 = tensor.insert_slice %arg3 into %inserted_slice_96[1520] [16] [1] : tensor<16xf32> into tensor<16384xf32>
    %inserted_slice_98 = tensor.insert_slice %arg3 into %inserted_slice_97[1536] [16] [1] : tensor<16xf32> into tensor<16384xf32>
    %inserted_slice_99 = tensor.insert_slice %arg3 into %inserted_slice_98[1552] [16] [1] : tensor<16xf32> into tensor<16384xf32>
    %inserted_slice_100 = tensor.insert_slice %arg3 into %inserted_slice_99[1568] [16] [1] : tensor<16xf32> into tensor<16384xf32>
    %inserted_slice_101 = tensor.insert_slice %arg3 into %inserted_slice_100[1584] [16] [1] : tensor<16xf32> into tensor<16384xf32>
    %inserted_slice_102 = tensor.insert_slice %arg3 into %inserted_slice_101[1600] [16] [1] : tensor<16xf32> into tensor<16384xf32>
    %inserted_slice_103 = tensor.insert_slice %arg3 into %inserted_slice_102[1616] [16] [1] : tensor<16xf32> into tensor<16384xf32>
    %inserted_slice_104 = tensor.insert_slice %arg3 into %inserted_slice_103[1632] [16] [1] : tensor<16xf32> into tensor<16384xf32>
    %inserted_slice_105 = tensor.insert_slice %arg3 into %inserted_slice_104[1648] [16] [1] : tensor<16xf32> into tensor<16384xf32>
    %inserted_slice_106 = tensor.insert_slice %arg3 into %inserted_slice_105[1664] [16] [1] : tensor<16xf32> into tensor<16384xf32>
    %inserted_slice_107 = tensor.insert_slice %arg3 into %inserted_slice_106[1680] [16] [1] : tensor<16xf32> into tensor<16384xf32>
    %inserted_slice_108 = tensor.insert_slice %arg3 into %inserted_slice_107[1696] [16] [1] : tensor<16xf32> into tensor<16384xf32>
    %inserted_slice_109 = tensor.insert_slice %arg3 into %inserted_slice_108[1712] [16] [1] : tensor<16xf32> into tensor<16384xf32>
    %inserted_slice_110 = tensor.insert_slice %arg3 into %inserted_slice_109[1728] [16] [1] : tensor<16xf32> into tensor<16384xf32>
    %inserted_slice_111 = tensor.insert_slice %arg3 into %inserted_slice_110[1744] [16] [1] : tensor<16xf32> into tensor<16384xf32>
    %inserted_slice_112 = tensor.insert_slice %arg3 into %inserted_slice_111[1760] [16] [1] : tensor<16xf32> into tensor<16384xf32>
    %inserted_slice_113 = tensor.insert_slice %arg3 into %inserted_slice_112[1776] [16] [1] : tensor<16xf32> into tensor<16384xf32>
    %inserted_slice_114 = tensor.insert_slice %arg3 into %inserted_slice_113[1792] [16] [1] : tensor<16xf32> into tensor<16384xf32>
    %inserted_slice_115 = tensor.insert_slice %arg3 into %inserted_slice_114[1808] [16] [1] : tensor<16xf32> into tensor<16384xf32>
    %inserted_slice_116 = tensor.insert_slice %arg3 into %inserted_slice_115[1824] [16] [1] : tensor<16xf32> into tensor<16384xf32>
    %inserted_slice_117 = tensor.insert_slice %arg3 into %inserted_slice_116[1840] [16] [1] : tensor<16xf32> into tensor<16384xf32>
    %inserted_slice_118 = tensor.insert_slice %arg3 into %inserted_slice_117[1856] [16] [1] : tensor<16xf32> into tensor<16384xf32>
    %inserted_slice_119 = tensor.insert_slice %arg3 into %inserted_slice_118[1872] [16] [1] : tensor<16xf32> into tensor<16384xf32>
    %inserted_slice_120 = tensor.insert_slice %arg3 into %inserted_slice_119[1888] [16] [1] : tensor<16xf32> into tensor<16384xf32>
    %inserted_slice_121 = tensor.insert_slice %arg3 into %inserted_slice_120[1904] [16] [1] : tensor<16xf32> into tensor<16384xf32>
    %inserted_slice_122 = tensor.insert_slice %arg3 into %inserted_slice_121[1920] [16] [1] : tensor<16xf32> into tensor<16384xf32>
    %inserted_slice_123 = tensor.insert_slice %arg3 into %inserted_slice_122[1936] [16] [1] : tensor<16xf32> into tensor<16384xf32>
    %inserted_slice_124 = tensor.insert_slice %arg3 into %inserted_slice_123[1952] [16] [1] : tensor<16xf32> into tensor<16384xf32>
    %inserted_slice_125 = tensor.insert_slice %arg3 into %inserted_slice_124[1968] [16] [1] : tensor<16xf32> into tensor<16384xf32>
    %inserted_slice_126 = tensor.insert_slice %arg3 into %inserted_slice_125[1984] [16] [1] : tensor<16xf32> into tensor<16384xf32>
    %inserted_slice_127 = tensor.insert_slice %arg3 into %inserted_slice_126[2000] [16] [1] : tensor<16xf32> into tensor<16384xf32>
    %inserted_slice_128 = tensor.insert_slice %arg3 into %inserted_slice_127[2016] [16] [1] : tensor<16xf32> into tensor<16384xf32>
    %inserted_slice_129 = tensor.insert_slice %arg3 into %inserted_slice_128[2032] [16] [1] : tensor<16xf32> into tensor<16384xf32>
    %inserted_slice_130 = tensor.insert_slice %arg3 into %inserted_slice_129[2048] [16] [1] : tensor<16xf32> into tensor<16384xf32>
    %inserted_slice_131 = tensor.insert_slice %arg3 into %inserted_slice_130[2064] [16] [1] : tensor<16xf32> into tensor<16384xf32>
    %inserted_slice_132 = tensor.insert_slice %arg3 into %inserted_slice_131[2080] [16] [1] : tensor<16xf32> into tensor<16384xf32>
    %inserted_slice_133 = tensor.insert_slice %arg3 into %inserted_slice_132[2096] [16] [1] : tensor<16xf32> into tensor<16384xf32>
    %inserted_slice_134 = tensor.insert_slice %arg3 into %inserted_slice_133[2112] [16] [1] : tensor<16xf32> into tensor<16384xf32>
    %inserted_slice_135 = tensor.insert_slice %arg3 into %inserted_slice_134[2128] [16] [1] : tensor<16xf32> into tensor<16384xf32>
    %inserted_slice_136 = tensor.insert_slice %arg3 into %inserted_slice_135[2144] [16] [1] : tensor<16xf32> into tensor<16384xf32>
    %inserted_slice_137 = tensor.insert_slice %arg3 into %inserted_slice_136[2160] [16] [1] : tensor<16xf32> into tensor<16384xf32>
    %inserted_slice_138 = tensor.insert_slice %arg3 into %inserted_slice_137[2176] [16] [1] : tensor<16xf32> into tensor<16384xf32>
    %inserted_slice_139 = tensor.insert_slice %arg3 into %inserted_slice_138[2192] [16] [1] : tensor<16xf32> into tensor<16384xf32>
    %inserted_slice_140 = tensor.insert_slice %arg3 into %inserted_slice_139[2208] [16] [1] : tensor<16xf32> into tensor<16384xf32>
    %inserted_slice_141 = tensor.insert_slice %arg3 into %inserted_slice_140[2224] [16] [1] : tensor<16xf32> into tensor<16384xf32>
    %inserted_slice_142 = tensor.insert_slice %arg3 into %inserted_slice_141[2240] [16] [1] : tensor<16xf32> into tensor<16384xf32>
    %inserted_slice_143 = tensor.insert_slice %arg3 into %inserted_slice_142[2256] [16] [1] : tensor<16xf32> into tensor<16384xf32>
    %inserted_slice_144 = tensor.insert_slice %arg3 into %inserted_slice_143[2272] [16] [1] : tensor<16xf32> into tensor<16384xf32>
    %inserted_slice_145 = tensor.insert_slice %arg3 into %inserted_slice_144[2288] [16] [1] : tensor<16xf32> into tensor<16384xf32>
    %inserted_slice_146 = tensor.insert_slice %arg3 into %inserted_slice_145[2304] [16] [1] : tensor<16xf32> into tensor<16384xf32>
    %inserted_slice_147 = tensor.insert_slice %arg3 into %inserted_slice_146[2320] [16] [1] : tensor<16xf32> into tensor<16384xf32>
    %inserted_slice_148 = tensor.insert_slice %arg3 into %inserted_slice_147[2336] [16] [1] : tensor<16xf32> into tensor<16384xf32>
    %inserted_slice_149 = tensor.insert_slice %arg3 into %inserted_slice_148[2352] [16] [1] : tensor<16xf32> into tensor<16384xf32>
    %inserted_slice_150 = tensor.insert_slice %arg3 into %inserted_slice_149[2368] [16] [1] : tensor<16xf32> into tensor<16384xf32>
    %inserted_slice_151 = tensor.insert_slice %arg3 into %inserted_slice_150[2384] [16] [1] : tensor<16xf32> into tensor<16384xf32>
    %inserted_slice_152 = tensor.insert_slice %arg3 into %inserted_slice_151[2400] [16] [1] : tensor<16xf32> into tensor<16384xf32>
    %inserted_slice_153 = tensor.insert_slice %arg3 into %inserted_slice_152[2416] [16] [1] : tensor<16xf32> into tensor<16384xf32>
    %inserted_slice_154 = tensor.insert_slice %arg3 into %inserted_slice_153[2432] [16] [1] : tensor<16xf32> into tensor<16384xf32>
    %inserted_slice_155 = tensor.insert_slice %arg3 into %inserted_slice_154[2448] [16] [1] : tensor<16xf32> into tensor<16384xf32>
    %inserted_slice_156 = tensor.insert_slice %arg3 into %inserted_slice_155[2464] [16] [1] : tensor<16xf32> into tensor<16384xf32>
    %inserted_slice_157 = tensor.insert_slice %arg3 into %inserted_slice_156[2480] [16] [1] : tensor<16xf32> into tensor<16384xf32>
    %inserted_slice_158 = tensor.insert_slice %arg3 into %inserted_slice_157[2496] [16] [1] : tensor<16xf32> into tensor<16384xf32>
    %inserted_slice_159 = tensor.insert_slice %arg3 into %inserted_slice_158[2512] [16] [1] : tensor<16xf32> into tensor<16384xf32>
    %inserted_slice_160 = tensor.insert_slice %arg3 into %inserted_slice_159[2528] [16] [1] : tensor<16xf32> into tensor<16384xf32>
    %inserted_slice_161 = tensor.insert_slice %arg3 into %inserted_slice_160[2544] [16] [1] : tensor<16xf32> into tensor<16384xf32>
    %inserted_slice_162 = tensor.insert_slice %arg3 into %inserted_slice_161[2560] [16] [1] : tensor<16xf32> into tensor<16384xf32>
    %inserted_slice_163 = tensor.insert_slice %arg3 into %inserted_slice_162[2576] [16] [1] : tensor<16xf32> into tensor<16384xf32>
    %inserted_slice_164 = tensor.insert_slice %arg3 into %inserted_slice_163[2592] [16] [1] : tensor<16xf32> into tensor<16384xf32>
    %inserted_slice_165 = tensor.insert_slice %arg3 into %inserted_slice_164[2608] [16] [1] : tensor<16xf32> into tensor<16384xf32>
    %inserted_slice_166 = tensor.insert_slice %arg3 into %inserted_slice_165[2624] [16] [1] : tensor<16xf32> into tensor<16384xf32>
    %inserted_slice_167 = tensor.insert_slice %arg3 into %inserted_slice_166[2640] [16] [1] : tensor<16xf32> into tensor<16384xf32>
    %inserted_slice_168 = tensor.insert_slice %arg3 into %inserted_slice_167[2656] [16] [1] : tensor<16xf32> into tensor<16384xf32>
    %inserted_slice_169 = tensor.insert_slice %arg3 into %inserted_slice_168[2672] [16] [1] : tensor<16xf32> into tensor<16384xf32>
    %inserted_slice_170 = tensor.insert_slice %arg3 into %inserted_slice_169[2688] [16] [1] : tensor<16xf32> into tensor<16384xf32>
    %inserted_slice_171 = tensor.insert_slice %arg3 into %inserted_slice_170[2704] [16] [1] : tensor<16xf32> into tensor<16384xf32>
    %inserted_slice_172 = tensor.insert_slice %arg3 into %inserted_slice_171[2720] [16] [1] : tensor<16xf32> into tensor<16384xf32>
    %inserted_slice_173 = tensor.insert_slice %arg3 into %inserted_slice_172[2736] [16] [1] : tensor<16xf32> into tensor<16384xf32>
    %inserted_slice_174 = tensor.insert_slice %arg3 into %inserted_slice_173[2752] [16] [1] : tensor<16xf32> into tensor<16384xf32>
    %inserted_slice_175 = tensor.insert_slice %arg3 into %inserted_slice_174[2768] [16] [1] : tensor<16xf32> into tensor<16384xf32>
    %inserted_slice_176 = tensor.insert_slice %arg3 into %inserted_slice_175[2784] [16] [1] : tensor<16xf32> into tensor<16384xf32>
    %inserted_slice_177 = tensor.insert_slice %arg3 into %inserted_slice_176[2800] [16] [1] : tensor<16xf32> into tensor<16384xf32>
    %inserted_slice_178 = tensor.insert_slice %arg3 into %inserted_slice_177[2816] [16] [1] : tensor<16xf32> into tensor<16384xf32>
    %inserted_slice_179 = tensor.insert_slice %arg3 into %inserted_slice_178[2832] [16] [1] : tensor<16xf32> into tensor<16384xf32>
    %inserted_slice_180 = tensor.insert_slice %arg3 into %inserted_slice_179[2848] [16] [1] : tensor<16xf32> into tensor<16384xf32>
    %inserted_slice_181 = tensor.insert_slice %arg3 into %inserted_slice_180[2864] [16] [1] : tensor<16xf32> into tensor<16384xf32>
    %inserted_slice_182 = tensor.insert_slice %arg3 into %inserted_slice_181[2880] [16] [1] : tensor<16xf32> into tensor<16384xf32>
    %inserted_slice_183 = tensor.insert_slice %arg3 into %inserted_slice_182[2896] [16] [1] : tensor<16xf32> into tensor<16384xf32>
    %inserted_slice_184 = tensor.insert_slice %arg3 into %inserted_slice_183[2912] [16] [1] : tensor<16xf32> into tensor<16384xf32>
    %inserted_slice_185 = tensor.insert_slice %arg3 into %inserted_slice_184[2928] [16] [1] : tensor<16xf32> into tensor<16384xf32>
    %inserted_slice_186 = tensor.insert_slice %arg3 into %inserted_slice_185[2944] [16] [1] : tensor<16xf32> into tensor<16384xf32>
    %inserted_slice_187 = tensor.insert_slice %arg3 into %inserted_slice_186[2960] [16] [1] : tensor<16xf32> into tensor<16384xf32>
    %inserted_slice_188 = tensor.insert_slice %arg3 into %inserted_slice_187[2976] [16] [1] : tensor<16xf32> into tensor<16384xf32>
    %inserted_slice_189 = tensor.insert_slice %arg3 into %inserted_slice_188[2992] [16] [1] : tensor<16xf32> into tensor<16384xf32>
    %inserted_slice_190 = tensor.insert_slice %arg3 into %inserted_slice_189[3008] [16] [1] : tensor<16xf32> into tensor<16384xf32>
    %inserted_slice_191 = tensor.insert_slice %arg3 into %inserted_slice_190[3024] [16] [1] : tensor<16xf32> into tensor<16384xf32>
    %inserted_slice_192 = tensor.insert_slice %arg3 into %inserted_slice_191[3040] [16] [1] : tensor<16xf32> into tensor<16384xf32>
    %inserted_slice_193 = tensor.insert_slice %arg3 into %inserted_slice_192[3056] [16] [1] : tensor<16xf32> into tensor<16384xf32>
    %inserted_slice_194 = tensor.insert_slice %arg3 into %inserted_slice_193[3072] [16] [1] : tensor<16xf32> into tensor<16384xf32>
    %inserted_slice_195 = tensor.insert_slice %arg3 into %inserted_slice_194[3088] [16] [1] : tensor<16xf32> into tensor<16384xf32>
    %inserted_slice_196 = tensor.insert_slice %arg3 into %inserted_slice_195[3104] [16] [1] : tensor<16xf32> into tensor<16384xf32>
    %inserted_slice_197 = tensor.insert_slice %arg3 into %inserted_slice_196[3120] [16] [1] : tensor<16xf32> into tensor<16384xf32>
    %inserted_slice_198 = tensor.insert_slice %arg3 into %inserted_slice_197[3136] [16] [1] : tensor<16xf32> into tensor<16384xf32>
    %inserted_slice_199 = tensor.insert_slice %arg3 into %inserted_slice_198[3152] [16] [1] : tensor<16xf32> into tensor<16384xf32>
    %inserted_slice_200 = tensor.insert_slice %arg3 into %inserted_slice_199[3168] [16] [1] : tensor<16xf32> into tensor<16384xf32>
    %inserted_slice_201 = tensor.insert_slice %arg3 into %inserted_slice_200[3184] [16] [1] : tensor<16xf32> into tensor<16384xf32>
    %inserted_slice_202 = tensor.insert_slice %arg3 into %inserted_slice_201[3200] [16] [1] : tensor<16xf32> into tensor<16384xf32>
    %inserted_slice_203 = tensor.insert_slice %arg3 into %inserted_slice_202[3216] [16] [1] : tensor<16xf32> into tensor<16384xf32>
    %inserted_slice_204 = tensor.insert_slice %arg3 into %inserted_slice_203[3232] [16] [1] : tensor<16xf32> into tensor<16384xf32>
    %inserted_slice_205 = tensor.insert_slice %arg3 into %inserted_slice_204[3248] [16] [1] : tensor<16xf32> into tensor<16384xf32>
    %inserted_slice_206 = tensor.insert_slice %arg3 into %inserted_slice_205[3264] [16] [1] : tensor<16xf32> into tensor<16384xf32>
    %inserted_slice_207 = tensor.insert_slice %arg3 into %inserted_slice_206[3280] [16] [1] : tensor<16xf32> into tensor<16384xf32>
    %inserted_slice_208 = tensor.insert_slice %arg3 into %inserted_slice_207[3296] [16] [1] : tensor<16xf32> into tensor<16384xf32>
    %inserted_slice_209 = tensor.insert_slice %arg3 into %inserted_slice_208[3312] [16] [1] : tensor<16xf32> into tensor<16384xf32>
    %inserted_slice_210 = tensor.insert_slice %arg3 into %inserted_slice_209[3328] [16] [1] : tensor<16xf32> into tensor<16384xf32>
    %inserted_slice_211 = tensor.insert_slice %arg3 into %inserted_slice_210[3344] [16] [1] : tensor<16xf32> into tensor<16384xf32>
    %inserted_slice_212 = tensor.insert_slice %arg3 into %inserted_slice_211[3360] [16] [1] : tensor<16xf32> into tensor<16384xf32>
    %inserted_slice_213 = tensor.insert_slice %arg3 into %inserted_slice_212[3376] [16] [1] : tensor<16xf32> into tensor<16384xf32>
    %inserted_slice_214 = tensor.insert_slice %arg3 into %inserted_slice_213[3392] [16] [1] : tensor<16xf32> into tensor<16384xf32>
    %inserted_slice_215 = tensor.insert_slice %arg3 into %inserted_slice_214[3408] [16] [1] : tensor<16xf32> into tensor<16384xf32>
    %inserted_slice_216 = tensor.insert_slice %arg3 into %inserted_slice_215[3424] [16] [1] : tensor<16xf32> into tensor<16384xf32>
    %inserted_slice_217 = tensor.insert_slice %arg3 into %inserted_slice_216[3440] [16] [1] : tensor<16xf32> into tensor<16384xf32>
    %inserted_slice_218 = tensor.insert_slice %arg3 into %inserted_slice_217[3456] [16] [1] : tensor<16xf32> into tensor<16384xf32>
    %inserted_slice_219 = tensor.insert_slice %arg3 into %inserted_slice_218[3472] [16] [1] : tensor<16xf32> into tensor<16384xf32>
    %inserted_slice_220 = tensor.insert_slice %arg3 into %inserted_slice_219[3488] [16] [1] : tensor<16xf32> into tensor<16384xf32>
    %inserted_slice_221 = tensor.insert_slice %arg3 into %inserted_slice_220[3504] [16] [1] : tensor<16xf32> into tensor<16384xf32>
    %inserted_slice_222 = tensor.insert_slice %arg3 into %inserted_slice_221[3520] [16] [1] : tensor<16xf32> into tensor<16384xf32>
    %inserted_slice_223 = tensor.insert_slice %arg3 into %inserted_slice_222[3536] [16] [1] : tensor<16xf32> into tensor<16384xf32>
    %inserted_slice_224 = tensor.insert_slice %arg3 into %inserted_slice_223[3552] [16] [1] : tensor<16xf32> into tensor<16384xf32>
    %inserted_slice_225 = tensor.insert_slice %arg3 into %inserted_slice_224[3568] [16] [1] : tensor<16xf32> into tensor<16384xf32>
    %inserted_slice_226 = tensor.insert_slice %arg3 into %inserted_slice_225[3584] [16] [1] : tensor<16xf32> into tensor<16384xf32>
    %inserted_slice_227 = tensor.insert_slice %arg3 into %inserted_slice_226[3600] [16] [1] : tensor<16xf32> into tensor<16384xf32>
    %inserted_slice_228 = tensor.insert_slice %arg3 into %inserted_slice_227[3616] [16] [1] : tensor<16xf32> into tensor<16384xf32>
    %inserted_slice_229 = tensor.insert_slice %arg3 into %inserted_slice_228[3632] [16] [1] : tensor<16xf32> into tensor<16384xf32>
    %inserted_slice_230 = tensor.insert_slice %arg3 into %inserted_slice_229[3648] [16] [1] : tensor<16xf32> into tensor<16384xf32>
    %inserted_slice_231 = tensor.insert_slice %arg3 into %inserted_slice_230[3664] [16] [1] : tensor<16xf32> into tensor<16384xf32>
    %inserted_slice_232 = tensor.insert_slice %arg3 into %inserted_slice_231[3680] [16] [1] : tensor<16xf32> into tensor<16384xf32>
    %inserted_slice_233 = tensor.insert_slice %arg3 into %inserted_slice_232[3696] [16] [1] : tensor<16xf32> into tensor<16384xf32>
    %inserted_slice_234 = tensor.insert_slice %arg3 into %inserted_slice_233[3712] [16] [1] : tensor<16xf32> into tensor<16384xf32>
    %inserted_slice_235 = tensor.insert_slice %arg3 into %inserted_slice_234[3728] [16] [1] : tensor<16xf32> into tensor<16384xf32>
    %inserted_slice_236 = tensor.insert_slice %arg3 into %inserted_slice_235[3744] [16] [1] : tensor<16xf32> into tensor<16384xf32>
    %inserted_slice_237 = tensor.insert_slice %arg3 into %inserted_slice_236[3760] [16] [1] : tensor<16xf32> into tensor<16384xf32>
    %inserted_slice_238 = tensor.insert_slice %arg3 into %inserted_slice_237[3776] [16] [1] : tensor<16xf32> into tensor<16384xf32>
    %inserted_slice_239 = tensor.insert_slice %arg3 into %inserted_slice_238[3792] [16] [1] : tensor<16xf32> into tensor<16384xf32>
    %inserted_slice_240 = tensor.insert_slice %arg3 into %inserted_slice_239[3808] [16] [1] : tensor<16xf32> into tensor<16384xf32>
    %inserted_slice_241 = tensor.insert_slice %arg3 into %inserted_slice_240[3824] [16] [1] : tensor<16xf32> into tensor<16384xf32>
    %inserted_slice_242 = tensor.insert_slice %arg3 into %inserted_slice_241[3840] [16] [1] : tensor<16xf32> into tensor<16384xf32>
    %inserted_slice_243 = tensor.insert_slice %arg3 into %inserted_slice_242[3856] [16] [1] : tensor<16xf32> into tensor<16384xf32>
    %inserted_slice_244 = tensor.insert_slice %arg3 into %inserted_slice_243[3872] [16] [1] : tensor<16xf32> into tensor<16384xf32>
    %inserted_slice_245 = tensor.insert_slice %arg3 into %inserted_slice_244[3888] [16] [1] : tensor<16xf32> into tensor<16384xf32>
    %inserted_slice_246 = tensor.insert_slice %arg3 into %inserted_slice_245[3904] [16] [1] : tensor<16xf32> into tensor<16384xf32>
    %inserted_slice_247 = tensor.insert_slice %arg3 into %inserted_slice_246[3920] [16] [1] : tensor<16xf32> into tensor<16384xf32>
    %inserted_slice_248 = tensor.insert_slice %arg3 into %inserted_slice_247[3936] [16] [1] : tensor<16xf32> into tensor<16384xf32>
    %inserted_slice_249 = tensor.insert_slice %arg3 into %inserted_slice_248[3952] [16] [1] : tensor<16xf32> into tensor<16384xf32>
    %inserted_slice_250 = tensor.insert_slice %arg3 into %inserted_slice_249[3968] [16] [1] : tensor<16xf32> into tensor<16384xf32>
    %inserted_slice_251 = tensor.insert_slice %arg3 into %inserted_slice_250[3984] [16] [1] : tensor<16xf32> into tensor<16384xf32>
    %inserted_slice_252 = tensor.insert_slice %arg3 into %inserted_slice_251[4000] [16] [1] : tensor<16xf32> into tensor<16384xf32>
    %inserted_slice_253 = tensor.insert_slice %arg3 into %inserted_slice_252[4016] [16] [1] : tensor<16xf32> into tensor<16384xf32>
    %inserted_slice_254 = tensor.insert_slice %arg3 into %inserted_slice_253[4032] [16] [1] : tensor<16xf32> into tensor<16384xf32>
    %inserted_slice_255 = tensor.insert_slice %arg3 into %inserted_slice_254[4048] [16] [1] : tensor<16xf32> into tensor<16384xf32>
    %inserted_slice_256 = tensor.insert_slice %arg3 into %inserted_slice_255[4064] [16] [1] : tensor<16xf32> into tensor<16384xf32>
    %inserted_slice_257 = tensor.insert_slice %arg3 into %inserted_slice_256[4080] [16] [1] : tensor<16xf32> into tensor<16384xf32>
    %inserted_slice_258 = tensor.insert_slice %arg3 into %inserted_slice_257[4096] [16] [1] : tensor<16xf32> into tensor<16384xf32>
    %inserted_slice_259 = tensor.insert_slice %arg3 into %inserted_slice_258[4112] [16] [1] : tensor<16xf32> into tensor<16384xf32>
    %inserted_slice_260 = tensor.insert_slice %arg3 into %inserted_slice_259[4128] [16] [1] : tensor<16xf32> into tensor<16384xf32>
    %inserted_slice_261 = tensor.insert_slice %arg3 into %inserted_slice_260[4144] [16] [1] : tensor<16xf32> into tensor<16384xf32>
    %inserted_slice_262 = tensor.insert_slice %arg3 into %inserted_slice_261[4160] [16] [1] : tensor<16xf32> into tensor<16384xf32>
    %inserted_slice_263 = tensor.insert_slice %arg3 into %inserted_slice_262[4176] [16] [1] : tensor<16xf32> into tensor<16384xf32>
    %inserted_slice_264 = tensor.insert_slice %arg3 into %inserted_slice_263[4192] [16] [1] : tensor<16xf32> into tensor<16384xf32>
    %inserted_slice_265 = tensor.insert_slice %arg3 into %inserted_slice_264[4208] [16] [1] : tensor<16xf32> into tensor<16384xf32>
    %inserted_slice_266 = tensor.insert_slice %arg3 into %inserted_slice_265[4224] [16] [1] : tensor<16xf32> into tensor<16384xf32>
    %inserted_slice_267 = tensor.insert_slice %arg3 into %inserted_slice_266[4240] [16] [1] : tensor<16xf32> into tensor<16384xf32>
    %inserted_slice_268 = tensor.insert_slice %arg3 into %inserted_slice_267[4256] [16] [1] : tensor<16xf32> into tensor<16384xf32>
    %inserted_slice_269 = tensor.insert_slice %arg3 into %inserted_slice_268[4272] [16] [1] : tensor<16xf32> into tensor<16384xf32>
    %inserted_slice_270 = tensor.insert_slice %arg3 into %inserted_slice_269[4288] [16] [1] : tensor<16xf32> into tensor<16384xf32>
    %inserted_slice_271 = tensor.insert_slice %arg3 into %inserted_slice_270[4304] [16] [1] : tensor<16xf32> into tensor<16384xf32>
    %inserted_slice_272 = tensor.insert_slice %arg3 into %inserted_slice_271[4320] [16] [1] : tensor<16xf32> into tensor<16384xf32>
    %inserted_slice_273 = tensor.insert_slice %arg3 into %inserted_slice_272[4336] [16] [1] : tensor<16xf32> into tensor<16384xf32>
    %inserted_slice_274 = tensor.insert_slice %arg3 into %inserted_slice_273[4352] [16] [1] : tensor<16xf32> into tensor<16384xf32>
    %inserted_slice_275 = tensor.insert_slice %arg3 into %inserted_slice_274[4368] [16] [1] : tensor<16xf32> into tensor<16384xf32>
    %inserted_slice_276 = tensor.insert_slice %arg3 into %inserted_slice_275[4384] [16] [1] : tensor<16xf32> into tensor<16384xf32>
    %inserted_slice_277 = tensor.insert_slice %arg3 into %inserted_slice_276[4400] [16] [1] : tensor<16xf32> into tensor<16384xf32>
    %inserted_slice_278 = tensor.insert_slice %arg3 into %inserted_slice_277[4416] [16] [1] : tensor<16xf32> into tensor<16384xf32>
    %inserted_slice_279 = tensor.insert_slice %arg3 into %inserted_slice_278[4432] [16] [1] : tensor<16xf32> into tensor<16384xf32>
    %inserted_slice_280 = tensor.insert_slice %arg3 into %inserted_slice_279[4448] [16] [1] : tensor<16xf32> into tensor<16384xf32>
    %inserted_slice_281 = tensor.insert_slice %arg3 into %inserted_slice_280[4464] [16] [1] : tensor<16xf32> into tensor<16384xf32>
    %inserted_slice_282 = tensor.insert_slice %arg3 into %inserted_slice_281[4480] [16] [1] : tensor<16xf32> into tensor<16384xf32>
    %inserted_slice_283 = tensor.insert_slice %arg3 into %inserted_slice_282[4496] [16] [1] : tensor<16xf32> into tensor<16384xf32>
    %inserted_slice_284 = tensor.insert_slice %arg3 into %inserted_slice_283[4512] [16] [1] : tensor<16xf32> into tensor<16384xf32>
    %inserted_slice_285 = tensor.insert_slice %arg3 into %inserted_slice_284[4528] [16] [1] : tensor<16xf32> into tensor<16384xf32>
    %inserted_slice_286 = tensor.insert_slice %arg3 into %inserted_slice_285[4544] [16] [1] : tensor<16xf32> into tensor<16384xf32>
    %inserted_slice_287 = tensor.insert_slice %arg3 into %inserted_slice_286[4560] [16] [1] : tensor<16xf32> into tensor<16384xf32>
    %inserted_slice_288 = tensor.insert_slice %arg3 into %inserted_slice_287[4576] [16] [1] : tensor<16xf32> into tensor<16384xf32>
    %inserted_slice_289 = tensor.insert_slice %arg3 into %inserted_slice_288[4592] [16] [1] : tensor<16xf32> into tensor<16384xf32>
    %inserted_slice_290 = tensor.insert_slice %arg3 into %inserted_slice_289[4608] [16] [1] : tensor<16xf32> into tensor<16384xf32>
    %inserted_slice_291 = tensor.insert_slice %arg3 into %inserted_slice_290[4624] [16] [1] : tensor<16xf32> into tensor<16384xf32>
    %inserted_slice_292 = tensor.insert_slice %arg3 into %inserted_slice_291[4640] [16] [1] : tensor<16xf32> into tensor<16384xf32>
    %inserted_slice_293 = tensor.insert_slice %arg3 into %inserted_slice_292[4656] [16] [1] : tensor<16xf32> into tensor<16384xf32>
    %inserted_slice_294 = tensor.insert_slice %arg3 into %inserted_slice_293[4672] [16] [1] : tensor<16xf32> into tensor<16384xf32>
    %inserted_slice_295 = tensor.insert_slice %arg3 into %inserted_slice_294[4688] [16] [1] : tensor<16xf32> into tensor<16384xf32>
    %inserted_slice_296 = tensor.insert_slice %arg3 into %inserted_slice_295[4704] [16] [1] : tensor<16xf32> into tensor<16384xf32>
    %inserted_slice_297 = tensor.insert_slice %arg3 into %inserted_slice_296[4720] [16] [1] : tensor<16xf32> into tensor<16384xf32>
    %inserted_slice_298 = tensor.insert_slice %arg3 into %inserted_slice_297[4736] [16] [1] : tensor<16xf32> into tensor<16384xf32>
    %inserted_slice_299 = tensor.insert_slice %arg3 into %inserted_slice_298[4752] [16] [1] : tensor<16xf32> into tensor<16384xf32>
    %inserted_slice_300 = tensor.insert_slice %arg3 into %inserted_slice_299[4768] [16] [1] : tensor<16xf32> into tensor<16384xf32>
    %inserted_slice_301 = tensor.insert_slice %arg3 into %inserted_slice_300[4784] [16] [1] : tensor<16xf32> into tensor<16384xf32>
    %inserted_slice_302 = tensor.insert_slice %arg3 into %inserted_slice_301[4800] [16] [1] : tensor<16xf32> into tensor<16384xf32>
    %inserted_slice_303 = tensor.insert_slice %arg3 into %inserted_slice_302[4816] [16] [1] : tensor<16xf32> into tensor<16384xf32>
    %inserted_slice_304 = tensor.insert_slice %arg3 into %inserted_slice_303[4832] [16] [1] : tensor<16xf32> into tensor<16384xf32>
    %inserted_slice_305 = tensor.insert_slice %arg3 into %inserted_slice_304[4848] [16] [1] : tensor<16xf32> into tensor<16384xf32>
    %inserted_slice_306 = tensor.insert_slice %arg3 into %inserted_slice_305[4864] [16] [1] : tensor<16xf32> into tensor<16384xf32>
    %inserted_slice_307 = tensor.insert_slice %arg3 into %inserted_slice_306[4880] [16] [1] : tensor<16xf32> into tensor<16384xf32>
    %inserted_slice_308 = tensor.insert_slice %arg3 into %inserted_slice_307[4896] [16] [1] : tensor<16xf32> into tensor<16384xf32>
    %inserted_slice_309 = tensor.insert_slice %arg3 into %inserted_slice_308[4912] [16] [1] : tensor<16xf32> into tensor<16384xf32>
    %inserted_slice_310 = tensor.insert_slice %arg3 into %inserted_slice_309[4928] [16] [1] : tensor<16xf32> into tensor<16384xf32>
    %inserted_slice_311 = tensor.insert_slice %arg3 into %inserted_slice_310[4944] [16] [1] : tensor<16xf32> into tensor<16384xf32>
    %inserted_slice_312 = tensor.insert_slice %arg3 into %inserted_slice_311[4960] [16] [1] : tensor<16xf32> into tensor<16384xf32>
    %inserted_slice_313 = tensor.insert_slice %arg3 into %inserted_slice_312[4976] [16] [1] : tensor<16xf32> into tensor<16384xf32>
    %inserted_slice_314 = tensor.insert_slice %arg3 into %inserted_slice_313[4992] [16] [1] : tensor<16xf32> into tensor<16384xf32>
    %inserted_slice_315 = tensor.insert_slice %arg3 into %inserted_slice_314[5008] [16] [1] : tensor<16xf32> into tensor<16384xf32>
    %inserted_slice_316 = tensor.insert_slice %arg3 into %inserted_slice_315[5024] [16] [1] : tensor<16xf32> into tensor<16384xf32>
    %inserted_slice_317 = tensor.insert_slice %arg3 into %inserted_slice_316[5040] [16] [1] : tensor<16xf32> into tensor<16384xf32>
    %inserted_slice_318 = tensor.insert_slice %arg3 into %inserted_slice_317[5056] [16] [1] : tensor<16xf32> into tensor<16384xf32>
    %inserted_slice_319 = tensor.insert_slice %arg3 into %inserted_slice_318[5072] [16] [1] : tensor<16xf32> into tensor<16384xf32>
    %inserted_slice_320 = tensor.insert_slice %arg3 into %inserted_slice_319[5088] [16] [1] : tensor<16xf32> into tensor<16384xf32>
    %inserted_slice_321 = tensor.insert_slice %arg3 into %inserted_slice_320[5104] [16] [1] : tensor<16xf32> into tensor<16384xf32>
    %inserted_slice_322 = tensor.insert_slice %arg3 into %inserted_slice_321[5120] [16] [1] : tensor<16xf32> into tensor<16384xf32>
    %inserted_slice_323 = tensor.insert_slice %arg3 into %inserted_slice_322[5136] [16] [1] : tensor<16xf32> into tensor<16384xf32>
    %inserted_slice_324 = tensor.insert_slice %arg3 into %inserted_slice_323[5152] [16] [1] : tensor<16xf32> into tensor<16384xf32>
    %inserted_slice_325 = tensor.insert_slice %arg3 into %inserted_slice_324[5168] [16] [1] : tensor<16xf32> into tensor<16384xf32>
    %inserted_slice_326 = tensor.insert_slice %arg3 into %inserted_slice_325[5184] [16] [1] : tensor<16xf32> into tensor<16384xf32>
    %inserted_slice_327 = tensor.insert_slice %arg3 into %inserted_slice_326[5200] [16] [1] : tensor<16xf32> into tensor<16384xf32>
    %inserted_slice_328 = tensor.insert_slice %arg3 into %inserted_slice_327[5216] [16] [1] : tensor<16xf32> into tensor<16384xf32>
    %inserted_slice_329 = tensor.insert_slice %arg3 into %inserted_slice_328[5232] [16] [1] : tensor<16xf32> into tensor<16384xf32>
    %inserted_slice_330 = tensor.insert_slice %arg3 into %inserted_slice_329[5248] [16] [1] : tensor<16xf32> into tensor<16384xf32>
    %inserted_slice_331 = tensor.insert_slice %arg3 into %inserted_slice_330[5264] [16] [1] : tensor<16xf32> into tensor<16384xf32>
    %inserted_slice_332 = tensor.insert_slice %arg3 into %inserted_slice_331[5280] [16] [1] : tensor<16xf32> into tensor<16384xf32>
    %inserted_slice_333 = tensor.insert_slice %arg3 into %inserted_slice_332[5296] [16] [1] : tensor<16xf32> into tensor<16384xf32>
    %inserted_slice_334 = tensor.insert_slice %arg3 into %inserted_slice_333[5312] [16] [1] : tensor<16xf32> into tensor<16384xf32>
    %inserted_slice_335 = tensor.insert_slice %arg3 into %inserted_slice_334[5328] [16] [1] : tensor<16xf32> into tensor<16384xf32>
    %inserted_slice_336 = tensor.insert_slice %arg3 into %inserted_slice_335[5344] [16] [1] : tensor<16xf32> into tensor<16384xf32>
    %inserted_slice_337 = tensor.insert_slice %arg3 into %inserted_slice_336[5360] [16] [1] : tensor<16xf32> into tensor<16384xf32>
    %inserted_slice_338 = tensor.insert_slice %arg3 into %inserted_slice_337[5376] [16] [1] : tensor<16xf32> into tensor<16384xf32>
    %inserted_slice_339 = tensor.insert_slice %arg3 into %inserted_slice_338[5392] [16] [1] : tensor<16xf32> into tensor<16384xf32>
    %inserted_slice_340 = tensor.insert_slice %arg3 into %inserted_slice_339[5408] [16] [1] : tensor<16xf32> into tensor<16384xf32>
    %inserted_slice_341 = tensor.insert_slice %arg3 into %inserted_slice_340[5424] [16] [1] : tensor<16xf32> into tensor<16384xf32>
    %inserted_slice_342 = tensor.insert_slice %arg3 into %inserted_slice_341[5440] [16] [1] : tensor<16xf32> into tensor<16384xf32>
    %inserted_slice_343 = tensor.insert_slice %arg3 into %inserted_slice_342[5456] [16] [1] : tensor<16xf32> into tensor<16384xf32>
    %inserted_slice_344 = tensor.insert_slice %arg3 into %inserted_slice_343[5472] [16] [1] : tensor<16xf32> into tensor<16384xf32>
    %inserted_slice_345 = tensor.insert_slice %arg3 into %inserted_slice_344[5488] [16] [1] : tensor<16xf32> into tensor<16384xf32>
    %inserted_slice_346 = tensor.insert_slice %arg3 into %inserted_slice_345[5504] [16] [1] : tensor<16xf32> into tensor<16384xf32>
    %inserted_slice_347 = tensor.insert_slice %arg3 into %inserted_slice_346[5520] [16] [1] : tensor<16xf32> into tensor<16384xf32>
    %inserted_slice_348 = tensor.insert_slice %arg3 into %inserted_slice_347[5536] [16] [1] : tensor<16xf32> into tensor<16384xf32>
    %inserted_slice_349 = tensor.insert_slice %arg3 into %inserted_slice_348[5552] [16] [1] : tensor<16xf32> into tensor<16384xf32>
    %inserted_slice_350 = tensor.insert_slice %arg3 into %inserted_slice_349[5568] [16] [1] : tensor<16xf32> into tensor<16384xf32>
    %inserted_slice_351 = tensor.insert_slice %arg3 into %inserted_slice_350[5584] [16] [1] : tensor<16xf32> into tensor<16384xf32>
    %inserted_slice_352 = tensor.insert_slice %arg3 into %inserted_slice_351[5600] [16] [1] : tensor<16xf32> into tensor<16384xf32>
    %inserted_slice_353 = tensor.insert_slice %arg3 into %inserted_slice_352[5616] [16] [1] : tensor<16xf32> into tensor<16384xf32>
    %inserted_slice_354 = tensor.insert_slice %arg3 into %inserted_slice_353[5632] [16] [1] : tensor<16xf32> into tensor<16384xf32>
    %inserted_slice_355 = tensor.insert_slice %arg3 into %inserted_slice_354[5648] [16] [1] : tensor<16xf32> into tensor<16384xf32>
    %inserted_slice_356 = tensor.insert_slice %arg3 into %inserted_slice_355[5664] [16] [1] : tensor<16xf32> into tensor<16384xf32>
    %inserted_slice_357 = tensor.insert_slice %arg3 into %inserted_slice_356[5680] [16] [1] : tensor<16xf32> into tensor<16384xf32>
    %inserted_slice_358 = tensor.insert_slice %arg3 into %inserted_slice_357[5696] [16] [1] : tensor<16xf32> into tensor<16384xf32>
    %inserted_slice_359 = tensor.insert_slice %arg3 into %inserted_slice_358[5712] [16] [1] : tensor<16xf32> into tensor<16384xf32>
    %inserted_slice_360 = tensor.insert_slice %arg3 into %inserted_slice_359[5728] [16] [1] : tensor<16xf32> into tensor<16384xf32>
    %inserted_slice_361 = tensor.insert_slice %arg3 into %inserted_slice_360[5744] [16] [1] : tensor<16xf32> into tensor<16384xf32>
    %inserted_slice_362 = tensor.insert_slice %arg3 into %inserted_slice_361[5760] [16] [1] : tensor<16xf32> into tensor<16384xf32>
    %inserted_slice_363 = tensor.insert_slice %arg3 into %inserted_slice_362[5776] [16] [1] : tensor<16xf32> into tensor<16384xf32>
    %inserted_slice_364 = tensor.insert_slice %arg3 into %inserted_slice_363[5792] [16] [1] : tensor<16xf32> into tensor<16384xf32>
    %inserted_slice_365 = tensor.insert_slice %arg3 into %inserted_slice_364[5808] [16] [1] : tensor<16xf32> into tensor<16384xf32>
    %inserted_slice_366 = tensor.insert_slice %arg3 into %inserted_slice_365[5824] [16] [1] : tensor<16xf32> into tensor<16384xf32>
    %inserted_slice_367 = tensor.insert_slice %arg3 into %inserted_slice_366[5840] [16] [1] : tensor<16xf32> into tensor<16384xf32>
    %inserted_slice_368 = tensor.insert_slice %arg3 into %inserted_slice_367[5856] [16] [1] : tensor<16xf32> into tensor<16384xf32>
    %inserted_slice_369 = tensor.insert_slice %arg3 into %inserted_slice_368[5872] [16] [1] : tensor<16xf32> into tensor<16384xf32>
    %inserted_slice_370 = tensor.insert_slice %arg3 into %inserted_slice_369[5888] [16] [1] : tensor<16xf32> into tensor<16384xf32>
    %inserted_slice_371 = tensor.insert_slice %arg3 into %inserted_slice_370[5904] [16] [1] : tensor<16xf32> into tensor<16384xf32>
    %inserted_slice_372 = tensor.insert_slice %arg3 into %inserted_slice_371[5920] [16] [1] : tensor<16xf32> into tensor<16384xf32>
    %inserted_slice_373 = tensor.insert_slice %arg3 into %inserted_slice_372[5936] [16] [1] : tensor<16xf32> into tensor<16384xf32>
    %inserted_slice_374 = tensor.insert_slice %arg3 into %inserted_slice_373[5952] [16] [1] : tensor<16xf32> into tensor<16384xf32>
    %inserted_slice_375 = tensor.insert_slice %arg3 into %inserted_slice_374[5968] [16] [1] : tensor<16xf32> into tensor<16384xf32>
    %inserted_slice_376 = tensor.insert_slice %arg3 into %inserted_slice_375[5984] [16] [1] : tensor<16xf32> into tensor<16384xf32>
    %inserted_slice_377 = tensor.insert_slice %arg3 into %inserted_slice_376[6000] [16] [1] : tensor<16xf32> into tensor<16384xf32>
    %inserted_slice_378 = tensor.insert_slice %arg3 into %inserted_slice_377[6016] [16] [1] : tensor<16xf32> into tensor<16384xf32>
    %inserted_slice_379 = tensor.insert_slice %arg3 into %inserted_slice_378[6032] [16] [1] : tensor<16xf32> into tensor<16384xf32>
    %inserted_slice_380 = tensor.insert_slice %arg3 into %inserted_slice_379[6048] [16] [1] : tensor<16xf32> into tensor<16384xf32>
    %inserted_slice_381 = tensor.insert_slice %arg3 into %inserted_slice_380[6064] [16] [1] : tensor<16xf32> into tensor<16384xf32>
    %inserted_slice_382 = tensor.insert_slice %arg3 into %inserted_slice_381[6080] [16] [1] : tensor<16xf32> into tensor<16384xf32>
    %inserted_slice_383 = tensor.insert_slice %arg3 into %inserted_slice_382[6096] [16] [1] : tensor<16xf32> into tensor<16384xf32>
    %inserted_slice_384 = tensor.insert_slice %arg3 into %inserted_slice_383[6112] [16] [1] : tensor<16xf32> into tensor<16384xf32>
    %inserted_slice_385 = tensor.insert_slice %arg3 into %inserted_slice_384[6128] [16] [1] : tensor<16xf32> into tensor<16384xf32>
    %inserted_slice_386 = tensor.insert_slice %arg3 into %inserted_slice_385[6144] [16] [1] : tensor<16xf32> into tensor<16384xf32>
    %inserted_slice_387 = tensor.insert_slice %arg3 into %inserted_slice_386[6160] [16] [1] : tensor<16xf32> into tensor<16384xf32>
    %inserted_slice_388 = tensor.insert_slice %arg3 into %inserted_slice_387[6176] [16] [1] : tensor<16xf32> into tensor<16384xf32>
    %inserted_slice_389 = tensor.insert_slice %arg3 into %inserted_slice_388[6192] [16] [1] : tensor<16xf32> into tensor<16384xf32>
    %inserted_slice_390 = tensor.insert_slice %arg3 into %inserted_slice_389[6208] [16] [1] : tensor<16xf32> into tensor<16384xf32>
    %inserted_slice_391 = tensor.insert_slice %arg3 into %inserted_slice_390[6224] [16] [1] : tensor<16xf32> into tensor<16384xf32>
    %inserted_slice_392 = tensor.insert_slice %arg3 into %inserted_slice_391[6240] [16] [1] : tensor<16xf32> into tensor<16384xf32>
    %inserted_slice_393 = tensor.insert_slice %arg3 into %inserted_slice_392[6256] [16] [1] : tensor<16xf32> into tensor<16384xf32>
    %inserted_slice_394 = tensor.insert_slice %arg3 into %inserted_slice_393[6272] [16] [1] : tensor<16xf32> into tensor<16384xf32>
    %inserted_slice_395 = tensor.insert_slice %arg3 into %inserted_slice_394[6288] [16] [1] : tensor<16xf32> into tensor<16384xf32>
    %inserted_slice_396 = tensor.insert_slice %arg3 into %inserted_slice_395[6304] [16] [1] : tensor<16xf32> into tensor<16384xf32>
    %inserted_slice_397 = tensor.insert_slice %arg3 into %inserted_slice_396[6320] [16] [1] : tensor<16xf32> into tensor<16384xf32>
    %inserted_slice_398 = tensor.insert_slice %arg3 into %inserted_slice_397[6336] [16] [1] : tensor<16xf32> into tensor<16384xf32>
    %inserted_slice_399 = tensor.insert_slice %arg3 into %inserted_slice_398[6352] [16] [1] : tensor<16xf32> into tensor<16384xf32>
    %inserted_slice_400 = tensor.insert_slice %arg3 into %inserted_slice_399[6368] [16] [1] : tensor<16xf32> into tensor<16384xf32>
    %inserted_slice_401 = tensor.insert_slice %arg3 into %inserted_slice_400[6384] [16] [1] : tensor<16xf32> into tensor<16384xf32>
    %inserted_slice_402 = tensor.insert_slice %arg3 into %inserted_slice_401[6400] [16] [1] : tensor<16xf32> into tensor<16384xf32>
    %inserted_slice_403 = tensor.insert_slice %arg3 into %inserted_slice_402[6416] [16] [1] : tensor<16xf32> into tensor<16384xf32>
    %inserted_slice_404 = tensor.insert_slice %arg3 into %inserted_slice_403[6432] [16] [1] : tensor<16xf32> into tensor<16384xf32>
    %inserted_slice_405 = tensor.insert_slice %arg3 into %inserted_slice_404[6448] [16] [1] : tensor<16xf32> into tensor<16384xf32>
    %inserted_slice_406 = tensor.insert_slice %arg3 into %inserted_slice_405[6464] [16] [1] : tensor<16xf32> into tensor<16384xf32>
    %inserted_slice_407 = tensor.insert_slice %arg3 into %inserted_slice_406[6480] [16] [1] : tensor<16xf32> into tensor<16384xf32>
    %inserted_slice_408 = tensor.insert_slice %arg3 into %inserted_slice_407[6496] [16] [1] : tensor<16xf32> into tensor<16384xf32>
    %inserted_slice_409 = tensor.insert_slice %arg3 into %inserted_slice_408[6512] [16] [1] : tensor<16xf32> into tensor<16384xf32>
    %inserted_slice_410 = tensor.insert_slice %arg3 into %inserted_slice_409[6528] [16] [1] : tensor<16xf32> into tensor<16384xf32>
    %inserted_slice_411 = tensor.insert_slice %arg3 into %inserted_slice_410[6544] [16] [1] : tensor<16xf32> into tensor<16384xf32>
    %inserted_slice_412 = tensor.insert_slice %arg3 into %inserted_slice_411[6560] [16] [1] : tensor<16xf32> into tensor<16384xf32>
    %inserted_slice_413 = tensor.insert_slice %arg3 into %inserted_slice_412[6576] [16] [1] : tensor<16xf32> into tensor<16384xf32>
    %inserted_slice_414 = tensor.insert_slice %arg3 into %inserted_slice_413[6592] [16] [1] : tensor<16xf32> into tensor<16384xf32>
    %inserted_slice_415 = tensor.insert_slice %arg3 into %inserted_slice_414[6608] [16] [1] : tensor<16xf32> into tensor<16384xf32>
    %inserted_slice_416 = tensor.insert_slice %arg3 into %inserted_slice_415[6624] [16] [1] : tensor<16xf32> into tensor<16384xf32>
    %inserted_slice_417 = tensor.insert_slice %arg3 into %inserted_slice_416[6640] [16] [1] : tensor<16xf32> into tensor<16384xf32>
    %inserted_slice_418 = tensor.insert_slice %arg3 into %inserted_slice_417[6656] [16] [1] : tensor<16xf32> into tensor<16384xf32>
    %inserted_slice_419 = tensor.insert_slice %arg3 into %inserted_slice_418[6672] [16] [1] : tensor<16xf32> into tensor<16384xf32>
    %inserted_slice_420 = tensor.insert_slice %arg3 into %inserted_slice_419[6688] [16] [1] : tensor<16xf32> into tensor<16384xf32>
    %inserted_slice_421 = tensor.insert_slice %arg3 into %inserted_slice_420[6704] [16] [1] : tensor<16xf32> into tensor<16384xf32>
    %inserted_slice_422 = tensor.insert_slice %arg3 into %inserted_slice_421[6720] [16] [1] : tensor<16xf32> into tensor<16384xf32>
    %inserted_slice_423 = tensor.insert_slice %arg3 into %inserted_slice_422[6736] [16] [1] : tensor<16xf32> into tensor<16384xf32>
    %inserted_slice_424 = tensor.insert_slice %arg3 into %inserted_slice_423[6752] [16] [1] : tensor<16xf32> into tensor<16384xf32>
    %inserted_slice_425 = tensor.insert_slice %arg3 into %inserted_slice_424[6768] [16] [1] : tensor<16xf32> into tensor<16384xf32>
    %inserted_slice_426 = tensor.insert_slice %arg3 into %inserted_slice_425[6784] [16] [1] : tensor<16xf32> into tensor<16384xf32>
    %inserted_slice_427 = tensor.insert_slice %arg3 into %inserted_slice_426[6800] [16] [1] : tensor<16xf32> into tensor<16384xf32>
    %inserted_slice_428 = tensor.insert_slice %arg3 into %inserted_slice_427[6816] [16] [1] : tensor<16xf32> into tensor<16384xf32>
    %inserted_slice_429 = tensor.insert_slice %arg3 into %inserted_slice_428[6832] [16] [1] : tensor<16xf32> into tensor<16384xf32>
    %inserted_slice_430 = tensor.insert_slice %arg3 into %inserted_slice_429[6848] [16] [1] : tensor<16xf32> into tensor<16384xf32>
    %inserted_slice_431 = tensor.insert_slice %arg3 into %inserted_slice_430[6864] [16] [1] : tensor<16xf32> into tensor<16384xf32>
    %inserted_slice_432 = tensor.insert_slice %arg3 into %inserted_slice_431[6880] [16] [1] : tensor<16xf32> into tensor<16384xf32>
    %inserted_slice_433 = tensor.insert_slice %arg3 into %inserted_slice_432[6896] [16] [1] : tensor<16xf32> into tensor<16384xf32>
    %inserted_slice_434 = tensor.insert_slice %arg3 into %inserted_slice_433[6912] [16] [1] : tensor<16xf32> into tensor<16384xf32>
    %inserted_slice_435 = tensor.insert_slice %arg3 into %inserted_slice_434[6928] [16] [1] : tensor<16xf32> into tensor<16384xf32>
    %inserted_slice_436 = tensor.insert_slice %arg3 into %inserted_slice_435[6944] [16] [1] : tensor<16xf32> into tensor<16384xf32>
    %inserted_slice_437 = tensor.insert_slice %arg3 into %inserted_slice_436[6960] [16] [1] : tensor<16xf32> into tensor<16384xf32>
    %inserted_slice_438 = tensor.insert_slice %arg3 into %inserted_slice_437[6976] [16] [1] : tensor<16xf32> into tensor<16384xf32>
    %inserted_slice_439 = tensor.insert_slice %arg3 into %inserted_slice_438[6992] [16] [1] : tensor<16xf32> into tensor<16384xf32>
    %inserted_slice_440 = tensor.insert_slice %arg3 into %inserted_slice_439[7008] [16] [1] : tensor<16xf32> into tensor<16384xf32>
    %inserted_slice_441 = tensor.insert_slice %arg3 into %inserted_slice_440[7024] [16] [1] : tensor<16xf32> into tensor<16384xf32>
    %inserted_slice_442 = tensor.insert_slice %arg3 into %inserted_slice_441[7040] [16] [1] : tensor<16xf32> into tensor<16384xf32>
    %inserted_slice_443 = tensor.insert_slice %arg3 into %inserted_slice_442[7056] [16] [1] : tensor<16xf32> into tensor<16384xf32>
    %inserted_slice_444 = tensor.insert_slice %arg3 into %inserted_slice_443[7072] [16] [1] : tensor<16xf32> into tensor<16384xf32>
    %inserted_slice_445 = tensor.insert_slice %arg3 into %inserted_slice_444[7088] [16] [1] : tensor<16xf32> into tensor<16384xf32>
    %inserted_slice_446 = tensor.insert_slice %arg3 into %inserted_slice_445[7104] [16] [1] : tensor<16xf32> into tensor<16384xf32>
    %inserted_slice_447 = tensor.insert_slice %arg3 into %inserted_slice_446[7120] [16] [1] : tensor<16xf32> into tensor<16384xf32>
    %inserted_slice_448 = tensor.insert_slice %arg3 into %inserted_slice_447[7136] [16] [1] : tensor<16xf32> into tensor<16384xf32>
    %inserted_slice_449 = tensor.insert_slice %arg3 into %inserted_slice_448[7152] [16] [1] : tensor<16xf32> into tensor<16384xf32>
    %inserted_slice_450 = tensor.insert_slice %arg3 into %inserted_slice_449[7168] [16] [1] : tensor<16xf32> into tensor<16384xf32>
    %inserted_slice_451 = tensor.insert_slice %arg3 into %inserted_slice_450[7184] [16] [1] : tensor<16xf32> into tensor<16384xf32>
    %inserted_slice_452 = tensor.insert_slice %arg3 into %inserted_slice_451[7200] [16] [1] : tensor<16xf32> into tensor<16384xf32>
    %inserted_slice_453 = tensor.insert_slice %arg3 into %inserted_slice_452[7216] [16] [1] : tensor<16xf32> into tensor<16384xf32>
    %inserted_slice_454 = tensor.insert_slice %arg3 into %inserted_slice_453[7232] [16] [1] : tensor<16xf32> into tensor<16384xf32>
    %inserted_slice_455 = tensor.insert_slice %arg3 into %inserted_slice_454[7248] [16] [1] : tensor<16xf32> into tensor<16384xf32>
    %inserted_slice_456 = tensor.insert_slice %arg3 into %inserted_slice_455[7264] [16] [1] : tensor<16xf32> into tensor<16384xf32>
    %inserted_slice_457 = tensor.insert_slice %arg3 into %inserted_slice_456[7280] [16] [1] : tensor<16xf32> into tensor<16384xf32>
    %inserted_slice_458 = tensor.insert_slice %arg3 into %inserted_slice_457[7296] [16] [1] : tensor<16xf32> into tensor<16384xf32>
    %inserted_slice_459 = tensor.insert_slice %arg3 into %inserted_slice_458[7312] [16] [1] : tensor<16xf32> into tensor<16384xf32>
    %inserted_slice_460 = tensor.insert_slice %arg3 into %inserted_slice_459[7328] [16] [1] : tensor<16xf32> into tensor<16384xf32>
    %inserted_slice_461 = tensor.insert_slice %arg3 into %inserted_slice_460[7344] [16] [1] : tensor<16xf32> into tensor<16384xf32>
    %inserted_slice_462 = tensor.insert_slice %arg3 into %inserted_slice_461[7360] [16] [1] : tensor<16xf32> into tensor<16384xf32>
    %inserted_slice_463 = tensor.insert_slice %arg3 into %inserted_slice_462[7376] [16] [1] : tensor<16xf32> into tensor<16384xf32>
    %inserted_slice_464 = tensor.insert_slice %arg3 into %inserted_slice_463[7392] [16] [1] : tensor<16xf32> into tensor<16384xf32>
    %inserted_slice_465 = tensor.insert_slice %arg3 into %inserted_slice_464[7408] [16] [1] : tensor<16xf32> into tensor<16384xf32>
    %inserted_slice_466 = tensor.insert_slice %arg3 into %inserted_slice_465[7424] [16] [1] : tensor<16xf32> into tensor<16384xf32>
    %inserted_slice_467 = tensor.insert_slice %arg3 into %inserted_slice_466[7440] [16] [1] : tensor<16xf32> into tensor<16384xf32>
    %inserted_slice_468 = tensor.insert_slice %arg3 into %inserted_slice_467[7456] [16] [1] : tensor<16xf32> into tensor<16384xf32>
    %inserted_slice_469 = tensor.insert_slice %arg3 into %inserted_slice_468[7472] [16] [1] : tensor<16xf32> into tensor<16384xf32>
    %inserted_slice_470 = tensor.insert_slice %arg3 into %inserted_slice_469[7488] [16] [1] : tensor<16xf32> into tensor<16384xf32>
    %inserted_slice_471 = tensor.insert_slice %arg3 into %inserted_slice_470[7504] [16] [1] : tensor<16xf32> into tensor<16384xf32>
    %inserted_slice_472 = tensor.insert_slice %arg3 into %inserted_slice_471[7520] [16] [1] : tensor<16xf32> into tensor<16384xf32>
    %inserted_slice_473 = tensor.insert_slice %arg3 into %inserted_slice_472[7536] [16] [1] : tensor<16xf32> into tensor<16384xf32>
    %inserted_slice_474 = tensor.insert_slice %arg3 into %inserted_slice_473[7552] [16] [1] : tensor<16xf32> into tensor<16384xf32>
    %inserted_slice_475 = tensor.insert_slice %arg3 into %inserted_slice_474[7568] [16] [1] : tensor<16xf32> into tensor<16384xf32>
    %inserted_slice_476 = tensor.insert_slice %arg3 into %inserted_slice_475[7584] [16] [1] : tensor<16xf32> into tensor<16384xf32>
    %inserted_slice_477 = tensor.insert_slice %arg3 into %inserted_slice_476[7600] [16] [1] : tensor<16xf32> into tensor<16384xf32>
    %inserted_slice_478 = tensor.insert_slice %arg3 into %inserted_slice_477[7616] [16] [1] : tensor<16xf32> into tensor<16384xf32>
    %inserted_slice_479 = tensor.insert_slice %arg3 into %inserted_slice_478[7632] [16] [1] : tensor<16xf32> into tensor<16384xf32>
    %inserted_slice_480 = tensor.insert_slice %arg3 into %inserted_slice_479[7648] [16] [1] : tensor<16xf32> into tensor<16384xf32>
    %inserted_slice_481 = tensor.insert_slice %arg3 into %inserted_slice_480[7664] [16] [1] : tensor<16xf32> into tensor<16384xf32>
    %inserted_slice_482 = tensor.insert_slice %arg3 into %inserted_slice_481[7680] [16] [1] : tensor<16xf32> into tensor<16384xf32>
    %inserted_slice_483 = tensor.insert_slice %arg3 into %inserted_slice_482[7696] [16] [1] : tensor<16xf32> into tensor<16384xf32>
    %inserted_slice_484 = tensor.insert_slice %arg3 into %inserted_slice_483[7712] [16] [1] : tensor<16xf32> into tensor<16384xf32>
    %inserted_slice_485 = tensor.insert_slice %arg3 into %inserted_slice_484[7728] [16] [1] : tensor<16xf32> into tensor<16384xf32>
    %inserted_slice_486 = tensor.insert_slice %arg3 into %inserted_slice_485[7744] [16] [1] : tensor<16xf32> into tensor<16384xf32>
    %inserted_slice_487 = tensor.insert_slice %arg3 into %inserted_slice_486[7760] [16] [1] : tensor<16xf32> into tensor<16384xf32>
    %inserted_slice_488 = tensor.insert_slice %arg3 into %inserted_slice_487[7776] [16] [1] : tensor<16xf32> into tensor<16384xf32>
    %inserted_slice_489 = tensor.insert_slice %arg3 into %inserted_slice_488[7792] [16] [1] : tensor<16xf32> into tensor<16384xf32>
    %inserted_slice_490 = tensor.insert_slice %arg3 into %inserted_slice_489[7808] [16] [1] : tensor<16xf32> into tensor<16384xf32>
    %inserted_slice_491 = tensor.insert_slice %arg3 into %inserted_slice_490[7824] [16] [1] : tensor<16xf32> into tensor<16384xf32>
    %inserted_slice_492 = tensor.insert_slice %arg3 into %inserted_slice_491[7840] [16] [1] : tensor<16xf32> into tensor<16384xf32>
    %inserted_slice_493 = tensor.insert_slice %arg3 into %inserted_slice_492[7856] [16] [1] : tensor<16xf32> into tensor<16384xf32>
    %inserted_slice_494 = tensor.insert_slice %arg3 into %inserted_slice_493[7872] [16] [1] : tensor<16xf32> into tensor<16384xf32>
    %inserted_slice_495 = tensor.insert_slice %arg3 into %inserted_slice_494[7888] [16] [1] : tensor<16xf32> into tensor<16384xf32>
    %inserted_slice_496 = tensor.insert_slice %arg3 into %inserted_slice_495[7904] [16] [1] : tensor<16xf32> into tensor<16384xf32>
    %inserted_slice_497 = tensor.insert_slice %arg3 into %inserted_slice_496[7920] [16] [1] : tensor<16xf32> into tensor<16384xf32>
    %inserted_slice_498 = tensor.insert_slice %arg3 into %inserted_slice_497[7936] [16] [1] : tensor<16xf32> into tensor<16384xf32>
    %inserted_slice_499 = tensor.insert_slice %arg3 into %inserted_slice_498[7952] [16] [1] : tensor<16xf32> into tensor<16384xf32>
    %inserted_slice_500 = tensor.insert_slice %arg3 into %inserted_slice_499[7968] [16] [1] : tensor<16xf32> into tensor<16384xf32>
    %inserted_slice_501 = tensor.insert_slice %arg3 into %inserted_slice_500[7984] [16] [1] : tensor<16xf32> into tensor<16384xf32>
    %inserted_slice_502 = tensor.insert_slice %arg3 into %inserted_slice_501[8000] [16] [1] : tensor<16xf32> into tensor<16384xf32>
    %inserted_slice_503 = tensor.insert_slice %arg3 into %inserted_slice_502[8016] [16] [1] : tensor<16xf32> into tensor<16384xf32>
    %inserted_slice_504 = tensor.insert_slice %arg3 into %inserted_slice_503[8032] [16] [1] : tensor<16xf32> into tensor<16384xf32>
    %inserted_slice_505 = tensor.insert_slice %arg3 into %inserted_slice_504[8048] [16] [1] : tensor<16xf32> into tensor<16384xf32>
    %inserted_slice_506 = tensor.insert_slice %arg3 into %inserted_slice_505[8064] [16] [1] : tensor<16xf32> into tensor<16384xf32>
    %inserted_slice_507 = tensor.insert_slice %arg3 into %inserted_slice_506[8080] [16] [1] : tensor<16xf32> into tensor<16384xf32>
    %inserted_slice_508 = tensor.insert_slice %arg3 into %inserted_slice_507[8096] [16] [1] : tensor<16xf32> into tensor<16384xf32>
    %inserted_slice_509 = tensor.insert_slice %arg3 into %inserted_slice_508[8112] [16] [1] : tensor<16xf32> into tensor<16384xf32>
    %inserted_slice_510 = tensor.insert_slice %arg3 into %inserted_slice_509[8128] [16] [1] : tensor<16xf32> into tensor<16384xf32>
    %inserted_slice_511 = tensor.insert_slice %arg3 into %inserted_slice_510[8144] [16] [1] : tensor<16xf32> into tensor<16384xf32>
    %inserted_slice_512 = tensor.insert_slice %arg3 into %inserted_slice_511[8160] [16] [1] : tensor<16xf32> into tensor<16384xf32>
    %inserted_slice_513 = tensor.insert_slice %arg3 into %inserted_slice_512[8176] [16] [1] : tensor<16xf32> into tensor<16384xf32>
    %inserted_slice_514 = tensor.insert_slice %arg3 into %inserted_slice_513[8192] [16] [1] : tensor<16xf32> into tensor<16384xf32>
    %inserted_slice_515 = tensor.insert_slice %arg3 into %inserted_slice_514[8208] [16] [1] : tensor<16xf32> into tensor<16384xf32>
    %inserted_slice_516 = tensor.insert_slice %arg3 into %inserted_slice_515[8224] [16] [1] : tensor<16xf32> into tensor<16384xf32>
    %inserted_slice_517 = tensor.insert_slice %arg3 into %inserted_slice_516[8240] [16] [1] : tensor<16xf32> into tensor<16384xf32>
    %inserted_slice_518 = tensor.insert_slice %arg3 into %inserted_slice_517[8256] [16] [1] : tensor<16xf32> into tensor<16384xf32>
    %inserted_slice_519 = tensor.insert_slice %arg3 into %inserted_slice_518[8272] [16] [1] : tensor<16xf32> into tensor<16384xf32>
    %inserted_slice_520 = tensor.insert_slice %arg3 into %inserted_slice_519[8288] [16] [1] : tensor<16xf32> into tensor<16384xf32>
    %inserted_slice_521 = tensor.insert_slice %arg3 into %inserted_slice_520[8304] [16] [1] : tensor<16xf32> into tensor<16384xf32>
    %inserted_slice_522 = tensor.insert_slice %arg3 into %inserted_slice_521[8320] [16] [1] : tensor<16xf32> into tensor<16384xf32>
    %inserted_slice_523 = tensor.insert_slice %arg3 into %inserted_slice_522[8336] [16] [1] : tensor<16xf32> into tensor<16384xf32>
    %inserted_slice_524 = tensor.insert_slice %arg3 into %inserted_slice_523[8352] [16] [1] : tensor<16xf32> into tensor<16384xf32>
    %inserted_slice_525 = tensor.insert_slice %arg3 into %inserted_slice_524[8368] [16] [1] : tensor<16xf32> into tensor<16384xf32>
    %inserted_slice_526 = tensor.insert_slice %arg3 into %inserted_slice_525[8384] [16] [1] : tensor<16xf32> into tensor<16384xf32>
    %inserted_slice_527 = tensor.insert_slice %arg3 into %inserted_slice_526[8400] [16] [1] : tensor<16xf32> into tensor<16384xf32>
    %inserted_slice_528 = tensor.insert_slice %arg3 into %inserted_slice_527[8416] [16] [1] : tensor<16xf32> into tensor<16384xf32>
    %inserted_slice_529 = tensor.insert_slice %arg3 into %inserted_slice_528[8432] [16] [1] : tensor<16xf32> into tensor<16384xf32>
    %inserted_slice_530 = tensor.insert_slice %arg3 into %inserted_slice_529[8448] [16] [1] : tensor<16xf32> into tensor<16384xf32>
    %inserted_slice_531 = tensor.insert_slice %arg3 into %inserted_slice_530[8464] [16] [1] : tensor<16xf32> into tensor<16384xf32>
    %inserted_slice_532 = tensor.insert_slice %arg3 into %inserted_slice_531[8480] [16] [1] : tensor<16xf32> into tensor<16384xf32>
    %inserted_slice_533 = tensor.insert_slice %arg3 into %inserted_slice_532[8496] [16] [1] : tensor<16xf32> into tensor<16384xf32>
    %inserted_slice_534 = tensor.insert_slice %arg3 into %inserted_slice_533[8512] [16] [1] : tensor<16xf32> into tensor<16384xf32>
    %inserted_slice_535 = tensor.insert_slice %arg3 into %inserted_slice_534[8528] [16] [1] : tensor<16xf32> into tensor<16384xf32>
    %inserted_slice_536 = tensor.insert_slice %arg3 into %inserted_slice_535[8544] [16] [1] : tensor<16xf32> into tensor<16384xf32>
    %inserted_slice_537 = tensor.insert_slice %arg3 into %inserted_slice_536[8560] [16] [1] : tensor<16xf32> into tensor<16384xf32>
    %inserted_slice_538 = tensor.insert_slice %arg3 into %inserted_slice_537[8576] [16] [1] : tensor<16xf32> into tensor<16384xf32>
    %inserted_slice_539 = tensor.insert_slice %arg3 into %inserted_slice_538[8592] [16] [1] : tensor<16xf32> into tensor<16384xf32>
    %inserted_slice_540 = tensor.insert_slice %arg3 into %inserted_slice_539[8608] [16] [1] : tensor<16xf32> into tensor<16384xf32>
    %inserted_slice_541 = tensor.insert_slice %arg3 into %inserted_slice_540[8624] [16] [1] : tensor<16xf32> into tensor<16384xf32>
    %inserted_slice_542 = tensor.insert_slice %arg3 into %inserted_slice_541[8640] [16] [1] : tensor<16xf32> into tensor<16384xf32>
    %inserted_slice_543 = tensor.insert_slice %arg3 into %inserted_slice_542[8656] [16] [1] : tensor<16xf32> into tensor<16384xf32>
    %inserted_slice_544 = tensor.insert_slice %arg3 into %inserted_slice_543[8672] [16] [1] : tensor<16xf32> into tensor<16384xf32>
    %inserted_slice_545 = tensor.insert_slice %arg3 into %inserted_slice_544[8688] [16] [1] : tensor<16xf32> into tensor<16384xf32>
    %inserted_slice_546 = tensor.insert_slice %arg3 into %inserted_slice_545[8704] [16] [1] : tensor<16xf32> into tensor<16384xf32>
    %inserted_slice_547 = tensor.insert_slice %arg3 into %inserted_slice_546[8720] [16] [1] : tensor<16xf32> into tensor<16384xf32>
    %inserted_slice_548 = tensor.insert_slice %arg3 into %inserted_slice_547[8736] [16] [1] : tensor<16xf32> into tensor<16384xf32>
    %inserted_slice_549 = tensor.insert_slice %arg3 into %inserted_slice_548[8752] [16] [1] : tensor<16xf32> into tensor<16384xf32>
    %inserted_slice_550 = tensor.insert_slice %arg3 into %inserted_slice_549[8768] [16] [1] : tensor<16xf32> into tensor<16384xf32>
    %inserted_slice_551 = tensor.insert_slice %arg3 into %inserted_slice_550[8784] [16] [1] : tensor<16xf32> into tensor<16384xf32>
    %inserted_slice_552 = tensor.insert_slice %arg3 into %inserted_slice_551[8800] [16] [1] : tensor<16xf32> into tensor<16384xf32>
    %inserted_slice_553 = tensor.insert_slice %arg3 into %inserted_slice_552[8816] [16] [1] : tensor<16xf32> into tensor<16384xf32>
    %inserted_slice_554 = tensor.insert_slice %arg3 into %inserted_slice_553[8832] [16] [1] : tensor<16xf32> into tensor<16384xf32>
    %inserted_slice_555 = tensor.insert_slice %arg3 into %inserted_slice_554[8848] [16] [1] : tensor<16xf32> into tensor<16384xf32>
    %inserted_slice_556 = tensor.insert_slice %arg3 into %inserted_slice_555[8864] [16] [1] : tensor<16xf32> into tensor<16384xf32>
    %inserted_slice_557 = tensor.insert_slice %arg3 into %inserted_slice_556[8880] [16] [1] : tensor<16xf32> into tensor<16384xf32>
    %inserted_slice_558 = tensor.insert_slice %arg3 into %inserted_slice_557[8896] [16] [1] : tensor<16xf32> into tensor<16384xf32>
    %inserted_slice_559 = tensor.insert_slice %arg3 into %inserted_slice_558[8912] [16] [1] : tensor<16xf32> into tensor<16384xf32>
    %inserted_slice_560 = tensor.insert_slice %arg3 into %inserted_slice_559[8928] [16] [1] : tensor<16xf32> into tensor<16384xf32>
    %inserted_slice_561 = tensor.insert_slice %arg3 into %inserted_slice_560[8944] [16] [1] : tensor<16xf32> into tensor<16384xf32>
    %inserted_slice_562 = tensor.insert_slice %arg3 into %inserted_slice_561[8960] [16] [1] : tensor<16xf32> into tensor<16384xf32>
    %inserted_slice_563 = tensor.insert_slice %arg3 into %inserted_slice_562[8976] [16] [1] : tensor<16xf32> into tensor<16384xf32>
    %inserted_slice_564 = tensor.insert_slice %arg3 into %inserted_slice_563[8992] [16] [1] : tensor<16xf32> into tensor<16384xf32>
    %inserted_slice_565 = tensor.insert_slice %arg3 into %inserted_slice_564[9008] [16] [1] : tensor<16xf32> into tensor<16384xf32>
    %inserted_slice_566 = tensor.insert_slice %arg3 into %inserted_slice_565[9024] [16] [1] : tensor<16xf32> into tensor<16384xf32>
    %inserted_slice_567 = tensor.insert_slice %arg3 into %inserted_slice_566[9040] [16] [1] : tensor<16xf32> into tensor<16384xf32>
    %inserted_slice_568 = tensor.insert_slice %arg3 into %inserted_slice_567[9056] [16] [1] : tensor<16xf32> into tensor<16384xf32>
    %inserted_slice_569 = tensor.insert_slice %arg3 into %inserted_slice_568[9072] [16] [1] : tensor<16xf32> into tensor<16384xf32>
    %inserted_slice_570 = tensor.insert_slice %arg3 into %inserted_slice_569[9088] [16] [1] : tensor<16xf32> into tensor<16384xf32>
    %inserted_slice_571 = tensor.insert_slice %arg3 into %inserted_slice_570[9104] [16] [1] : tensor<16xf32> into tensor<16384xf32>
    %inserted_slice_572 = tensor.insert_slice %arg3 into %inserted_slice_571[9120] [16] [1] : tensor<16xf32> into tensor<16384xf32>
    %inserted_slice_573 = tensor.insert_slice %arg3 into %inserted_slice_572[9136] [16] [1] : tensor<16xf32> into tensor<16384xf32>
    %inserted_slice_574 = tensor.insert_slice %arg3 into %inserted_slice_573[9152] [16] [1] : tensor<16xf32> into tensor<16384xf32>
    %inserted_slice_575 = tensor.insert_slice %arg3 into %inserted_slice_574[9168] [16] [1] : tensor<16xf32> into tensor<16384xf32>
    %inserted_slice_576 = tensor.insert_slice %arg3 into %inserted_slice_575[9184] [16] [1] : tensor<16xf32> into tensor<16384xf32>
    %inserted_slice_577 = tensor.insert_slice %arg3 into %inserted_slice_576[9200] [16] [1] : tensor<16xf32> into tensor<16384xf32>
    %inserted_slice_578 = tensor.insert_slice %arg3 into %inserted_slice_577[9216] [16] [1] : tensor<16xf32> into tensor<16384xf32>
    %inserted_slice_579 = tensor.insert_slice %arg3 into %inserted_slice_578[9232] [16] [1] : tensor<16xf32> into tensor<16384xf32>
    %inserted_slice_580 = tensor.insert_slice %arg3 into %inserted_slice_579[9248] [16] [1] : tensor<16xf32> into tensor<16384xf32>
    %inserted_slice_581 = tensor.insert_slice %arg3 into %inserted_slice_580[9264] [16] [1] : tensor<16xf32> into tensor<16384xf32>
    %inserted_slice_582 = tensor.insert_slice %arg3 into %inserted_slice_581[9280] [16] [1] : tensor<16xf32> into tensor<16384xf32>
    %inserted_slice_583 = tensor.insert_slice %arg3 into %inserted_slice_582[9296] [16] [1] : tensor<16xf32> into tensor<16384xf32>
    %inserted_slice_584 = tensor.insert_slice %arg3 into %inserted_slice_583[9312] [16] [1] : tensor<16xf32> into tensor<16384xf32>
    %inserted_slice_585 = tensor.insert_slice %arg3 into %inserted_slice_584[9328] [16] [1] : tensor<16xf32> into tensor<16384xf32>
    %inserted_slice_586 = tensor.insert_slice %arg3 into %inserted_slice_585[9344] [16] [1] : tensor<16xf32> into tensor<16384xf32>
    %inserted_slice_587 = tensor.insert_slice %arg3 into %inserted_slice_586[9360] [16] [1] : tensor<16xf32> into tensor<16384xf32>
    %inserted_slice_588 = tensor.insert_slice %arg3 into %inserted_slice_587[9376] [16] [1] : tensor<16xf32> into tensor<16384xf32>
    %inserted_slice_589 = tensor.insert_slice %arg3 into %inserted_slice_588[9392] [16] [1] : tensor<16xf32> into tensor<16384xf32>
    %inserted_slice_590 = tensor.insert_slice %arg3 into %inserted_slice_589[9408] [16] [1] : tensor<16xf32> into tensor<16384xf32>
    %inserted_slice_591 = tensor.insert_slice %arg3 into %inserted_slice_590[9424] [16] [1] : tensor<16xf32> into tensor<16384xf32>
    %inserted_slice_592 = tensor.insert_slice %arg3 into %inserted_slice_591[9440] [16] [1] : tensor<16xf32> into tensor<16384xf32>
    %inserted_slice_593 = tensor.insert_slice %arg3 into %inserted_slice_592[9456] [16] [1] : tensor<16xf32> into tensor<16384xf32>
    %inserted_slice_594 = tensor.insert_slice %arg3 into %inserted_slice_593[9472] [16] [1] : tensor<16xf32> into tensor<16384xf32>
    %inserted_slice_595 = tensor.insert_slice %arg3 into %inserted_slice_594[9488] [16] [1] : tensor<16xf32> into tensor<16384xf32>
    %inserted_slice_596 = tensor.insert_slice %arg3 into %inserted_slice_595[9504] [16] [1] : tensor<16xf32> into tensor<16384xf32>
    %inserted_slice_597 = tensor.insert_slice %arg3 into %inserted_slice_596[9520] [16] [1] : tensor<16xf32> into tensor<16384xf32>
    %inserted_slice_598 = tensor.insert_slice %arg3 into %inserted_slice_597[9536] [16] [1] : tensor<16xf32> into tensor<16384xf32>
    %inserted_slice_599 = tensor.insert_slice %arg3 into %inserted_slice_598[9552] [16] [1] : tensor<16xf32> into tensor<16384xf32>
    %inserted_slice_600 = tensor.insert_slice %arg3 into %inserted_slice_599[9568] [16] [1] : tensor<16xf32> into tensor<16384xf32>
    %inserted_slice_601 = tensor.insert_slice %arg3 into %inserted_slice_600[9584] [16] [1] : tensor<16xf32> into tensor<16384xf32>
    %inserted_slice_602 = tensor.insert_slice %arg3 into %inserted_slice_601[9600] [16] [1] : tensor<16xf32> into tensor<16384xf32>
    %inserted_slice_603 = tensor.insert_slice %arg3 into %inserted_slice_602[9616] [16] [1] : tensor<16xf32> into tensor<16384xf32>
    %inserted_slice_604 = tensor.insert_slice %arg3 into %inserted_slice_603[9632] [16] [1] : tensor<16xf32> into tensor<16384xf32>
    %inserted_slice_605 = tensor.insert_slice %arg3 into %inserted_slice_604[9648] [16] [1] : tensor<16xf32> into tensor<16384xf32>
    %inserted_slice_606 = tensor.insert_slice %arg3 into %inserted_slice_605[9664] [16] [1] : tensor<16xf32> into tensor<16384xf32>
    %inserted_slice_607 = tensor.insert_slice %arg3 into %inserted_slice_606[9680] [16] [1] : tensor<16xf32> into tensor<16384xf32>
    %inserted_slice_608 = tensor.insert_slice %arg3 into %inserted_slice_607[9696] [16] [1] : tensor<16xf32> into tensor<16384xf32>
    %inserted_slice_609 = tensor.insert_slice %arg3 into %inserted_slice_608[9712] [16] [1] : tensor<16xf32> into tensor<16384xf32>
    %inserted_slice_610 = tensor.insert_slice %arg3 into %inserted_slice_609[9728] [16] [1] : tensor<16xf32> into tensor<16384xf32>
    %inserted_slice_611 = tensor.insert_slice %arg3 into %inserted_slice_610[9744] [16] [1] : tensor<16xf32> into tensor<16384xf32>
    %inserted_slice_612 = tensor.insert_slice %arg3 into %inserted_slice_611[9760] [16] [1] : tensor<16xf32> into tensor<16384xf32>
    %inserted_slice_613 = tensor.insert_slice %arg3 into %inserted_slice_612[9776] [16] [1] : tensor<16xf32> into tensor<16384xf32>
    %inserted_slice_614 = tensor.insert_slice %arg3 into %inserted_slice_613[9792] [16] [1] : tensor<16xf32> into tensor<16384xf32>
    %inserted_slice_615 = tensor.insert_slice %arg3 into %inserted_slice_614[9808] [16] [1] : tensor<16xf32> into tensor<16384xf32>
    %inserted_slice_616 = tensor.insert_slice %arg3 into %inserted_slice_615[9824] [16] [1] : tensor<16xf32> into tensor<16384xf32>
    %inserted_slice_617 = tensor.insert_slice %arg3 into %inserted_slice_616[9840] [16] [1] : tensor<16xf32> into tensor<16384xf32>
    %inserted_slice_618 = tensor.insert_slice %arg3 into %inserted_slice_617[9856] [16] [1] : tensor<16xf32> into tensor<16384xf32>
    %inserted_slice_619 = tensor.insert_slice %arg3 into %inserted_slice_618[9872] [16] [1] : tensor<16xf32> into tensor<16384xf32>
    %inserted_slice_620 = tensor.insert_slice %arg3 into %inserted_slice_619[9888] [16] [1] : tensor<16xf32> into tensor<16384xf32>
    %inserted_slice_621 = tensor.insert_slice %arg3 into %inserted_slice_620[9904] [16] [1] : tensor<16xf32> into tensor<16384xf32>
    %inserted_slice_622 = tensor.insert_slice %arg3 into %inserted_slice_621[9920] [16] [1] : tensor<16xf32> into tensor<16384xf32>
    %inserted_slice_623 = tensor.insert_slice %arg3 into %inserted_slice_622[9936] [16] [1] : tensor<16xf32> into tensor<16384xf32>
    %inserted_slice_624 = tensor.insert_slice %arg3 into %inserted_slice_623[9952] [16] [1] : tensor<16xf32> into tensor<16384xf32>
    %inserted_slice_625 = tensor.insert_slice %arg3 into %inserted_slice_624[9968] [16] [1] : tensor<16xf32> into tensor<16384xf32>
    %inserted_slice_626 = tensor.insert_slice %arg3 into %inserted_slice_625[9984] [16] [1] : tensor<16xf32> into tensor<16384xf32>
    %inserted_slice_627 = tensor.insert_slice %arg3 into %inserted_slice_626[10000] [16] [1] : tensor<16xf32> into tensor<16384xf32>
    %inserted_slice_628 = tensor.insert_slice %arg3 into %inserted_slice_627[10016] [16] [1] : tensor<16xf32> into tensor<16384xf32>
    %inserted_slice_629 = tensor.insert_slice %arg3 into %inserted_slice_628[10032] [16] [1] : tensor<16xf32> into tensor<16384xf32>
    %inserted_slice_630 = tensor.insert_slice %arg3 into %inserted_slice_629[10048] [16] [1] : tensor<16xf32> into tensor<16384xf32>
    %inserted_slice_631 = tensor.insert_slice %arg3 into %inserted_slice_630[10064] [16] [1] : tensor<16xf32> into tensor<16384xf32>
    %inserted_slice_632 = tensor.insert_slice %arg3 into %inserted_slice_631[10080] [16] [1] : tensor<16xf32> into tensor<16384xf32>
    %inserted_slice_633 = tensor.insert_slice %arg3 into %inserted_slice_632[10096] [16] [1] : tensor<16xf32> into tensor<16384xf32>
    %inserted_slice_634 = tensor.insert_slice %arg3 into %inserted_slice_633[10112] [16] [1] : tensor<16xf32> into tensor<16384xf32>
    %inserted_slice_635 = tensor.insert_slice %arg3 into %inserted_slice_634[10128] [16] [1] : tensor<16xf32> into tensor<16384xf32>
    %inserted_slice_636 = tensor.insert_slice %arg3 into %inserted_slice_635[10144] [16] [1] : tensor<16xf32> into tensor<16384xf32>
    %inserted_slice_637 = tensor.insert_slice %arg3 into %inserted_slice_636[10160] [16] [1] : tensor<16xf32> into tensor<16384xf32>
    %inserted_slice_638 = tensor.insert_slice %arg3 into %inserted_slice_637[10176] [16] [1] : tensor<16xf32> into tensor<16384xf32>
    %inserted_slice_639 = tensor.insert_slice %arg3 into %inserted_slice_638[10192] [16] [1] : tensor<16xf32> into tensor<16384xf32>
    %inserted_slice_640 = tensor.insert_slice %arg3 into %inserted_slice_639[10208] [16] [1] : tensor<16xf32> into tensor<16384xf32>
    %inserted_slice_641 = tensor.insert_slice %arg3 into %inserted_slice_640[10224] [16] [1] : tensor<16xf32> into tensor<16384xf32>
    %inserted_slice_642 = tensor.insert_slice %arg3 into %inserted_slice_641[10240] [16] [1] : tensor<16xf32> into tensor<16384xf32>
    %inserted_slice_643 = tensor.insert_slice %arg3 into %inserted_slice_642[10256] [16] [1] : tensor<16xf32> into tensor<16384xf32>
    %inserted_slice_644 = tensor.insert_slice %arg3 into %inserted_slice_643[10272] [16] [1] : tensor<16xf32> into tensor<16384xf32>
    %inserted_slice_645 = tensor.insert_slice %arg3 into %inserted_slice_644[10288] [16] [1] : tensor<16xf32> into tensor<16384xf32>
    %inserted_slice_646 = tensor.insert_slice %arg3 into %inserted_slice_645[10304] [16] [1] : tensor<16xf32> into tensor<16384xf32>
    %inserted_slice_647 = tensor.insert_slice %arg3 into %inserted_slice_646[10320] [16] [1] : tensor<16xf32> into tensor<16384xf32>
    %inserted_slice_648 = tensor.insert_slice %arg3 into %inserted_slice_647[10336] [16] [1] : tensor<16xf32> into tensor<16384xf32>
    %inserted_slice_649 = tensor.insert_slice %arg3 into %inserted_slice_648[10352] [16] [1] : tensor<16xf32> into tensor<16384xf32>
    %inserted_slice_650 = tensor.insert_slice %arg3 into %inserted_slice_649[10368] [16] [1] : tensor<16xf32> into tensor<16384xf32>
    %inserted_slice_651 = tensor.insert_slice %arg3 into %inserted_slice_650[10384] [16] [1] : tensor<16xf32> into tensor<16384xf32>
    %inserted_slice_652 = tensor.insert_slice %arg3 into %inserted_slice_651[10400] [16] [1] : tensor<16xf32> into tensor<16384xf32>
    %inserted_slice_653 = tensor.insert_slice %arg3 into %inserted_slice_652[10416] [16] [1] : tensor<16xf32> into tensor<16384xf32>
    %inserted_slice_654 = tensor.insert_slice %arg3 into %inserted_slice_653[10432] [16] [1] : tensor<16xf32> into tensor<16384xf32>
    %inserted_slice_655 = tensor.insert_slice %arg3 into %inserted_slice_654[10448] [16] [1] : tensor<16xf32> into tensor<16384xf32>
    %inserted_slice_656 = tensor.insert_slice %arg3 into %inserted_slice_655[10464] [16] [1] : tensor<16xf32> into tensor<16384xf32>
    %inserted_slice_657 = tensor.insert_slice %arg3 into %inserted_slice_656[10480] [16] [1] : tensor<16xf32> into tensor<16384xf32>
    %inserted_slice_658 = tensor.insert_slice %arg3 into %inserted_slice_657[10496] [16] [1] : tensor<16xf32> into tensor<16384xf32>
    %inserted_slice_659 = tensor.insert_slice %arg3 into %inserted_slice_658[10512] [16] [1] : tensor<16xf32> into tensor<16384xf32>
    %inserted_slice_660 = tensor.insert_slice %arg3 into %inserted_slice_659[10528] [16] [1] : tensor<16xf32> into tensor<16384xf32>
    %inserted_slice_661 = tensor.insert_slice %arg3 into %inserted_slice_660[10544] [16] [1] : tensor<16xf32> into tensor<16384xf32>
    %inserted_slice_662 = tensor.insert_slice %arg3 into %inserted_slice_661[10560] [16] [1] : tensor<16xf32> into tensor<16384xf32>
    %inserted_slice_663 = tensor.insert_slice %arg3 into %inserted_slice_662[10576] [16] [1] : tensor<16xf32> into tensor<16384xf32>
    %inserted_slice_664 = tensor.insert_slice %arg3 into %inserted_slice_663[10592] [16] [1] : tensor<16xf32> into tensor<16384xf32>
    %inserted_slice_665 = tensor.insert_slice %arg3 into %inserted_slice_664[10608] [16] [1] : tensor<16xf32> into tensor<16384xf32>
    %inserted_slice_666 = tensor.insert_slice %arg3 into %inserted_slice_665[10624] [16] [1] : tensor<16xf32> into tensor<16384xf32>
    %inserted_slice_667 = tensor.insert_slice %arg3 into %inserted_slice_666[10640] [16] [1] : tensor<16xf32> into tensor<16384xf32>
    %inserted_slice_668 = tensor.insert_slice %arg3 into %inserted_slice_667[10656] [16] [1] : tensor<16xf32> into tensor<16384xf32>
    %inserted_slice_669 = tensor.insert_slice %arg3 into %inserted_slice_668[10672] [16] [1] : tensor<16xf32> into tensor<16384xf32>
    %inserted_slice_670 = tensor.insert_slice %arg3 into %inserted_slice_669[10688] [16] [1] : tensor<16xf32> into tensor<16384xf32>
    %inserted_slice_671 = tensor.insert_slice %arg3 into %inserted_slice_670[10704] [16] [1] : tensor<16xf32> into tensor<16384xf32>
    %inserted_slice_672 = tensor.insert_slice %arg3 into %inserted_slice_671[10720] [16] [1] : tensor<16xf32> into tensor<16384xf32>
    %inserted_slice_673 = tensor.insert_slice %arg3 into %inserted_slice_672[10736] [16] [1] : tensor<16xf32> into tensor<16384xf32>
    %inserted_slice_674 = tensor.insert_slice %arg3 into %inserted_slice_673[10752] [16] [1] : tensor<16xf32> into tensor<16384xf32>
    %inserted_slice_675 = tensor.insert_slice %arg3 into %inserted_slice_674[10768] [16] [1] : tensor<16xf32> into tensor<16384xf32>
    %inserted_slice_676 = tensor.insert_slice %arg3 into %inserted_slice_675[10784] [16] [1] : tensor<16xf32> into tensor<16384xf32>
    %inserted_slice_677 = tensor.insert_slice %arg3 into %inserted_slice_676[10800] [16] [1] : tensor<16xf32> into tensor<16384xf32>
    %inserted_slice_678 = tensor.insert_slice %arg3 into %inserted_slice_677[10816] [16] [1] : tensor<16xf32> into tensor<16384xf32>
    %inserted_slice_679 = tensor.insert_slice %arg3 into %inserted_slice_678[10832] [16] [1] : tensor<16xf32> into tensor<16384xf32>
    %inserted_slice_680 = tensor.insert_slice %arg3 into %inserted_slice_679[10848] [16] [1] : tensor<16xf32> into tensor<16384xf32>
    %inserted_slice_681 = tensor.insert_slice %arg3 into %inserted_slice_680[10864] [16] [1] : tensor<16xf32> into tensor<16384xf32>
    %inserted_slice_682 = tensor.insert_slice %arg3 into %inserted_slice_681[10880] [16] [1] : tensor<16xf32> into tensor<16384xf32>
    %inserted_slice_683 = tensor.insert_slice %arg3 into %inserted_slice_682[10896] [16] [1] : tensor<16xf32> into tensor<16384xf32>
    %inserted_slice_684 = tensor.insert_slice %arg3 into %inserted_slice_683[10912] [16] [1] : tensor<16xf32> into tensor<16384xf32>
    %inserted_slice_685 = tensor.insert_slice %arg3 into %inserted_slice_684[10928] [16] [1] : tensor<16xf32> into tensor<16384xf32>
    %inserted_slice_686 = tensor.insert_slice %arg3 into %inserted_slice_685[10944] [16] [1] : tensor<16xf32> into tensor<16384xf32>
    %inserted_slice_687 = tensor.insert_slice %arg3 into %inserted_slice_686[10960] [16] [1] : tensor<16xf32> into tensor<16384xf32>
    %inserted_slice_688 = tensor.insert_slice %arg3 into %inserted_slice_687[10976] [16] [1] : tensor<16xf32> into tensor<16384xf32>
    %inserted_slice_689 = tensor.insert_slice %arg3 into %inserted_slice_688[10992] [16] [1] : tensor<16xf32> into tensor<16384xf32>
    %inserted_slice_690 = tensor.insert_slice %arg3 into %inserted_slice_689[11008] [16] [1] : tensor<16xf32> into tensor<16384xf32>
    %inserted_slice_691 = tensor.insert_slice %arg3 into %inserted_slice_690[11024] [16] [1] : tensor<16xf32> into tensor<16384xf32>
    %inserted_slice_692 = tensor.insert_slice %arg3 into %inserted_slice_691[11040] [16] [1] : tensor<16xf32> into tensor<16384xf32>
    %inserted_slice_693 = tensor.insert_slice %arg3 into %inserted_slice_692[11056] [16] [1] : tensor<16xf32> into tensor<16384xf32>
    %inserted_slice_694 = tensor.insert_slice %arg3 into %inserted_slice_693[11072] [16] [1] : tensor<16xf32> into tensor<16384xf32>
    %inserted_slice_695 = tensor.insert_slice %arg3 into %inserted_slice_694[11088] [16] [1] : tensor<16xf32> into tensor<16384xf32>
    %inserted_slice_696 = tensor.insert_slice %arg3 into %inserted_slice_695[11104] [16] [1] : tensor<16xf32> into tensor<16384xf32>
    %inserted_slice_697 = tensor.insert_slice %arg3 into %inserted_slice_696[11120] [16] [1] : tensor<16xf32> into tensor<16384xf32>
    %inserted_slice_698 = tensor.insert_slice %arg3 into %inserted_slice_697[11136] [16] [1] : tensor<16xf32> into tensor<16384xf32>
    %inserted_slice_699 = tensor.insert_slice %arg3 into %inserted_slice_698[11152] [16] [1] : tensor<16xf32> into tensor<16384xf32>
    %inserted_slice_700 = tensor.insert_slice %arg3 into %inserted_slice_699[11168] [16] [1] : tensor<16xf32> into tensor<16384xf32>
    %inserted_slice_701 = tensor.insert_slice %arg3 into %inserted_slice_700[11184] [16] [1] : tensor<16xf32> into tensor<16384xf32>
    %inserted_slice_702 = tensor.insert_slice %arg3 into %inserted_slice_701[11200] [16] [1] : tensor<16xf32> into tensor<16384xf32>
    %inserted_slice_703 = tensor.insert_slice %arg3 into %inserted_slice_702[11216] [16] [1] : tensor<16xf32> into tensor<16384xf32>
    %inserted_slice_704 = tensor.insert_slice %arg3 into %inserted_slice_703[11232] [16] [1] : tensor<16xf32> into tensor<16384xf32>
    %inserted_slice_705 = tensor.insert_slice %arg3 into %inserted_slice_704[11248] [16] [1] : tensor<16xf32> into tensor<16384xf32>
    %inserted_slice_706 = tensor.insert_slice %arg3 into %inserted_slice_705[11264] [16] [1] : tensor<16xf32> into tensor<16384xf32>
    %inserted_slice_707 = tensor.insert_slice %arg3 into %inserted_slice_706[11280] [16] [1] : tensor<16xf32> into tensor<16384xf32>
    %inserted_slice_708 = tensor.insert_slice %arg3 into %inserted_slice_707[11296] [16] [1] : tensor<16xf32> into tensor<16384xf32>
    %inserted_slice_709 = tensor.insert_slice %arg3 into %inserted_slice_708[11312] [16] [1] : tensor<16xf32> into tensor<16384xf32>
    %inserted_slice_710 = tensor.insert_slice %arg3 into %inserted_slice_709[11328] [16] [1] : tensor<16xf32> into tensor<16384xf32>
    %inserted_slice_711 = tensor.insert_slice %arg3 into %inserted_slice_710[11344] [16] [1] : tensor<16xf32> into tensor<16384xf32>
    %inserted_slice_712 = tensor.insert_slice %arg3 into %inserted_slice_711[11360] [16] [1] : tensor<16xf32> into tensor<16384xf32>
    %inserted_slice_713 = tensor.insert_slice %arg3 into %inserted_slice_712[11376] [16] [1] : tensor<16xf32> into tensor<16384xf32>
    %inserted_slice_714 = tensor.insert_slice %arg3 into %inserted_slice_713[11392] [16] [1] : tensor<16xf32> into tensor<16384xf32>
    %inserted_slice_715 = tensor.insert_slice %arg3 into %inserted_slice_714[11408] [16] [1] : tensor<16xf32> into tensor<16384xf32>
    %inserted_slice_716 = tensor.insert_slice %arg3 into %inserted_slice_715[11424] [16] [1] : tensor<16xf32> into tensor<16384xf32>
    %inserted_slice_717 = tensor.insert_slice %arg3 into %inserted_slice_716[11440] [16] [1] : tensor<16xf32> into tensor<16384xf32>
    %inserted_slice_718 = tensor.insert_slice %arg3 into %inserted_slice_717[11456] [16] [1] : tensor<16xf32> into tensor<16384xf32>
    %inserted_slice_719 = tensor.insert_slice %arg3 into %inserted_slice_718[11472] [16] [1] : tensor<16xf32> into tensor<16384xf32>
    %inserted_slice_720 = tensor.insert_slice %arg3 into %inserted_slice_719[11488] [16] [1] : tensor<16xf32> into tensor<16384xf32>
    %inserted_slice_721 = tensor.insert_slice %arg3 into %inserted_slice_720[11504] [16] [1] : tensor<16xf32> into tensor<16384xf32>
    %inserted_slice_722 = tensor.insert_slice %arg3 into %inserted_slice_721[11520] [16] [1] : tensor<16xf32> into tensor<16384xf32>
    %inserted_slice_723 = tensor.insert_slice %arg3 into %inserted_slice_722[11536] [16] [1] : tensor<16xf32> into tensor<16384xf32>
    %inserted_slice_724 = tensor.insert_slice %arg3 into %inserted_slice_723[11552] [16] [1] : tensor<16xf32> into tensor<16384xf32>
    %inserted_slice_725 = tensor.insert_slice %arg3 into %inserted_slice_724[11568] [16] [1] : tensor<16xf32> into tensor<16384xf32>
    %inserted_slice_726 = tensor.insert_slice %arg3 into %inserted_slice_725[11584] [16] [1] : tensor<16xf32> into tensor<16384xf32>
    %inserted_slice_727 = tensor.insert_slice %arg3 into %inserted_slice_726[11600] [16] [1] : tensor<16xf32> into tensor<16384xf32>
    %inserted_slice_728 = tensor.insert_slice %arg3 into %inserted_slice_727[11616] [16] [1] : tensor<16xf32> into tensor<16384xf32>
    %inserted_slice_729 = tensor.insert_slice %arg3 into %inserted_slice_728[11632] [16] [1] : tensor<16xf32> into tensor<16384xf32>
    %inserted_slice_730 = tensor.insert_slice %arg3 into %inserted_slice_729[11648] [16] [1] : tensor<16xf32> into tensor<16384xf32>
    %inserted_slice_731 = tensor.insert_slice %arg3 into %inserted_slice_730[11664] [16] [1] : tensor<16xf32> into tensor<16384xf32>
    %inserted_slice_732 = tensor.insert_slice %arg3 into %inserted_slice_731[11680] [16] [1] : tensor<16xf32> into tensor<16384xf32>
    %inserted_slice_733 = tensor.insert_slice %arg3 into %inserted_slice_732[11696] [16] [1] : tensor<16xf32> into tensor<16384xf32>
    %inserted_slice_734 = tensor.insert_slice %arg3 into %inserted_slice_733[11712] [16] [1] : tensor<16xf32> into tensor<16384xf32>
    %inserted_slice_735 = tensor.insert_slice %arg3 into %inserted_slice_734[11728] [16] [1] : tensor<16xf32> into tensor<16384xf32>
    %inserted_slice_736 = tensor.insert_slice %arg3 into %inserted_slice_735[11744] [16] [1] : tensor<16xf32> into tensor<16384xf32>
    %inserted_slice_737 = tensor.insert_slice %arg3 into %inserted_slice_736[11760] [16] [1] : tensor<16xf32> into tensor<16384xf32>
    %inserted_slice_738 = tensor.insert_slice %arg3 into %inserted_slice_737[11776] [16] [1] : tensor<16xf32> into tensor<16384xf32>
    %inserted_slice_739 = tensor.insert_slice %arg3 into %inserted_slice_738[11792] [16] [1] : tensor<16xf32> into tensor<16384xf32>
    %inserted_slice_740 = tensor.insert_slice %arg3 into %inserted_slice_739[11808] [16] [1] : tensor<16xf32> into tensor<16384xf32>
    %inserted_slice_741 = tensor.insert_slice %arg3 into %inserted_slice_740[11824] [16] [1] : tensor<16xf32> into tensor<16384xf32>
    %inserted_slice_742 = tensor.insert_slice %arg3 into %inserted_slice_741[11840] [16] [1] : tensor<16xf32> into tensor<16384xf32>
    %inserted_slice_743 = tensor.insert_slice %arg3 into %inserted_slice_742[11856] [16] [1] : tensor<16xf32> into tensor<16384xf32>
    %inserted_slice_744 = tensor.insert_slice %arg3 into %inserted_slice_743[11872] [16] [1] : tensor<16xf32> into tensor<16384xf32>
    %inserted_slice_745 = tensor.insert_slice %arg3 into %inserted_slice_744[11888] [16] [1] : tensor<16xf32> into tensor<16384xf32>
    %inserted_slice_746 = tensor.insert_slice %arg3 into %inserted_slice_745[11904] [16] [1] : tensor<16xf32> into tensor<16384xf32>
    %inserted_slice_747 = tensor.insert_slice %arg3 into %inserted_slice_746[11920] [16] [1] : tensor<16xf32> into tensor<16384xf32>
    %inserted_slice_748 = tensor.insert_slice %arg3 into %inserted_slice_747[11936] [16] [1] : tensor<16xf32> into tensor<16384xf32>
    %inserted_slice_749 = tensor.insert_slice %arg3 into %inserted_slice_748[11952] [16] [1] : tensor<16xf32> into tensor<16384xf32>
    %inserted_slice_750 = tensor.insert_slice %arg3 into %inserted_slice_749[11968] [16] [1] : tensor<16xf32> into tensor<16384xf32>
    %inserted_slice_751 = tensor.insert_slice %arg3 into %inserted_slice_750[11984] [16] [1] : tensor<16xf32> into tensor<16384xf32>
    %inserted_slice_752 = tensor.insert_slice %arg3 into %inserted_slice_751[12000] [16] [1] : tensor<16xf32> into tensor<16384xf32>
    %inserted_slice_753 = tensor.insert_slice %arg3 into %inserted_slice_752[12016] [16] [1] : tensor<16xf32> into tensor<16384xf32>
    %inserted_slice_754 = tensor.insert_slice %arg3 into %inserted_slice_753[12032] [16] [1] : tensor<16xf32> into tensor<16384xf32>
    %inserted_slice_755 = tensor.insert_slice %arg3 into %inserted_slice_754[12048] [16] [1] : tensor<16xf32> into tensor<16384xf32>
    %inserted_slice_756 = tensor.insert_slice %arg3 into %inserted_slice_755[12064] [16] [1] : tensor<16xf32> into tensor<16384xf32>
    %inserted_slice_757 = tensor.insert_slice %arg3 into %inserted_slice_756[12080] [16] [1] : tensor<16xf32> into tensor<16384xf32>
    %inserted_slice_758 = tensor.insert_slice %arg3 into %inserted_slice_757[12096] [16] [1] : tensor<16xf32> into tensor<16384xf32>
    %inserted_slice_759 = tensor.insert_slice %arg3 into %inserted_slice_758[12112] [16] [1] : tensor<16xf32> into tensor<16384xf32>
    %inserted_slice_760 = tensor.insert_slice %arg3 into %inserted_slice_759[12128] [16] [1] : tensor<16xf32> into tensor<16384xf32>
    %inserted_slice_761 = tensor.insert_slice %arg3 into %inserted_slice_760[12144] [16] [1] : tensor<16xf32> into tensor<16384xf32>
    %inserted_slice_762 = tensor.insert_slice %arg3 into %inserted_slice_761[12160] [16] [1] : tensor<16xf32> into tensor<16384xf32>
    %inserted_slice_763 = tensor.insert_slice %arg3 into %inserted_slice_762[12176] [16] [1] : tensor<16xf32> into tensor<16384xf32>
    %inserted_slice_764 = tensor.insert_slice %arg3 into %inserted_slice_763[12192] [16] [1] : tensor<16xf32> into tensor<16384xf32>
    %inserted_slice_765 = tensor.insert_slice %arg3 into %inserted_slice_764[12208] [16] [1] : tensor<16xf32> into tensor<16384xf32>
    %inserted_slice_766 = tensor.insert_slice %arg3 into %inserted_slice_765[12224] [16] [1] : tensor<16xf32> into tensor<16384xf32>
    %inserted_slice_767 = tensor.insert_slice %arg3 into %inserted_slice_766[12240] [16] [1] : tensor<16xf32> into tensor<16384xf32>
    %inserted_slice_768 = tensor.insert_slice %arg3 into %inserted_slice_767[12256] [16] [1] : tensor<16xf32> into tensor<16384xf32>
    %inserted_slice_769 = tensor.insert_slice %arg3 into %inserted_slice_768[12272] [16] [1] : tensor<16xf32> into tensor<16384xf32>
    %inserted_slice_770 = tensor.insert_slice %arg3 into %inserted_slice_769[12288] [16] [1] : tensor<16xf32> into tensor<16384xf32>
    %inserted_slice_771 = tensor.insert_slice %arg3 into %inserted_slice_770[12304] [16] [1] : tensor<16xf32> into tensor<16384xf32>
    %inserted_slice_772 = tensor.insert_slice %arg3 into %inserted_slice_771[12320] [16] [1] : tensor<16xf32> into tensor<16384xf32>
    %inserted_slice_773 = tensor.insert_slice %arg3 into %inserted_slice_772[12336] [16] [1] : tensor<16xf32> into tensor<16384xf32>
    %inserted_slice_774 = tensor.insert_slice %arg3 into %inserted_slice_773[12352] [16] [1] : tensor<16xf32> into tensor<16384xf32>
    %inserted_slice_775 = tensor.insert_slice %arg3 into %inserted_slice_774[12368] [16] [1] : tensor<16xf32> into tensor<16384xf32>
    %inserted_slice_776 = tensor.insert_slice %arg3 into %inserted_slice_775[12384] [16] [1] : tensor<16xf32> into tensor<16384xf32>
    %inserted_slice_777 = tensor.insert_slice %arg3 into %inserted_slice_776[12400] [16] [1] : tensor<16xf32> into tensor<16384xf32>
    %inserted_slice_778 = tensor.insert_slice %arg3 into %inserted_slice_777[12416] [16] [1] : tensor<16xf32> into tensor<16384xf32>
    %inserted_slice_779 = tensor.insert_slice %arg3 into %inserted_slice_778[12432] [16] [1] : tensor<16xf32> into tensor<16384xf32>
    %inserted_slice_780 = tensor.insert_slice %arg3 into %inserted_slice_779[12448] [16] [1] : tensor<16xf32> into tensor<16384xf32>
    %inserted_slice_781 = tensor.insert_slice %arg3 into %inserted_slice_780[12464] [16] [1] : tensor<16xf32> into tensor<16384xf32>
    %inserted_slice_782 = tensor.insert_slice %arg3 into %inserted_slice_781[12480] [16] [1] : tensor<16xf32> into tensor<16384xf32>
    %inserted_slice_783 = tensor.insert_slice %arg3 into %inserted_slice_782[12496] [16] [1] : tensor<16xf32> into tensor<16384xf32>
    %inserted_slice_784 = tensor.insert_slice %arg3 into %inserted_slice_783[12512] [16] [1] : tensor<16xf32> into tensor<16384xf32>
    %inserted_slice_785 = tensor.insert_slice %arg3 into %inserted_slice_784[12528] [16] [1] : tensor<16xf32> into tensor<16384xf32>
    %inserted_slice_786 = tensor.insert_slice %arg3 into %inserted_slice_785[12544] [16] [1] : tensor<16xf32> into tensor<16384xf32>
    %inserted_slice_787 = tensor.insert_slice %arg3 into %inserted_slice_786[12560] [16] [1] : tensor<16xf32> into tensor<16384xf32>
    %inserted_slice_788 = tensor.insert_slice %arg3 into %inserted_slice_787[12576] [16] [1] : tensor<16xf32> into tensor<16384xf32>
    %inserted_slice_789 = tensor.insert_slice %arg3 into %inserted_slice_788[12592] [16] [1] : tensor<16xf32> into tensor<16384xf32>
    %inserted_slice_790 = tensor.insert_slice %arg3 into %inserted_slice_789[12608] [16] [1] : tensor<16xf32> into tensor<16384xf32>
    %inserted_slice_791 = tensor.insert_slice %arg3 into %inserted_slice_790[12624] [16] [1] : tensor<16xf32> into tensor<16384xf32>
    %inserted_slice_792 = tensor.insert_slice %arg3 into %inserted_slice_791[12640] [16] [1] : tensor<16xf32> into tensor<16384xf32>
    %inserted_slice_793 = tensor.insert_slice %arg3 into %inserted_slice_792[12656] [16] [1] : tensor<16xf32> into tensor<16384xf32>
    %inserted_slice_794 = tensor.insert_slice %arg3 into %inserted_slice_793[12672] [16] [1] : tensor<16xf32> into tensor<16384xf32>
    %inserted_slice_795 = tensor.insert_slice %arg3 into %inserted_slice_794[12688] [16] [1] : tensor<16xf32> into tensor<16384xf32>
    %inserted_slice_796 = tensor.insert_slice %arg3 into %inserted_slice_795[12704] [16] [1] : tensor<16xf32> into tensor<16384xf32>
    %inserted_slice_797 = tensor.insert_slice %arg3 into %inserted_slice_796[12720] [16] [1] : tensor<16xf32> into tensor<16384xf32>
    %inserted_slice_798 = tensor.insert_slice %arg3 into %inserted_slice_797[12736] [16] [1] : tensor<16xf32> into tensor<16384xf32>
    %inserted_slice_799 = tensor.insert_slice %arg3 into %inserted_slice_798[12752] [16] [1] : tensor<16xf32> into tensor<16384xf32>
    %inserted_slice_800 = tensor.insert_slice %arg3 into %inserted_slice_799[12768] [16] [1] : tensor<16xf32> into tensor<16384xf32>
    %inserted_slice_801 = tensor.insert_slice %arg3 into %inserted_slice_800[12784] [16] [1] : tensor<16xf32> into tensor<16384xf32>
    %inserted_slice_802 = tensor.insert_slice %arg3 into %inserted_slice_801[12800] [16] [1] : tensor<16xf32> into tensor<16384xf32>
    %inserted_slice_803 = tensor.insert_slice %arg3 into %inserted_slice_802[12816] [16] [1] : tensor<16xf32> into tensor<16384xf32>
    %inserted_slice_804 = tensor.insert_slice %arg3 into %inserted_slice_803[12832] [16] [1] : tensor<16xf32> into tensor<16384xf32>
    %inserted_slice_805 = tensor.insert_slice %arg3 into %inserted_slice_804[12848] [16] [1] : tensor<16xf32> into tensor<16384xf32>
    %inserted_slice_806 = tensor.insert_slice %arg3 into %inserted_slice_805[12864] [16] [1] : tensor<16xf32> into tensor<16384xf32>
    %inserted_slice_807 = tensor.insert_slice %arg3 into %inserted_slice_806[12880] [16] [1] : tensor<16xf32> into tensor<16384xf32>
    %inserted_slice_808 = tensor.insert_slice %arg3 into %inserted_slice_807[12896] [16] [1] : tensor<16xf32> into tensor<16384xf32>
    %inserted_slice_809 = tensor.insert_slice %arg3 into %inserted_slice_808[12912] [16] [1] : tensor<16xf32> into tensor<16384xf32>
    %inserted_slice_810 = tensor.insert_slice %arg3 into %inserted_slice_809[12928] [16] [1] : tensor<16xf32> into tensor<16384xf32>
    %inserted_slice_811 = tensor.insert_slice %arg3 into %inserted_slice_810[12944] [16] [1] : tensor<16xf32> into tensor<16384xf32>
    %inserted_slice_812 = tensor.insert_slice %arg3 into %inserted_slice_811[12960] [16] [1] : tensor<16xf32> into tensor<16384xf32>
    %inserted_slice_813 = tensor.insert_slice %arg3 into %inserted_slice_812[12976] [16] [1] : tensor<16xf32> into tensor<16384xf32>
    %inserted_slice_814 = tensor.insert_slice %arg3 into %inserted_slice_813[12992] [16] [1] : tensor<16xf32> into tensor<16384xf32>
    %inserted_slice_815 = tensor.insert_slice %arg3 into %inserted_slice_814[13008] [16] [1] : tensor<16xf32> into tensor<16384xf32>
    %inserted_slice_816 = tensor.insert_slice %arg3 into %inserted_slice_815[13024] [16] [1] : tensor<16xf32> into tensor<16384xf32>
    %inserted_slice_817 = tensor.insert_slice %arg3 into %inserted_slice_816[13040] [16] [1] : tensor<16xf32> into tensor<16384xf32>
    %inserted_slice_818 = tensor.insert_slice %arg3 into %inserted_slice_817[13056] [16] [1] : tensor<16xf32> into tensor<16384xf32>
    %inserted_slice_819 = tensor.insert_slice %arg3 into %inserted_slice_818[13072] [16] [1] : tensor<16xf32> into tensor<16384xf32>
    %inserted_slice_820 = tensor.insert_slice %arg3 into %inserted_slice_819[13088] [16] [1] : tensor<16xf32> into tensor<16384xf32>
    %inserted_slice_821 = tensor.insert_slice %arg3 into %inserted_slice_820[13104] [16] [1] : tensor<16xf32> into tensor<16384xf32>
    %inserted_slice_822 = tensor.insert_slice %arg3 into %inserted_slice_821[13120] [16] [1] : tensor<16xf32> into tensor<16384xf32>
    %inserted_slice_823 = tensor.insert_slice %arg3 into %inserted_slice_822[13136] [16] [1] : tensor<16xf32> into tensor<16384xf32>
    %inserted_slice_824 = tensor.insert_slice %arg3 into %inserted_slice_823[13152] [16] [1] : tensor<16xf32> into tensor<16384xf32>
    %inserted_slice_825 = tensor.insert_slice %arg3 into %inserted_slice_824[13168] [16] [1] : tensor<16xf32> into tensor<16384xf32>
    %inserted_slice_826 = tensor.insert_slice %arg3 into %inserted_slice_825[13184] [16] [1] : tensor<16xf32> into tensor<16384xf32>
    %inserted_slice_827 = tensor.insert_slice %arg3 into %inserted_slice_826[13200] [16] [1] : tensor<16xf32> into tensor<16384xf32>
    %inserted_slice_828 = tensor.insert_slice %arg3 into %inserted_slice_827[13216] [16] [1] : tensor<16xf32> into tensor<16384xf32>
    %inserted_slice_829 = tensor.insert_slice %arg3 into %inserted_slice_828[13232] [16] [1] : tensor<16xf32> into tensor<16384xf32>
    %inserted_slice_830 = tensor.insert_slice %arg3 into %inserted_slice_829[13248] [16] [1] : tensor<16xf32> into tensor<16384xf32>
    %inserted_slice_831 = tensor.insert_slice %arg3 into %inserted_slice_830[13264] [16] [1] : tensor<16xf32> into tensor<16384xf32>
    %inserted_slice_832 = tensor.insert_slice %arg3 into %inserted_slice_831[13280] [16] [1] : tensor<16xf32> into tensor<16384xf32>
    %inserted_slice_833 = tensor.insert_slice %arg3 into %inserted_slice_832[13296] [16] [1] : tensor<16xf32> into tensor<16384xf32>
    %inserted_slice_834 = tensor.insert_slice %arg3 into %inserted_slice_833[13312] [16] [1] : tensor<16xf32> into tensor<16384xf32>
    %inserted_slice_835 = tensor.insert_slice %arg3 into %inserted_slice_834[13328] [16] [1] : tensor<16xf32> into tensor<16384xf32>
    %inserted_slice_836 = tensor.insert_slice %arg3 into %inserted_slice_835[13344] [16] [1] : tensor<16xf32> into tensor<16384xf32>
    %inserted_slice_837 = tensor.insert_slice %arg3 into %inserted_slice_836[13360] [16] [1] : tensor<16xf32> into tensor<16384xf32>
    %inserted_slice_838 = tensor.insert_slice %arg3 into %inserted_slice_837[13376] [16] [1] : tensor<16xf32> into tensor<16384xf32>
    %inserted_slice_839 = tensor.insert_slice %arg3 into %inserted_slice_838[13392] [16] [1] : tensor<16xf32> into tensor<16384xf32>
    %inserted_slice_840 = tensor.insert_slice %arg3 into %inserted_slice_839[13408] [16] [1] : tensor<16xf32> into tensor<16384xf32>
    %inserted_slice_841 = tensor.insert_slice %arg3 into %inserted_slice_840[13424] [16] [1] : tensor<16xf32> into tensor<16384xf32>
    %inserted_slice_842 = tensor.insert_slice %arg3 into %inserted_slice_841[13440] [16] [1] : tensor<16xf32> into tensor<16384xf32>
    %inserted_slice_843 = tensor.insert_slice %arg3 into %inserted_slice_842[13456] [16] [1] : tensor<16xf32> into tensor<16384xf32>
    %inserted_slice_844 = tensor.insert_slice %arg3 into %inserted_slice_843[13472] [16] [1] : tensor<16xf32> into tensor<16384xf32>
    %inserted_slice_845 = tensor.insert_slice %arg3 into %inserted_slice_844[13488] [16] [1] : tensor<16xf32> into tensor<16384xf32>
    %inserted_slice_846 = tensor.insert_slice %arg3 into %inserted_slice_845[13504] [16] [1] : tensor<16xf32> into tensor<16384xf32>
    %inserted_slice_847 = tensor.insert_slice %arg3 into %inserted_slice_846[13520] [16] [1] : tensor<16xf32> into tensor<16384xf32>
    %inserted_slice_848 = tensor.insert_slice %arg3 into %inserted_slice_847[13536] [16] [1] : tensor<16xf32> into tensor<16384xf32>
    %inserted_slice_849 = tensor.insert_slice %arg3 into %inserted_slice_848[13552] [16] [1] : tensor<16xf32> into tensor<16384xf32>
    %inserted_slice_850 = tensor.insert_slice %arg3 into %inserted_slice_849[13568] [16] [1] : tensor<16xf32> into tensor<16384xf32>
    %inserted_slice_851 = tensor.insert_slice %arg3 into %inserted_slice_850[13584] [16] [1] : tensor<16xf32> into tensor<16384xf32>
    %inserted_slice_852 = tensor.insert_slice %arg3 into %inserted_slice_851[13600] [16] [1] : tensor<16xf32> into tensor<16384xf32>
    %inserted_slice_853 = tensor.insert_slice %arg3 into %inserted_slice_852[13616] [16] [1] : tensor<16xf32> into tensor<16384xf32>
    %inserted_slice_854 = tensor.insert_slice %arg3 into %inserted_slice_853[13632] [16] [1] : tensor<16xf32> into tensor<16384xf32>
    %inserted_slice_855 = tensor.insert_slice %arg3 into %inserted_slice_854[13648] [16] [1] : tensor<16xf32> into tensor<16384xf32>
    %inserted_slice_856 = tensor.insert_slice %arg3 into %inserted_slice_855[13664] [16] [1] : tensor<16xf32> into tensor<16384xf32>
    %inserted_slice_857 = tensor.insert_slice %arg3 into %inserted_slice_856[13680] [16] [1] : tensor<16xf32> into tensor<16384xf32>
    %inserted_slice_858 = tensor.insert_slice %arg3 into %inserted_slice_857[13696] [16] [1] : tensor<16xf32> into tensor<16384xf32>
    %inserted_slice_859 = tensor.insert_slice %arg3 into %inserted_slice_858[13712] [16] [1] : tensor<16xf32> into tensor<16384xf32>
    %inserted_slice_860 = tensor.insert_slice %arg3 into %inserted_slice_859[13728] [16] [1] : tensor<16xf32> into tensor<16384xf32>
    %inserted_slice_861 = tensor.insert_slice %arg3 into %inserted_slice_860[13744] [16] [1] : tensor<16xf32> into tensor<16384xf32>
    %inserted_slice_862 = tensor.insert_slice %arg3 into %inserted_slice_861[13760] [16] [1] : tensor<16xf32> into tensor<16384xf32>
    %inserted_slice_863 = tensor.insert_slice %arg3 into %inserted_slice_862[13776] [16] [1] : tensor<16xf32> into tensor<16384xf32>
    %inserted_slice_864 = tensor.insert_slice %arg3 into %inserted_slice_863[13792] [16] [1] : tensor<16xf32> into tensor<16384xf32>
    %inserted_slice_865 = tensor.insert_slice %arg3 into %inserted_slice_864[13808] [16] [1] : tensor<16xf32> into tensor<16384xf32>
    %inserted_slice_866 = tensor.insert_slice %arg3 into %inserted_slice_865[13824] [16] [1] : tensor<16xf32> into tensor<16384xf32>
    %inserted_slice_867 = tensor.insert_slice %arg3 into %inserted_slice_866[13840] [16] [1] : tensor<16xf32> into tensor<16384xf32>
    %inserted_slice_868 = tensor.insert_slice %arg3 into %inserted_slice_867[13856] [16] [1] : tensor<16xf32> into tensor<16384xf32>
    %inserted_slice_869 = tensor.insert_slice %arg3 into %inserted_slice_868[13872] [16] [1] : tensor<16xf32> into tensor<16384xf32>
    %inserted_slice_870 = tensor.insert_slice %arg3 into %inserted_slice_869[13888] [16] [1] : tensor<16xf32> into tensor<16384xf32>
    %inserted_slice_871 = tensor.insert_slice %arg3 into %inserted_slice_870[13904] [16] [1] : tensor<16xf32> into tensor<16384xf32>
    %inserted_slice_872 = tensor.insert_slice %arg3 into %inserted_slice_871[13920] [16] [1] : tensor<16xf32> into tensor<16384xf32>
    %inserted_slice_873 = tensor.insert_slice %arg3 into %inserted_slice_872[13936] [16] [1] : tensor<16xf32> into tensor<16384xf32>
    %inserted_slice_874 = tensor.insert_slice %arg3 into %inserted_slice_873[13952] [16] [1] : tensor<16xf32> into tensor<16384xf32>
    %inserted_slice_875 = tensor.insert_slice %arg3 into %inserted_slice_874[13968] [16] [1] : tensor<16xf32> into tensor<16384xf32>
    %inserted_slice_876 = tensor.insert_slice %arg3 into %inserted_slice_875[13984] [16] [1] : tensor<16xf32> into tensor<16384xf32>
    %inserted_slice_877 = tensor.insert_slice %arg3 into %inserted_slice_876[14000] [16] [1] : tensor<16xf32> into tensor<16384xf32>
    %inserted_slice_878 = tensor.insert_slice %arg3 into %inserted_slice_877[14016] [16] [1] : tensor<16xf32> into tensor<16384xf32>
    %inserted_slice_879 = tensor.insert_slice %arg3 into %inserted_slice_878[14032] [16] [1] : tensor<16xf32> into tensor<16384xf32>
    %inserted_slice_880 = tensor.insert_slice %arg3 into %inserted_slice_879[14048] [16] [1] : tensor<16xf32> into tensor<16384xf32>
    %inserted_slice_881 = tensor.insert_slice %arg3 into %inserted_slice_880[14064] [16] [1] : tensor<16xf32> into tensor<16384xf32>
    %inserted_slice_882 = tensor.insert_slice %arg3 into %inserted_slice_881[14080] [16] [1] : tensor<16xf32> into tensor<16384xf32>
    %inserted_slice_883 = tensor.insert_slice %arg3 into %inserted_slice_882[14096] [16] [1] : tensor<16xf32> into tensor<16384xf32>
    %inserted_slice_884 = tensor.insert_slice %arg3 into %inserted_slice_883[14112] [16] [1] : tensor<16xf32> into tensor<16384xf32>
    %inserted_slice_885 = tensor.insert_slice %arg3 into %inserted_slice_884[14128] [16] [1] : tensor<16xf32> into tensor<16384xf32>
    %inserted_slice_886 = tensor.insert_slice %arg3 into %inserted_slice_885[14144] [16] [1] : tensor<16xf32> into tensor<16384xf32>
    %inserted_slice_887 = tensor.insert_slice %arg3 into %inserted_slice_886[14160] [16] [1] : tensor<16xf32> into tensor<16384xf32>
    %inserted_slice_888 = tensor.insert_slice %arg3 into %inserted_slice_887[14176] [16] [1] : tensor<16xf32> into tensor<16384xf32>
    %inserted_slice_889 = tensor.insert_slice %arg3 into %inserted_slice_888[14192] [16] [1] : tensor<16xf32> into tensor<16384xf32>
    %inserted_slice_890 = tensor.insert_slice %arg3 into %inserted_slice_889[14208] [16] [1] : tensor<16xf32> into tensor<16384xf32>
    %inserted_slice_891 = tensor.insert_slice %arg3 into %inserted_slice_890[14224] [16] [1] : tensor<16xf32> into tensor<16384xf32>
    %inserted_slice_892 = tensor.insert_slice %arg3 into %inserted_slice_891[14240] [16] [1] : tensor<16xf32> into tensor<16384xf32>
    %inserted_slice_893 = tensor.insert_slice %arg3 into %inserted_slice_892[14256] [16] [1] : tensor<16xf32> into tensor<16384xf32>
    %inserted_slice_894 = tensor.insert_slice %arg3 into %inserted_slice_893[14272] [16] [1] : tensor<16xf32> into tensor<16384xf32>
    %inserted_slice_895 = tensor.insert_slice %arg3 into %inserted_slice_894[14288] [16] [1] : tensor<16xf32> into tensor<16384xf32>
    %inserted_slice_896 = tensor.insert_slice %arg3 into %inserted_slice_895[14304] [16] [1] : tensor<16xf32> into tensor<16384xf32>
    %inserted_slice_897 = tensor.insert_slice %arg3 into %inserted_slice_896[14320] [16] [1] : tensor<16xf32> into tensor<16384xf32>
    %inserted_slice_898 = tensor.insert_slice %arg3 into %inserted_slice_897[14336] [16] [1] : tensor<16xf32> into tensor<16384xf32>
    %inserted_slice_899 = tensor.insert_slice %arg3 into %inserted_slice_898[14352] [16] [1] : tensor<16xf32> into tensor<16384xf32>
    %inserted_slice_900 = tensor.insert_slice %arg3 into %inserted_slice_899[14368] [16] [1] : tensor<16xf32> into tensor<16384xf32>
    %inserted_slice_901 = tensor.insert_slice %arg3 into %inserted_slice_900[14384] [16] [1] : tensor<16xf32> into tensor<16384xf32>
    %inserted_slice_902 = tensor.insert_slice %arg3 into %inserted_slice_901[14400] [16] [1] : tensor<16xf32> into tensor<16384xf32>
    %inserted_slice_903 = tensor.insert_slice %arg3 into %inserted_slice_902[14416] [16] [1] : tensor<16xf32> into tensor<16384xf32>
    %inserted_slice_904 = tensor.insert_slice %arg3 into %inserted_slice_903[14432] [16] [1] : tensor<16xf32> into tensor<16384xf32>
    %inserted_slice_905 = tensor.insert_slice %arg3 into %inserted_slice_904[14448] [16] [1] : tensor<16xf32> into tensor<16384xf32>
    %inserted_slice_906 = tensor.insert_slice %arg3 into %inserted_slice_905[14464] [16] [1] : tensor<16xf32> into tensor<16384xf32>
    %inserted_slice_907 = tensor.insert_slice %arg3 into %inserted_slice_906[14480] [16] [1] : tensor<16xf32> into tensor<16384xf32>
    %inserted_slice_908 = tensor.insert_slice %arg3 into %inserted_slice_907[14496] [16] [1] : tensor<16xf32> into tensor<16384xf32>
    %inserted_slice_909 = tensor.insert_slice %arg3 into %inserted_slice_908[14512] [16] [1] : tensor<16xf32> into tensor<16384xf32>
    %inserted_slice_910 = tensor.insert_slice %arg3 into %inserted_slice_909[14528] [16] [1] : tensor<16xf32> into tensor<16384xf32>
    %inserted_slice_911 = tensor.insert_slice %arg3 into %inserted_slice_910[14544] [16] [1] : tensor<16xf32> into tensor<16384xf32>
    %inserted_slice_912 = tensor.insert_slice %arg3 into %inserted_slice_911[14560] [16] [1] : tensor<16xf32> into tensor<16384xf32>
    %inserted_slice_913 = tensor.insert_slice %arg3 into %inserted_slice_912[14576] [16] [1] : tensor<16xf32> into tensor<16384xf32>
    %inserted_slice_914 = tensor.insert_slice %arg3 into %inserted_slice_913[14592] [16] [1] : tensor<16xf32> into tensor<16384xf32>
    %inserted_slice_915 = tensor.insert_slice %arg3 into %inserted_slice_914[14608] [16] [1] : tensor<16xf32> into tensor<16384xf32>
    %inserted_slice_916 = tensor.insert_slice %arg3 into %inserted_slice_915[14624] [16] [1] : tensor<16xf32> into tensor<16384xf32>
    %inserted_slice_917 = tensor.insert_slice %arg3 into %inserted_slice_916[14640] [16] [1] : tensor<16xf32> into tensor<16384xf32>
    %inserted_slice_918 = tensor.insert_slice %arg3 into %inserted_slice_917[14656] [16] [1] : tensor<16xf32> into tensor<16384xf32>
    %inserted_slice_919 = tensor.insert_slice %arg3 into %inserted_slice_918[14672] [16] [1] : tensor<16xf32> into tensor<16384xf32>
    %inserted_slice_920 = tensor.insert_slice %arg3 into %inserted_slice_919[14688] [16] [1] : tensor<16xf32> into tensor<16384xf32>
    %inserted_slice_921 = tensor.insert_slice %arg3 into %inserted_slice_920[14704] [16] [1] : tensor<16xf32> into tensor<16384xf32>
    %inserted_slice_922 = tensor.insert_slice %arg3 into %inserted_slice_921[14720] [16] [1] : tensor<16xf32> into tensor<16384xf32>
    %inserted_slice_923 = tensor.insert_slice %arg3 into %inserted_slice_922[14736] [16] [1] : tensor<16xf32> into tensor<16384xf32>
    %inserted_slice_924 = tensor.insert_slice %arg3 into %inserted_slice_923[14752] [16] [1] : tensor<16xf32> into tensor<16384xf32>
    %inserted_slice_925 = tensor.insert_slice %arg3 into %inserted_slice_924[14768] [16] [1] : tensor<16xf32> into tensor<16384xf32>
    %inserted_slice_926 = tensor.insert_slice %arg3 into %inserted_slice_925[14784] [16] [1] : tensor<16xf32> into tensor<16384xf32>
    %inserted_slice_927 = tensor.insert_slice %arg3 into %inserted_slice_926[14800] [16] [1] : tensor<16xf32> into tensor<16384xf32>
    %inserted_slice_928 = tensor.insert_slice %arg3 into %inserted_slice_927[14816] [16] [1] : tensor<16xf32> into tensor<16384xf32>
    %inserted_slice_929 = tensor.insert_slice %arg3 into %inserted_slice_928[14832] [16] [1] : tensor<16xf32> into tensor<16384xf32>
    %inserted_slice_930 = tensor.insert_slice %arg3 into %inserted_slice_929[14848] [16] [1] : tensor<16xf32> into tensor<16384xf32>
    %inserted_slice_931 = tensor.insert_slice %arg3 into %inserted_slice_930[14864] [16] [1] : tensor<16xf32> into tensor<16384xf32>
    %inserted_slice_932 = tensor.insert_slice %arg3 into %inserted_slice_931[14880] [16] [1] : tensor<16xf32> into tensor<16384xf32>
    %inserted_slice_933 = tensor.insert_slice %arg3 into %inserted_slice_932[14896] [16] [1] : tensor<16xf32> into tensor<16384xf32>
    %inserted_slice_934 = tensor.insert_slice %arg3 into %inserted_slice_933[14912] [16] [1] : tensor<16xf32> into tensor<16384xf32>
    %inserted_slice_935 = tensor.insert_slice %arg3 into %inserted_slice_934[14928] [16] [1] : tensor<16xf32> into tensor<16384xf32>
    %inserted_slice_936 = tensor.insert_slice %arg3 into %inserted_slice_935[14944] [16] [1] : tensor<16xf32> into tensor<16384xf32>
    %inserted_slice_937 = tensor.insert_slice %arg3 into %inserted_slice_936[14960] [16] [1] : tensor<16xf32> into tensor<16384xf32>
    %inserted_slice_938 = tensor.insert_slice %arg3 into %inserted_slice_937[14976] [16] [1] : tensor<16xf32> into tensor<16384xf32>
    %inserted_slice_939 = tensor.insert_slice %arg3 into %inserted_slice_938[14992] [16] [1] : tensor<16xf32> into tensor<16384xf32>
    %inserted_slice_940 = tensor.insert_slice %arg3 into %inserted_slice_939[15008] [16] [1] : tensor<16xf32> into tensor<16384xf32>
    %inserted_slice_941 = tensor.insert_slice %arg3 into %inserted_slice_940[15024] [16] [1] : tensor<16xf32> into tensor<16384xf32>
    %inserted_slice_942 = tensor.insert_slice %arg3 into %inserted_slice_941[15040] [16] [1] : tensor<16xf32> into tensor<16384xf32>
    %inserted_slice_943 = tensor.insert_slice %arg3 into %inserted_slice_942[15056] [16] [1] : tensor<16xf32> into tensor<16384xf32>
    %inserted_slice_944 = tensor.insert_slice %arg3 into %inserted_slice_943[15072] [16] [1] : tensor<16xf32> into tensor<16384xf32>
    %inserted_slice_945 = tensor.insert_slice %arg3 into %inserted_slice_944[15088] [16] [1] : tensor<16xf32> into tensor<16384xf32>
    %inserted_slice_946 = tensor.insert_slice %arg3 into %inserted_slice_945[15104] [16] [1] : tensor<16xf32> into tensor<16384xf32>
    %inserted_slice_947 = tensor.insert_slice %arg3 into %inserted_slice_946[15120] [16] [1] : tensor<16xf32> into tensor<16384xf32>
    %inserted_slice_948 = tensor.insert_slice %arg3 into %inserted_slice_947[15136] [16] [1] : tensor<16xf32> into tensor<16384xf32>
    %inserted_slice_949 = tensor.insert_slice %arg3 into %inserted_slice_948[15152] [16] [1] : tensor<16xf32> into tensor<16384xf32>
    %inserted_slice_950 = tensor.insert_slice %arg3 into %inserted_slice_949[15168] [16] [1] : tensor<16xf32> into tensor<16384xf32>
    %inserted_slice_951 = tensor.insert_slice %arg3 into %inserted_slice_950[15184] [16] [1] : tensor<16xf32> into tensor<16384xf32>
    %inserted_slice_952 = tensor.insert_slice %arg3 into %inserted_slice_951[15200] [16] [1] : tensor<16xf32> into tensor<16384xf32>
    %inserted_slice_953 = tensor.insert_slice %arg3 into %inserted_slice_952[15216] [16] [1] : tensor<16xf32> into tensor<16384xf32>
    %inserted_slice_954 = tensor.insert_slice %arg3 into %inserted_slice_953[15232] [16] [1] : tensor<16xf32> into tensor<16384xf32>
    %inserted_slice_955 = tensor.insert_slice %arg3 into %inserted_slice_954[15248] [16] [1] : tensor<16xf32> into tensor<16384xf32>
    %inserted_slice_956 = tensor.insert_slice %arg3 into %inserted_slice_955[15264] [16] [1] : tensor<16xf32> into tensor<16384xf32>
    %inserted_slice_957 = tensor.insert_slice %arg3 into %inserted_slice_956[15280] [16] [1] : tensor<16xf32> into tensor<16384xf32>
    %inserted_slice_958 = tensor.insert_slice %arg3 into %inserted_slice_957[15296] [16] [1] : tensor<16xf32> into tensor<16384xf32>
    %inserted_slice_959 = tensor.insert_slice %arg3 into %inserted_slice_958[15312] [16] [1] : tensor<16xf32> into tensor<16384xf32>
    %inserted_slice_960 = tensor.insert_slice %arg3 into %inserted_slice_959[15328] [16] [1] : tensor<16xf32> into tensor<16384xf32>
    %inserted_slice_961 = tensor.insert_slice %arg3 into %inserted_slice_960[15344] [16] [1] : tensor<16xf32> into tensor<16384xf32>
    %inserted_slice_962 = tensor.insert_slice %arg3 into %inserted_slice_961[15360] [16] [1] : tensor<16xf32> into tensor<16384xf32>
    %inserted_slice_963 = tensor.insert_slice %arg3 into %inserted_slice_962[15376] [16] [1] : tensor<16xf32> into tensor<16384xf32>
    %inserted_slice_964 = tensor.insert_slice %arg3 into %inserted_slice_963[15392] [16] [1] : tensor<16xf32> into tensor<16384xf32>
    %inserted_slice_965 = tensor.insert_slice %arg3 into %inserted_slice_964[15408] [16] [1] : tensor<16xf32> into tensor<16384xf32>
    %inserted_slice_966 = tensor.insert_slice %arg3 into %inserted_slice_965[15424] [16] [1] : tensor<16xf32> into tensor<16384xf32>
    %inserted_slice_967 = tensor.insert_slice %arg3 into %inserted_slice_966[15440] [16] [1] : tensor<16xf32> into tensor<16384xf32>
    %inserted_slice_968 = tensor.insert_slice %arg3 into %inserted_slice_967[15456] [16] [1] : tensor<16xf32> into tensor<16384xf32>
    %inserted_slice_969 = tensor.insert_slice %arg3 into %inserted_slice_968[15472] [16] [1] : tensor<16xf32> into tensor<16384xf32>
    %inserted_slice_970 = tensor.insert_slice %arg3 into %inserted_slice_969[15488] [16] [1] : tensor<16xf32> into tensor<16384xf32>
    %inserted_slice_971 = tensor.insert_slice %arg3 into %inserted_slice_970[15504] [16] [1] : tensor<16xf32> into tensor<16384xf32>
    %inserted_slice_972 = tensor.insert_slice %arg3 into %inserted_slice_971[15520] [16] [1] : tensor<16xf32> into tensor<16384xf32>
    %inserted_slice_973 = tensor.insert_slice %arg3 into %inserted_slice_972[15536] [16] [1] : tensor<16xf32> into tensor<16384xf32>
    %inserted_slice_974 = tensor.insert_slice %arg3 into %inserted_slice_973[15552] [16] [1] : tensor<16xf32> into tensor<16384xf32>
    %inserted_slice_975 = tensor.insert_slice %arg3 into %inserted_slice_974[15568] [16] [1] : tensor<16xf32> into tensor<16384xf32>
    %inserted_slice_976 = tensor.insert_slice %arg3 into %inserted_slice_975[15584] [16] [1] : tensor<16xf32> into tensor<16384xf32>
    %inserted_slice_977 = tensor.insert_slice %arg3 into %inserted_slice_976[15600] [16] [1] : tensor<16xf32> into tensor<16384xf32>
    %inserted_slice_978 = tensor.insert_slice %arg3 into %inserted_slice_977[15616] [16] [1] : tensor<16xf32> into tensor<16384xf32>
    %inserted_slice_979 = tensor.insert_slice %arg3 into %inserted_slice_978[15632] [16] [1] : tensor<16xf32> into tensor<16384xf32>
    %inserted_slice_980 = tensor.insert_slice %arg3 into %inserted_slice_979[15648] [16] [1] : tensor<16xf32> into tensor<16384xf32>
    %inserted_slice_981 = tensor.insert_slice %arg3 into %inserted_slice_980[15664] [16] [1] : tensor<16xf32> into tensor<16384xf32>
    %inserted_slice_982 = tensor.insert_slice %arg3 into %inserted_slice_981[15680] [16] [1] : tensor<16xf32> into tensor<16384xf32>
    %inserted_slice_983 = tensor.insert_slice %arg3 into %inserted_slice_982[15696] [16] [1] : tensor<16xf32> into tensor<16384xf32>
    %inserted_slice_984 = tensor.insert_slice %arg3 into %inserted_slice_983[15712] [16] [1] : tensor<16xf32> into tensor<16384xf32>
    %inserted_slice_985 = tensor.insert_slice %arg3 into %inserted_slice_984[15728] [16] [1] : tensor<16xf32> into tensor<16384xf32>
    %inserted_slice_986 = tensor.insert_slice %arg3 into %inserted_slice_985[15744] [16] [1] : tensor<16xf32> into tensor<16384xf32>
    %inserted_slice_987 = tensor.insert_slice %arg3 into %inserted_slice_986[15760] [16] [1] : tensor<16xf32> into tensor<16384xf32>
    %inserted_slice_988 = tensor.insert_slice %arg3 into %inserted_slice_987[15776] [16] [1] : tensor<16xf32> into tensor<16384xf32>
    %inserted_slice_989 = tensor.insert_slice %arg3 into %inserted_slice_988[15792] [16] [1] : tensor<16xf32> into tensor<16384xf32>
    %inserted_slice_990 = tensor.insert_slice %arg3 into %inserted_slice_989[15808] [16] [1] : tensor<16xf32> into tensor<16384xf32>
    %inserted_slice_991 = tensor.insert_slice %arg3 into %inserted_slice_990[15824] [16] [1] : tensor<16xf32> into tensor<16384xf32>
    %inserted_slice_992 = tensor.insert_slice %arg3 into %inserted_slice_991[15840] [16] [1] : tensor<16xf32> into tensor<16384xf32>
    %inserted_slice_993 = tensor.insert_slice %arg3 into %inserted_slice_992[15856] [16] [1] : tensor<16xf32> into tensor<16384xf32>
    %inserted_slice_994 = tensor.insert_slice %arg3 into %inserted_slice_993[15872] [16] [1] : tensor<16xf32> into tensor<16384xf32>
    %inserted_slice_995 = tensor.insert_slice %arg3 into %inserted_slice_994[15888] [16] [1] : tensor<16xf32> into tensor<16384xf32>
    %inserted_slice_996 = tensor.insert_slice %arg3 into %inserted_slice_995[15904] [16] [1] : tensor<16xf32> into tensor<16384xf32>
    %inserted_slice_997 = tensor.insert_slice %arg3 into %inserted_slice_996[15920] [16] [1] : tensor<16xf32> into tensor<16384xf32>
    %inserted_slice_998 = tensor.insert_slice %arg3 into %inserted_slice_997[15936] [16] [1] : tensor<16xf32> into tensor<16384xf32>
    %inserted_slice_999 = tensor.insert_slice %arg3 into %inserted_slice_998[15952] [16] [1] : tensor<16xf32> into tensor<16384xf32>
    %inserted_slice_1000 = tensor.insert_slice %arg3 into %inserted_slice_999[15968] [16] [1] : tensor<16xf32> into tensor<16384xf32>
    %inserted_slice_1001 = tensor.insert_slice %arg3 into %inserted_slice_1000[15984] [16] [1] : tensor<16xf32> into tensor<16384xf32>
    %inserted_slice_1002 = tensor.insert_slice %arg3 into %inserted_slice_1001[16000] [16] [1] : tensor<16xf32> into tensor<16384xf32>
    %inserted_slice_1003 = tensor.insert_slice %arg3 into %inserted_slice_1002[16016] [16] [1] : tensor<16xf32> into tensor<16384xf32>
    %inserted_slice_1004 = tensor.insert_slice %arg3 into %inserted_slice_1003[16032] [16] [1] : tensor<16xf32> into tensor<16384xf32>
    %inserted_slice_1005 = tensor.insert_slice %arg3 into %inserted_slice_1004[16048] [16] [1] : tensor<16xf32> into tensor<16384xf32>
    %inserted_slice_1006 = tensor.insert_slice %arg3 into %inserted_slice_1005[16064] [16] [1] : tensor<16xf32> into tensor<16384xf32>
    %inserted_slice_1007 = tensor.insert_slice %arg3 into %inserted_slice_1006[16080] [16] [1] : tensor<16xf32> into tensor<16384xf32>
    %inserted_slice_1008 = tensor.insert_slice %arg3 into %inserted_slice_1007[16096] [16] [1] : tensor<16xf32> into tensor<16384xf32>
    %inserted_slice_1009 = tensor.insert_slice %arg3 into %inserted_slice_1008[16112] [16] [1] : tensor<16xf32> into tensor<16384xf32>
    %inserted_slice_1010 = tensor.insert_slice %arg3 into %inserted_slice_1009[16128] [16] [1] : tensor<16xf32> into tensor<16384xf32>
    %inserted_slice_1011 = tensor.insert_slice %arg3 into %inserted_slice_1010[16144] [16] [1] : tensor<16xf32> into tensor<16384xf32>
    %inserted_slice_1012 = tensor.insert_slice %arg3 into %inserted_slice_1011[16160] [16] [1] : tensor<16xf32> into tensor<16384xf32>
    %inserted_slice_1013 = tensor.insert_slice %arg3 into %inserted_slice_1012[16176] [16] [1] : tensor<16xf32> into tensor<16384xf32>
    %inserted_slice_1014 = tensor.insert_slice %arg3 into %inserted_slice_1013[16192] [16] [1] : tensor<16xf32> into tensor<16384xf32>
    %inserted_slice_1015 = tensor.insert_slice %arg3 into %inserted_slice_1014[16208] [16] [1] : tensor<16xf32> into tensor<16384xf32>
    %inserted_slice_1016 = tensor.insert_slice %arg3 into %inserted_slice_1015[16224] [16] [1] : tensor<16xf32> into tensor<16384xf32>
    %inserted_slice_1017 = tensor.insert_slice %arg3 into %inserted_slice_1016[16240] [16] [1] : tensor<16xf32> into tensor<16384xf32>
    %inserted_slice_1018 = tensor.insert_slice %arg3 into %inserted_slice_1017[16256] [16] [1] : tensor<16xf32> into tensor<16384xf32>
    %inserted_slice_1019 = tensor.insert_slice %arg3 into %inserted_slice_1018[16272] [16] [1] : tensor<16xf32> into tensor<16384xf32>
    %inserted_slice_1020 = tensor.insert_slice %arg3 into %inserted_slice_1019[16288] [16] [1] : tensor<16xf32> into tensor<16384xf32>
    %inserted_slice_1021 = tensor.insert_slice %arg3 into %inserted_slice_1020[16304] [16] [1] : tensor<16xf32> into tensor<16384xf32>
    %inserted_slice_1022 = tensor.insert_slice %arg3 into %inserted_slice_1021[16320] [16] [1] : tensor<16xf32> into tensor<16384xf32>
    %inserted_slice_1023 = tensor.insert_slice %arg3 into %inserted_slice_1022[16336] [16] [1] : tensor<16xf32> into tensor<16384xf32>
    %inserted_slice_1024 = tensor.insert_slice %arg3 into %inserted_slice_1023[16352] [16] [1] : tensor<16xf32> into tensor<16384xf32>
    %inserted_slice_1025 = tensor.insert_slice %arg3 into %inserted_slice_1024[16368] [16] [1] : tensor<16xf32> into tensor<16384xf32>
    %inserted_slice_1026 = tensor.insert_slice %arg2 into %inserted_slice_2[32] [16] [1] : tensor<16xf32> into tensor<16384xf32>
    %inserted_slice_1027 = tensor.insert_slice %arg2 into %inserted_slice_1026[48] [16] [1] : tensor<16xf32> into tensor<16384xf32>
    %inserted_slice_1028 = tensor.insert_slice %arg2 into %inserted_slice_1027[64] [16] [1] : tensor<16xf32> into tensor<16384xf32>
    %inserted_slice_1029 = tensor.insert_slice %arg2 into %inserted_slice_1028[80] [16] [1] : tensor<16xf32> into tensor<16384xf32>
    %inserted_slice_1030 = tensor.insert_slice %arg2 into %inserted_slice_1029[96] [16] [1] : tensor<16xf32> into tensor<16384xf32>
    %inserted_slice_1031 = tensor.insert_slice %arg2 into %inserted_slice_1030[112] [16] [1] : tensor<16xf32> into tensor<16384xf32>
    %inserted_slice_1032 = tensor.insert_slice %arg2 into %inserted_slice_1031[128] [16] [1] : tensor<16xf32> into tensor<16384xf32>
    %inserted_slice_1033 = tensor.insert_slice %arg2 into %inserted_slice_1032[144] [16] [1] : tensor<16xf32> into tensor<16384xf32>
    %inserted_slice_1034 = tensor.insert_slice %arg2 into %inserted_slice_1033[160] [16] [1] : tensor<16xf32> into tensor<16384xf32>
    %inserted_slice_1035 = tensor.insert_slice %arg2 into %inserted_slice_1034[176] [16] [1] : tensor<16xf32> into tensor<16384xf32>
    %inserted_slice_1036 = tensor.insert_slice %arg2 into %inserted_slice_1035[192] [16] [1] : tensor<16xf32> into tensor<16384xf32>
    %inserted_slice_1037 = tensor.insert_slice %arg2 into %inserted_slice_1036[208] [16] [1] : tensor<16xf32> into tensor<16384xf32>
    %inserted_slice_1038 = tensor.insert_slice %arg2 into %inserted_slice_1037[224] [16] [1] : tensor<16xf32> into tensor<16384xf32>
    %inserted_slice_1039 = tensor.insert_slice %arg2 into %inserted_slice_1038[240] [16] [1] : tensor<16xf32> into tensor<16384xf32>
    %inserted_slice_1040 = tensor.insert_slice %arg2 into %inserted_slice_1039[256] [16] [1] : tensor<16xf32> into tensor<16384xf32>
    %inserted_slice_1041 = tensor.insert_slice %arg2 into %inserted_slice_1040[272] [16] [1] : tensor<16xf32> into tensor<16384xf32>
    %inserted_slice_1042 = tensor.insert_slice %arg2 into %inserted_slice_1041[288] [16] [1] : tensor<16xf32> into tensor<16384xf32>
    %inserted_slice_1043 = tensor.insert_slice %arg2 into %inserted_slice_1042[304] [16] [1] : tensor<16xf32> into tensor<16384xf32>
    %inserted_slice_1044 = tensor.insert_slice %arg2 into %inserted_slice_1043[320] [16] [1] : tensor<16xf32> into tensor<16384xf32>
    %inserted_slice_1045 = tensor.insert_slice %arg2 into %inserted_slice_1044[336] [16] [1] : tensor<16xf32> into tensor<16384xf32>
    %inserted_slice_1046 = tensor.insert_slice %arg2 into %inserted_slice_1045[352] [16] [1] : tensor<16xf32> into tensor<16384xf32>
    %inserted_slice_1047 = tensor.insert_slice %arg2 into %inserted_slice_1046[368] [16] [1] : tensor<16xf32> into tensor<16384xf32>
    %inserted_slice_1048 = tensor.insert_slice %arg2 into %inserted_slice_1047[384] [16] [1] : tensor<16xf32> into tensor<16384xf32>
    %inserted_slice_1049 = tensor.insert_slice %arg2 into %inserted_slice_1048[400] [16] [1] : tensor<16xf32> into tensor<16384xf32>
    %inserted_slice_1050 = tensor.insert_slice %arg2 into %inserted_slice_1049[416] [16] [1] : tensor<16xf32> into tensor<16384xf32>
    %inserted_slice_1051 = tensor.insert_slice %arg2 into %inserted_slice_1050[432] [16] [1] : tensor<16xf32> into tensor<16384xf32>
    %inserted_slice_1052 = tensor.insert_slice %arg2 into %inserted_slice_1051[448] [16] [1] : tensor<16xf32> into tensor<16384xf32>
    %inserted_slice_1053 = tensor.insert_slice %arg2 into %inserted_slice_1052[464] [16] [1] : tensor<16xf32> into tensor<16384xf32>
    %inserted_slice_1054 = tensor.insert_slice %arg2 into %inserted_slice_1053[480] [16] [1] : tensor<16xf32> into tensor<16384xf32>
    %inserted_slice_1055 = tensor.insert_slice %arg2 into %inserted_slice_1054[496] [16] [1] : tensor<16xf32> into tensor<16384xf32>
    %inserted_slice_1056 = tensor.insert_slice %arg2 into %inserted_slice_1055[512] [16] [1] : tensor<16xf32> into tensor<16384xf32>
    %inserted_slice_1057 = tensor.insert_slice %arg2 into %inserted_slice_1056[528] [16] [1] : tensor<16xf32> into tensor<16384xf32>
    %inserted_slice_1058 = tensor.insert_slice %arg2 into %inserted_slice_1057[544] [16] [1] : tensor<16xf32> into tensor<16384xf32>
    %inserted_slice_1059 = tensor.insert_slice %arg2 into %inserted_slice_1058[560] [16] [1] : tensor<16xf32> into tensor<16384xf32>
    %inserted_slice_1060 = tensor.insert_slice %arg2 into %inserted_slice_1059[576] [16] [1] : tensor<16xf32> into tensor<16384xf32>
    %inserted_slice_1061 = tensor.insert_slice %arg2 into %inserted_slice_1060[592] [16] [1] : tensor<16xf32> into tensor<16384xf32>
    %inserted_slice_1062 = tensor.insert_slice %arg2 into %inserted_slice_1061[608] [16] [1] : tensor<16xf32> into tensor<16384xf32>
    %inserted_slice_1063 = tensor.insert_slice %arg2 into %inserted_slice_1062[624] [16] [1] : tensor<16xf32> into tensor<16384xf32>
    %inserted_slice_1064 = tensor.insert_slice %arg2 into %inserted_slice_1063[640] [16] [1] : tensor<16xf32> into tensor<16384xf32>
    %inserted_slice_1065 = tensor.insert_slice %arg2 into %inserted_slice_1064[656] [16] [1] : tensor<16xf32> into tensor<16384xf32>
    %inserted_slice_1066 = tensor.insert_slice %arg2 into %inserted_slice_1065[672] [16] [1] : tensor<16xf32> into tensor<16384xf32>
    %inserted_slice_1067 = tensor.insert_slice %arg2 into %inserted_slice_1066[688] [16] [1] : tensor<16xf32> into tensor<16384xf32>
    %inserted_slice_1068 = tensor.insert_slice %arg2 into %inserted_slice_1067[704] [16] [1] : tensor<16xf32> into tensor<16384xf32>
    %inserted_slice_1069 = tensor.insert_slice %arg2 into %inserted_slice_1068[720] [16] [1] : tensor<16xf32> into tensor<16384xf32>
    %inserted_slice_1070 = tensor.insert_slice %arg2 into %inserted_slice_1069[736] [16] [1] : tensor<16xf32> into tensor<16384xf32>
    %inserted_slice_1071 = tensor.insert_slice %arg2 into %inserted_slice_1070[752] [16] [1] : tensor<16xf32> into tensor<16384xf32>
    %inserted_slice_1072 = tensor.insert_slice %arg2 into %inserted_slice_1071[768] [16] [1] : tensor<16xf32> into tensor<16384xf32>
    %inserted_slice_1073 = tensor.insert_slice %arg2 into %inserted_slice_1072[784] [16] [1] : tensor<16xf32> into tensor<16384xf32>
    %inserted_slice_1074 = tensor.insert_slice %arg2 into %inserted_slice_1073[800] [16] [1] : tensor<16xf32> into tensor<16384xf32>
    %inserted_slice_1075 = tensor.insert_slice %arg2 into %inserted_slice_1074[816] [16] [1] : tensor<16xf32> into tensor<16384xf32>
    %inserted_slice_1076 = tensor.insert_slice %arg2 into %inserted_slice_1075[832] [16] [1] : tensor<16xf32> into tensor<16384xf32>
    %inserted_slice_1077 = tensor.insert_slice %arg2 into %inserted_slice_1076[848] [16] [1] : tensor<16xf32> into tensor<16384xf32>
    %inserted_slice_1078 = tensor.insert_slice %arg2 into %inserted_slice_1077[864] [16] [1] : tensor<16xf32> into tensor<16384xf32>
    %inserted_slice_1079 = tensor.insert_slice %arg2 into %inserted_slice_1078[880] [16] [1] : tensor<16xf32> into tensor<16384xf32>
    %inserted_slice_1080 = tensor.insert_slice %arg2 into %inserted_slice_1079[896] [16] [1] : tensor<16xf32> into tensor<16384xf32>
    %inserted_slice_1081 = tensor.insert_slice %arg2 into %inserted_slice_1080[912] [16] [1] : tensor<16xf32> into tensor<16384xf32>
    %inserted_slice_1082 = tensor.insert_slice %arg2 into %inserted_slice_1081[928] [16] [1] : tensor<16xf32> into tensor<16384xf32>
    %inserted_slice_1083 = tensor.insert_slice %arg2 into %inserted_slice_1082[944] [16] [1] : tensor<16xf32> into tensor<16384xf32>
    %inserted_slice_1084 = tensor.insert_slice %arg2 into %inserted_slice_1083[960] [16] [1] : tensor<16xf32> into tensor<16384xf32>
    %inserted_slice_1085 = tensor.insert_slice %arg2 into %inserted_slice_1084[976] [16] [1] : tensor<16xf32> into tensor<16384xf32>
    %inserted_slice_1086 = tensor.insert_slice %arg2 into %inserted_slice_1085[992] [16] [1] : tensor<16xf32> into tensor<16384xf32>
    %inserted_slice_1087 = tensor.insert_slice %arg2 into %inserted_slice_1086[1008] [16] [1] : tensor<16xf32> into tensor<16384xf32>
    %inserted_slice_1088 = tensor.insert_slice %arg2 into %inserted_slice_1087[1024] [16] [1] : tensor<16xf32> into tensor<16384xf32>
    %inserted_slice_1089 = tensor.insert_slice %arg2 into %inserted_slice_1088[1040] [16] [1] : tensor<16xf32> into tensor<16384xf32>
    %inserted_slice_1090 = tensor.insert_slice %arg2 into %inserted_slice_1089[1056] [16] [1] : tensor<16xf32> into tensor<16384xf32>
    %inserted_slice_1091 = tensor.insert_slice %arg2 into %inserted_slice_1090[1072] [16] [1] : tensor<16xf32> into tensor<16384xf32>
    %inserted_slice_1092 = tensor.insert_slice %arg2 into %inserted_slice_1091[1088] [16] [1] : tensor<16xf32> into tensor<16384xf32>
    %inserted_slice_1093 = tensor.insert_slice %arg2 into %inserted_slice_1092[1104] [16] [1] : tensor<16xf32> into tensor<16384xf32>
    %inserted_slice_1094 = tensor.insert_slice %arg2 into %inserted_slice_1093[1120] [16] [1] : tensor<16xf32> into tensor<16384xf32>
    %inserted_slice_1095 = tensor.insert_slice %arg2 into %inserted_slice_1094[1136] [16] [1] : tensor<16xf32> into tensor<16384xf32>
    %inserted_slice_1096 = tensor.insert_slice %arg2 into %inserted_slice_1095[1152] [16] [1] : tensor<16xf32> into tensor<16384xf32>
    %inserted_slice_1097 = tensor.insert_slice %arg2 into %inserted_slice_1096[1168] [16] [1] : tensor<16xf32> into tensor<16384xf32>
    %inserted_slice_1098 = tensor.insert_slice %arg2 into %inserted_slice_1097[1184] [16] [1] : tensor<16xf32> into tensor<16384xf32>
    %inserted_slice_1099 = tensor.insert_slice %arg2 into %inserted_slice_1098[1200] [16] [1] : tensor<16xf32> into tensor<16384xf32>
    %inserted_slice_1100 = tensor.insert_slice %arg2 into %inserted_slice_1099[1216] [16] [1] : tensor<16xf32> into tensor<16384xf32>
    %inserted_slice_1101 = tensor.insert_slice %arg2 into %inserted_slice_1100[1232] [16] [1] : tensor<16xf32> into tensor<16384xf32>
    %inserted_slice_1102 = tensor.insert_slice %arg2 into %inserted_slice_1101[1248] [16] [1] : tensor<16xf32> into tensor<16384xf32>
    %inserted_slice_1103 = tensor.insert_slice %arg2 into %inserted_slice_1102[1264] [16] [1] : tensor<16xf32> into tensor<16384xf32>
    %inserted_slice_1104 = tensor.insert_slice %arg2 into %inserted_slice_1103[1280] [16] [1] : tensor<16xf32> into tensor<16384xf32>
    %inserted_slice_1105 = tensor.insert_slice %arg2 into %inserted_slice_1104[1296] [16] [1] : tensor<16xf32> into tensor<16384xf32>
    %inserted_slice_1106 = tensor.insert_slice %arg2 into %inserted_slice_1105[1312] [16] [1] : tensor<16xf32> into tensor<16384xf32>
    %inserted_slice_1107 = tensor.insert_slice %arg2 into %inserted_slice_1106[1328] [16] [1] : tensor<16xf32> into tensor<16384xf32>
    %inserted_slice_1108 = tensor.insert_slice %arg2 into %inserted_slice_1107[1344] [16] [1] : tensor<16xf32> into tensor<16384xf32>
    %inserted_slice_1109 = tensor.insert_slice %arg2 into %inserted_slice_1108[1360] [16] [1] : tensor<16xf32> into tensor<16384xf32>
    %inserted_slice_1110 = tensor.insert_slice %arg2 into %inserted_slice_1109[1376] [16] [1] : tensor<16xf32> into tensor<16384xf32>
…
    %inserted_slice_3943 = tensor.insert_slice %arg0 into %inserted_slice_3942[13952] [16] [1] : tensor<16xf32> into tensor<16384xf32>
    %inserted_slice_3944 = tensor.insert_slice %arg0 into %inserted_slice_3943[13968] [16] [1] : tensor<16xf32> into tensor<16384xf32>
    %inserted_slice_3945 = tensor.insert_slice %arg0 into %inserted_slice_3944[13984] [16] [1] : tensor<16xf32> into tensor<16384xf32>
    %inserted_slice_3946 = tensor.insert_slice %arg0 into %inserted_slice_3945[14000] [16] [1] : tensor<16xf32> into tensor<16384xf32>
    %inserted_slice_3947 = tensor.insert_slice %arg0 into %inserted_slice_3946[14016] [16] [1] : tensor<16xf32> into tensor<16384xf32>
    %inserted_slice_3948 = tensor.insert_slice %arg0 into %inserted_slice_3947[14032] [16] [1] : tensor<16xf32> into tensor<16384xf32>
    %inserted_slice_3949 = tensor.insert_slice %arg0 into %inserted_slice_3948[14048] [16] [1] : tensor<16xf32> into tensor<16384xf32>
    %inserted_slice_3950 = tensor.insert_slice %arg0 into %inserted_slice_3949[14064] [16] [1] : tensor<16xf32> into tensor<16384xf32>
    %inserted_slice_3951 = tensor.insert_slice %arg0 into %inserted_slice_3950[14080] [16] [1] : tensor<16xf32> into tensor<16384xf32>
    %inserted_slice_3952 = tensor.insert_slice %arg0 into %inserted_slice_3951[14096] [16] [1] : tensor<16xf32> into tensor<16384xf32>
    %inserted_slice_3953 = tensor.insert_slice %arg0 into %inserted_slice_3952[14112] [16] [1] : tensor<16xf32> into tensor<16384xf32>
    %inserted_slice_3954 = tensor.insert_slice %arg0 into %inserted_slice_3953[14128] [16] [1] : tensor<16xf32> into tensor<16384xf32>
    %inserted_slice_3955 = tensor.insert_slice %arg0 into %inserted_slice_3954[14144] [16] [1] : tensor<16xf32> into tensor<16384xf32>
    %inserted_slice_3956 = tensor.insert_slice %arg0 into %inserted_slice_3955[14160] [16] [1] : tensor<16xf32> into tensor<16384xf32>
    %inserted_slice_3957 = tensor.insert_slice %arg0 into %inserted_slice_3956[14176] [16] [1] : tensor<16xf32> into tensor<16384xf32>
    %inserted_slice_3958 = tensor.insert_slice %arg0 into %inserted_slice_3957[14192] [16] [1] : tensor<16xf32> into tensor<16384xf32>
    %inserted_slice_3959 = tensor.insert_slice %arg0 into %inserted_slice_3958[14208] [16] [1] : tensor<16xf32> into tensor<16384xf32>
    %inserted_slice_3960 = tensor.insert_slice %arg0 into %inserted_slice_3959[14224] [16] [1] : tensor<16xf32> into tensor<16384xf32>
    %inserted_slice_3961 = tensor.insert_slice %arg0 into %inserted_slice_3960[14240] [16] [1] : tensor<16xf32> into tensor<16384xf32>
    %inserted_slice_3962 = tensor.insert_slice %arg0 into %inserted_slice_3961[14256] [16] [1] : tensor<16xf32> into tensor<16384xf32>
    %inserted_slice_3963 = tensor.insert_slice %arg0 into %inserted_slice_3962[14272] [16] [1] : tensor<16xf32> into tensor<16384xf32>
    %inserted_slice_3964 = tensor.insert_slice %arg0 into %inserted_slice_3963[14288] [16] [1] : tensor<16xf32> into tensor<16384xf32>
    %inserted_slice_3965 = tensor.insert_slice %arg0 into %inserted_slice_3964[14304] [16] [1] : tensor<16xf32> into tensor<16384xf32>
    %inserted_slice_3966 = tensor.insert_slice %arg0 into %inserted_slice_3965[14320] [16] [1] : tensor<16xf32> into tensor<16384xf32>
    %inserted_slice_3967 = tensor.insert_slice %arg0 into %inserted_slice_3966[14336] [16] [1] : tensor<16xf32> into tensor<16384xf32>
    %inserted_slice_3968 = tensor.insert_slice %arg0 into %inserted_slice_3967[14352] [16] [1] : tensor<16xf32> into tensor<16384xf32>
    %inserted_slice_3969 = tensor.insert_slice %arg0 into %inserted_slice_3968[14368] [16] [1] : tensor<16xf32> into tensor<16384xf32>
    %inserted_slice_3970 = tensor.insert_slice %arg0 into %inserted_slice_3969[14384] [16] [1] : tensor<16xf32> into tensor<16384xf32>
    %inserted_slice_3971 = tensor.insert_slice %arg0 into %inserted_slice_3970[14400] [16] [1] : tensor<16xf32> into tensor<16384xf32>
    %inserted_slice_3972 = tensor.insert_slice %arg0 into %inserted_slice_3971[14416] [16] [1] : tensor<16xf32> into tensor<16384xf32>
    %inserted_slice_3973 = tensor.insert_slice %arg0 into %inserted_slice_3972[14432] [16] [1] : tensor<16xf32> into tensor<16384xf32>
    %inserted_slice_3974 = tensor.insert_slice %arg0 into %inserted_slice_3973[14448] [16] [1] : tensor<16xf32> into tensor<16384xf32>
    %inserted_slice_3975 = tensor.insert_slice %arg0 into %inserted_slice_3974[14464] [16] [1] : tensor<16xf32> into tensor<16384xf32>
    %inserted_slice_3976 = tensor.insert_slice %arg0 into %inserted_slice_3975[14480] [16] [1] : tensor<16xf32> into tensor<16384xf32>
    %inserted_slice_3977 = tensor.insert_slice %arg0 into %inserted_slice_3976[14496] [16] [1] : tensor<16xf32> into tensor<16384xf32>
    %inserted_slice_3978 = tensor.insert_slice %arg0 into %inserted_slice_3977[14512] [16] [1] : tensor<16xf32> into tensor<16384xf32>
    %inserted_slice_3979 = tensor.insert_slice %arg0 into %inserted_slice_3978[14528] [16] [1] : tensor<16xf32> into tensor<16384xf32>
    %inserted_slice_3980 = tensor.insert_slice %arg0 into %inserted_slice_3979[14544] [16] [1] : tensor<16xf32> into tensor<16384xf32>
    %inserted_slice_3981 = tensor.insert_slice %arg0 into %inserted_slice_3980[14560] [16] [1] : tensor<16xf32> into tensor<16384xf32>
    %inserted_slice_3982 = tensor.insert_slice %arg0 into %inserted_slice_3981[14576] [16] [1] : tensor<16xf32> into tensor<16384xf32>
    %inserted_slice_3983 = tensor.insert_slice %arg0 into %inserted_slice_3982[14592] [16] [1] : tensor<16xf32> into tensor<16384xf32>
    %inserted_slice_3984 = tensor.insert_slice %arg0 into %inserted_slice_3983[14608] [16] [1] : tensor<16xf32> into tensor<16384xf32>
    %inserted_slice_3985 = tensor.insert_slice %arg0 into %inserted_slice_3984[14624] [16] [1] : tensor<16xf32> into tensor<16384xf32>
    %inserted_slice_3986 = tensor.insert_slice %arg0 into %inserted_slice_3985[14640] [16] [1] : tensor<16xf32> into tensor<16384xf32>
    %inserted_slice_3987 = tensor.insert_slice %arg0 into %inserted_slice_3986[14656] [16] [1] : tensor<16xf32> into tensor<16384xf32>
    %inserted_slice_3988 = tensor.insert_slice %arg0 into %inserted_slice_3987[14672] [16] [1] : tensor<16xf32> into tensor<16384xf32>
    %inserted_slice_3989 = tensor.insert_slice %arg0 into %inserted_slice_3988[14688] [16] [1] : tensor<16xf32> into tensor<16384xf32>
    %inserted_slice_3990 = tensor.insert_slice %arg0 into %inserted_slice_3989[14704] [16] [1] : tensor<16xf32> into tensor<16384xf32>
    %inserted_slice_3991 = tensor.insert_slice %arg0 into %inserted_slice_3990[14720] [16] [1] : tensor<16xf32> into tensor<16384xf32>
    %inserted_slice_3992 = tensor.insert_slice %arg0 into %inserted_slice_3991[14736] [16] [1] : tensor<16xf32> into tensor<16384xf32>
    %inserted_slice_3993 = tensor.insert_slice %arg0 into %inserted_slice_3992[14752] [16] [1] : tensor<16xf32> into tensor<16384xf32>
    %inserted_slice_3994 = tensor.insert_slice %arg0 into %inserted_slice_3993[14768] [16] [1] : tensor<16xf32> into tensor<16384xf32>
    %inserted_slice_3995 = tensor.insert_slice %arg0 into %inserted_slice_3994[14784] [16] [1] : tensor<16xf32> into tensor<16384xf32>
    %inserted_slice_3996 = tensor.insert_slice %arg0 into %inserted_slice_3995[14800] [16] [1] : tensor<16xf32> into tensor<16384xf32>
    %inserted_slice_3997 = tensor.insert_slice %arg0 into %inserted_slice_3996[14816] [16] [1] : tensor<16xf32> into tensor<16384xf32>
    %inserted_slice_3998 = tensor.insert_slice %arg0 into %inserted_slice_3997[14832] [16] [1] : tensor<16xf32> into tensor<16384xf32>
    %inserted_slice_3999 = tensor.insert_slice %arg0 into %inserted_slice_3998[14848] [16] [1] : tensor<16xf32> into tensor<16384xf32>
    %inserted_slice_4000 = tensor.insert_slice %arg0 into %inserted_slice_3999[14864] [16] [1] : tensor<16xf32> into tensor<16384xf32>
    %inserted_slice_4001 = tensor.insert_slice %arg0 into %inserted_slice_4000[14880] [16] [1] : tensor<16xf32> into tensor<16384xf32>
    %inserted_slice_4002 = tensor.insert_slice %arg0 into %inserted_slice_4001[14896] [16] [1] : tensor<16xf32> into tensor<16384xf32>
    %inserted_slice_4003 = tensor.insert_slice %arg0 into %inserted_slice_4002[14912] [16] [1] : tensor<16xf32> into tensor<16384xf32>
    %inserted_slice_4004 = tensor.insert_slice %arg0 into %inserted_slice_4003[14928] [16] [1] : tensor<16xf32> into tensor<16384xf32>
    %inserted_slice_4005 = tensor.insert_slice %arg0 into %inserted_slice_4004[14944] [16] [1] : tensor<16xf32> into tensor<16384xf32>
    %inserted_slice_4006 = tensor.insert_slice %arg0 into %inserted_slice_4005[14960] [16] [1] : tensor<16xf32> into tensor<16384xf32>
    %inserted_slice_4007 = tensor.insert_slice %arg0 into %inserted_slice_4006[14976] [16] [1] : tensor<16xf32> into tensor<16384xf32>
    %inserted_slice_4008 = tensor.insert_slice %arg0 into %inserted_slice_4007[14992] [16] [1] : tensor<16xf32> into tensor<16384xf32>
    %inserted_slice_4009 = tensor.insert_slice %arg0 into %inserted_slice_4008[15008] [16] [1] : tensor<16xf32> into tensor<16384xf32>
    %inserted_slice_4010 = tensor.insert_slice %arg0 into %inserted_slice_4009[15024] [16] [1] : tensor<16xf32> into tensor<16384xf32>
    %inserted_slice_4011 = tensor.insert_slice %arg0 into %inserted_slice_4010[15040] [16] [1] : tensor<16xf32> into tensor<16384xf32>
    %inserted_slice_4012 = tensor.insert_slice %arg0 into %inserted_slice_4011[15056] [16] [1] : tensor<16xf32> into tensor<16384xf32>
    %inserted_slice_4013 = tensor.insert_slice %arg0 into %inserted_slice_4012[15072] [16] [1] : tensor<16xf32> into tensor<16384xf32>
    %inserted_slice_4014 = tensor.insert_slice %arg0 into %inserted_slice_4013[15088] [16] [1] : tensor<16xf32> into tensor<16384xf32>
    %inserted_slice_4015 = tensor.insert_slice %arg0 into %inserted_slice_4014[15104] [16] [1] : tensor<16xf32> into tensor<16384xf32>
    %inserted_slice_4016 = tensor.insert_slice %arg0 into %inserted_slice_4015[15120] [16] [1] : tensor<16xf32> into tensor<16384xf32>
    %inserted_slice_4017 = tensor.insert_slice %arg0 into %inserted_slice_4016[15136] [16] [1] : tensor<16xf32> into tensor<16384xf32>
    %inserted_slice_4018 = tensor.insert_slice %arg0 into %inserted_slice_4017[15152] [16] [1] : tensor<16xf32> into tensor<16384xf32>
    %inserted_slice_4019 = tensor.insert_slice %arg0 into %inserted_slice_4018[15168] [16] [1] : tensor<16xf32> into tensor<16384xf32>
    %inserted_slice_4020 = tensor.insert_slice %arg0 into %inserted_slice_4019[15184] [16] [1] : tensor<16xf32> into tensor<16384xf32>
    %inserted_slice_4021 = tensor.insert_slice %arg0 into %inserted_slice_4020[15200] [16] [1] : tensor<16xf32> into tensor<16384xf32>
    %inserted_slice_4022 = tensor.insert_slice %arg0 into %inserted_slice_4021[15216] [16] [1] : tensor<16xf32> into tensor<16384xf32>
    %inserted_slice_4023 = tensor.insert_slice %arg0 into %inserted_slice_4022[15232] [16] [1] : tensor<16xf32> into tensor<16384xf32>
    %inserted_slice_4024 = tensor.insert_slice %arg0 into %inserted_slice_4023[15248] [16] [1] : tensor<16xf32> into tensor<16384xf32>
    %inserted_slice_4025 = tensor.insert_slice %arg0 into %inserted_slice_4024[15264] [16] [1] : tensor<16xf32> into tensor<16384xf32>
    %inserted_slice_4026 = tensor.insert_slice %arg0 into %inserted_slice_4025[15280] [16] [1] : tensor<16xf32> into tensor<16384xf32>
    %inserted_slice_4027 = tensor.insert_slice %arg0 into %inserted_slice_4026[15296] [16] [1] : tensor<16xf32> into tensor<16384xf32>
    %inserted_slice_4028 = tensor.insert_slice %arg0 into %inserted_slice_4027[15312] [16] [1] : tensor<16xf32> into tensor<16384xf32>
    %inserted_slice_4029 = tensor.insert_slice %arg0 into %inserted_slice_4028[15328] [16] [1] : tensor<16xf32> into tensor<16384xf32>
    %inserted_slice_4030 = tensor.insert_slice %arg0 into %inserted_slice_4029[15344] [16] [1] : tensor<16xf32> into tensor<16384xf32>
    %inserted_slice_4031 = tensor.insert_slice %arg0 into %inserted_slice_4030[15360] [16] [1] : tensor<16xf32> into tensor<16384xf32>
    %inserted_slice_4032 = tensor.insert_slice %arg0 into %inserted_slice_4031[15376] [16] [1] : tensor<16xf32> into tensor<16384xf32>
    %inserted_slice_4033 = tensor.insert_slice %arg0 into %inserted_slice_4032[15392] [16] [1] : tensor<16xf32> into tensor<16384xf32>
    %inserted_slice_4034 = tensor.insert_slice %arg0 into %inserted_slice_4033[15408] [16] [1] : tensor<16xf32> into tensor<16384xf32>
    %inserted_slice_4035 = tensor.insert_slice %arg0 into %inserted_slice_4034[15424] [16] [1] : tensor<16xf32> into tensor<16384xf32>
    %inserted_slice_4036 = tensor.insert_slice %arg0 into %inserted_slice_4035[15440] [16] [1] : tensor<16xf32> into tensor<16384xf32>
    %inserted_slice_4037 = tensor.insert_slice %arg0 into %inserted_slice_4036[15456] [16] [1] : tensor<16xf32> into tensor<16384xf32>
    %inserted_slice_4038 = tensor.insert_slice %arg0 into %inserted_slice_4037[15472] [16] [1] : tensor<16xf32> into tensor<16384xf32>
    %inserted_slice_4039 = tensor.insert_slice %arg0 into %inserted_slice_4038[15488] [16] [1] : tensor<16xf32> into tensor<16384xf32>
    %inserted_slice_4040 = tensor.insert_slice %arg0 into %inserted_slice_4039[15504] [16] [1] : tensor<16xf32> into tensor<16384xf32>
    %inserted_slice_4041 = tensor.insert_slice %arg0 into %inserted_slice_4040[15520] [16] [1] : tensor<16xf32> into tensor<16384xf32>
    %inserted_slice_4042 = tensor.insert_slice %arg0 into %inserted_slice_4041[15536] [16] [1] : tensor<16xf32> into tensor<16384xf32>
    %inserted_slice_4043 = tensor.insert_slice %arg0 into %inserted_slice_4042[15552] [16] [1] : tensor<16xf32> into tensor<16384xf32>
    %inserted_slice_4044 = tensor.insert_slice %arg0 into %inserted_slice_4043[15568] [16] [1] : tensor<16xf32> into tensor<16384xf32>
    %inserted_slice_4045 = tensor.insert_slice %arg0 into %inserted_slice_4044[15584] [16] [1] : tensor<16xf32> into tensor<16384xf32>
    %inserted_slice_4046 = tensor.insert_slice %arg0 into %inserted_slice_4045[15600] [16] [1] : tensor<16xf32> into tensor<16384xf32>
    %inserted_slice_4047 = tensor.insert_slice %arg0 into %inserted_slice_4046[15616] [16] [1] : tensor<16xf32> into tensor<16384xf32>
    %inserted_slice_4048 = tensor.insert_slice %arg0 into %inserted_slice_4047[15632] [16] [1] : tensor<16xf32> into tensor<16384xf32>
    %inserted_slice_4049 = tensor.insert_slice %arg0 into %inserted_slice_4048[15648] [16] [1] : tensor<16xf32> into tensor<16384xf32>
    %inserted_slice_4050 = tensor.insert_slice %arg0 into %inserted_slice_4049[15664] [16] [1] : tensor<16xf32> into tensor<16384xf32>
    %inserted_slice_4051 = tensor.insert_slice %arg0 into %inserted_slice_4050[15680] [16] [1] : tensor<16xf32> into tensor<16384xf32>
    %inserted_slice_4052 = tensor.insert_slice %arg0 into %inserted_slice_4051[15696] [16] [1] : tensor<16xf32> into tensor<16384xf32>
    %inserted_slice_4053 = tensor.insert_slice %arg0 into %inserted_slice_4052[15712] [16] [1] : tensor<16xf32> into tensor<16384xf32>
    %inserted_slice_4054 = tensor.insert_slice %arg0 into %inserted_slice_4053[15728] [16] [1] : tensor<16xf32> into tensor<16384xf32>
    %inserted_slice_4055 = tensor.insert_slice %arg0 into %inserted_slice_4054[15744] [16] [1] : tensor<16xf32> into tensor<16384xf32>
    %inserted_slice_4056 = tensor.insert_slice %arg0 into %inserted_slice_4055[15760] [16] [1] : tensor<16xf32> into tensor<16384xf32>
    %inserted_slice_4057 = tensor.insert_slice %arg0 into %inserted_slice_4056[15776] [16] [1] : tensor<16xf32> into tensor<16384xf32>
    %inserted_slice_4058 = tensor.insert_slice %arg0 into %inserted_slice_4057[15792] [16] [1] : tensor<16xf32> into tensor<16384xf32>
    %inserted_slice_4059 = tensor.insert_slice %arg0 into %inserted_slice_4058[15808] [16] [1] : tensor<16xf32> into tensor<16384xf32>
    %inserted_slice_4060 = tensor.insert_slice %arg0 into %inserted_slice_4059[15824] [16] [1] : tensor<16xf32> into tensor<16384xf32>
    %inserted_slice_4061 = tensor.insert_slice %arg0 into %inserted_slice_4060[15840] [16] [1] : tensor<16xf32> into tensor<16384xf32>
    %inserted_slice_4062 = tensor.insert_slice %arg0 into %inserted_slice_4061[15856] [16] [1] : tensor<16xf32> into tensor<16384xf32>
    %inserted_slice_4063 = tensor.insert_slice %arg0 into %inserted_slice_4062[15872] [16] [1] : tensor<16xf32> into tensor<16384xf32>
    %inserted_slice_4064 = tensor.insert_slice %arg0 into %inserted_slice_4063[15888] [16] [1] : tensor<16xf32> into tensor<16384xf32>
    %inserted_slice_4065 = tensor.insert_slice %arg0 into %inserted_slice_4064[15904] [16] [1] : tensor<16xf32> into tensor<16384xf32>
    %inserted_slice_4066 = tensor.insert_slice %arg0 into %inserted_slice_4065[15920] [16] [1] : tensor<16xf32> into tensor<16384xf32>
    %inserted_slice_4067 = tensor.insert_slice %arg0 into %inserted_slice_4066[15936] [16] [1] : tensor<16xf32> into tensor<16384xf32>
    %inserted_slice_4068 = tensor.insert_slice %arg0 into %inserted_slice_4067[15952] [16] [1] : tensor<16xf32> into tensor<16384xf32>
    %inserted_slice_4069 = tensor.insert_slice %arg0 into %inserted_slice_4068[15968] [16] [1] : tensor<16xf32> into tensor<16384xf32>
    %inserted_slice_4070 = tensor.insert_slice %arg0 into %inserted_slice_4069[15984] [16] [1] : tensor<16xf32> into tensor<16384xf32>
    %inserted_slice_4071 = tensor.insert_slice %arg0 into %inserted_slice_4070[16000] [16] [1] : tensor<16xf32> into tensor<16384xf32>
    %inserted_slice_4072 = tensor.insert_slice %arg0 into %inserted_slice_4071[16016] [16] [1] : tensor<16xf32> into tensor<16384xf32>
    %inserted_slice_4073 = tensor.insert_slice %arg0 into %inserted_slice_4072[16032] [16] [1] : tensor<16xf32> into tensor<16384xf32>
    %inserted_slice_4074 = tensor.insert_slice %arg0 into %inserted_slice_4073[16048] [16] [1] : tensor<16xf32> into tensor<16384xf32>
    %inserted_slice_4075 = tensor.insert_slice %arg0 into %inserted_slice_4074[16064] [16] [1] : tensor<16xf32> into tensor<16384xf32>
    %inserted_slice_4076 = tensor.insert_slice %arg0 into %inserted_slice_4075[16080] [16] [1] : tensor<16xf32> into tensor<16384xf32>
    %inserted_slice_4077 = tensor.insert_slice %arg0 into %inserted_slice_4076[16096] [16] [1] : tensor<16xf32> into tensor<16384xf32>
    %inserted_slice_4078 = tensor.insert_slice %arg0 into %inserted_slice_4077[16112] [16] [1] : tensor<16xf32> into tensor<16384xf32>
    %inserted_slice_4079 = tensor.insert_slice %arg0 into %inserted_slice_4078[16128] [16] [1] : tensor<16xf32> into tensor<16384xf32>
    %inserted_slice_4080 = tensor.insert_slice %arg0 into %inserted_slice_4079[16144] [16] [1] : tensor<16xf32> into tensor<16384xf32>
    %inserted_slice_4081 = tensor.insert_slice %arg0 into %inserted_slice_4080[16160] [16] [1] : tensor<16xf32> into tensor<16384xf32>
    %inserted_slice_4082 = tensor.insert_slice %arg0 into %inserted_slice_4081[16176] [16] [1] : tensor<16xf32> into tensor<16384xf32>
    %inserted_slice_4083 = tensor.insert_slice %arg0 into %inserted_slice_4082[16192] [16] [1] : tensor<16xf32> into tensor<16384xf32>
    %inserted_slice_4084 = tensor.insert_slice %arg0 into %inserted_slice_4083[16208] [16] [1] : tensor<16xf32> into tensor<16384xf32>
    %inserted_slice_4085 = tensor.insert_slice %arg0 into %inserted_slice_4084[16224] [16] [1] : tensor<16xf32> into tensor<16384xf32>
    %inserted_slice_4086 = tensor.insert_slice %arg0 into %inserted_slice_4085[16240] [16] [1] : tensor<16xf32> into tensor<16384xf32>
    %inserted_slice_4087 = tensor.insert_slice %arg0 into %inserted_slice_4086[16256] [16] [1] : tensor<16xf32> into tensor<16384xf32>
    %inserted_slice_4088 = tensor.insert_slice %arg0 into %inserted_slice_4087[16272] [16] [1] : tensor<16xf32> into tensor<16384xf32>
    %inserted_slice_4089 = tensor.insert_slice %arg0 into %inserted_slice_4088[16288] [16] [1] : tensor<16xf32> into tensor<16384xf32>
    %inserted_slice_4090 = tensor.insert_slice %arg0 into %inserted_slice_4089[16304] [16] [1] : tensor<16xf32> into tensor<16384xf32>
    %inserted_slice_4091 = tensor.insert_slice %arg0 into %inserted_slice_4090[16320] [16] [1] : tensor<16xf32> into tensor<16384xf32>
    %inserted_slice_4092 = tensor.insert_slice %arg0 into %inserted_slice_4091[16336] [16] [1] : tensor<16xf32> into tensor<16384xf32>
    %inserted_slice_4093 = tensor.insert_slice %arg0 into %inserted_slice_4092[16352] [16] [1] : tensor<16xf32> into tensor<16384xf32>
    %inserted_slice_4094 = tensor.insert_slice %arg0 into %inserted_slice_4093[16368] [16] [1] : tensor<16xf32> into tensor<16384xf32>
    %1 = affine.for %arg4 = 0 to 16384 iter_args(%arg5 = %cst) -> (tensor<16384xf32>) {
      %extracted = tensor.extract %inserted_slice_4094[%arg4] : tensor<16384xf32>
      %9 = arith.remsi %arg4, %c16384 : index
      %10 = arith.cmpi slt, %9, %c0 : index
      %11 = arith.addi %9, %c16384 : index
      %12 = arith.select %10, %11, %9 : index
      %inserted = tensor.insert %extracted into %arg5[%12] : tensor<16384xf32>
      affine.yield %inserted : tensor<16384xf32>
    }
    %2 = arith.extf %1 : tensor<16384xf32> to tensor<16384xf64>
    %pt = openfhe.make_ckks_packed_plaintext %cc, %2 : (!cc, tensor<16384xf64>) -> !pt
    %ct_4095 = openfhe.mul_plain %cc, %ct, %pt : (!cc, !ct_L1, !pt) -> !ct_L1_1
    %ct_4096 = openfhe.rot %cc, %ct {index = 4 : index} : (!cc, !ct_L1) -> !ct_L1
    %3 = affine.for %arg4 = 0 to 16384 iter_args(%arg5 = %cst) -> (tensor<16384xf32>) {
      %extracted = tensor.extract %inserted_slice_3070[%arg4] : tensor<16384xf32>
      %9 = arith.remsi %arg4, %c16384 : index
      %10 = arith.cmpi slt, %9, %c0 : index
      %11 = arith.addi %9, %c16384 : index
      %12 = arith.select %10, %11, %9 : index
      %inserted = tensor.insert %extracted into %arg5[%12] : tensor<16384xf32>
      affine.yield %inserted : tensor<16384xf32>
    }
    %4 = arith.extf %3 : tensor<16384xf32> to tensor<16384xf64>
    %pt_4097 = openfhe.make_ckks_packed_plaintext %cc, %4 : (!cc, tensor<16384xf64>) -> !pt
    %ct_4098 = openfhe.mul_plain %cc, %ct_4096, %pt_4097 : (!cc, !ct_L1, !pt) -> !ct_L1_1
    %5 = affine.for %arg4 = 0 to 16384 iter_args(%arg5 = %cst) -> (tensor<16384xf32>) {
      %extracted = tensor.extract %inserted_slice_2047[%arg4] : tensor<16384xf32>
      %9 = arith.remsi %arg4, %c16384 : index
      %10 = arith.cmpi slt, %9, %c0 : index
      %11 = arith.addi %9, %c16384 : index
      %12 = arith.select %10, %11, %9 : index
      %inserted = tensor.insert %extracted into %arg5[%12] : tensor<16384xf32>
      affine.yield %inserted : tensor<16384xf32>
    }
    %6 = arith.extf %5 : tensor<16384xf32> to tensor<16384xf64>
    %pt_4099 = openfhe.make_ckks_packed_plaintext %cc, %6 : (!cc, tensor<16384xf64>) -> !pt
    %ct_4100 = openfhe.mul_plain %cc, %ct, %pt_4099 : (!cc, !ct_L1, !pt) -> !ct_L1_1
    %7 = affine.for %arg4 = 0 to 16384 iter_args(%arg5 = %cst) -> (tensor<16384xf32>) {
      %extracted = tensor.extract %inserted_slice_1025[%arg4] : tensor<16384xf32>
      %9 = arith.remsi %arg4, %c16384 : index
      %10 = arith.cmpi slt, %9, %c0 : index
      %11 = arith.addi %9, %c16384 : index
      %12 = arith.select %10, %11, %9 : index
      %inserted = tensor.insert %extracted into %arg5[%12] : tensor<16384xf32>
      affine.yield %inserted : tensor<16384xf32>
    }
    %8 = arith.extf %7 : tensor<16384xf32> to tensor<16384xf64>
    %pt_4101 = openfhe.make_ckks_packed_plaintext %cc, %8 : (!cc, tensor<16384xf64>) -> !pt
    %ct_4102 = openfhe.mul_plain %cc, %ct_4096, %pt_4101 : (!cc, !ct_L1, !pt) -> !ct_L1_1
    %ct_4103 = openfhe.add %cc, %ct_4100, %ct_4102 : (!cc, !ct_L1_1, !ct_L1_1) -> !ct_L1_1
    %ct_4104 = openfhe.rot %cc, %ct_4103 {index = 8 : index} : (!cc, !ct_L1_1) -> !ct_L1_1
    %ct_4105 = openfhe.add %cc, %ct_4095, %ct_4098 : (!cc, !ct_L1_1, !ct_L1_1) -> !ct_L1_1
    %ct_4106 = openfhe.add %cc, %ct_4105, %ct_4104 : (!cc, !ct_L1_1, !ct_L1_1) -> !ct_L1_1
    %ct_4107 = openfhe.mod_reduce %cc, %ct_4106 : (!cc, !ct_L1_1) -> !ct_L0
    return %ct_4107 : !ct_L0
  }
  func.func @matmul__encrypt__arg0(%cc: !cc, %arg0: tensor<16xf32>, %pk: !pk) -> !ct_L1 attributes {client.enc_func = {func_name = "matmul", index = 0 : i64}} {
    %c0 = arith.constant 0 : index
    %c16384 = arith.constant 16384 : index
    %cst = arith.constant dense<0.000000e+00> : tensor<16384xf32>
    %concat = tensor.concat dim(0) %arg0, %arg0, %arg0, %arg0, %arg0, %arg0, %arg0, %arg0, %arg0, %arg0, %arg0, %arg0, %arg0, %arg0, %arg0, %arg0, %arg0, %arg0, %arg0, %arg0, %arg0, %arg0, %arg0, %arg0, %arg0, %arg0, %arg0, %arg0, %arg0, %arg0, %arg0, %arg0, %arg0, %arg0, %arg0, %arg0, %arg0, %arg0, %arg0, %arg0, %arg0, %arg0, %arg0, %arg0, %arg0, %arg0, %arg0, %arg0, %arg0, %arg0, %arg0, %arg0, %arg0, %arg0, %arg0, %arg0, %arg0, %arg0, %arg0, %arg0, %arg0, %arg0, %arg0, %arg0, %arg0, %arg0, %arg0, %arg0, %arg0, %arg0, %arg0, %arg0, %arg0, %arg0, %arg0, %arg0, %arg0, %arg0, %arg0, %arg0, %arg0, %arg0, %arg0, %arg0, %arg0, %arg0, %arg0, %arg0, %arg0, %arg0, %arg0, %arg0, %arg0, %arg0, %arg0, %arg0, %arg0, %arg0, %arg0, %arg0, %arg0, %arg0, %arg0, %arg0, %arg0, %arg0, %arg0, %arg0, %arg0, %arg0, %arg0, %arg0, %arg0, %arg0, %arg0, %arg0, %arg0, %arg0, %arg0, %arg0, %arg0, %arg0, %arg0, %arg0, %arg0, %arg0, %arg0, %arg0, %arg0, %arg0, %arg0, %arg0, %arg0, %arg0, %arg0, %arg0, %arg0, %arg0, %arg0, %arg0, %arg0, %arg0, %arg0, %arg0, %arg0, %arg0, %arg0, %arg0, %arg0, %arg0, %arg0, %arg0, %arg0, %arg0, %arg0, %arg0, %arg0, %arg0, %arg0, %arg0, %arg0, %arg0, %arg0, %arg0, %arg0, %arg0, %arg0, %arg0, %arg0, %arg0, %arg0, %arg0, %arg0, %arg0, %arg0, %arg0, %arg0, %arg0, %arg0, %arg0, %arg0, %arg0, %arg0, %arg0, %arg0, %arg0, %arg0, %arg0, %arg0, %arg0, %arg0, %arg0, %arg0, %arg0, %arg0, %arg0, %arg0, %arg0, %arg0, %arg0, %arg0, %arg0, %arg0, %arg0, %arg0, %arg0, %arg0, %arg0, %arg0, %arg0, %arg0, %arg0, %arg0, %arg0, %arg0, %arg0, %arg0, %arg0, %arg0, %arg0, %arg0, %arg0, %arg0, %arg0, %arg0, %arg0, %arg0, %arg0, %arg0, %arg0, %arg0, %arg0, %arg0, %arg0, %arg0, %arg0, %arg0, %arg0, %arg0, %arg0, %arg0, %arg0, %arg0, %arg0, %arg0, %arg0, %arg0, %arg0, %arg0, %arg0, %arg0, %arg0, %arg0, %arg0, %arg0, %arg0, %arg0, %arg0, %arg0, %arg0, %arg0, %arg0, %arg0, %arg0, %arg0, %arg0, %arg0, %arg0, %arg0, %arg0, %arg0, %arg0, %arg0, %arg0, %arg0, %arg0, %arg0, %arg0, %arg0, %arg0, %arg0, %arg0, %arg0, %arg0, %arg0, %arg0, %arg0, %arg0, %arg0, %arg0, %arg0, %arg0, %arg0, %arg0, %arg0, %arg0, %arg0, %arg0, %arg0, %arg0, %arg0, %arg0, %arg0, %arg0, %arg0, %arg0, %arg0, %arg0, %arg0, %arg0, %arg0, %arg0, %arg0, %arg0, %arg0, %arg0, %arg0, %arg0, %arg0, %arg0, %arg0, %arg0, %arg0, %arg0, %arg0, %arg0, %arg0, %arg0, %arg0, %arg0, %arg0, %arg0, %arg0, %arg0, %arg0, %arg0, %arg0, %arg0, %arg0, %arg0, %arg0, %arg0, %arg0, %arg0, %arg0, %arg0, %arg0, %arg0, %arg0, %arg0, %arg0, %arg0, %arg0, %arg0, %arg0, %arg0, %arg0, %arg0, %arg0, %arg0, %arg0, %arg0, %arg0, %arg0, %arg0, %arg0, %arg0, %arg0, %arg0, %arg0, %arg0, %arg0, %arg0, %arg0, %arg0, %arg0, %arg0, %arg0, %arg0, %arg0, %arg0, %arg0, %arg0, %arg0, %arg0, %arg0, %arg0, %arg0, %arg0, %arg0, %arg0, %arg0, %arg0, %arg0, %arg0, %arg0, %arg0, %arg0, %arg0, %arg0, %arg0, %arg0, %arg0, %arg0, %arg0, %arg0, %arg0, %arg0, %arg0, %arg0, %arg0, %arg0, %arg0, %arg0, %arg0, %arg0, %arg0, %arg0, %arg0, %arg0, %arg0, %arg0, %arg0, %arg0, %arg0, %arg0, %arg0, %arg0, %arg0, %arg0, %arg0, %arg0, %arg0, %arg0, %arg0, %arg0, %arg0, %arg0, %arg0, %arg0, %arg0, %arg0, %arg0, %arg0, %arg0, %arg0, %arg0, %arg0, %arg0, %arg0, %arg0, %arg0, %arg0, %arg0, %arg0, %arg0, %arg0, %arg0, %arg0, %arg0, %arg0, %arg0, %arg0, %arg0, %arg0, %arg0, %arg0, %arg0, %arg0, %arg0, %arg0, %arg0, %arg0, %arg0, %arg0, %arg0, %arg0, %arg0, %arg0, %arg0, %arg0, %arg0, %arg0, %arg0, %arg0, %arg0, %arg0, %arg0, %arg0, %arg0, %arg0, %arg0, %arg0, %arg0, %arg0, %arg0, %arg0, %arg0, %arg0, %arg0, %arg0, %arg0, %arg0, %arg0, %arg0, %arg0, %arg0, %arg0, %arg0, %arg0, %arg0, %arg0, %arg0, %arg0, %arg0, %arg0, %arg0, %arg0, %arg0, %arg0, %arg0, %arg0, %arg0, %arg0, %arg0, %arg0, %arg0, %arg0, %arg0, %arg0, %arg0, %arg0, %arg0, %arg0, %arg0, %arg0, %arg0, %arg0, %arg0, %arg0, %arg0, %arg0, %arg0, %arg0, %arg0, %arg0, %arg0, %arg0, %arg0, %arg0, %arg0, %arg0, %arg0, %arg0, %arg0, %arg0, %arg0, %arg0, %arg0, %arg0, %arg0, %arg0, %arg0, %arg0, %arg0, %arg0, %arg0, %arg0, %arg0, %arg0, %arg0, %arg0, %arg0, %arg0, %arg0, %arg0, %arg0, %arg0, %arg0, %arg0, %arg0, %arg0, %arg0, %arg0, %arg0, %arg0, %arg0, %arg0, %arg0, %arg0, %arg0, %arg0, %arg0, %arg0, %arg0, %arg0, %arg0, %arg0, %arg0, %arg0, %arg0, %arg0, %arg0, %arg0, %arg0, %arg0, %arg0, %arg0, %arg0, %arg0, %arg0, %arg0, %arg0, %arg0, %arg0, %arg0, %arg0, %arg0, %arg0, %arg0, %arg0, %arg0, %arg0, %arg0, %arg0, %arg0, %arg0, %arg0, %arg0, %arg0, %arg0, %arg0, %arg0, %arg0, %arg0, %arg0, %arg0, %arg0, %arg0, %arg0, %arg0, %arg0, %arg0, %arg0, %arg0, %arg0, %arg0, %arg0, %arg0, %arg0, %arg0, %arg0, %arg0, %arg0, %arg0, %arg0, %arg0, %arg0, %arg0, %arg0, %arg0, %arg0, %arg0, %arg0, %arg0, %arg0, %arg0, %arg0, %arg0, %arg0, %arg0, %arg0, %arg0, %arg0, %arg0, %arg0, %arg0, %arg0, %arg0, %arg0, %arg0, %arg0, %arg0, %arg0, %arg0, %arg0, %arg0, %arg0, %arg0, %arg0, %arg0, %arg0, %arg0, %arg0, %arg0, %arg0, %arg0, %arg0, %arg0, %arg0, %arg0, %arg0, %arg0, %arg0, %arg0, %arg0, %arg0, %arg0, %arg0, %arg0, %arg0, %arg0, %arg0, %arg0, %arg0, %arg0, %arg0, %arg0, %arg0, %arg0, %arg0, %arg0, %arg0, %arg0, %arg0, %arg0, %arg0, %arg0, %arg0, %arg0, %arg0, %arg0, %arg0, %arg0, %arg0, %arg0, %arg0, %arg0, %arg0, %arg0, %arg0, %arg0, %arg0, %arg0, %arg0, %arg0, %arg0, %arg0, %arg0, %arg0, %arg0, %arg0, %arg0, %arg0, %arg0, %arg0, %arg0, %arg0, %arg0, %arg0, %arg0, %arg0, %arg0, %arg0, %arg0, %arg0, %arg0, %arg0, %arg0, %arg0, %arg0, %arg0, %arg0, %arg0, %arg0, %arg0, %arg0, %arg0, %arg0, %arg0, %arg0, %arg0, %arg0, %arg0, %arg0, %arg0, %arg0, %arg0, %arg0, %arg0, %arg0, %arg0, %arg0, %arg0, %arg0, %arg0, %arg0, %arg0, %arg0, %arg0, %arg0, %arg0, %arg0, %arg0, %arg0, %arg0, %arg0, %arg0, %arg0, %arg0, %arg0, %arg0, %arg0, %arg0, %arg0, %arg0, %arg0, %arg0, %arg0, %arg0, %arg0, %arg0, %arg0, %arg0, %arg0, %arg0, %arg0, %arg0, %arg0, %arg0, %arg0, %arg0, %arg0, %arg0, %arg0, %arg0, %arg0, %arg0, %arg0, %arg0, %arg0, %arg0, %arg0, %arg0, %arg0, %arg0, %arg0, %arg0, %arg0, %arg0, %arg0, %arg0, %arg0, %arg0, %arg0, %arg0, %arg0, %arg0, %arg0, %arg0, %arg0, %arg0, %arg0, %arg0, %arg0, %arg0, %arg0, %arg0, %arg0, %arg0, %arg0, %arg0, %arg0, %arg0, %arg0, %arg0, %arg0, %arg0, %arg0, %arg0, %arg0, %arg0, %arg0, %arg0, %arg0, %arg0, %arg0, %arg0, %arg0, %arg0, %arg0, %arg0, %arg0, %arg0, %arg0, %arg0, %arg0, %arg0, %arg0, %arg0, %arg0, %arg0, %arg0, %arg0, %arg0, %arg0, %arg0, %arg0, %arg0, %arg0, %arg0, %arg0, %arg0, %arg0, %arg0, %arg0, %arg0, %arg0, %arg0, %arg0, %arg0, %arg0, %arg0, %arg0, %arg0, %arg0, %arg0, %arg0, %arg0, %arg0, %arg0, %arg0, %arg0, %arg0, %arg0, %arg0, %arg0, %arg0, %arg0, %arg0, %arg0, %arg0, %arg0, %arg0, %arg0, %arg0, %arg0, %arg0, %arg0, %arg0, %arg0, %arg0, %arg0, %arg0, %arg0, %arg0, %arg0, %arg0, %arg0, %arg0, %arg0, %arg0, %arg0, %arg0, %arg0, %arg0, %arg0, %arg0, %arg0, %arg0, %arg0, %arg0, %arg0, %arg0, %arg0, %arg0, %arg0, %arg0, %arg0, %arg0, %arg0, %arg0, %arg0, %arg0, %arg0, %arg0, %arg0, %arg0, %arg0, %arg0, %arg0, %arg0, %arg0, %arg0, %arg0, %arg0, %arg0, %arg0, %arg0, %arg0, %arg0, %arg0, %arg0, %arg0, %arg0, %arg0, %arg0, %arg0, %arg0, %arg0, %arg0, %arg0, %arg0, %arg0, %arg0, %arg0, %arg0, %arg0, %arg0, %arg0, %arg0, %arg0, %arg0, %arg0 : (tensor<16xf32>, tensor<16xf32>, tensor<16xf32>, tensor<16xf32>, tensor<16xf32>, tensor<16xf32>, tensor<16xf32>, tensor<16xf32>, tensor<16xf32>, tensor<16xf32>, tensor<16xf32>, tensor<16xf32>, tensor<16xf32>, tensor<16xf32>, tensor<16xf32>, tensor<16xf32>, tensor<16xf32>, tensor<16xf32>, tensor<16xf32>, tensor<16xf32>, tensor<16xf32>, tensor<16xf32>, tensor<16xf32>, tensor<16xf32>, tensor<16xf32>, tensor<16xf32>, tensor<16xf32>, tensor<16xf32>, tensor<16xf32>, tensor<16xf32>, tensor<16xf32>, tensor<16xf32>, tensor<16xf32>, tensor<16xf32>, tensor<16xf32>, tensor<16xf32>, tensor<16xf32>, tensor<16xf32>, tensor<16xf32>, tensor<16xf32>, tensor<16xf32>, tensor<16xf32>, tensor<16xf32>, tensor<16xf32>, tensor<16xf32>, tensor<16xf32>, tensor<16xf32>, tensor<16xf32>, tensor<16xf32>, tensor<16xf32>, tensor<16xf32>, tensor<16xf32>, tensor<16xf32>, tensor<16xf32>, tensor<16xf32>, tensor<16xf32>, tensor<16xf32>, tensor<16xf32>, tensor<16xf32>, tensor<16xf32>, tensor<16xf32>, tensor<16xf32>, tensor<16xf32>, tensor<16xf32>, tensor<16xf32>, tensor<16xf32>, tensor<16xf32>, tensor<16xf32>, tensor<16xf32>, tensor<16xf32>, tensor<16xf32>, tensor<16xf32>, tensor<16xf32>, tensor<16xf32>, tensor<16xf32>, tensor<16xf32>, tensor<16xf32>, tensor<16xf32>, tensor<16xf32>, tensor<16xf32>, tensor<16xf32>, tensor<16xf32>, tensor<16xf32>, tensor<16xf32>, tensor<16xf32>, tensor<16xf32>, tensor<16xf32>, tensor<16xf32>, tensor<16xf32>, tensor<16xf32>, tensor<16xf32>, tensor<16xf32>, tensor<16xf32>, tensor<16xf32>, tensor<16xf32>, tensor<16xf32>, tensor<16xf32>, tensor<16xf32>, tensor<16xf32>, tensor<16xf32>, tensor<16xf32>, tensor<16xf32>, tensor<16xf32>, tensor<16xf32>, tensor<16xf32>, tensor<16xf32>, tensor<16xf32>, tensor<16xf32>, tensor<16xf32>, tensor<16xf32>, tensor<16xf32>, tensor<16xf32>, tensor<16xf32>, tensor<16xf32>, tensor<16xf32>, tensor<16xf32>, tensor<16xf32>, tensor<16xf32>, tensor<16xf32>, tensor<16xf32>, tensor<16xf32>, tensor<16xf32>, tensor<16xf32>, tensor<16xf32>, tensor<16xf32>, tensor<16xf32>, tensor<16xf32>, tensor<16xf32>, tensor<16xf32>, tensor<16xf32>, tensor<16xf32>, tensor<16xf32>, tensor<16xf32>, tensor<16xf32>, tensor<16xf32>, tensor<16xf32>, tensor<16xf32>, tensor<16xf32>, tensor<16xf32>, tensor<16xf32>, tensor<16xf32>, tensor<16xf32>, tensor<16xf32>, tensor<16xf32>, tensor<16xf32>, tensor<16xf32>, tensor<16xf32>, tensor<16xf32>, tensor<16xf32>, tensor<16xf32>, tensor<16xf32>, tensor<16xf32>, tensor<16xf32>, tensor<16xf32>, tensor<16xf32>, tensor<16xf32>, tensor<16xf32>, tensor<16xf32>, tensor<16xf32>, tensor<16xf32>, tensor<16xf32>, tensor<16xf32>, tensor<16xf32>, tensor<16xf32>, tensor<16xf32>, tensor<16xf32>, tensor<16xf32>, tensor<16xf32>, tensor<16xf32>, tensor<16xf32>, tensor<16xf32>, tensor<16xf32>, tensor<16xf32>, tensor<16xf32>, tensor<16xf32>, tensor<16xf32>, tensor<16xf32>, tensor<16xf32>, tensor<16xf32>, tensor<16xf32>, tensor<16xf32>, tensor<16xf32>, tensor<16xf32>, tensor<16xf32>, tensor<16xf32>, tensor<16xf32>, tensor<16xf32>, tensor<16xf32>, tensor<16xf32>, tensor<16xf32>, tensor<16xf32>, tensor<16xf32>, tensor<16xf32>, tensor<16xf32>, tensor<16xf32>, tensor<16xf32>, tensor<16xf32>, tensor<16xf32>, tensor<16xf32>, tensor<16xf32>, tensor<16xf32>, tensor<16xf32>, tensor<16xf32>, tensor<16xf32>, tensor<16xf32>, tensor<16xf32>, tensor<16xf32>, tensor<16xf32>, tensor<16xf32>, tensor<16xf32>, tensor<16xf32>, tensor<16xf32>, tensor<16xf32>, tensor<16xf32>, tensor<16xf32>, tensor<16xf32>, tensor<16xf32>, tensor<16xf32>, tensor<16xf32>, tensor<16xf32>, tensor<16xf32>, tensor<16xf32>, tensor<16xf32>, tensor<16xf32>, tensor<16xf32>, tensor<16xf32>, tensor<16xf32>, tensor<16xf32>, tensor<16xf32>, tensor<16xf32>, tensor<16xf32>, tensor<16xf32>, tensor<16xf32>, tensor<16xf32>, tensor<16xf32>, tensor<16xf32>, tensor<16xf32>, tensor<16xf32>, tensor<16xf32>, tensor<16xf32>, tensor<16xf32>, tensor<16xf32>, tensor<16xf32>, tensor<16xf32>, tensor<16xf32>, tensor<16xf32>, tensor<16xf32>, tensor<16xf32>, tensor<16xf32>, tensor<16xf32>, tensor<16xf32>, tensor<16xf32>, tensor<16xf32>, tensor<16xf32>, tensor<16xf32>, tensor<16xf32>, tensor<16xf32>, tensor<16xf32>, tensor<16xf32>, tensor<16xf32>, tensor<16xf32>, tensor<16xf32>, tensor<16xf32>, tensor<16xf32>, tensor<16xf32>, tensor<16xf32>, tensor<16xf32>, tensor<16xf32>, tensor<16xf32>, tensor<16xf32>, tensor<16xf32>, tensor<16xf32>, tensor<16xf32>, tensor<16xf32>, tensor<16xf32>, tensor<16xf32>, tensor<16xf32>, tensor<16xf32>, tensor<16xf32>, tensor<16xf32>, tensor<16xf32>, tensor<16xf32>, tensor<16xf32>, tensor<16xf32>, tensor<16xf32>, tensor<16xf32>, tensor<16xf32>, tensor<16xf32>, tensor<16xf32>, tensor<16xf32>, tensor<16xf32>, tensor<16xf32>, tensor<16xf32>, tensor<16xf32>, tensor<16xf32>, tensor<16xf32>, tensor<16xf32>, tensor<16xf32>, tensor<16xf32>, tensor<16xf32>, tensor<16xf32>, tensor<16xf32>, tensor<16xf32>, tensor<16xf32>, tensor<16xf32>, tensor<16xf32>, tensor<16xf32>, tensor<16xf32>, tensor<16xf32>, tensor<16xf32>, tensor<16xf32>, tensor<16xf32>, tensor<16xf32>, tensor<16xf32>, tensor<16xf32>, tensor<16xf32>, tensor<16xf32>, tensor<16xf32>, tensor<16xf32>, tensor<16xf32>, tensor<16xf32>, tensor<16xf32>, tensor<16xf32>, tensor<16xf32>, tensor<16xf32>, tensor<16xf32>, tensor<16xf32>, tensor<16xf32>, tensor<16xf32>, tensor<16xf32>, tensor<16xf32>, tensor<16xf32>, tensor<16xf32>, tensor<16xf32>, tensor<16xf32>, tensor<16xf32>, tensor<16xf32>, tensor<16xf32>, tensor<16xf32>, tensor<16xf32>, tensor<16xf32>, tensor<16xf32>, tensor<16xf32>, tensor<16xf32>, tensor<16xf32>, tensor<16xf32>, tensor<16xf32>, tensor<16xf32>, tensor<16xf32>, tensor<16xf32>, tensor<16xf32>, tensor<16xf32>, tensor<16xf32>, tensor<16xf32>, tensor<16xf32>, tensor<16xf32>, tensor<16xf32>, tensor<16xf32>, tensor<16xf32>, tensor<16xf32>, tensor<16xf32>, tensor<16xf32>, tensor<16xf32>, tensor<16xf32>, tensor<16xf32>, tensor<16xf32>, tensor<16xf32>, tensor<16xf32>, tensor<16xf32>, tensor<16xf32>, tensor<16xf32>, tensor<16xf32>, tensor<16xf32>, tensor<16xf32>, tensor<16xf32>, tensor<16xf32>, tensor<16xf32>, tensor<16xf32>, tensor<16xf32>, tensor<16xf32>, tensor<16xf32>, tensor<16xf32>, tensor<16xf32>, tensor<16xf32>, tensor<16xf32>, tensor<16xf32>, tensor<16xf32>, tensor<16xf32>, tensor<16xf32>, tensor<16xf32>, tensor<16xf32>, tensor<16xf32>, tensor<16xf32>, tensor<16xf32>, tensor<16xf32>, tensor<16xf32>, tensor<16xf32>, tensor<16xf32>, tensor<16xf32>, tensor<16xf32>, tensor<16xf32>, tensor<16xf32>, tensor<16xf32>, tensor<16xf32>, tensor<16xf32>, tensor<16xf32>, tensor<16xf32>, tensor<16xf32>, tensor<16xf32>, tensor<16xf32>, tensor<16xf32>, tensor<16xf32>, tensor<16xf32>, tensor<16xf32>, tensor<16xf32>, tensor<16xf32>, tensor<16xf32>, tensor<16xf32>, tensor<16xf32>, tensor<16xf32>, tensor<16xf32>, tensor<16xf32>, tensor<16xf32>, tensor<16xf32>, tensor<16xf32>, tensor<16xf32>, tensor<16xf32>, tensor<16xf32>, tensor<16xf32>, tensor<16xf32>, tensor<16xf32>, tensor<16xf32>, tensor<16xf32>, tensor<16xf32>, tensor<16xf32>, tensor<16xf32>, tensor<16xf32>, tensor<16xf32>, tensor<16xf32>, tensor<16xf32>, tensor<16xf32>, tensor<16xf32>, tensor<16xf32>, tensor<16xf32>, tensor<16xf32>, tensor<16xf32>, tensor<16xf32>, tensor<16xf32>, tensor<16xf32>, tensor<16xf32>, tensor<16xf32>, tensor<16xf32>, tensor<16xf32>, tensor<16xf32>, tensor<16xf32>, tensor<16xf32>, tensor<16xf32>, tensor<16xf32>, tensor<16xf32>, tensor<16xf32>, tensor<16xf32>, tensor<16xf32>, tensor<16xf32>, tensor<16xf32>, tensor<16xf32>, tensor<16xf32>, tensor<16xf32>, tensor<16xf32>, tensor<16xf32>, tensor<16xf32>, tensor<16xf32>, tensor<16xf32>, tensor<16xf32>, tensor<16xf32>, tensor<16xf32>, tensor<16xf32>, tensor<16xf32>, tensor<16xf32>, tensor<16xf32>, tensor<16xf32>, tensor<16xf32>, tensor<16xf32>, tensor<16xf32>, tensor<16xf32>, tensor<16xf32>, tensor<16xf32>, tensor<16xf32>, tensor<16xf32>, tensor<16xf32>, tensor<16xf32>, tensor<16xf32>, tensor<16xf32>, tensor<16xf32>, tensor<16xf32>, tensor<16xf32>, tensor<16xf32>, tensor<16xf32>, tensor<16xf32>, tensor<16xf32>, tensor<16xf32>, tensor<16xf32>, tensor<16xf32>, tensor<16xf32>, tensor<16xf32>, tensor<16xf32>, tensor<16xf32>, tensor<16xf32>, tensor<16xf32>, tensor<16xf32>, tensor<16xf32>, tensor<16xf32>, tensor<16xf32>, tensor<16xf32>, tensor<16xf32>, tensor<16xf32>, tensor<16xf32>, tensor<16xf32>, tensor<16xf32>, tensor<16xf32>, tensor<16xf32>, tensor<16xf32>, tensor<16xf32>, tensor<16xf32>, tensor<16xf32>, tensor<16xf32>, tensor<16xf32>, tensor<16xf32>, tensor<16xf32>, tensor<16xf32>, tensor<16xf32>, tensor<16xf32>, tensor<16xf32>, tensor<16xf32>, tensor<16xf32>, tensor<16xf32>, tensor<16xf32>, tensor<16xf32>, tensor<16xf32>, tensor<16xf32>, tensor<16xf32>, tensor<16xf32>, tensor<16xf32>, tensor<16xf32>, tensor<16xf32>, tensor<16xf32>, tensor<16xf32>, tensor<16xf32>, tensor<16xf32>, tensor<16xf32>, tensor<16xf32>, tensor<16xf32>, tensor<16xf32>, tensor<16xf32>, tensor<16xf32>, tensor<16xf32>, tensor<16xf32>, tensor<16xf32>, tensor<16xf32>, tensor<16xf32>, tensor<16xf32>, tensor<16xf32>, tensor<16xf32>, tensor<16xf32>, tensor<16xf32>, tensor<16xf32>, tensor<16xf32>, tensor<16xf32>, tensor<16xf32>, tensor<16xf32>, tensor<16xf32>, tensor<16xf32>, tensor<16xf32>, tensor<16xf32>, tensor<16xf32>, tensor<16xf32>, tensor<16xf32>, tensor<16xf32>, tensor<16xf32>, tensor<16xf32>, tensor<16xf32>, tensor<16xf32>, tensor<16xf32>, tensor<16xf32>, tensor<16xf32>, tensor<16xf32>, tensor<16xf32>, tensor<16xf32>, tensor<16xf32>, tensor<16xf32>, tensor<16xf32>, tensor<16xf32>, tensor<16xf32>, tensor<16xf32>, tensor<16xf32>, tensor<16xf32>, tensor<16xf32>, tensor<16xf32>, tensor<16xf32>, tensor<16xf32>, tensor<16xf32>, tensor<16xf32>, tensor<16xf32>, tensor<16xf32>, tensor<16xf32>, tensor<16xf32>, tensor<16xf32>, tensor<16xf32>, tensor<16xf32>, tensor<16xf32>, tensor<16xf32>, tensor<16xf32>, tensor<16xf32>, tensor<16xf32>, tensor<16xf32>, tensor<16xf32>, tensor<16xf32>, tensor<16xf32>, tensor<16xf32>, tensor<16xf32>, tensor<16xf32>, tensor<16xf32>, tensor<16xf32>, tensor<16xf32>, tensor<16xf32>, tensor<16xf32>, tensor<16xf32>, tensor<16xf32>, tensor<16xf32>, tensor<16xf32>, tensor<16xf32>, tensor<16xf32>, tensor<16xf32>, tensor<16xf32>, tensor<16xf32>, tensor<16xf32>, tensor<16xf32>, tensor<16xf32>, tensor<16xf32>, tensor<16xf32>, tensor<16xf32>, tensor<16xf32>, tensor<16xf32>, tensor<16xf32>, tensor<16xf32>, tensor<16xf32>, tensor<16xf32>, tensor<16xf32>, tensor<16xf32>, tensor<16xf32>, tensor<16xf32>, tensor<16xf32>, tensor<16xf32>, tensor<16xf32>, tensor<16xf32>, tensor<16xf32>, tensor<16xf32>, tensor<16xf32>, tensor<16xf32>, tensor<16xf32>, tensor<16xf32>, tensor<16xf32>, tensor<16xf32>, tensor<16xf32>, tensor<16xf32>, tensor<16xf32>, tensor<16xf32>, tensor<16xf32>, tensor<16xf32>, tensor<16xf32>, tensor<16xf32>, tensor<16xf32>, tensor<16xf32>, tensor<16xf32>, tensor<16xf32>, tensor<16xf32>, tensor<16xf32>, tensor<16xf32>, tensor<16xf32>, tensor<16xf32>, tensor<16xf32>, tensor<16xf32>, tensor<16xf32>, tensor<16xf32>, tensor<16xf32>, tensor<16xf32>, tensor<16xf32>, tensor<16xf32>, tensor<16xf32>, tensor<16xf32>, tensor<16xf32>, tensor<16xf32>, tensor<16xf32>, tensor<16xf32>, tensor<16xf32>, tensor<16xf32>, tensor<16xf32>, tensor<16xf32>, tensor<16xf32>, tensor<16xf32>, tensor<16xf32>, tensor<16xf32>, tensor<16xf32>, tensor<16xf32>, tensor<16xf32>, tensor<16xf32>, tensor<16xf32>, tensor<16xf32>, tensor<16xf32>, tensor<16xf32>, tensor<16xf32>, tensor<16xf32>, tensor<16xf32>, tensor<16xf32>, tensor<16xf32>, tensor<16xf32>, tensor<16xf32>, tensor<16xf32>, tensor<16xf32>, tensor<16xf32>, tensor<16xf32>, tensor<16xf32>, tensor<16xf32>, tensor<16xf32>, tensor<16xf32>, tensor<16xf32>, tensor<16xf32>, tensor<16xf32>, tensor<16xf32>, tensor<16xf32>, tensor<16xf32>, tensor<16xf32>, tensor<16xf32>, tensor<16xf32>, tensor<16xf32>, tensor<16xf32>, tensor<16xf32>, tensor<16xf32>, tensor<16xf32>, tensor<16xf32>, tensor<16xf32>, tensor<16xf32>, tensor<16xf32>, tensor<16xf32>, tensor<16xf32>, tensor<16xf32>, tensor<16xf32>, tensor<16xf32>, tensor<16xf32>, tensor<16xf32>, tensor<16xf32>, tensor<16xf32>, tensor<16xf32>, tensor<16xf32>, tensor<16xf32>, tensor<16xf32>, tensor<16xf32>, tensor<16xf32>, tensor<16xf32>, tensor<16xf32>, tensor<16xf32>, tensor<16xf32>, tensor<16xf32>, tensor<16xf32>, tensor<16xf32>, tensor<16xf32>, tensor<16xf32>, tensor<16xf32>, tensor<16xf32>, tensor<16xf32>, tensor<16xf32>, tensor<16xf32>, tensor<16xf32>, tensor<16xf32>, tensor<16xf32>, tensor<16xf32>, tensor<16xf32>, tensor<16xf32>, tensor<16xf32>, tensor<16xf32>, tensor<16xf32>, tensor<16xf32>, tensor<16xf32>, tensor<16xf32>, tensor<16xf32>, tensor<16xf32>, tensor<16xf32>, tensor<16xf32>, tensor<16xf32>, tensor<16xf32>, tensor<16xf32>, tensor<16xf32>, tensor<16xf32>, tensor<16xf32>, tensor<16xf32>, tensor<16xf32>, tensor<16xf32>, tensor<16xf32>, tensor<16xf32>, tensor<16xf32>, tensor<16xf32>, tensor<16xf32>, tensor<16xf32>, tensor<16xf32>, tensor<16xf32>, tensor<16xf32>, tensor<16xf32>, tensor<16xf32>, tensor<16xf32>, tensor<16xf32>, tensor<16xf32>, tensor<16xf32>, tensor<16xf32>, tensor<16xf32>, tensor<16xf32>, tensor<16xf32>, tensor<16xf32>, tensor<16xf32>, tensor<16xf32>, tensor<16xf32>, tensor<16xf32>, tensor<16xf32>, tensor<16xf32>, tensor<16xf32>, tensor<16xf32>, tensor<16xf32>, tensor<16xf32>, tensor<16xf32>, tensor<16xf32>, tensor<16xf32>, tensor<16xf32>, tensor<16xf32>, tensor<16xf32>, tensor<16xf32>, tensor<16xf32>, tensor<16xf32>, tensor<16xf32>, tensor<16xf32>, tensor<16xf32>, tensor<16xf32>, tensor<16xf32>, tensor<16xf32>, tensor<16xf32>, tensor<16xf32>, tensor<16xf32>, tensor<16xf32>, tensor<16xf32>, tensor<16xf32>, tensor<16xf32>, tensor<16xf32>, tensor<16xf32>, tensor<16xf32>, tensor<16xf32>, tensor<16xf32>, tensor<16xf32>, tensor<16xf32>, tensor<16xf32>, tensor<16xf32>, tensor<16xf32>, tensor<16xf32>, tensor<16xf32>, tensor<16xf32>, tensor<16xf32>, tensor<16xf32>, tensor<16xf32>, tensor<16xf32>, tensor<16xf32>, tensor<16xf32>, tensor<16xf32>, tensor<16xf32>, tensor<16xf32>, tensor<16xf32>, tensor<16xf32>, tensor<16xf32>, tensor<16xf32>, tensor<16xf32>, tensor<16xf32>, tensor<16xf32>, tensor<16xf32>, tensor<16xf32>, tensor<16xf32>, tensor<16xf32>, tensor<16xf32>, tensor<16xf32>, tensor<16xf32>, tensor<16xf32>, tensor<16xf32>, tensor<16xf32>, tensor<16xf32>, tensor<16xf32>, tensor<16xf32>, tensor<16xf32>, tensor<16xf32>, tensor<16xf32>, tensor<16xf32>, tensor<16xf32>, tensor<16xf32>, tensor<16xf32>, tensor<16xf32>, tensor<16xf32>, tensor<16xf32>, tensor<16xf32>, tensor<16xf32>, tensor<16xf32>, tensor<16xf32>, tensor<16xf32>, tensor<16xf32>, tensor<16xf32>, tensor<16xf32>, tensor<16xf32>, tensor<16xf32>, tensor<16xf32>, tensor<16xf32>, tensor<16xf32>, tensor<16xf32>, tensor<16xf32>, tensor<16xf32>, tensor<16xf32>, tensor<16xf32>, tensor<16xf32>, tensor<16xf32>, tensor<16xf32>, tensor<16xf32>, tensor<16xf32>, tensor<16xf32>, tensor<16xf32>, tensor<16xf32>, tensor<16xf32>, tensor<16xf32>, tensor<16xf32>, tensor<16xf32>, tensor<16xf32>, tensor<16xf32>, tensor<16xf32>, tensor<16xf32>, tensor<16xf32>, tensor<16xf32>, tensor<16xf32>, tensor<16xf32>, tensor<16xf32>, tensor<16xf32>, tensor<16xf32>, tensor<16xf32>, tensor<16xf32>, tensor<16xf32>, tensor<16xf32>, tensor<16xf32>, tensor<16xf32>, tensor<16xf32>, tensor<16xf32>, tensor<16xf32>, tensor<16xf32>, tensor<16xf32>, tensor<16xf32>, tensor<16xf32>, tensor<16xf32>, tensor<16xf32>, tensor<16xf32>, tensor<16xf32>, tensor<16xf32>, tensor<16xf32>, tensor<16xf32>, tensor<16xf32>, tensor<16xf32>, tensor<16xf32>, tensor<16xf32>, tensor<16xf32>, tensor<16xf32>, tensor<16xf32>, tensor<16xf32>, tensor<16xf32>, tensor<16xf32>, tensor<16xf32>, tensor<16xf32>, tensor<16xf32>, tensor<16xf32>, tensor<16xf32>, tensor<16xf32>, tensor<16xf32>, tensor<16xf32>, tensor<16xf32>, tensor<16xf32>, tensor<16xf32>, tensor<16xf32>, tensor<16xf32>, tensor<16xf32>, tensor<16xf32>, tensor<16xf32>, tensor<16xf32>, tensor<16xf32>, tensor<16xf32>, tensor<16xf32>, tensor<16xf32>, tensor<16xf32>, tensor<16xf32>, tensor<16xf32>, tensor<16xf32>, tensor<16xf32>, tensor<16xf32>, tensor<16xf32>, tensor<16xf32>, tensor<16xf32>, tensor<16xf32>, tensor<16xf32>, tensor<16xf32>, tensor<16xf32>, tensor<16xf32>, tensor<16xf32>, tensor<16xf32>, tensor<16xf32>, tensor<16xf32>, tensor<16xf32>, tensor<16xf32>, tensor<16xf32>, tensor<16xf32>, tensor<16xf32>, tensor<16xf32>, tensor<16xf32>, tensor<16xf32>, tensor<16xf32>, tensor<16xf32>, tensor<16xf32>, tensor<16xf32>, tensor<16xf32>, tensor<16xf32>) -> tensor<16384xf32>
    %0 = affine.for %arg1 = 0 to 16384 iter_args(%arg2 = %cst) -> (tensor<16384xf32>) {
      %extracted = tensor.extract %concat[%arg1] : tensor<16384xf32>
      %2 = arith.remsi %arg1, %c16384 : index
      %3 = arith.cmpi slt, %2, %c0 : index
      %4 = arith.addi %2, %c16384 : index
      %5 = arith.select %3, %4, %2 : index
      %inserted = tensor.insert %extracted into %arg2[%5] : tensor<16384xf32>
      affine.yield %inserted : tensor<16384xf32>
    }
    %1 = arith.extf %0 : tensor<16384xf32> to tensor<16384xf64>
    %pt = openfhe.make_ckks_packed_plaintext %cc, %1 : (!cc, tensor<16384xf64>) -> !pt
    %ct = openfhe.encrypt %cc, %pt, %pk : (!cc, !pt, !pk) -> !ct_L1
    return %ct : !ct_L1
  }
  func.func @matmul__decrypt__result0(%cc: !cc, %ct: !ct_L0, %sk: !sk) -> tensor<16xf32> attributes {client.dec_func = {func_name = "matmul", index = 0 : i64}} {
    %c0 = arith.constant 0 : index
    %c16384 = arith.constant 16384 : index
    %cst = arith.constant dense<0.000000e+00> : tensor<16384xf32>
    %pt = openfhe.decrypt %cc, %ct, %sk : (!cc, !ct_L0, !sk) -> !pt
    %0 = lwe.rlwe_decode %pt {encoding = #inverse_canonical_encoding, ring = #ring_f64_1_x16384} : !pt -> tensor<16384xf32>
    %1 = affine.for %arg0 = 0 to 16384 iter_args(%arg1 = %cst) -> (tensor<16384xf32>) {
      %2 = arith.remsi %arg0, %c16384 : index
      %3 = arith.cmpi slt, %2, %c0 : index
      %4 = arith.addi %2, %c16384 : index
      %5 = arith.select %3, %4, %2 : index
      %extracted = tensor.extract %0[%5] : tensor<16384xf32>
      %inserted = tensor.insert %extracted into %arg1[%arg0] : tensor<16384xf32>
      affine.yield %inserted : tensor<16384xf32>
    }
    %extracted_slice = tensor.extract_slice %1[0] [16] [1] : tensor<16384xf32> to tensor<16xf32>
    return %extracted_slice : tensor<16xf32>
  }
  func.func @matmul__generate_crypto_context() -> !cc {
    %params = openfhe.gen_params  {mulDepth = 1 : i64, plainMod = 0 : i64} : () -> !params
    %cc = openfhe.gen_context %params {supportFHE = false} : (!params) -> !cc
    return %cc : !cc
  }
  func.func @matmul__configure_crypto_context(%cc: !cc, %sk: !sk) -> !cc {
    openfhe.gen_rotkey %cc, %sk {indices = array<i64: 4, 8>} : (!cc, !sk) -> ()
    return %cc : !cc
  }
}

