!ciphertext = !cheddar.ciphertext
!context = !cheddar.context
!encoder = !cheddar.encoder
!eval_key = !cheddar.eval_key
!plaintext = !cheddar.plaintext
!user_interface = !cheddar.user_interface
#layout = #tensor_ext.layout<"{ [i0, i1] -> [ct, slot] : i0 = 0 and ct = 0 and (-i1 + slot) mod 16 = 0 and 0 <= i1 <= 9 and 0 <= slot <= 1023 }">
#original_type = #tensor_ext.original_type<originalType = tensor<1x10xf32>, layout = #layout>
module attributes {backend.cheddar, cheddar.P = array<i64: 1152921504607338497, 1152921504608747521>, cheddar.Q = array<i64: 36028797017456641, 35184373006337, 35184370941953, 35184372744193, 35184371138561, 35184372121601>, cheddar.logDefaultScale = 45 : i64, cheddar.logN = 14 : i64, scheme.actual_slot_count = 8192 : i64, scheme.requested_slot_count = 1024 : i64} {
  func.func private @_assign_layout_13960468826546287343(%arg0: tensor<1x10xf32>) -> tensor<1x1024xf32> attributes {client.pack_func = {func_name = "orion_mlp"}} {
    %c0 = arith.constant 0 : index
    %c16_i32 = arith.constant 16 : i32
    %c6_i32 = arith.constant 6 : i32
    %cst = arith.constant dense<0.000000e+00> : tensor<1x1024xf32>
    %c0_i32 = arith.constant 0 : i32
    %c1_i32 = arith.constant 1 : i32
    %c1024_i32 = arith.constant 1024 : i32
    %0 = scf.for %arg1 = %c0_i32 to %c1024_i32 step %c1_i32 iter_args(%arg2 = %cst) -> (tensor<1x1024xf32>)  : i32 {
      %1 = arith.addi %arg1, %c6_i32 : i32
      %2 = arith.remsi %1, %c16_i32 : i32
      %3 = arith.cmpi sge, %2, %c6_i32 : i32
      %4 = scf.if %3 -> (tensor<1x1024xf32>) {
        %5 = arith.remsi %arg1, %c16_i32 : i32
        %6 = arith.index_cast %5 : i32 to index
        %extracted = tensor.extract %arg0[%c0, %6] : tensor<1x10xf32>
        %7 = arith.index_cast %arg1 : i32 to index
        %inserted = tensor.insert %extracted into %arg2[%c0, %7] : tensor<1x1024xf32>
        scf.yield %inserted : tensor<1x1024xf32>
      } else {
        scf.yield %arg2 : tensor<1x1024xf32>
      }
      scf.yield %4 : tensor<1x1024xf32>
    }
    return %0 : tensor<1x1024xf32>
  }
  func.func private @_assign_layout_9997215191011925831(%arg0: tensor<10x128xf32>) -> tensor<16x1024xf32> attributes {client.pack_func = {func_name = "orion_mlp"}} {
    %c127_i32 = arith.constant 127 : i32
    %c1018_i32 = arith.constant 1018 : i32
    %c128_i32 = arith.constant 128 : i32
    %c1151_i32 = arith.constant 1151 : i32
    %c6_i32 = arith.constant 6 : i32
    %c9_i32 = arith.constant 9 : i32
    %c16_i32 = arith.constant 16 : i32
    %cst = arith.constant dense<0.000000e+00> : tensor<16x1024xf32>
    %c0_i32 = arith.constant 0 : i32
    %c1_i32 = arith.constant 1 : i32
    %0 = scf.for %arg1 = %c0_i32 to %c16_i32 step %c1_i32 iter_args(%arg2 = %cst) -> (tensor<16x1024xf32>)  : i32 {
      %1 = scf.for %arg3 = %c0_i32 to %c1018_i32 step %c1_i32 iter_args(%arg4 = %arg2) -> (tensor<16x1024xf32>)  : i32 {
        %2 = arith.remsi %arg3, %c16_i32 : i32
        %3 = arith.cmpi sle, %2, %c9_i32 : i32
        %4 = scf.if %3 -> (tensor<16x1024xf32>) {
          %5 = arith.addi %arg3, %c6_i32 : i32
          %6 = arith.remsi %5, %c16_i32 : i32
          %7 = arith.subi %6, %c6_i32 : i32
          %8 = arith.subi %c0_i32, %arg1 : i32
          %9 = arith.subi %8, %arg3 : i32
          %10 = arith.addi %9, %c1151_i32 : i32
          %11 = arith.remsi %10, %c128_i32 : i32
          %12 = arith.subi %c127_i32, %11 : i32
          %13 = arith.index_cast %7 : i32 to index
          %14 = arith.index_cast %12 : i32 to index
          %extracted = tensor.extract %arg0[%13, %14] : tensor<10x128xf32>
          %15 = arith.index_cast %arg1 : i32 to index
          %16 = arith.index_cast %arg3 : i32 to index
          %inserted = tensor.insert %extracted into %arg4[%15, %16] : tensor<16x1024xf32>
          scf.yield %inserted : tensor<16x1024xf32>
        } else {
          scf.yield %arg4 : tensor<16x1024xf32>
        }
        scf.yield %4 : tensor<16x1024xf32>
      }
      scf.yield %1 : tensor<16x1024xf32>
    }
    return %0 : tensor<16x1024xf32>
  }
  func.func private @_assign_layout_8090026053256017215(%arg0: tensor<128x128xf32>) -> tensor<128x1024xf32> attributes {client.pack_func = {func_name = "orion_mlp"}} {
    %c1024_i32 = arith.constant 1024 : i32
    %c128_i32 = arith.constant 128 : i32
    %cst = arith.constant dense<0.000000e+00> : tensor<128x1024xf32>
    %c0_i32 = arith.constant 0 : i32
    %c1_i32 = arith.constant 1 : i32
    %0 = scf.for %arg1 = %c0_i32 to %c128_i32 step %c1_i32 iter_args(%arg2 = %cst) -> (tensor<128x1024xf32>)  : i32 {
      %1 = scf.for %arg3 = %c0_i32 to %c1024_i32 step %c1_i32 iter_args(%arg4 = %arg2) -> (tensor<128x1024xf32>)  : i32 {
        %2 = arith.remsi %arg3, %c128_i32 : i32
        %3 = arith.addi %arg1, %arg3 : i32
        %4 = arith.remsi %3, %c128_i32 : i32
        %5 = arith.index_cast %2 : i32 to index
        %6 = arith.index_cast %4 : i32 to index
        %extracted = tensor.extract %arg0[%5, %6] : tensor<128x128xf32>
        %7 = arith.index_cast %arg1 : i32 to index
        %8 = arith.index_cast %arg3 : i32 to index
        %inserted = tensor.insert %extracted into %arg4[%7, %8] : tensor<128x1024xf32>
        scf.yield %inserted : tensor<128x1024xf32>
      }
      scf.yield %1 : tensor<128x1024xf32>
    }
    return %0 : tensor<128x1024xf32>
  }
  func.func private @_assign_layout_8429447273455582655(%arg0: tensor<1x128xf32>) -> tensor<1x1024xf32> attributes {client.pack_func = {func_name = "orion_mlp"}} {
    %c0 = arith.constant 0 : index
    %c128_i32 = arith.constant 128 : i32
    %cst = arith.constant dense<0.000000e+00> : tensor<1x1024xf32>
    %c0_i32 = arith.constant 0 : i32
    %c1_i32 = arith.constant 1 : i32
    %c1024_i32 = arith.constant 1024 : i32
    %0 = scf.for %arg1 = %c0_i32 to %c1024_i32 step %c1_i32 iter_args(%arg2 = %cst) -> (tensor<1x1024xf32>)  : i32 {
      %1 = arith.remsi %arg1, %c128_i32 : i32
      %2 = arith.index_cast %1 : i32 to index
      %extracted = tensor.extract %arg0[%c0, %2] : tensor<1x128xf32>
      %3 = arith.index_cast %arg1 : i32 to index
      %inserted = tensor.insert %extracted into %arg2[%c0, %3] : tensor<1x1024xf32>
      scf.yield %inserted : tensor<1x1024xf32>
    }
    return %0 : tensor<1x1024xf32>
  }
  func.func private @_assign_layout_4480308581085953659(%arg0: tensor<128x784xf32>) -> tensor<128x1024xf32> attributes {client.pack_func = {func_name = "orion_mlp"}} {
    %c783_i32 = arith.constant 783 : i32
    %c1807_i32 = arith.constant 1807 : i32
    %c128_i32 = arith.constant 128 : i32
    %c1024_i32 = arith.constant 1024 : i32
    %c240_i32 = arith.constant 240 : i32
    %cst = arith.constant dense<0.000000e+00> : tensor<128x1024xf32>
    %c0_i32 = arith.constant 0 : i32
    %c1_i32 = arith.constant 1 : i32
    %0 = scf.for %arg1 = %c0_i32 to %c128_i32 step %c1_i32 iter_args(%arg2 = %cst) -> (tensor<128x1024xf32>)  : i32 {
      %1 = scf.for %arg3 = %c0_i32 to %c1024_i32 step %c1_i32 iter_args(%arg4 = %arg2) -> (tensor<128x1024xf32>)  : i32 {
        %2 = arith.addi %arg1, %arg3 : i32
        %3 = arith.addi %2, %c240_i32 : i32
        %4 = arith.remsi %3, %c1024_i32 : i32
        %5 = arith.cmpi sge, %4, %c240_i32 : i32
        %6 = scf.if %5 -> (tensor<128x1024xf32>) {
          %7 = arith.remsi %arg3, %c128_i32 : i32
          %8 = arith.subi %c0_i32, %arg1 : i32
          %9 = arith.subi %8, %arg3 : i32
          %10 = arith.addi %9, %c1807_i32 : i32
          %11 = arith.remsi %10, %c1024_i32 : i32
          %12 = arith.subi %c783_i32, %11 : i32
          %13 = arith.index_cast %7 : i32 to index
          %14 = arith.index_cast %12 : i32 to index
          %extracted = tensor.extract %arg0[%13, %14] : tensor<128x784xf32>
          %15 = arith.index_cast %arg1 : i32 to index
          %16 = arith.index_cast %arg3 : i32 to index
          %inserted = tensor.insert %extracted into %arg4[%15, %16] : tensor<128x1024xf32>
          scf.yield %inserted : tensor<128x1024xf32>
        } else {
          scf.yield %arg4 : tensor<128x1024xf32>
        }
        scf.yield %6 : tensor<128x1024xf32>
      }
      scf.yield %1 : tensor<128x1024xf32>
    }
    return %0 : tensor<128x1024xf32>
  }
  func.func @orion_mlp__preprocessing(%encoder: !encoder, %arg0: tensor<128x784xf32>, %arg1: tensor<128xf32>, %arg2: tensor<128x128xf32>, %arg3: tensor<128xf32>, %arg4: tensor<10x128xf32>, %arg5: tensor<10xf32>) -> (tensor<18x!plaintext>, tensor<18x!plaintext>, tensor<18x!plaintext>, tensor<18x!plaintext>, tensor<18x!plaintext>, tensor<18x!plaintext>, tensor<18x!plaintext>, tensor<18x!plaintext>, tensor<18x!plaintext>, tensor<18x!plaintext>, tensor<18x!plaintext>, tensor<18x!plaintext>, tensor<18x!plaintext>, tensor<18x!plaintext>, tensor<18x!plaintext>, tensor<5x!plaintext>) attributes {client.pack_func = {func_name = "orion_mlp"}} {
    %expanded = tensor.expand_shape %arg1 [[0, 1]] output_shape [1, 128] : tensor<128xf32> into tensor<1x128xf32>
    %expanded_0 = tensor.expand_shape %arg3 [[0, 1]] output_shape [1, 128] : tensor<128xf32> into tensor<1x128xf32>
    %expanded_1 = tensor.expand_shape %arg5 [[0, 1]] output_shape [1, 10] : tensor<10xf32> into tensor<1x10xf32>
    %0 = call @_assign_layout_4480308581085953659(%arg0) : (tensor<128x784xf32>) -> tensor<128x1024xf32>
    %1 = call @_assign_layout_8429447273455582655(%expanded) : (tensor<1x128xf32>) -> tensor<1x1024xf32>
    %2 = call @_assign_layout_8090026053256017215(%arg2) : (tensor<128x128xf32>) -> tensor<128x1024xf32>
    %3 = call @_assign_layout_8429447273455582655(%expanded_0) : (tensor<1x128xf32>) -> tensor<1x1024xf32>
    %4 = call @_assign_layout_9997215191011925831(%arg4) : (tensor<10x128xf32>) -> tensor<16x1024xf32>
    %5 = call @_assign_layout_13960468826546287343(%expanded_1) : (tensor<1x10xf32>) -> tensor<1x1024xf32>
    %extracted_slice = tensor.extract_slice %2[12, 0] [1, 1024] [1, 1] : tensor<128x1024xf32> to tensor<1x1024xf32>
    %extracted_slice_2 = tensor.extract_slice %2[13, 0] [1, 1024] [1, 1] : tensor<128x1024xf32> to tensor<1x1024xf32>
    %extracted_slice_3 = tensor.extract_slice %2[14, 0] [1, 1024] [1, 1] : tensor<128x1024xf32> to tensor<1x1024xf32>
    %extracted_slice_4 = tensor.extract_slice %2[15, 0] [1, 1024] [1, 1] : tensor<128x1024xf32> to tensor<1x1024xf32>
    %extracted_slice_5 = tensor.extract_slice %2[16, 0] [1, 1024] [1, 1] : tensor<128x1024xf32> to tensor<1x1024xf32>
    %extracted_slice_6 = tensor.extract_slice %2[17, 0] [1, 1024] [1, 1] : tensor<128x1024xf32> to tensor<1x1024xf32>
    %extracted_slice_7 = tensor.extract_slice %2[18, 0] [1, 1024] [1, 1] : tensor<128x1024xf32> to tensor<1x1024xf32>
    %extracted_slice_8 = tensor.extract_slice %2[19, 0] [1, 1024] [1, 1] : tensor<128x1024xf32> to tensor<1x1024xf32>
    %extracted_slice_9 = tensor.extract_slice %2[20, 0] [1, 1024] [1, 1] : tensor<128x1024xf32> to tensor<1x1024xf32>
    %extracted_slice_10 = tensor.extract_slice %2[21, 0] [1, 1024] [1, 1] : tensor<128x1024xf32> to tensor<1x1024xf32>
    %extracted_slice_11 = tensor.extract_slice %2[22, 0] [1, 1024] [1, 1] : tensor<128x1024xf32> to tensor<1x1024xf32>
    %extracted_slice_12 = tensor.extract_slice %2[23, 0] [1, 1024] [1, 1] : tensor<128x1024xf32> to tensor<1x1024xf32>
    %extracted_slice_13 = tensor.extract_slice %2[24, 0] [1, 1024] [1, 1] : tensor<128x1024xf32> to tensor<1x1024xf32>
    %extracted_slice_14 = tensor.extract_slice %2[25, 0] [1, 1024] [1, 1] : tensor<128x1024xf32> to tensor<1x1024xf32>
    %extracted_slice_15 = tensor.extract_slice %2[26, 0] [1, 1024] [1, 1] : tensor<128x1024xf32> to tensor<1x1024xf32>
    %extracted_slice_16 = tensor.extract_slice %2[27, 0] [1, 1024] [1, 1] : tensor<128x1024xf32> to tensor<1x1024xf32>
    %extracted_slice_17 = tensor.extract_slice %2[28, 0] [1, 1024] [1, 1] : tensor<128x1024xf32> to tensor<1x1024xf32>
    %extracted_slice_18 = tensor.extract_slice %2[29, 0] [1, 1024] [1, 1] : tensor<128x1024xf32> to tensor<1x1024xf32>
    %extracted_slice_19 = tensor.extract_slice %2[30, 0] [1, 1024] [1, 1] : tensor<128x1024xf32> to tensor<1x1024xf32>
    %extracted_slice_20 = tensor.extract_slice %2[31, 0] [1, 1024] [1, 1] : tensor<128x1024xf32> to tensor<1x1024xf32>
    %extracted_slice_21 = tensor.extract_slice %2[32, 0] [1, 1024] [1, 1] : tensor<128x1024xf32> to tensor<1x1024xf32>
    %extracted_slice_22 = tensor.extract_slice %2[33, 0] [1, 1024] [1, 1] : tensor<128x1024xf32> to tensor<1x1024xf32>
    %extracted_slice_23 = tensor.extract_slice %2[34, 0] [1, 1024] [1, 1] : tensor<128x1024xf32> to tensor<1x1024xf32>
    %extracted_slice_24 = tensor.extract_slice %2[35, 0] [1, 1024] [1, 1] : tensor<128x1024xf32> to tensor<1x1024xf32>
    %extracted_slice_25 = tensor.extract_slice %2[36, 0] [1, 1024] [1, 1] : tensor<128x1024xf32> to tensor<1x1024xf32>
    %extracted_slice_26 = tensor.extract_slice %2[37, 0] [1, 1024] [1, 1] : tensor<128x1024xf32> to tensor<1x1024xf32>
    %extracted_slice_27 = tensor.extract_slice %2[38, 0] [1, 1024] [1, 1] : tensor<128x1024xf32> to tensor<1x1024xf32>
    %extracted_slice_28 = tensor.extract_slice %2[39, 0] [1, 1024] [1, 1] : tensor<128x1024xf32> to tensor<1x1024xf32>
    %extracted_slice_29 = tensor.extract_slice %2[40, 0] [1, 1024] [1, 1] : tensor<128x1024xf32> to tensor<1x1024xf32>
    %extracted_slice_30 = tensor.extract_slice %2[41, 0] [1, 1024] [1, 1] : tensor<128x1024xf32> to tensor<1x1024xf32>
    %extracted_slice_31 = tensor.extract_slice %2[42, 0] [1, 1024] [1, 1] : tensor<128x1024xf32> to tensor<1x1024xf32>
    %extracted_slice_32 = tensor.extract_slice %2[43, 0] [1, 1024] [1, 1] : tensor<128x1024xf32> to tensor<1x1024xf32>
    %extracted_slice_33 = tensor.extract_slice %2[44, 0] [1, 1024] [1, 1] : tensor<128x1024xf32> to tensor<1x1024xf32>
    %extracted_slice_34 = tensor.extract_slice %2[45, 0] [1, 1024] [1, 1] : tensor<128x1024xf32> to tensor<1x1024xf32>
    %extracted_slice_35 = tensor.extract_slice %2[46, 0] [1, 1024] [1, 1] : tensor<128x1024xf32> to tensor<1x1024xf32>
    %extracted_slice_36 = tensor.extract_slice %2[47, 0] [1, 1024] [1, 1] : tensor<128x1024xf32> to tensor<1x1024xf32>
    %extracted_slice_37 = tensor.extract_slice %2[48, 0] [1, 1024] [1, 1] : tensor<128x1024xf32> to tensor<1x1024xf32>
    %extracted_slice_38 = tensor.extract_slice %2[49, 0] [1, 1024] [1, 1] : tensor<128x1024xf32> to tensor<1x1024xf32>
    %extracted_slice_39 = tensor.extract_slice %2[50, 0] [1, 1024] [1, 1] : tensor<128x1024xf32> to tensor<1x1024xf32>
    %extracted_slice_40 = tensor.extract_slice %2[51, 0] [1, 1024] [1, 1] : tensor<128x1024xf32> to tensor<1x1024xf32>
    %extracted_slice_41 = tensor.extract_slice %2[52, 0] [1, 1024] [1, 1] : tensor<128x1024xf32> to tensor<1x1024xf32>
    %extracted_slice_42 = tensor.extract_slice %2[53, 0] [1, 1024] [1, 1] : tensor<128x1024xf32> to tensor<1x1024xf32>
    %extracted_slice_43 = tensor.extract_slice %2[54, 0] [1, 1024] [1, 1] : tensor<128x1024xf32> to tensor<1x1024xf32>
    %extracted_slice_44 = tensor.extract_slice %2[55, 0] [1, 1024] [1, 1] : tensor<128x1024xf32> to tensor<1x1024xf32>
    %extracted_slice_45 = tensor.extract_slice %2[56, 0] [1, 1024] [1, 1] : tensor<128x1024xf32> to tensor<1x1024xf32>
    %extracted_slice_46 = tensor.extract_slice %2[57, 0] [1, 1024] [1, 1] : tensor<128x1024xf32> to tensor<1x1024xf32>
    %extracted_slice_47 = tensor.extract_slice %2[58, 0] [1, 1024] [1, 1] : tensor<128x1024xf32> to tensor<1x1024xf32>
    %extracted_slice_48 = tensor.extract_slice %2[59, 0] [1, 1024] [1, 1] : tensor<128x1024xf32> to tensor<1x1024xf32>
    %extracted_slice_49 = tensor.extract_slice %2[60, 0] [1, 1024] [1, 1] : tensor<128x1024xf32> to tensor<1x1024xf32>
    %extracted_slice_50 = tensor.extract_slice %2[61, 0] [1, 1024] [1, 1] : tensor<128x1024xf32> to tensor<1x1024xf32>
    %extracted_slice_51 = tensor.extract_slice %2[62, 0] [1, 1024] [1, 1] : tensor<128x1024xf32> to tensor<1x1024xf32>
    %extracted_slice_52 = tensor.extract_slice %2[63, 0] [1, 1024] [1, 1] : tensor<128x1024xf32> to tensor<1x1024xf32>
    %extracted_slice_53 = tensor.extract_slice %2[64, 0] [1, 1024] [1, 1] : tensor<128x1024xf32> to tensor<1x1024xf32>
    %extracted_slice_54 = tensor.extract_slice %2[65, 0] [1, 1024] [1, 1] : tensor<128x1024xf32> to tensor<1x1024xf32>
    %extracted_slice_55 = tensor.extract_slice %2[66, 0] [1, 1024] [1, 1] : tensor<128x1024xf32> to tensor<1x1024xf32>
    %extracted_slice_56 = tensor.extract_slice %2[67, 0] [1, 1024] [1, 1] : tensor<128x1024xf32> to tensor<1x1024xf32>
    %extracted_slice_57 = tensor.extract_slice %2[68, 0] [1, 1024] [1, 1] : tensor<128x1024xf32> to tensor<1x1024xf32>
    %extracted_slice_58 = tensor.extract_slice %2[69, 0] [1, 1024] [1, 1] : tensor<128x1024xf32> to tensor<1x1024xf32>
    %extracted_slice_59 = tensor.extract_slice %2[70, 0] [1, 1024] [1, 1] : tensor<128x1024xf32> to tensor<1x1024xf32>
    %extracted_slice_60 = tensor.extract_slice %2[71, 0] [1, 1024] [1, 1] : tensor<128x1024xf32> to tensor<1x1024xf32>
    %extracted_slice_61 = tensor.extract_slice %2[72, 0] [1, 1024] [1, 1] : tensor<128x1024xf32> to tensor<1x1024xf32>
    %extracted_slice_62 = tensor.extract_slice %2[73, 0] [1, 1024] [1, 1] : tensor<128x1024xf32> to tensor<1x1024xf32>
    %extracted_slice_63 = tensor.extract_slice %2[74, 0] [1, 1024] [1, 1] : tensor<128x1024xf32> to tensor<1x1024xf32>
    %extracted_slice_64 = tensor.extract_slice %2[75, 0] [1, 1024] [1, 1] : tensor<128x1024xf32> to tensor<1x1024xf32>
    %extracted_slice_65 = tensor.extract_slice %2[76, 0] [1, 1024] [1, 1] : tensor<128x1024xf32> to tensor<1x1024xf32>
    %extracted_slice_66 = tensor.extract_slice %2[77, 0] [1, 1024] [1, 1] : tensor<128x1024xf32> to tensor<1x1024xf32>
    %extracted_slice_67 = tensor.extract_slice %2[78, 0] [1, 1024] [1, 1] : tensor<128x1024xf32> to tensor<1x1024xf32>
    %extracted_slice_68 = tensor.extract_slice %2[79, 0] [1, 1024] [1, 1] : tensor<128x1024xf32> to tensor<1x1024xf32>
    %extracted_slice_69 = tensor.extract_slice %2[80, 0] [1, 1024] [1, 1] : tensor<128x1024xf32> to tensor<1x1024xf32>
    %extracted_slice_70 = tensor.extract_slice %2[81, 0] [1, 1024] [1, 1] : tensor<128x1024xf32> to tensor<1x1024xf32>
    %extracted_slice_71 = tensor.extract_slice %2[82, 0] [1, 1024] [1, 1] : tensor<128x1024xf32> to tensor<1x1024xf32>
    %extracted_slice_72 = tensor.extract_slice %2[83, 0] [1, 1024] [1, 1] : tensor<128x1024xf32> to tensor<1x1024xf32>
    %extracted_slice_73 = tensor.extract_slice %2[84, 0] [1, 1024] [1, 1] : tensor<128x1024xf32> to tensor<1x1024xf32>
    %extracted_slice_74 = tensor.extract_slice %2[85, 0] [1, 1024] [1, 1] : tensor<128x1024xf32> to tensor<1x1024xf32>
    %extracted_slice_75 = tensor.extract_slice %2[86, 0] [1, 1024] [1, 1] : tensor<128x1024xf32> to tensor<1x1024xf32>
    %extracted_slice_76 = tensor.extract_slice %2[87, 0] [1, 1024] [1, 1] : tensor<128x1024xf32> to tensor<1x1024xf32>
    %extracted_slice_77 = tensor.extract_slice %2[88, 0] [1, 1024] [1, 1] : tensor<128x1024xf32> to tensor<1x1024xf32>
    %extracted_slice_78 = tensor.extract_slice %2[89, 0] [1, 1024] [1, 1] : tensor<128x1024xf32> to tensor<1x1024xf32>
    %extracted_slice_79 = tensor.extract_slice %2[90, 0] [1, 1024] [1, 1] : tensor<128x1024xf32> to tensor<1x1024xf32>
    %extracted_slice_80 = tensor.extract_slice %2[91, 0] [1, 1024] [1, 1] : tensor<128x1024xf32> to tensor<1x1024xf32>
    %extracted_slice_81 = tensor.extract_slice %2[92, 0] [1, 1024] [1, 1] : tensor<128x1024xf32> to tensor<1x1024xf32>
    %extracted_slice_82 = tensor.extract_slice %2[93, 0] [1, 1024] [1, 1] : tensor<128x1024xf32> to tensor<1x1024xf32>
    %extracted_slice_83 = tensor.extract_slice %2[94, 0] [1, 1024] [1, 1] : tensor<128x1024xf32> to tensor<1x1024xf32>
    %extracted_slice_84 = tensor.extract_slice %2[95, 0] [1, 1024] [1, 1] : tensor<128x1024xf32> to tensor<1x1024xf32>
    %extracted_slice_85 = tensor.extract_slice %2[96, 0] [1, 1024] [1, 1] : tensor<128x1024xf32> to tensor<1x1024xf32>
    %extracted_slice_86 = tensor.extract_slice %2[97, 0] [1, 1024] [1, 1] : tensor<128x1024xf32> to tensor<1x1024xf32>
    %extracted_slice_87 = tensor.extract_slice %2[98, 0] [1, 1024] [1, 1] : tensor<128x1024xf32> to tensor<1x1024xf32>
    %extracted_slice_88 = tensor.extract_slice %2[99, 0] [1, 1024] [1, 1] : tensor<128x1024xf32> to tensor<1x1024xf32>
    %extracted_slice_89 = tensor.extract_slice %2[100, 0] [1, 1024] [1, 1] : tensor<128x1024xf32> to tensor<1x1024xf32>
    %extracted_slice_90 = tensor.extract_slice %2[101, 0] [1, 1024] [1, 1] : tensor<128x1024xf32> to tensor<1x1024xf32>
    %extracted_slice_91 = tensor.extract_slice %2[102, 0] [1, 1024] [1, 1] : tensor<128x1024xf32> to tensor<1x1024xf32>
    %extracted_slice_92 = tensor.extract_slice %2[103, 0] [1, 1024] [1, 1] : tensor<128x1024xf32> to tensor<1x1024xf32>
    %extracted_slice_93 = tensor.extract_slice %2[104, 0] [1, 1024] [1, 1] : tensor<128x1024xf32> to tensor<1x1024xf32>
    %extracted_slice_94 = tensor.extract_slice %2[105, 0] [1, 1024] [1, 1] : tensor<128x1024xf32> to tensor<1x1024xf32>
    %extracted_slice_95 = tensor.extract_slice %2[106, 0] [1, 1024] [1, 1] : tensor<128x1024xf32> to tensor<1x1024xf32>
    %extracted_slice_96 = tensor.extract_slice %2[107, 0] [1, 1024] [1, 1] : tensor<128x1024xf32> to tensor<1x1024xf32>
    %extracted_slice_97 = tensor.extract_slice %2[108, 0] [1, 1024] [1, 1] : tensor<128x1024xf32> to tensor<1x1024xf32>
    %extracted_slice_98 = tensor.extract_slice %2[109, 0] [1, 1024] [1, 1] : tensor<128x1024xf32> to tensor<1x1024xf32>
    %extracted_slice_99 = tensor.extract_slice %2[110, 0] [1, 1024] [1, 1] : tensor<128x1024xf32> to tensor<1x1024xf32>
    %extracted_slice_100 = tensor.extract_slice %2[111, 0] [1, 1024] [1, 1] : tensor<128x1024xf32> to tensor<1x1024xf32>
    %extracted_slice_101 = tensor.extract_slice %2[112, 0] [1, 1024] [1, 1] : tensor<128x1024xf32> to tensor<1x1024xf32>
    %extracted_slice_102 = tensor.extract_slice %2[113, 0] [1, 1024] [1, 1] : tensor<128x1024xf32> to tensor<1x1024xf32>
    %extracted_slice_103 = tensor.extract_slice %2[114, 0] [1, 1024] [1, 1] : tensor<128x1024xf32> to tensor<1x1024xf32>
    %extracted_slice_104 = tensor.extract_slice %2[115, 0] [1, 1024] [1, 1] : tensor<128x1024xf32> to tensor<1x1024xf32>
    %extracted_slice_105 = tensor.extract_slice %2[116, 0] [1, 1024] [1, 1] : tensor<128x1024xf32> to tensor<1x1024xf32>
    %extracted_slice_106 = tensor.extract_slice %2[117, 0] [1, 1024] [1, 1] : tensor<128x1024xf32> to tensor<1x1024xf32>
    %extracted_slice_107 = tensor.extract_slice %2[118, 0] [1, 1024] [1, 1] : tensor<128x1024xf32> to tensor<1x1024xf32>
    %extracted_slice_108 = tensor.extract_slice %2[119, 0] [1, 1024] [1, 1] : tensor<128x1024xf32> to tensor<1x1024xf32>
    %extracted_slice_109 = tensor.extract_slice %2[120, 0] [1, 1024] [1, 1] : tensor<128x1024xf32> to tensor<1x1024xf32>
    %extracted_slice_110 = tensor.extract_slice %2[121, 0] [1, 1024] [1, 1] : tensor<128x1024xf32> to tensor<1x1024xf32>
    %extracted_slice_111 = tensor.extract_slice %2[122, 0] [1, 1024] [1, 1] : tensor<128x1024xf32> to tensor<1x1024xf32>
    %extracted_slice_112 = tensor.extract_slice %2[123, 0] [1, 1024] [1, 1] : tensor<128x1024xf32> to tensor<1x1024xf32>
    %extracted_slice_113 = tensor.extract_slice %2[124, 0] [1, 1024] [1, 1] : tensor<128x1024xf32> to tensor<1x1024xf32>
    %extracted_slice_114 = tensor.extract_slice %2[125, 0] [1, 1024] [1, 1] : tensor<128x1024xf32> to tensor<1x1024xf32>
    %extracted_slice_115 = tensor.extract_slice %2[126, 0] [1, 1024] [1, 1] : tensor<128x1024xf32> to tensor<1x1024xf32>
    %extracted_slice_116 = tensor.extract_slice %2[127, 0] [1, 1024] [1, 1] : tensor<128x1024xf32> to tensor<1x1024xf32>
    %extracted_slice_117 = tensor.extract_slice %4[4, 0] [1, 1024] [1, 1] : tensor<16x1024xf32> to tensor<1x1024xf32>
    %extracted_slice_118 = tensor.extract_slice %4[5, 0] [1, 1024] [1, 1] : tensor<16x1024xf32> to tensor<1x1024xf32>
    %extracted_slice_119 = tensor.extract_slice %4[6, 0] [1, 1024] [1, 1] : tensor<16x1024xf32> to tensor<1x1024xf32>
    %extracted_slice_120 = tensor.extract_slice %4[7, 0] [1, 1024] [1, 1] : tensor<16x1024xf32> to tensor<1x1024xf32>
    %extracted_slice_121 = tensor.extract_slice %4[8, 0] [1, 1024] [1, 1] : tensor<16x1024xf32> to tensor<1x1024xf32>
    %extracted_slice_122 = tensor.extract_slice %4[9, 0] [1, 1024] [1, 1] : tensor<16x1024xf32> to tensor<1x1024xf32>
    %extracted_slice_123 = tensor.extract_slice %4[10, 0] [1, 1024] [1, 1] : tensor<16x1024xf32> to tensor<1x1024xf32>
    %extracted_slice_124 = tensor.extract_slice %4[11, 0] [1, 1024] [1, 1] : tensor<16x1024xf32> to tensor<1x1024xf32>
    %extracted_slice_125 = tensor.extract_slice %4[12, 0] [1, 1024] [1, 1] : tensor<16x1024xf32> to tensor<1x1024xf32>
    %extracted_slice_126 = tensor.extract_slice %4[13, 0] [1, 1024] [1, 1] : tensor<16x1024xf32> to tensor<1x1024xf32>
    %extracted_slice_127 = tensor.extract_slice %4[14, 0] [1, 1024] [1, 1] : tensor<16x1024xf32> to tensor<1x1024xf32>
    %extracted_slice_128 = tensor.extract_slice %4[15, 0] [1, 1024] [1, 1] : tensor<16x1024xf32> to tensor<1x1024xf32>
    %extracted_slice_129 = tensor.extract_slice %2[12, 0] [1, 1012] [1, 1] : tensor<128x1024xf32> to tensor<1x1012xf32>
    %extracted_slice_130 = tensor.extract_slice %2[12, 1012] [1, 12] [1, 1] : tensor<128x1024xf32> to tensor<1x12xf32>
    %inserted_slice = tensor.insert_slice %extracted_slice_129 into %extracted_slice[0, 12] [1, 1012] [1, 1] : tensor<1x1012xf32> into tensor<1x1024xf32>
    %inserted_slice_131 = tensor.insert_slice %extracted_slice_130 into %inserted_slice[0, 0] [1, 12] [1, 1] : tensor<1x12xf32> into tensor<1x1024xf32>
    %extracted_slice_132 = tensor.extract_slice %2[13, 0] [1, 1012] [1, 1] : tensor<128x1024xf32> to tensor<1x1012xf32>
    %extracted_slice_133 = tensor.extract_slice %2[13, 1012] [1, 12] [1, 1] : tensor<128x1024xf32> to tensor<1x12xf32>
    %inserted_slice_134 = tensor.insert_slice %extracted_slice_132 into %extracted_slice_2[0, 12] [1, 1012] [1, 1] : tensor<1x1012xf32> into tensor<1x1024xf32>
    %inserted_slice_135 = tensor.insert_slice %extracted_slice_133 into %inserted_slice_134[0, 0] [1, 12] [1, 1] : tensor<1x12xf32> into tensor<1x1024xf32>
    %extracted_slice_136 = tensor.extract_slice %2[14, 0] [1, 1012] [1, 1] : tensor<128x1024xf32> to tensor<1x1012xf32>
    %extracted_slice_137 = tensor.extract_slice %2[14, 1012] [1, 12] [1, 1] : tensor<128x1024xf32> to tensor<1x12xf32>
    %inserted_slice_138 = tensor.insert_slice %extracted_slice_136 into %extracted_slice_3[0, 12] [1, 1012] [1, 1] : tensor<1x1012xf32> into tensor<1x1024xf32>
    %inserted_slice_139 = tensor.insert_slice %extracted_slice_137 into %inserted_slice_138[0, 0] [1, 12] [1, 1] : tensor<1x12xf32> into tensor<1x1024xf32>
    %extracted_slice_140 = tensor.extract_slice %2[15, 0] [1, 1012] [1, 1] : tensor<128x1024xf32> to tensor<1x1012xf32>
    %extracted_slice_141 = tensor.extract_slice %2[15, 1012] [1, 12] [1, 1] : tensor<128x1024xf32> to tensor<1x12xf32>
    %inserted_slice_142 = tensor.insert_slice %extracted_slice_140 into %extracted_slice_4[0, 12] [1, 1012] [1, 1] : tensor<1x1012xf32> into tensor<1x1024xf32>
    %inserted_slice_143 = tensor.insert_slice %extracted_slice_141 into %inserted_slice_142[0, 0] [1, 12] [1, 1] : tensor<1x12xf32> into tensor<1x1024xf32>
    %extracted_slice_144 = tensor.extract_slice %2[16, 0] [1, 1012] [1, 1] : tensor<128x1024xf32> to tensor<1x1012xf32>
    %extracted_slice_145 = tensor.extract_slice %2[16, 1012] [1, 12] [1, 1] : tensor<128x1024xf32> to tensor<1x12xf32>
    %inserted_slice_146 = tensor.insert_slice %extracted_slice_144 into %extracted_slice_5[0, 12] [1, 1012] [1, 1] : tensor<1x1012xf32> into tensor<1x1024xf32>
    %inserted_slice_147 = tensor.insert_slice %extracted_slice_145 into %inserted_slice_146[0, 0] [1, 12] [1, 1] : tensor<1x12xf32> into tensor<1x1024xf32>
    %extracted_slice_148 = tensor.extract_slice %2[17, 0] [1, 1012] [1, 1] : tensor<128x1024xf32> to tensor<1x1012xf32>
    %extracted_slice_149 = tensor.extract_slice %2[17, 1012] [1, 12] [1, 1] : tensor<128x1024xf32> to tensor<1x12xf32>
    %inserted_slice_150 = tensor.insert_slice %extracted_slice_148 into %extracted_slice_6[0, 12] [1, 1012] [1, 1] : tensor<1x1012xf32> into tensor<1x1024xf32>
    %inserted_slice_151 = tensor.insert_slice %extracted_slice_149 into %inserted_slice_150[0, 0] [1, 12] [1, 1] : tensor<1x12xf32> into tensor<1x1024xf32>
    %extracted_slice_152 = tensor.extract_slice %2[18, 0] [1, 1012] [1, 1] : tensor<128x1024xf32> to tensor<1x1012xf32>
    %extracted_slice_153 = tensor.extract_slice %2[18, 1012] [1, 12] [1, 1] : tensor<128x1024xf32> to tensor<1x12xf32>
    %inserted_slice_154 = tensor.insert_slice %extracted_slice_152 into %extracted_slice_7[0, 12] [1, 1012] [1, 1] : tensor<1x1012xf32> into tensor<1x1024xf32>
    %inserted_slice_155 = tensor.insert_slice %extracted_slice_153 into %inserted_slice_154[0, 0] [1, 12] [1, 1] : tensor<1x12xf32> into tensor<1x1024xf32>
    %extracted_slice_156 = tensor.extract_slice %2[19, 0] [1, 1012] [1, 1] : tensor<128x1024xf32> to tensor<1x1012xf32>
    %extracted_slice_157 = tensor.extract_slice %2[19, 1012] [1, 12] [1, 1] : tensor<128x1024xf32> to tensor<1x12xf32>
    %inserted_slice_158 = tensor.insert_slice %extracted_slice_156 into %extracted_slice_8[0, 12] [1, 1012] [1, 1] : tensor<1x1012xf32> into tensor<1x1024xf32>
    %inserted_slice_159 = tensor.insert_slice %extracted_slice_157 into %inserted_slice_158[0, 0] [1, 12] [1, 1] : tensor<1x12xf32> into tensor<1x1024xf32>
    %extracted_slice_160 = tensor.extract_slice %2[20, 0] [1, 1012] [1, 1] : tensor<128x1024xf32> to tensor<1x1012xf32>
    %extracted_slice_161 = tensor.extract_slice %2[20, 1012] [1, 12] [1, 1] : tensor<128x1024xf32> to tensor<1x12xf32>
    %inserted_slice_162 = tensor.insert_slice %extracted_slice_160 into %extracted_slice_9[0, 12] [1, 1012] [1, 1] : tensor<1x1012xf32> into tensor<1x1024xf32>
    %inserted_slice_163 = tensor.insert_slice %extracted_slice_161 into %inserted_slice_162[0, 0] [1, 12] [1, 1] : tensor<1x12xf32> into tensor<1x1024xf32>
    %extracted_slice_164 = tensor.extract_slice %2[21, 0] [1, 1012] [1, 1] : tensor<128x1024xf32> to tensor<1x1012xf32>
    %extracted_slice_165 = tensor.extract_slice %2[21, 1012] [1, 12] [1, 1] : tensor<128x1024xf32> to tensor<1x12xf32>
    %inserted_slice_166 = tensor.insert_slice %extracted_slice_164 into %extracted_slice_10[0, 12] [1, 1012] [1, 1] : tensor<1x1012xf32> into tensor<1x1024xf32>
    %inserted_slice_167 = tensor.insert_slice %extracted_slice_165 into %inserted_slice_166[0, 0] [1, 12] [1, 1] : tensor<1x12xf32> into tensor<1x1024xf32>
    %extracted_slice_168 = tensor.extract_slice %2[22, 0] [1, 1012] [1, 1] : tensor<128x1024xf32> to tensor<1x1012xf32>
    %extracted_slice_169 = tensor.extract_slice %2[22, 1012] [1, 12] [1, 1] : tensor<128x1024xf32> to tensor<1x12xf32>
    %inserted_slice_170 = tensor.insert_slice %extracted_slice_168 into %extracted_slice_11[0, 12] [1, 1012] [1, 1] : tensor<1x1012xf32> into tensor<1x1024xf32>
    %inserted_slice_171 = tensor.insert_slice %extracted_slice_169 into %inserted_slice_170[0, 0] [1, 12] [1, 1] : tensor<1x12xf32> into tensor<1x1024xf32>
    %extracted_slice_172 = tensor.extract_slice %2[23, 0] [1, 1012] [1, 1] : tensor<128x1024xf32> to tensor<1x1012xf32>
    %extracted_slice_173 = tensor.extract_slice %2[23, 1012] [1, 12] [1, 1] : tensor<128x1024xf32> to tensor<1x12xf32>
    %inserted_slice_174 = tensor.insert_slice %extracted_slice_172 into %extracted_slice_12[0, 12] [1, 1012] [1, 1] : tensor<1x1012xf32> into tensor<1x1024xf32>
    %inserted_slice_175 = tensor.insert_slice %extracted_slice_173 into %inserted_slice_174[0, 0] [1, 12] [1, 1] : tensor<1x12xf32> into tensor<1x1024xf32>
    %extracted_slice_176 = tensor.extract_slice %2[24, 0] [1, 1000] [1, 1] : tensor<128x1024xf32> to tensor<1x1000xf32>
    %extracted_slice_177 = tensor.extract_slice %2[24, 1000] [1, 24] [1, 1] : tensor<128x1024xf32> to tensor<1x24xf32>
    %inserted_slice_178 = tensor.insert_slice %extracted_slice_176 into %extracted_slice_13[0, 24] [1, 1000] [1, 1] : tensor<1x1000xf32> into tensor<1x1024xf32>
    %inserted_slice_179 = tensor.insert_slice %extracted_slice_177 into %inserted_slice_178[0, 0] [1, 24] [1, 1] : tensor<1x24xf32> into tensor<1x1024xf32>
    %extracted_slice_180 = tensor.extract_slice %2[25, 0] [1, 1000] [1, 1] : tensor<128x1024xf32> to tensor<1x1000xf32>
    %extracted_slice_181 = tensor.extract_slice %2[25, 1000] [1, 24] [1, 1] : tensor<128x1024xf32> to tensor<1x24xf32>
    %inserted_slice_182 = tensor.insert_slice %extracted_slice_180 into %extracted_slice_14[0, 24] [1, 1000] [1, 1] : tensor<1x1000xf32> into tensor<1x1024xf32>
    %inserted_slice_183 = tensor.insert_slice %extracted_slice_181 into %inserted_slice_182[0, 0] [1, 24] [1, 1] : tensor<1x24xf32> into tensor<1x1024xf32>
    %extracted_slice_184 = tensor.extract_slice %2[26, 0] [1, 1000] [1, 1] : tensor<128x1024xf32> to tensor<1x1000xf32>
    %extracted_slice_185 = tensor.extract_slice %2[26, 1000] [1, 24] [1, 1] : tensor<128x1024xf32> to tensor<1x24xf32>
    %inserted_slice_186 = tensor.insert_slice %extracted_slice_184 into %extracted_slice_15[0, 24] [1, 1000] [1, 1] : tensor<1x1000xf32> into tensor<1x1024xf32>
    %inserted_slice_187 = tensor.insert_slice %extracted_slice_185 into %inserted_slice_186[0, 0] [1, 24] [1, 1] : tensor<1x24xf32> into tensor<1x1024xf32>
    %extracted_slice_188 = tensor.extract_slice %2[27, 0] [1, 1000] [1, 1] : tensor<128x1024xf32> to tensor<1x1000xf32>
    %extracted_slice_189 = tensor.extract_slice %2[27, 1000] [1, 24] [1, 1] : tensor<128x1024xf32> to tensor<1x24xf32>
    %inserted_slice_190 = tensor.insert_slice %extracted_slice_188 into %extracted_slice_16[0, 24] [1, 1000] [1, 1] : tensor<1x1000xf32> into tensor<1x1024xf32>
    %inserted_slice_191 = tensor.insert_slice %extracted_slice_189 into %inserted_slice_190[0, 0] [1, 24] [1, 1] : tensor<1x24xf32> into tensor<1x1024xf32>
    %extracted_slice_192 = tensor.extract_slice %2[28, 0] [1, 1000] [1, 1] : tensor<128x1024xf32> to tensor<1x1000xf32>
    %extracted_slice_193 = tensor.extract_slice %2[28, 1000] [1, 24] [1, 1] : tensor<128x1024xf32> to tensor<1x24xf32>
    %inserted_slice_194 = tensor.insert_slice %extracted_slice_192 into %extracted_slice_17[0, 24] [1, 1000] [1, 1] : tensor<1x1000xf32> into tensor<1x1024xf32>
    %inserted_slice_195 = tensor.insert_slice %extracted_slice_193 into %inserted_slice_194[0, 0] [1, 24] [1, 1] : tensor<1x24xf32> into tensor<1x1024xf32>
    %extracted_slice_196 = tensor.extract_slice %2[29, 0] [1, 1000] [1, 1] : tensor<128x1024xf32> to tensor<1x1000xf32>
    %extracted_slice_197 = tensor.extract_slice %2[29, 1000] [1, 24] [1, 1] : tensor<128x1024xf32> to tensor<1x24xf32>
    %inserted_slice_198 = tensor.insert_slice %extracted_slice_196 into %extracted_slice_18[0, 24] [1, 1000] [1, 1] : tensor<1x1000xf32> into tensor<1x1024xf32>
    %inserted_slice_199 = tensor.insert_slice %extracted_slice_197 into %inserted_slice_198[0, 0] [1, 24] [1, 1] : tensor<1x24xf32> into tensor<1x1024xf32>
    %extracted_slice_200 = tensor.extract_slice %2[30, 0] [1, 1000] [1, 1] : tensor<128x1024xf32> to tensor<1x1000xf32>
    %extracted_slice_201 = tensor.extract_slice %2[30, 1000] [1, 24] [1, 1] : tensor<128x1024xf32> to tensor<1x24xf32>
    %inserted_slice_202 = tensor.insert_slice %extracted_slice_200 into %extracted_slice_19[0, 24] [1, 1000] [1, 1] : tensor<1x1000xf32> into tensor<1x1024xf32>
    %inserted_slice_203 = tensor.insert_slice %extracted_slice_201 into %inserted_slice_202[0, 0] [1, 24] [1, 1] : tensor<1x24xf32> into tensor<1x1024xf32>
    %extracted_slice_204 = tensor.extract_slice %2[31, 0] [1, 1000] [1, 1] : tensor<128x1024xf32> to tensor<1x1000xf32>
    %extracted_slice_205 = tensor.extract_slice %2[31, 1000] [1, 24] [1, 1] : tensor<128x1024xf32> to tensor<1x24xf32>
    %inserted_slice_206 = tensor.insert_slice %extracted_slice_204 into %extracted_slice_20[0, 24] [1, 1000] [1, 1] : tensor<1x1000xf32> into tensor<1x1024xf32>
    %inserted_slice_207 = tensor.insert_slice %extracted_slice_205 into %inserted_slice_206[0, 0] [1, 24] [1, 1] : tensor<1x24xf32> into tensor<1x1024xf32>
    %extracted_slice_208 = tensor.extract_slice %2[32, 0] [1, 1000] [1, 1] : tensor<128x1024xf32> to tensor<1x1000xf32>
    %extracted_slice_209 = tensor.extract_slice %2[32, 1000] [1, 24] [1, 1] : tensor<128x1024xf32> to tensor<1x24xf32>
    %inserted_slice_210 = tensor.insert_slice %extracted_slice_208 into %extracted_slice_21[0, 24] [1, 1000] [1, 1] : tensor<1x1000xf32> into tensor<1x1024xf32>
    %inserted_slice_211 = tensor.insert_slice %extracted_slice_209 into %inserted_slice_210[0, 0] [1, 24] [1, 1] : tensor<1x24xf32> into tensor<1x1024xf32>
    %extracted_slice_212 = tensor.extract_slice %2[33, 0] [1, 1000] [1, 1] : tensor<128x1024xf32> to tensor<1x1000xf32>
    %extracted_slice_213 = tensor.extract_slice %2[33, 1000] [1, 24] [1, 1] : tensor<128x1024xf32> to tensor<1x24xf32>
    %inserted_slice_214 = tensor.insert_slice %extracted_slice_212 into %extracted_slice_22[0, 24] [1, 1000] [1, 1] : tensor<1x1000xf32> into tensor<1x1024xf32>
    %inserted_slice_215 = tensor.insert_slice %extracted_slice_213 into %inserted_slice_214[0, 0] [1, 24] [1, 1] : tensor<1x24xf32> into tensor<1x1024xf32>
    %extracted_slice_216 = tensor.extract_slice %2[34, 0] [1, 1000] [1, 1] : tensor<128x1024xf32> to tensor<1x1000xf32>
    %extracted_slice_217 = tensor.extract_slice %2[34, 1000] [1, 24] [1, 1] : tensor<128x1024xf32> to tensor<1x24xf32>
    %inserted_slice_218 = tensor.insert_slice %extracted_slice_216 into %extracted_slice_23[0, 24] [1, 1000] [1, 1] : tensor<1x1000xf32> into tensor<1x1024xf32>
    %inserted_slice_219 = tensor.insert_slice %extracted_slice_217 into %inserted_slice_218[0, 0] [1, 24] [1, 1] : tensor<1x24xf32> into tensor<1x1024xf32>
    %extracted_slice_220 = tensor.extract_slice %2[35, 0] [1, 1000] [1, 1] : tensor<128x1024xf32> to tensor<1x1000xf32>
    %extracted_slice_221 = tensor.extract_slice %2[35, 1000] [1, 24] [1, 1] : tensor<128x1024xf32> to tensor<1x24xf32>
    %inserted_slice_222 = tensor.insert_slice %extracted_slice_220 into %extracted_slice_24[0, 24] [1, 1000] [1, 1] : tensor<1x1000xf32> into tensor<1x1024xf32>
    %inserted_slice_223 = tensor.insert_slice %extracted_slice_221 into %inserted_slice_222[0, 0] [1, 24] [1, 1] : tensor<1x24xf32> into tensor<1x1024xf32>
    %extracted_slice_224 = tensor.extract_slice %2[36, 0] [1, 988] [1, 1] : tensor<128x1024xf32> to tensor<1x988xf32>
    %extracted_slice_225 = tensor.extract_slice %2[36, 988] [1, 36] [1, 1] : tensor<128x1024xf32> to tensor<1x36xf32>
    %inserted_slice_226 = tensor.insert_slice %extracted_slice_224 into %extracted_slice_25[0, 36] [1, 988] [1, 1] : tensor<1x988xf32> into tensor<1x1024xf32>
    %inserted_slice_227 = tensor.insert_slice %extracted_slice_225 into %inserted_slice_226[0, 0] [1, 36] [1, 1] : tensor<1x36xf32> into tensor<1x1024xf32>
    %extracted_slice_228 = tensor.extract_slice %2[37, 0] [1, 988] [1, 1] : tensor<128x1024xf32> to tensor<1x988xf32>
    %extracted_slice_229 = tensor.extract_slice %2[37, 988] [1, 36] [1, 1] : tensor<128x1024xf32> to tensor<1x36xf32>
    %inserted_slice_230 = tensor.insert_slice %extracted_slice_228 into %extracted_slice_26[0, 36] [1, 988] [1, 1] : tensor<1x988xf32> into tensor<1x1024xf32>
    %inserted_slice_231 = tensor.insert_slice %extracted_slice_229 into %inserted_slice_230[0, 0] [1, 36] [1, 1] : tensor<1x36xf32> into tensor<1x1024xf32>
    %extracted_slice_232 = tensor.extract_slice %2[38, 0] [1, 988] [1, 1] : tensor<128x1024xf32> to tensor<1x988xf32>
    %extracted_slice_233 = tensor.extract_slice %2[38, 988] [1, 36] [1, 1] : tensor<128x1024xf32> to tensor<1x36xf32>
    %inserted_slice_234 = tensor.insert_slice %extracted_slice_232 into %extracted_slice_27[0, 36] [1, 988] [1, 1] : tensor<1x988xf32> into tensor<1x1024xf32>
    %inserted_slice_235 = tensor.insert_slice %extracted_slice_233 into %inserted_slice_234[0, 0] [1, 36] [1, 1] : tensor<1x36xf32> into tensor<1x1024xf32>
    %extracted_slice_236 = tensor.extract_slice %2[39, 0] [1, 988] [1, 1] : tensor<128x1024xf32> to tensor<1x988xf32>
    %extracted_slice_237 = tensor.extract_slice %2[39, 988] [1, 36] [1, 1] : tensor<128x1024xf32> to tensor<1x36xf32>
    %inserted_slice_238 = tensor.insert_slice %extracted_slice_236 into %extracted_slice_28[0, 36] [1, 988] [1, 1] : tensor<1x988xf32> into tensor<1x1024xf32>
    %inserted_slice_239 = tensor.insert_slice %extracted_slice_237 into %inserted_slice_238[0, 0] [1, 36] [1, 1] : tensor<1x36xf32> into tensor<1x1024xf32>
    %extracted_slice_240 = tensor.extract_slice %2[40, 0] [1, 988] [1, 1] : tensor<128x1024xf32> to tensor<1x988xf32>
    %extracted_slice_241 = tensor.extract_slice %2[40, 988] [1, 36] [1, 1] : tensor<128x1024xf32> to tensor<1x36xf32>
    %inserted_slice_242 = tensor.insert_slice %extracted_slice_240 into %extracted_slice_29[0, 36] [1, 988] [1, 1] : tensor<1x988xf32> into tensor<1x1024xf32>
    %inserted_slice_243 = tensor.insert_slice %extracted_slice_241 into %inserted_slice_242[0, 0] [1, 36] [1, 1] : tensor<1x36xf32> into tensor<1x1024xf32>
    %extracted_slice_244 = tensor.extract_slice %2[41, 0] [1, 988] [1, 1] : tensor<128x1024xf32> to tensor<1x988xf32>
    %extracted_slice_245 = tensor.extract_slice %2[41, 988] [1, 36] [1, 1] : tensor<128x1024xf32> to tensor<1x36xf32>
    %inserted_slice_246 = tensor.insert_slice %extracted_slice_244 into %extracted_slice_30[0, 36] [1, 988] [1, 1] : tensor<1x988xf32> into tensor<1x1024xf32>
    %inserted_slice_247 = tensor.insert_slice %extracted_slice_245 into %inserted_slice_246[0, 0] [1, 36] [1, 1] : tensor<1x36xf32> into tensor<1x1024xf32>
    %extracted_slice_248 = tensor.extract_slice %2[42, 0] [1, 988] [1, 1] : tensor<128x1024xf32> to tensor<1x988xf32>
    %extracted_slice_249 = tensor.extract_slice %2[42, 988] [1, 36] [1, 1] : tensor<128x1024xf32> to tensor<1x36xf32>
    %inserted_slice_250 = tensor.insert_slice %extracted_slice_248 into %extracted_slice_31[0, 36] [1, 988] [1, 1] : tensor<1x988xf32> into tensor<1x1024xf32>
    %inserted_slice_251 = tensor.insert_slice %extracted_slice_249 into %inserted_slice_250[0, 0] [1, 36] [1, 1] : tensor<1x36xf32> into tensor<1x1024xf32>
    %extracted_slice_252 = tensor.extract_slice %2[43, 0] [1, 988] [1, 1] : tensor<128x1024xf32> to tensor<1x988xf32>
    %extracted_slice_253 = tensor.extract_slice %2[43, 988] [1, 36] [1, 1] : tensor<128x1024xf32> to tensor<1x36xf32>
    %inserted_slice_254 = tensor.insert_slice %extracted_slice_252 into %extracted_slice_32[0, 36] [1, 988] [1, 1] : tensor<1x988xf32> into tensor<1x1024xf32>
    %inserted_slice_255 = tensor.insert_slice %extracted_slice_253 into %inserted_slice_254[0, 0] [1, 36] [1, 1] : tensor<1x36xf32> into tensor<1x1024xf32>
    %extracted_slice_256 = tensor.extract_slice %2[44, 0] [1, 988] [1, 1] : tensor<128x1024xf32> to tensor<1x988xf32>
    %extracted_slice_257 = tensor.extract_slice %2[44, 988] [1, 36] [1, 1] : tensor<128x1024xf32> to tensor<1x36xf32>
    %inserted_slice_258 = tensor.insert_slice %extracted_slice_256 into %extracted_slice_33[0, 36] [1, 988] [1, 1] : tensor<1x988xf32> into tensor<1x1024xf32>
    %inserted_slice_259 = tensor.insert_slice %extracted_slice_257 into %inserted_slice_258[0, 0] [1, 36] [1, 1] : tensor<1x36xf32> into tensor<1x1024xf32>
    %extracted_slice_260 = tensor.extract_slice %2[45, 0] [1, 988] [1, 1] : tensor<128x1024xf32> to tensor<1x988xf32>
    %extracted_slice_261 = tensor.extract_slice %2[45, 988] [1, 36] [1, 1] : tensor<128x1024xf32> to tensor<1x36xf32>
    %inserted_slice_262 = tensor.insert_slice %extracted_slice_260 into %extracted_slice_34[0, 36] [1, 988] [1, 1] : tensor<1x988xf32> into tensor<1x1024xf32>
    %inserted_slice_263 = tensor.insert_slice %extracted_slice_261 into %inserted_slice_262[0, 0] [1, 36] [1, 1] : tensor<1x36xf32> into tensor<1x1024xf32>
    %extracted_slice_264 = tensor.extract_slice %2[46, 0] [1, 988] [1, 1] : tensor<128x1024xf32> to tensor<1x988xf32>
    %extracted_slice_265 = tensor.extract_slice %2[46, 988] [1, 36] [1, 1] : tensor<128x1024xf32> to tensor<1x36xf32>
    %inserted_slice_266 = tensor.insert_slice %extracted_slice_264 into %extracted_slice_35[0, 36] [1, 988] [1, 1] : tensor<1x988xf32> into tensor<1x1024xf32>
    %inserted_slice_267 = tensor.insert_slice %extracted_slice_265 into %inserted_slice_266[0, 0] [1, 36] [1, 1] : tensor<1x36xf32> into tensor<1x1024xf32>
    %extracted_slice_268 = tensor.extract_slice %2[47, 0] [1, 988] [1, 1] : tensor<128x1024xf32> to tensor<1x988xf32>
    %extracted_slice_269 = tensor.extract_slice %2[47, 988] [1, 36] [1, 1] : tensor<128x1024xf32> to tensor<1x36xf32>
    %inserted_slice_270 = tensor.insert_slice %extracted_slice_268 into %extracted_slice_36[0, 36] [1, 988] [1, 1] : tensor<1x988xf32> into tensor<1x1024xf32>
    %inserted_slice_271 = tensor.insert_slice %extracted_slice_269 into %inserted_slice_270[0, 0] [1, 36] [1, 1] : tensor<1x36xf32> into tensor<1x1024xf32>
    %extracted_slice_272 = tensor.extract_slice %2[48, 0] [1, 976] [1, 1] : tensor<128x1024xf32> to tensor<1x976xf32>
    %extracted_slice_273 = tensor.extract_slice %2[48, 976] [1, 48] [1, 1] : tensor<128x1024xf32> to tensor<1x48xf32>
    %inserted_slice_274 = tensor.insert_slice %extracted_slice_272 into %extracted_slice_37[0, 48] [1, 976] [1, 1] : tensor<1x976xf32> into tensor<1x1024xf32>
    %inserted_slice_275 = tensor.insert_slice %extracted_slice_273 into %inserted_slice_274[0, 0] [1, 48] [1, 1] : tensor<1x48xf32> into tensor<1x1024xf32>
    %extracted_slice_276 = tensor.extract_slice %2[49, 0] [1, 976] [1, 1] : tensor<128x1024xf32> to tensor<1x976xf32>
    %extracted_slice_277 = tensor.extract_slice %2[49, 976] [1, 48] [1, 1] : tensor<128x1024xf32> to tensor<1x48xf32>
    %inserted_slice_278 = tensor.insert_slice %extracted_slice_276 into %extracted_slice_38[0, 48] [1, 976] [1, 1] : tensor<1x976xf32> into tensor<1x1024xf32>
    %inserted_slice_279 = tensor.insert_slice %extracted_slice_277 into %inserted_slice_278[0, 0] [1, 48] [1, 1] : tensor<1x48xf32> into tensor<1x1024xf32>
    %extracted_slice_280 = tensor.extract_slice %2[50, 0] [1, 976] [1, 1] : tensor<128x1024xf32> to tensor<1x976xf32>
    %extracted_slice_281 = tensor.extract_slice %2[50, 976] [1, 48] [1, 1] : tensor<128x1024xf32> to tensor<1x48xf32>
    %inserted_slice_282 = tensor.insert_slice %extracted_slice_280 into %extracted_slice_39[0, 48] [1, 976] [1, 1] : tensor<1x976xf32> into tensor<1x1024xf32>
    %inserted_slice_283 = tensor.insert_slice %extracted_slice_281 into %inserted_slice_282[0, 0] [1, 48] [1, 1] : tensor<1x48xf32> into tensor<1x1024xf32>
    %extracted_slice_284 = tensor.extract_slice %2[51, 0] [1, 976] [1, 1] : tensor<128x1024xf32> to tensor<1x976xf32>
    %extracted_slice_285 = tensor.extract_slice %2[51, 976] [1, 48] [1, 1] : tensor<128x1024xf32> to tensor<1x48xf32>
    %inserted_slice_286 = tensor.insert_slice %extracted_slice_284 into %extracted_slice_40[0, 48] [1, 976] [1, 1] : tensor<1x976xf32> into tensor<1x1024xf32>
    %inserted_slice_287 = tensor.insert_slice %extracted_slice_285 into %inserted_slice_286[0, 0] [1, 48] [1, 1] : tensor<1x48xf32> into tensor<1x1024xf32>
    %extracted_slice_288 = tensor.extract_slice %2[52, 0] [1, 976] [1, 1] : tensor<128x1024xf32> to tensor<1x976xf32>
    %extracted_slice_289 = tensor.extract_slice %2[52, 976] [1, 48] [1, 1] : tensor<128x1024xf32> to tensor<1x48xf32>
    %inserted_slice_290 = tensor.insert_slice %extracted_slice_288 into %extracted_slice_41[0, 48] [1, 976] [1, 1] : tensor<1x976xf32> into tensor<1x1024xf32>
    %inserted_slice_291 = tensor.insert_slice %extracted_slice_289 into %inserted_slice_290[0, 0] [1, 48] [1, 1] : tensor<1x48xf32> into tensor<1x1024xf32>
    %extracted_slice_292 = tensor.extract_slice %2[53, 0] [1, 976] [1, 1] : tensor<128x1024xf32> to tensor<1x976xf32>
    %extracted_slice_293 = tensor.extract_slice %2[53, 976] [1, 48] [1, 1] : tensor<128x1024xf32> to tensor<1x48xf32>
    %inserted_slice_294 = tensor.insert_slice %extracted_slice_292 into %extracted_slice_42[0, 48] [1, 976] [1, 1] : tensor<1x976xf32> into tensor<1x1024xf32>
    %inserted_slice_295 = tensor.insert_slice %extracted_slice_293 into %inserted_slice_294[0, 0] [1, 48] [1, 1] : tensor<1x48xf32> into tensor<1x1024xf32>
    %extracted_slice_296 = tensor.extract_slice %2[54, 0] [1, 976] [1, 1] : tensor<128x1024xf32> to tensor<1x976xf32>
    %extracted_slice_297 = tensor.extract_slice %2[54, 976] [1, 48] [1, 1] : tensor<128x1024xf32> to tensor<1x48xf32>
    %inserted_slice_298 = tensor.insert_slice %extracted_slice_296 into %extracted_slice_43[0, 48] [1, 976] [1, 1] : tensor<1x976xf32> into tensor<1x1024xf32>
    %inserted_slice_299 = tensor.insert_slice %extracted_slice_297 into %inserted_slice_298[0, 0] [1, 48] [1, 1] : tensor<1x48xf32> into tensor<1x1024xf32>
    %extracted_slice_300 = tensor.extract_slice %2[55, 0] [1, 976] [1, 1] : tensor<128x1024xf32> to tensor<1x976xf32>
    %extracted_slice_301 = tensor.extract_slice %2[55, 976] [1, 48] [1, 1] : tensor<128x1024xf32> to tensor<1x48xf32>
    %inserted_slice_302 = tensor.insert_slice %extracted_slice_300 into %extracted_slice_44[0, 48] [1, 976] [1, 1] : tensor<1x976xf32> into tensor<1x1024xf32>
    %inserted_slice_303 = tensor.insert_slice %extracted_slice_301 into %inserted_slice_302[0, 0] [1, 48] [1, 1] : tensor<1x48xf32> into tensor<1x1024xf32>
    %extracted_slice_304 = tensor.extract_slice %2[56, 0] [1, 976] [1, 1] : tensor<128x1024xf32> to tensor<1x976xf32>
    %extracted_slice_305 = tensor.extract_slice %2[56, 976] [1, 48] [1, 1] : tensor<128x1024xf32> to tensor<1x48xf32>
    %inserted_slice_306 = tensor.insert_slice %extracted_slice_304 into %extracted_slice_45[0, 48] [1, 976] [1, 1] : tensor<1x976xf32> into tensor<1x1024xf32>
    %inserted_slice_307 = tensor.insert_slice %extracted_slice_305 into %inserted_slice_306[0, 0] [1, 48] [1, 1] : tensor<1x48xf32> into tensor<1x1024xf32>
    %extracted_slice_308 = tensor.extract_slice %2[57, 0] [1, 976] [1, 1] : tensor<128x1024xf32> to tensor<1x976xf32>
    %extracted_slice_309 = tensor.extract_slice %2[57, 976] [1, 48] [1, 1] : tensor<128x1024xf32> to tensor<1x48xf32>
    %inserted_slice_310 = tensor.insert_slice %extracted_slice_308 into %extracted_slice_46[0, 48] [1, 976] [1, 1] : tensor<1x976xf32> into tensor<1x1024xf32>
    %inserted_slice_311 = tensor.insert_slice %extracted_slice_309 into %inserted_slice_310[0, 0] [1, 48] [1, 1] : tensor<1x48xf32> into tensor<1x1024xf32>
    %extracted_slice_312 = tensor.extract_slice %2[58, 0] [1, 976] [1, 1] : tensor<128x1024xf32> to tensor<1x976xf32>
    %extracted_slice_313 = tensor.extract_slice %2[58, 976] [1, 48] [1, 1] : tensor<128x1024xf32> to tensor<1x48xf32>
    %inserted_slice_314 = tensor.insert_slice %extracted_slice_312 into %extracted_slice_47[0, 48] [1, 976] [1, 1] : tensor<1x976xf32> into tensor<1x1024xf32>
    %inserted_slice_315 = tensor.insert_slice %extracted_slice_313 into %inserted_slice_314[0, 0] [1, 48] [1, 1] : tensor<1x48xf32> into tensor<1x1024xf32>
    %extracted_slice_316 = tensor.extract_slice %2[59, 0] [1, 976] [1, 1] : tensor<128x1024xf32> to tensor<1x976xf32>
    %extracted_slice_317 = tensor.extract_slice %2[59, 976] [1, 48] [1, 1] : tensor<128x1024xf32> to tensor<1x48xf32>
    %inserted_slice_318 = tensor.insert_slice %extracted_slice_316 into %extracted_slice_48[0, 48] [1, 976] [1, 1] : tensor<1x976xf32> into tensor<1x1024xf32>
    %inserted_slice_319 = tensor.insert_slice %extracted_slice_317 into %inserted_slice_318[0, 0] [1, 48] [1, 1] : tensor<1x48xf32> into tensor<1x1024xf32>
    %extracted_slice_320 = tensor.extract_slice %2[60, 0] [1, 964] [1, 1] : tensor<128x1024xf32> to tensor<1x964xf32>
    %extracted_slice_321 = tensor.extract_slice %2[60, 964] [1, 60] [1, 1] : tensor<128x1024xf32> to tensor<1x60xf32>
    %inserted_slice_322 = tensor.insert_slice %extracted_slice_320 into %extracted_slice_49[0, 60] [1, 964] [1, 1] : tensor<1x964xf32> into tensor<1x1024xf32>
    %inserted_slice_323 = tensor.insert_slice %extracted_slice_321 into %inserted_slice_322[0, 0] [1, 60] [1, 1] : tensor<1x60xf32> into tensor<1x1024xf32>
    %extracted_slice_324 = tensor.extract_slice %2[61, 0] [1, 964] [1, 1] : tensor<128x1024xf32> to tensor<1x964xf32>
    %extracted_slice_325 = tensor.extract_slice %2[61, 964] [1, 60] [1, 1] : tensor<128x1024xf32> to tensor<1x60xf32>
    %inserted_slice_326 = tensor.insert_slice %extracted_slice_324 into %extracted_slice_50[0, 60] [1, 964] [1, 1] : tensor<1x964xf32> into tensor<1x1024xf32>
    %inserted_slice_327 = tensor.insert_slice %extracted_slice_325 into %inserted_slice_326[0, 0] [1, 60] [1, 1] : tensor<1x60xf32> into tensor<1x1024xf32>
    %extracted_slice_328 = tensor.extract_slice %2[62, 0] [1, 964] [1, 1] : tensor<128x1024xf32> to tensor<1x964xf32>
    %extracted_slice_329 = tensor.extract_slice %2[62, 964] [1, 60] [1, 1] : tensor<128x1024xf32> to tensor<1x60xf32>
    %inserted_slice_330 = tensor.insert_slice %extracted_slice_328 into %extracted_slice_51[0, 60] [1, 964] [1, 1] : tensor<1x964xf32> into tensor<1x1024xf32>
    %inserted_slice_331 = tensor.insert_slice %extracted_slice_329 into %inserted_slice_330[0, 0] [1, 60] [1, 1] : tensor<1x60xf32> into tensor<1x1024xf32>
    %extracted_slice_332 = tensor.extract_slice %2[63, 0] [1, 964] [1, 1] : tensor<128x1024xf32> to tensor<1x964xf32>
    %extracted_slice_333 = tensor.extract_slice %2[63, 964] [1, 60] [1, 1] : tensor<128x1024xf32> to tensor<1x60xf32>
    %inserted_slice_334 = tensor.insert_slice %extracted_slice_332 into %extracted_slice_52[0, 60] [1, 964] [1, 1] : tensor<1x964xf32> into tensor<1x1024xf32>
    %inserted_slice_335 = tensor.insert_slice %extracted_slice_333 into %inserted_slice_334[0, 0] [1, 60] [1, 1] : tensor<1x60xf32> into tensor<1x1024xf32>
    %extracted_slice_336 = tensor.extract_slice %2[64, 0] [1, 964] [1, 1] : tensor<128x1024xf32> to tensor<1x964xf32>
    %extracted_slice_337 = tensor.extract_slice %2[64, 964] [1, 60] [1, 1] : tensor<128x1024xf32> to tensor<1x60xf32>
    %inserted_slice_338 = tensor.insert_slice %extracted_slice_336 into %extracted_slice_53[0, 60] [1, 964] [1, 1] : tensor<1x964xf32> into tensor<1x1024xf32>
    %inserted_slice_339 = tensor.insert_slice %extracted_slice_337 into %inserted_slice_338[0, 0] [1, 60] [1, 1] : tensor<1x60xf32> into tensor<1x1024xf32>
    %extracted_slice_340 = tensor.extract_slice %2[65, 0] [1, 964] [1, 1] : tensor<128x1024xf32> to tensor<1x964xf32>
    %extracted_slice_341 = tensor.extract_slice %2[65, 964] [1, 60] [1, 1] : tensor<128x1024xf32> to tensor<1x60xf32>
    %inserted_slice_342 = tensor.insert_slice %extracted_slice_340 into %extracted_slice_54[0, 60] [1, 964] [1, 1] : tensor<1x964xf32> into tensor<1x1024xf32>
    %inserted_slice_343 = tensor.insert_slice %extracted_slice_341 into %inserted_slice_342[0, 0] [1, 60] [1, 1] : tensor<1x60xf32> into tensor<1x1024xf32>
    %extracted_slice_344 = tensor.extract_slice %2[66, 0] [1, 964] [1, 1] : tensor<128x1024xf32> to tensor<1x964xf32>
    %extracted_slice_345 = tensor.extract_slice %2[66, 964] [1, 60] [1, 1] : tensor<128x1024xf32> to tensor<1x60xf32>
    %inserted_slice_346 = tensor.insert_slice %extracted_slice_344 into %extracted_slice_55[0, 60] [1, 964] [1, 1] : tensor<1x964xf32> into tensor<1x1024xf32>
    %inserted_slice_347 = tensor.insert_slice %extracted_slice_345 into %inserted_slice_346[0, 0] [1, 60] [1, 1] : tensor<1x60xf32> into tensor<1x1024xf32>
    %extracted_slice_348 = tensor.extract_slice %2[67, 0] [1, 964] [1, 1] : tensor<128x1024xf32> to tensor<1x964xf32>
    %extracted_slice_349 = tensor.extract_slice %2[67, 964] [1, 60] [1, 1] : tensor<128x1024xf32> to tensor<1x60xf32>
    %inserted_slice_350 = tensor.insert_slice %extracted_slice_348 into %extracted_slice_56[0, 60] [1, 964] [1, 1] : tensor<1x964xf32> into tensor<1x1024xf32>
    %inserted_slice_351 = tensor.insert_slice %extracted_slice_349 into %inserted_slice_350[0, 0] [1, 60] [1, 1] : tensor<1x60xf32> into tensor<1x1024xf32>
    %extracted_slice_352 = tensor.extract_slice %2[68, 0] [1, 964] [1, 1] : tensor<128x1024xf32> to tensor<1x964xf32>
    %extracted_slice_353 = tensor.extract_slice %2[68, 964] [1, 60] [1, 1] : tensor<128x1024xf32> to tensor<1x60xf32>
    %inserted_slice_354 = tensor.insert_slice %extracted_slice_352 into %extracted_slice_57[0, 60] [1, 964] [1, 1] : tensor<1x964xf32> into tensor<1x1024xf32>
    %inserted_slice_355 = tensor.insert_slice %extracted_slice_353 into %inserted_slice_354[0, 0] [1, 60] [1, 1] : tensor<1x60xf32> into tensor<1x1024xf32>
    %extracted_slice_356 = tensor.extract_slice %2[69, 0] [1, 964] [1, 1] : tensor<128x1024xf32> to tensor<1x964xf32>
    %extracted_slice_357 = tensor.extract_slice %2[69, 964] [1, 60] [1, 1] : tensor<128x1024xf32> to tensor<1x60xf32>
    %inserted_slice_358 = tensor.insert_slice %extracted_slice_356 into %extracted_slice_58[0, 60] [1, 964] [1, 1] : tensor<1x964xf32> into tensor<1x1024xf32>
    %inserted_slice_359 = tensor.insert_slice %extracted_slice_357 into %inserted_slice_358[0, 0] [1, 60] [1, 1] : tensor<1x60xf32> into tensor<1x1024xf32>
    %extracted_slice_360 = tensor.extract_slice %2[70, 0] [1, 964] [1, 1] : tensor<128x1024xf32> to tensor<1x964xf32>
    %extracted_slice_361 = tensor.extract_slice %2[70, 964] [1, 60] [1, 1] : tensor<128x1024xf32> to tensor<1x60xf32>
    %inserted_slice_362 = tensor.insert_slice %extracted_slice_360 into %extracted_slice_59[0, 60] [1, 964] [1, 1] : tensor<1x964xf32> into tensor<1x1024xf32>
    %inserted_slice_363 = tensor.insert_slice %extracted_slice_361 into %inserted_slice_362[0, 0] [1, 60] [1, 1] : tensor<1x60xf32> into tensor<1x1024xf32>
    %extracted_slice_364 = tensor.extract_slice %2[71, 0] [1, 964] [1, 1] : tensor<128x1024xf32> to tensor<1x964xf32>
    %extracted_slice_365 = tensor.extract_slice %2[71, 964] [1, 60] [1, 1] : tensor<128x1024xf32> to tensor<1x60xf32>
    %inserted_slice_366 = tensor.insert_slice %extracted_slice_364 into %extracted_slice_60[0, 60] [1, 964] [1, 1] : tensor<1x964xf32> into tensor<1x1024xf32>
    %inserted_slice_367 = tensor.insert_slice %extracted_slice_365 into %inserted_slice_366[0, 0] [1, 60] [1, 1] : tensor<1x60xf32> into tensor<1x1024xf32>
    %extracted_slice_368 = tensor.extract_slice %2[72, 0] [1, 952] [1, 1] : tensor<128x1024xf32> to tensor<1x952xf32>
    %extracted_slice_369 = tensor.extract_slice %2[72, 952] [1, 72] [1, 1] : tensor<128x1024xf32> to tensor<1x72xf32>
    %inserted_slice_370 = tensor.insert_slice %extracted_slice_368 into %extracted_slice_61[0, 72] [1, 952] [1, 1] : tensor<1x952xf32> into tensor<1x1024xf32>
    %inserted_slice_371 = tensor.insert_slice %extracted_slice_369 into %inserted_slice_370[0, 0] [1, 72] [1, 1] : tensor<1x72xf32> into tensor<1x1024xf32>
    %extracted_slice_372 = tensor.extract_slice %2[73, 0] [1, 952] [1, 1] : tensor<128x1024xf32> to tensor<1x952xf32>
    %extracted_slice_373 = tensor.extract_slice %2[73, 952] [1, 72] [1, 1] : tensor<128x1024xf32> to tensor<1x72xf32>
    %inserted_slice_374 = tensor.insert_slice %extracted_slice_372 into %extracted_slice_62[0, 72] [1, 952] [1, 1] : tensor<1x952xf32> into tensor<1x1024xf32>
    %inserted_slice_375 = tensor.insert_slice %extracted_slice_373 into %inserted_slice_374[0, 0] [1, 72] [1, 1] : tensor<1x72xf32> into tensor<1x1024xf32>
    %extracted_slice_376 = tensor.extract_slice %2[74, 0] [1, 952] [1, 1] : tensor<128x1024xf32> to tensor<1x952xf32>
    %extracted_slice_377 = tensor.extract_slice %2[74, 952] [1, 72] [1, 1] : tensor<128x1024xf32> to tensor<1x72xf32>
    %inserted_slice_378 = tensor.insert_slice %extracted_slice_376 into %extracted_slice_63[0, 72] [1, 952] [1, 1] : tensor<1x952xf32> into tensor<1x1024xf32>
    %inserted_slice_379 = tensor.insert_slice %extracted_slice_377 into %inserted_slice_378[0, 0] [1, 72] [1, 1] : tensor<1x72xf32> into tensor<1x1024xf32>
    %extracted_slice_380 = tensor.extract_slice %2[75, 0] [1, 952] [1, 1] : tensor<128x1024xf32> to tensor<1x952xf32>
    %extracted_slice_381 = tensor.extract_slice %2[75, 952] [1, 72] [1, 1] : tensor<128x1024xf32> to tensor<1x72xf32>
    %inserted_slice_382 = tensor.insert_slice %extracted_slice_380 into %extracted_slice_64[0, 72] [1, 952] [1, 1] : tensor<1x952xf32> into tensor<1x1024xf32>
    %inserted_slice_383 = tensor.insert_slice %extracted_slice_381 into %inserted_slice_382[0, 0] [1, 72] [1, 1] : tensor<1x72xf32> into tensor<1x1024xf32>
    %extracted_slice_384 = tensor.extract_slice %2[76, 0] [1, 952] [1, 1] : tensor<128x1024xf32> to tensor<1x952xf32>
    %extracted_slice_385 = tensor.extract_slice %2[76, 952] [1, 72] [1, 1] : tensor<128x1024xf32> to tensor<1x72xf32>
    %inserted_slice_386 = tensor.insert_slice %extracted_slice_384 into %extracted_slice_65[0, 72] [1, 952] [1, 1] : tensor<1x952xf32> into tensor<1x1024xf32>
    %inserted_slice_387 = tensor.insert_slice %extracted_slice_385 into %inserted_slice_386[0, 0] [1, 72] [1, 1] : tensor<1x72xf32> into tensor<1x1024xf32>
    %extracted_slice_388 = tensor.extract_slice %2[77, 0] [1, 952] [1, 1] : tensor<128x1024xf32> to tensor<1x952xf32>
    %extracted_slice_389 = tensor.extract_slice %2[77, 952] [1, 72] [1, 1] : tensor<128x1024xf32> to tensor<1x72xf32>
    %inserted_slice_390 = tensor.insert_slice %extracted_slice_388 into %extracted_slice_66[0, 72] [1, 952] [1, 1] : tensor<1x952xf32> into tensor<1x1024xf32>
    %inserted_slice_391 = tensor.insert_slice %extracted_slice_389 into %inserted_slice_390[0, 0] [1, 72] [1, 1] : tensor<1x72xf32> into tensor<1x1024xf32>
    %extracted_slice_392 = tensor.extract_slice %2[78, 0] [1, 952] [1, 1] : tensor<128x1024xf32> to tensor<1x952xf32>
    %extracted_slice_393 = tensor.extract_slice %2[78, 952] [1, 72] [1, 1] : tensor<128x1024xf32> to tensor<1x72xf32>
    %inserted_slice_394 = tensor.insert_slice %extracted_slice_392 into %extracted_slice_67[0, 72] [1, 952] [1, 1] : tensor<1x952xf32> into tensor<1x1024xf32>
    %inserted_slice_395 = tensor.insert_slice %extracted_slice_393 into %inserted_slice_394[0, 0] [1, 72] [1, 1] : tensor<1x72xf32> into tensor<1x1024xf32>
    %extracted_slice_396 = tensor.extract_slice %2[79, 0] [1, 952] [1, 1] : tensor<128x1024xf32> to tensor<1x952xf32>
    %extracted_slice_397 = tensor.extract_slice %2[79, 952] [1, 72] [1, 1] : tensor<128x1024xf32> to tensor<1x72xf32>
    %inserted_slice_398 = tensor.insert_slice %extracted_slice_396 into %extracted_slice_68[0, 72] [1, 952] [1, 1] : tensor<1x952xf32> into tensor<1x1024xf32>
    %inserted_slice_399 = tensor.insert_slice %extracted_slice_397 into %inserted_slice_398[0, 0] [1, 72] [1, 1] : tensor<1x72xf32> into tensor<1x1024xf32>
    %extracted_slice_400 = tensor.extract_slice %2[80, 0] [1, 952] [1, 1] : tensor<128x1024xf32> to tensor<1x952xf32>
    %extracted_slice_401 = tensor.extract_slice %2[80, 952] [1, 72] [1, 1] : tensor<128x1024xf32> to tensor<1x72xf32>
    %inserted_slice_402 = tensor.insert_slice %extracted_slice_400 into %extracted_slice_69[0, 72] [1, 952] [1, 1] : tensor<1x952xf32> into tensor<1x1024xf32>
    %inserted_slice_403 = tensor.insert_slice %extracted_slice_401 into %inserted_slice_402[0, 0] [1, 72] [1, 1] : tensor<1x72xf32> into tensor<1x1024xf32>
    %extracted_slice_404 = tensor.extract_slice %2[81, 0] [1, 952] [1, 1] : tensor<128x1024xf32> to tensor<1x952xf32>
    %extracted_slice_405 = tensor.extract_slice %2[81, 952] [1, 72] [1, 1] : tensor<128x1024xf32> to tensor<1x72xf32>
    %inserted_slice_406 = tensor.insert_slice %extracted_slice_404 into %extracted_slice_70[0, 72] [1, 952] [1, 1] : tensor<1x952xf32> into tensor<1x1024xf32>
    %inserted_slice_407 = tensor.insert_slice %extracted_slice_405 into %inserted_slice_406[0, 0] [1, 72] [1, 1] : tensor<1x72xf32> into tensor<1x1024xf32>
    %extracted_slice_408 = tensor.extract_slice %2[82, 0] [1, 952] [1, 1] : tensor<128x1024xf32> to tensor<1x952xf32>
    %extracted_slice_409 = tensor.extract_slice %2[82, 952] [1, 72] [1, 1] : tensor<128x1024xf32> to tensor<1x72xf32>
    %inserted_slice_410 = tensor.insert_slice %extracted_slice_408 into %extracted_slice_71[0, 72] [1, 952] [1, 1] : tensor<1x952xf32> into tensor<1x1024xf32>
    %inserted_slice_411 = tensor.insert_slice %extracted_slice_409 into %inserted_slice_410[0, 0] [1, 72] [1, 1] : tensor<1x72xf32> into tensor<1x1024xf32>
    %extracted_slice_412 = tensor.extract_slice %2[83, 0] [1, 952] [1, 1] : tensor<128x1024xf32> to tensor<1x952xf32>
    %extracted_slice_413 = tensor.extract_slice %2[83, 952] [1, 72] [1, 1] : tensor<128x1024xf32> to tensor<1x72xf32>
    %inserted_slice_414 = tensor.insert_slice %extracted_slice_412 into %extracted_slice_72[0, 72] [1, 952] [1, 1] : tensor<1x952xf32> into tensor<1x1024xf32>
    %inserted_slice_415 = tensor.insert_slice %extracted_slice_413 into %inserted_slice_414[0, 0] [1, 72] [1, 1] : tensor<1x72xf32> into tensor<1x1024xf32>
    %extracted_slice_416 = tensor.extract_slice %2[84, 0] [1, 940] [1, 1] : tensor<128x1024xf32> to tensor<1x940xf32>
    %extracted_slice_417 = tensor.extract_slice %2[84, 940] [1, 84] [1, 1] : tensor<128x1024xf32> to tensor<1x84xf32>
    %inserted_slice_418 = tensor.insert_slice %extracted_slice_416 into %extracted_slice_73[0, 84] [1, 940] [1, 1] : tensor<1x940xf32> into tensor<1x1024xf32>
    %inserted_slice_419 = tensor.insert_slice %extracted_slice_417 into %inserted_slice_418[0, 0] [1, 84] [1, 1] : tensor<1x84xf32> into tensor<1x1024xf32>
    %extracted_slice_420 = tensor.extract_slice %2[85, 0] [1, 940] [1, 1] : tensor<128x1024xf32> to tensor<1x940xf32>
    %extracted_slice_421 = tensor.extract_slice %2[85, 940] [1, 84] [1, 1] : tensor<128x1024xf32> to tensor<1x84xf32>
    %inserted_slice_422 = tensor.insert_slice %extracted_slice_420 into %extracted_slice_74[0, 84] [1, 940] [1, 1] : tensor<1x940xf32> into tensor<1x1024xf32>
    %inserted_slice_423 = tensor.insert_slice %extracted_slice_421 into %inserted_slice_422[0, 0] [1, 84] [1, 1] : tensor<1x84xf32> into tensor<1x1024xf32>
    %extracted_slice_424 = tensor.extract_slice %2[86, 0] [1, 940] [1, 1] : tensor<128x1024xf32> to tensor<1x940xf32>
    %extracted_slice_425 = tensor.extract_slice %2[86, 940] [1, 84] [1, 1] : tensor<128x1024xf32> to tensor<1x84xf32>
    %inserted_slice_426 = tensor.insert_slice %extracted_slice_424 into %extracted_slice_75[0, 84] [1, 940] [1, 1] : tensor<1x940xf32> into tensor<1x1024xf32>
    %inserted_slice_427 = tensor.insert_slice %extracted_slice_425 into %inserted_slice_426[0, 0] [1, 84] [1, 1] : tensor<1x84xf32> into tensor<1x1024xf32>
    %extracted_slice_428 = tensor.extract_slice %2[87, 0] [1, 940] [1, 1] : tensor<128x1024xf32> to tensor<1x940xf32>
    %extracted_slice_429 = tensor.extract_slice %2[87, 940] [1, 84] [1, 1] : tensor<128x1024xf32> to tensor<1x84xf32>
    %inserted_slice_430 = tensor.insert_slice %extracted_slice_428 into %extracted_slice_76[0, 84] [1, 940] [1, 1] : tensor<1x940xf32> into tensor<1x1024xf32>
    %inserted_slice_431 = tensor.insert_slice %extracted_slice_429 into %inserted_slice_430[0, 0] [1, 84] [1, 1] : tensor<1x84xf32> into tensor<1x1024xf32>
    %extracted_slice_432 = tensor.extract_slice %2[88, 0] [1, 940] [1, 1] : tensor<128x1024xf32> to tensor<1x940xf32>
    %extracted_slice_433 = tensor.extract_slice %2[88, 940] [1, 84] [1, 1] : tensor<128x1024xf32> to tensor<1x84xf32>
    %inserted_slice_434 = tensor.insert_slice %extracted_slice_432 into %extracted_slice_77[0, 84] [1, 940] [1, 1] : tensor<1x940xf32> into tensor<1x1024xf32>
    %inserted_slice_435 = tensor.insert_slice %extracted_slice_433 into %inserted_slice_434[0, 0] [1, 84] [1, 1] : tensor<1x84xf32> into tensor<1x1024xf32>
    %extracted_slice_436 = tensor.extract_slice %2[89, 0] [1, 940] [1, 1] : tensor<128x1024xf32> to tensor<1x940xf32>
    %extracted_slice_437 = tensor.extract_slice %2[89, 940] [1, 84] [1, 1] : tensor<128x1024xf32> to tensor<1x84xf32>
    %inserted_slice_438 = tensor.insert_slice %extracted_slice_436 into %extracted_slice_78[0, 84] [1, 940] [1, 1] : tensor<1x940xf32> into tensor<1x1024xf32>
    %inserted_slice_439 = tensor.insert_slice %extracted_slice_437 into %inserted_slice_438[0, 0] [1, 84] [1, 1] : tensor<1x84xf32> into tensor<1x1024xf32>
    %extracted_slice_440 = tensor.extract_slice %2[90, 0] [1, 940] [1, 1] : tensor<128x1024xf32> to tensor<1x940xf32>
    %extracted_slice_441 = tensor.extract_slice %2[90, 940] [1, 84] [1, 1] : tensor<128x1024xf32> to tensor<1x84xf32>
    %inserted_slice_442 = tensor.insert_slice %extracted_slice_440 into %extracted_slice_79[0, 84] [1, 940] [1, 1] : tensor<1x940xf32> into tensor<1x1024xf32>
    %inserted_slice_443 = tensor.insert_slice %extracted_slice_441 into %inserted_slice_442[0, 0] [1, 84] [1, 1] : tensor<1x84xf32> into tensor<1x1024xf32>
    %extracted_slice_444 = tensor.extract_slice %2[91, 0] [1, 940] [1, 1] : tensor<128x1024xf32> to tensor<1x940xf32>
    %extracted_slice_445 = tensor.extract_slice %2[91, 940] [1, 84] [1, 1] : tensor<128x1024xf32> to tensor<1x84xf32>
    %inserted_slice_446 = tensor.insert_slice %extracted_slice_444 into %extracted_slice_80[0, 84] [1, 940] [1, 1] : tensor<1x940xf32> into tensor<1x1024xf32>
    %inserted_slice_447 = tensor.insert_slice %extracted_slice_445 into %inserted_slice_446[0, 0] [1, 84] [1, 1] : tensor<1x84xf32> into tensor<1x1024xf32>
    %extracted_slice_448 = tensor.extract_slice %2[92, 0] [1, 940] [1, 1] : tensor<128x1024xf32> to tensor<1x940xf32>
    %extracted_slice_449 = tensor.extract_slice %2[92, 940] [1, 84] [1, 1] : tensor<128x1024xf32> to tensor<1x84xf32>
    %inserted_slice_450 = tensor.insert_slice %extracted_slice_448 into %extracted_slice_81[0, 84] [1, 940] [1, 1] : tensor<1x940xf32> into tensor<1x1024xf32>
    %inserted_slice_451 = tensor.insert_slice %extracted_slice_449 into %inserted_slice_450[0, 0] [1, 84] [1, 1] : tensor<1x84xf32> into tensor<1x1024xf32>
    %extracted_slice_452 = tensor.extract_slice %2[93, 0] [1, 940] [1, 1] : tensor<128x1024xf32> to tensor<1x940xf32>
    %extracted_slice_453 = tensor.extract_slice %2[93, 940] [1, 84] [1, 1] : tensor<128x1024xf32> to tensor<1x84xf32>
    %inserted_slice_454 = tensor.insert_slice %extracted_slice_452 into %extracted_slice_82[0, 84] [1, 940] [1, 1] : tensor<1x940xf32> into tensor<1x1024xf32>
    %inserted_slice_455 = tensor.insert_slice %extracted_slice_453 into %inserted_slice_454[0, 0] [1, 84] [1, 1] : tensor<1x84xf32> into tensor<1x1024xf32>
    %extracted_slice_456 = tensor.extract_slice %2[94, 0] [1, 940] [1, 1] : tensor<128x1024xf32> to tensor<1x940xf32>
    %extracted_slice_457 = tensor.extract_slice %2[94, 940] [1, 84] [1, 1] : tensor<128x1024xf32> to tensor<1x84xf32>
    %inserted_slice_458 = tensor.insert_slice %extracted_slice_456 into %extracted_slice_83[0, 84] [1, 940] [1, 1] : tensor<1x940xf32> into tensor<1x1024xf32>
    %inserted_slice_459 = tensor.insert_slice %extracted_slice_457 into %inserted_slice_458[0, 0] [1, 84] [1, 1] : tensor<1x84xf32> into tensor<1x1024xf32>
    %extracted_slice_460 = tensor.extract_slice %2[95, 0] [1, 940] [1, 1] : tensor<128x1024xf32> to tensor<1x940xf32>
    %extracted_slice_461 = tensor.extract_slice %2[95, 940] [1, 84] [1, 1] : tensor<128x1024xf32> to tensor<1x84xf32>
    %inserted_slice_462 = tensor.insert_slice %extracted_slice_460 into %extracted_slice_84[0, 84] [1, 940] [1, 1] : tensor<1x940xf32> into tensor<1x1024xf32>
    %inserted_slice_463 = tensor.insert_slice %extracted_slice_461 into %inserted_slice_462[0, 0] [1, 84] [1, 1] : tensor<1x84xf32> into tensor<1x1024xf32>
    %extracted_slice_464 = tensor.extract_slice %2[96, 0] [1, 928] [1, 1] : tensor<128x1024xf32> to tensor<1x928xf32>
    %extracted_slice_465 = tensor.extract_slice %2[96, 928] [1, 96] [1, 1] : tensor<128x1024xf32> to tensor<1x96xf32>
    %inserted_slice_466 = tensor.insert_slice %extracted_slice_464 into %extracted_slice_85[0, 96] [1, 928] [1, 1] : tensor<1x928xf32> into tensor<1x1024xf32>
    %inserted_slice_467 = tensor.insert_slice %extracted_slice_465 into %inserted_slice_466[0, 0] [1, 96] [1, 1] : tensor<1x96xf32> into tensor<1x1024xf32>
    %extracted_slice_468 = tensor.extract_slice %2[97, 0] [1, 928] [1, 1] : tensor<128x1024xf32> to tensor<1x928xf32>
    %extracted_slice_469 = tensor.extract_slice %2[97, 928] [1, 96] [1, 1] : tensor<128x1024xf32> to tensor<1x96xf32>
    %inserted_slice_470 = tensor.insert_slice %extracted_slice_468 into %extracted_slice_86[0, 96] [1, 928] [1, 1] : tensor<1x928xf32> into tensor<1x1024xf32>
    %inserted_slice_471 = tensor.insert_slice %extracted_slice_469 into %inserted_slice_470[0, 0] [1, 96] [1, 1] : tensor<1x96xf32> into tensor<1x1024xf32>
    %extracted_slice_472 = tensor.extract_slice %2[98, 0] [1, 928] [1, 1] : tensor<128x1024xf32> to tensor<1x928xf32>
    %extracted_slice_473 = tensor.extract_slice %2[98, 928] [1, 96] [1, 1] : tensor<128x1024xf32> to tensor<1x96xf32>
    %inserted_slice_474 = tensor.insert_slice %extracted_slice_472 into %extracted_slice_87[0, 96] [1, 928] [1, 1] : tensor<1x928xf32> into tensor<1x1024xf32>
    %inserted_slice_475 = tensor.insert_slice %extracted_slice_473 into %inserted_slice_474[0, 0] [1, 96] [1, 1] : tensor<1x96xf32> into tensor<1x1024xf32>
    %extracted_slice_476 = tensor.extract_slice %2[99, 0] [1, 928] [1, 1] : tensor<128x1024xf32> to tensor<1x928xf32>
    %extracted_slice_477 = tensor.extract_slice %2[99, 928] [1, 96] [1, 1] : tensor<128x1024xf32> to tensor<1x96xf32>
    %inserted_slice_478 = tensor.insert_slice %extracted_slice_476 into %extracted_slice_88[0, 96] [1, 928] [1, 1] : tensor<1x928xf32> into tensor<1x1024xf32>
    %inserted_slice_479 = tensor.insert_slice %extracted_slice_477 into %inserted_slice_478[0, 0] [1, 96] [1, 1] : tensor<1x96xf32> into tensor<1x1024xf32>
    %extracted_slice_480 = tensor.extract_slice %2[100, 0] [1, 928] [1, 1] : tensor<128x1024xf32> to tensor<1x928xf32>
    %extracted_slice_481 = tensor.extract_slice %2[100, 928] [1, 96] [1, 1] : tensor<128x1024xf32> to tensor<1x96xf32>
    %inserted_slice_482 = tensor.insert_slice %extracted_slice_480 into %extracted_slice_89[0, 96] [1, 928] [1, 1] : tensor<1x928xf32> into tensor<1x1024xf32>
    %inserted_slice_483 = tensor.insert_slice %extracted_slice_481 into %inserted_slice_482[0, 0] [1, 96] [1, 1] : tensor<1x96xf32> into tensor<1x1024xf32>
    %extracted_slice_484 = tensor.extract_slice %2[101, 0] [1, 928] [1, 1] : tensor<128x1024xf32> to tensor<1x928xf32>
    %extracted_slice_485 = tensor.extract_slice %2[101, 928] [1, 96] [1, 1] : tensor<128x1024xf32> to tensor<1x96xf32>
    %inserted_slice_486 = tensor.insert_slice %extracted_slice_484 into %extracted_slice_90[0, 96] [1, 928] [1, 1] : tensor<1x928xf32> into tensor<1x1024xf32>
    %inserted_slice_487 = tensor.insert_slice %extracted_slice_485 into %inserted_slice_486[0, 0] [1, 96] [1, 1] : tensor<1x96xf32> into tensor<1x1024xf32>
    %extracted_slice_488 = tensor.extract_slice %2[102, 0] [1, 928] [1, 1] : tensor<128x1024xf32> to tensor<1x928xf32>
    %extracted_slice_489 = tensor.extract_slice %2[102, 928] [1, 96] [1, 1] : tensor<128x1024xf32> to tensor<1x96xf32>
    %inserted_slice_490 = tensor.insert_slice %extracted_slice_488 into %extracted_slice_91[0, 96] [1, 928] [1, 1] : tensor<1x928xf32> into tensor<1x1024xf32>
    %inserted_slice_491 = tensor.insert_slice %extracted_slice_489 into %inserted_slice_490[0, 0] [1, 96] [1, 1] : tensor<1x96xf32> into tensor<1x1024xf32>
    %extracted_slice_492 = tensor.extract_slice %2[103, 0] [1, 928] [1, 1] : tensor<128x1024xf32> to tensor<1x928xf32>
    %extracted_slice_493 = tensor.extract_slice %2[103, 928] [1, 96] [1, 1] : tensor<128x1024xf32> to tensor<1x96xf32>
    %inserted_slice_494 = tensor.insert_slice %extracted_slice_492 into %extracted_slice_92[0, 96] [1, 928] [1, 1] : tensor<1x928xf32> into tensor<1x1024xf32>
    %inserted_slice_495 = tensor.insert_slice %extracted_slice_493 into %inserted_slice_494[0, 0] [1, 96] [1, 1] : tensor<1x96xf32> into tensor<1x1024xf32>
    %extracted_slice_496 = tensor.extract_slice %2[104, 0] [1, 928] [1, 1] : tensor<128x1024xf32> to tensor<1x928xf32>
    %extracted_slice_497 = tensor.extract_slice %2[104, 928] [1, 96] [1, 1] : tensor<128x1024xf32> to tensor<1x96xf32>
    %inserted_slice_498 = tensor.insert_slice %extracted_slice_496 into %extracted_slice_93[0, 96] [1, 928] [1, 1] : tensor<1x928xf32> into tensor<1x1024xf32>
    %inserted_slice_499 = tensor.insert_slice %extracted_slice_497 into %inserted_slice_498[0, 0] [1, 96] [1, 1] : tensor<1x96xf32> into tensor<1x1024xf32>
    %extracted_slice_500 = tensor.extract_slice %2[105, 0] [1, 928] [1, 1] : tensor<128x1024xf32> to tensor<1x928xf32>
    %extracted_slice_501 = tensor.extract_slice %2[105, 928] [1, 96] [1, 1] : tensor<128x1024xf32> to tensor<1x96xf32>
    %inserted_slice_502 = tensor.insert_slice %extracted_slice_500 into %extracted_slice_94[0, 96] [1, 928] [1, 1] : tensor<1x928xf32> into tensor<1x1024xf32>
    %inserted_slice_503 = tensor.insert_slice %extracted_slice_501 into %inserted_slice_502[0, 0] [1, 96] [1, 1] : tensor<1x96xf32> into tensor<1x1024xf32>
    %extracted_slice_504 = tensor.extract_slice %2[106, 0] [1, 928] [1, 1] : tensor<128x1024xf32> to tensor<1x928xf32>
    %extracted_slice_505 = tensor.extract_slice %2[106, 928] [1, 96] [1, 1] : tensor<128x1024xf32> to tensor<1x96xf32>
    %inserted_slice_506 = tensor.insert_slice %extracted_slice_504 into %extracted_slice_95[0, 96] [1, 928] [1, 1] : tensor<1x928xf32> into tensor<1x1024xf32>
    %inserted_slice_507 = tensor.insert_slice %extracted_slice_505 into %inserted_slice_506[0, 0] [1, 96] [1, 1] : tensor<1x96xf32> into tensor<1x1024xf32>
    %extracted_slice_508 = tensor.extract_slice %2[107, 0] [1, 928] [1, 1] : tensor<128x1024xf32> to tensor<1x928xf32>
    %extracted_slice_509 = tensor.extract_slice %2[107, 928] [1, 96] [1, 1] : tensor<128x1024xf32> to tensor<1x96xf32>
    %inserted_slice_510 = tensor.insert_slice %extracted_slice_508 into %extracted_slice_96[0, 96] [1, 928] [1, 1] : tensor<1x928xf32> into tensor<1x1024xf32>
    %inserted_slice_511 = tensor.insert_slice %extracted_slice_509 into %inserted_slice_510[0, 0] [1, 96] [1, 1] : tensor<1x96xf32> into tensor<1x1024xf32>
    %extracted_slice_512 = tensor.extract_slice %2[108, 0] [1, 916] [1, 1] : tensor<128x1024xf32> to tensor<1x916xf32>
    %extracted_slice_513 = tensor.extract_slice %2[108, 916] [1, 108] [1, 1] : tensor<128x1024xf32> to tensor<1x108xf32>
    %inserted_slice_514 = tensor.insert_slice %extracted_slice_512 into %extracted_slice_97[0, 108] [1, 916] [1, 1] : tensor<1x916xf32> into tensor<1x1024xf32>
    %inserted_slice_515 = tensor.insert_slice %extracted_slice_513 into %inserted_slice_514[0, 0] [1, 108] [1, 1] : tensor<1x108xf32> into tensor<1x1024xf32>
    %extracted_slice_516 = tensor.extract_slice %2[109, 0] [1, 916] [1, 1] : tensor<128x1024xf32> to tensor<1x916xf32>
    %extracted_slice_517 = tensor.extract_slice %2[109, 916] [1, 108] [1, 1] : tensor<128x1024xf32> to tensor<1x108xf32>
    %inserted_slice_518 = tensor.insert_slice %extracted_slice_516 into %extracted_slice_98[0, 108] [1, 916] [1, 1] : tensor<1x916xf32> into tensor<1x1024xf32>
    %inserted_slice_519 = tensor.insert_slice %extracted_slice_517 into %inserted_slice_518[0, 0] [1, 108] [1, 1] : tensor<1x108xf32> into tensor<1x1024xf32>
    %extracted_slice_520 = tensor.extract_slice %2[110, 0] [1, 916] [1, 1] : tensor<128x1024xf32> to tensor<1x916xf32>
    %extracted_slice_521 = tensor.extract_slice %2[110, 916] [1, 108] [1, 1] : tensor<128x1024xf32> to tensor<1x108xf32>
    %inserted_slice_522 = tensor.insert_slice %extracted_slice_520 into %extracted_slice_99[0, 108] [1, 916] [1, 1] : tensor<1x916xf32> into tensor<1x1024xf32>
    %inserted_slice_523 = tensor.insert_slice %extracted_slice_521 into %inserted_slice_522[0, 0] [1, 108] [1, 1] : tensor<1x108xf32> into tensor<1x1024xf32>
    %extracted_slice_524 = tensor.extract_slice %2[111, 0] [1, 916] [1, 1] : tensor<128x1024xf32> to tensor<1x916xf32>
    %extracted_slice_525 = tensor.extract_slice %2[111, 916] [1, 108] [1, 1] : tensor<128x1024xf32> to tensor<1x108xf32>
    %inserted_slice_526 = tensor.insert_slice %extracted_slice_524 into %extracted_slice_100[0, 108] [1, 916] [1, 1] : tensor<1x916xf32> into tensor<1x1024xf32>
    %inserted_slice_527 = tensor.insert_slice %extracted_slice_525 into %inserted_slice_526[0, 0] [1, 108] [1, 1] : tensor<1x108xf32> into tensor<1x1024xf32>
    %extracted_slice_528 = tensor.extract_slice %2[112, 0] [1, 916] [1, 1] : tensor<128x1024xf32> to tensor<1x916xf32>
    %extracted_slice_529 = tensor.extract_slice %2[112, 916] [1, 108] [1, 1] : tensor<128x1024xf32> to tensor<1x108xf32>
    %inserted_slice_530 = tensor.insert_slice %extracted_slice_528 into %extracted_slice_101[0, 108] [1, 916] [1, 1] : tensor<1x916xf32> into tensor<1x1024xf32>
    %inserted_slice_531 = tensor.insert_slice %extracted_slice_529 into %inserted_slice_530[0, 0] [1, 108] [1, 1] : tensor<1x108xf32> into tensor<1x1024xf32>
    %extracted_slice_532 = tensor.extract_slice %2[113, 0] [1, 916] [1, 1] : tensor<128x1024xf32> to tensor<1x916xf32>
    %extracted_slice_533 = tensor.extract_slice %2[113, 916] [1, 108] [1, 1] : tensor<128x1024xf32> to tensor<1x108xf32>
    %inserted_slice_534 = tensor.insert_slice %extracted_slice_532 into %extracted_slice_102[0, 108] [1, 916] [1, 1] : tensor<1x916xf32> into tensor<1x1024xf32>
    %inserted_slice_535 = tensor.insert_slice %extracted_slice_533 into %inserted_slice_534[0, 0] [1, 108] [1, 1] : tensor<1x108xf32> into tensor<1x1024xf32>
    %extracted_slice_536 = tensor.extract_slice %2[114, 0] [1, 916] [1, 1] : tensor<128x1024xf32> to tensor<1x916xf32>
    %extracted_slice_537 = tensor.extract_slice %2[114, 916] [1, 108] [1, 1] : tensor<128x1024xf32> to tensor<1x108xf32>
    %inserted_slice_538 = tensor.insert_slice %extracted_slice_536 into %extracted_slice_103[0, 108] [1, 916] [1, 1] : tensor<1x916xf32> into tensor<1x1024xf32>
    %inserted_slice_539 = tensor.insert_slice %extracted_slice_537 into %inserted_slice_538[0, 0] [1, 108] [1, 1] : tensor<1x108xf32> into tensor<1x1024xf32>
    %extracted_slice_540 = tensor.extract_slice %2[115, 0] [1, 916] [1, 1] : tensor<128x1024xf32> to tensor<1x916xf32>
    %extracted_slice_541 = tensor.extract_slice %2[115, 916] [1, 108] [1, 1] : tensor<128x1024xf32> to tensor<1x108xf32>
    %inserted_slice_542 = tensor.insert_slice %extracted_slice_540 into %extracted_slice_104[0, 108] [1, 916] [1, 1] : tensor<1x916xf32> into tensor<1x1024xf32>
    %inserted_slice_543 = tensor.insert_slice %extracted_slice_541 into %inserted_slice_542[0, 0] [1, 108] [1, 1] : tensor<1x108xf32> into tensor<1x1024xf32>
    %extracted_slice_544 = tensor.extract_slice %2[116, 0] [1, 916] [1, 1] : tensor<128x1024xf32> to tensor<1x916xf32>
    %extracted_slice_545 = tensor.extract_slice %2[116, 916] [1, 108] [1, 1] : tensor<128x1024xf32> to tensor<1x108xf32>
    %inserted_slice_546 = tensor.insert_slice %extracted_slice_544 into %extracted_slice_105[0, 108] [1, 916] [1, 1] : tensor<1x916xf32> into tensor<1x1024xf32>
    %inserted_slice_547 = tensor.insert_slice %extracted_slice_545 into %inserted_slice_546[0, 0] [1, 108] [1, 1] : tensor<1x108xf32> into tensor<1x1024xf32>
    %extracted_slice_548 = tensor.extract_slice %2[117, 0] [1, 916] [1, 1] : tensor<128x1024xf32> to tensor<1x916xf32>
    %extracted_slice_549 = tensor.extract_slice %2[117, 916] [1, 108] [1, 1] : tensor<128x1024xf32> to tensor<1x108xf32>
    %inserted_slice_550 = tensor.insert_slice %extracted_slice_548 into %extracted_slice_106[0, 108] [1, 916] [1, 1] : tensor<1x916xf32> into tensor<1x1024xf32>
    %inserted_slice_551 = tensor.insert_slice %extracted_slice_549 into %inserted_slice_550[0, 0] [1, 108] [1, 1] : tensor<1x108xf32> into tensor<1x1024xf32>
    %extracted_slice_552 = tensor.extract_slice %2[118, 0] [1, 916] [1, 1] : tensor<128x1024xf32> to tensor<1x916xf32>
    %extracted_slice_553 = tensor.extract_slice %2[118, 916] [1, 108] [1, 1] : tensor<128x1024xf32> to tensor<1x108xf32>
    %inserted_slice_554 = tensor.insert_slice %extracted_slice_552 into %extracted_slice_107[0, 108] [1, 916] [1, 1] : tensor<1x916xf32> into tensor<1x1024xf32>
    %inserted_slice_555 = tensor.insert_slice %extracted_slice_553 into %inserted_slice_554[0, 0] [1, 108] [1, 1] : tensor<1x108xf32> into tensor<1x1024xf32>
    %extracted_slice_556 = tensor.extract_slice %2[119, 0] [1, 916] [1, 1] : tensor<128x1024xf32> to tensor<1x916xf32>
    %extracted_slice_557 = tensor.extract_slice %2[119, 916] [1, 108] [1, 1] : tensor<128x1024xf32> to tensor<1x108xf32>
    %inserted_slice_558 = tensor.insert_slice %extracted_slice_556 into %extracted_slice_108[0, 108] [1, 916] [1, 1] : tensor<1x916xf32> into tensor<1x1024xf32>
    %inserted_slice_559 = tensor.insert_slice %extracted_slice_557 into %inserted_slice_558[0, 0] [1, 108] [1, 1] : tensor<1x108xf32> into tensor<1x1024xf32>
    %extracted_slice_560 = tensor.extract_slice %2[120, 0] [1, 904] [1, 1] : tensor<128x1024xf32> to tensor<1x904xf32>
    %extracted_slice_561 = tensor.extract_slice %2[120, 904] [1, 120] [1, 1] : tensor<128x1024xf32> to tensor<1x120xf32>
    %inserted_slice_562 = tensor.insert_slice %extracted_slice_560 into %extracted_slice_109[0, 120] [1, 904] [1, 1] : tensor<1x904xf32> into tensor<1x1024xf32>
    %inserted_slice_563 = tensor.insert_slice %extracted_slice_561 into %inserted_slice_562[0, 0] [1, 120] [1, 1] : tensor<1x120xf32> into tensor<1x1024xf32>
    %extracted_slice_564 = tensor.extract_slice %2[121, 0] [1, 904] [1, 1] : tensor<128x1024xf32> to tensor<1x904xf32>
    %extracted_slice_565 = tensor.extract_slice %2[121, 904] [1, 120] [1, 1] : tensor<128x1024xf32> to tensor<1x120xf32>
    %inserted_slice_566 = tensor.insert_slice %extracted_slice_564 into %extracted_slice_110[0, 120] [1, 904] [1, 1] : tensor<1x904xf32> into tensor<1x1024xf32>
    %inserted_slice_567 = tensor.insert_slice %extracted_slice_565 into %inserted_slice_566[0, 0] [1, 120] [1, 1] : tensor<1x120xf32> into tensor<1x1024xf32>
    %extracted_slice_568 = tensor.extract_slice %2[122, 0] [1, 904] [1, 1] : tensor<128x1024xf32> to tensor<1x904xf32>
    %extracted_slice_569 = tensor.extract_slice %2[122, 904] [1, 120] [1, 1] : tensor<128x1024xf32> to tensor<1x120xf32>
    %inserted_slice_570 = tensor.insert_slice %extracted_slice_568 into %extracted_slice_111[0, 120] [1, 904] [1, 1] : tensor<1x904xf32> into tensor<1x1024xf32>
    %inserted_slice_571 = tensor.insert_slice %extracted_slice_569 into %inserted_slice_570[0, 0] [1, 120] [1, 1] : tensor<1x120xf32> into tensor<1x1024xf32>
    %extracted_slice_572 = tensor.extract_slice %2[123, 0] [1, 904] [1, 1] : tensor<128x1024xf32> to tensor<1x904xf32>
    %extracted_slice_573 = tensor.extract_slice %2[123, 904] [1, 120] [1, 1] : tensor<128x1024xf32> to tensor<1x120xf32>
    %inserted_slice_574 = tensor.insert_slice %extracted_slice_572 into %extracted_slice_112[0, 120] [1, 904] [1, 1] : tensor<1x904xf32> into tensor<1x1024xf32>
    %inserted_slice_575 = tensor.insert_slice %extracted_slice_573 into %inserted_slice_574[0, 0] [1, 120] [1, 1] : tensor<1x120xf32> into tensor<1x1024xf32>
    %extracted_slice_576 = tensor.extract_slice %2[124, 0] [1, 904] [1, 1] : tensor<128x1024xf32> to tensor<1x904xf32>
    %extracted_slice_577 = tensor.extract_slice %2[124, 904] [1, 120] [1, 1] : tensor<128x1024xf32> to tensor<1x120xf32>
    %inserted_slice_578 = tensor.insert_slice %extracted_slice_576 into %extracted_slice_113[0, 120] [1, 904] [1, 1] : tensor<1x904xf32> into tensor<1x1024xf32>
    %inserted_slice_579 = tensor.insert_slice %extracted_slice_577 into %inserted_slice_578[0, 0] [1, 120] [1, 1] : tensor<1x120xf32> into tensor<1x1024xf32>
    %extracted_slice_580 = tensor.extract_slice %2[125, 0] [1, 904] [1, 1] : tensor<128x1024xf32> to tensor<1x904xf32>
    %extracted_slice_581 = tensor.extract_slice %2[125, 904] [1, 120] [1, 1] : tensor<128x1024xf32> to tensor<1x120xf32>
    %inserted_slice_582 = tensor.insert_slice %extracted_slice_580 into %extracted_slice_114[0, 120] [1, 904] [1, 1] : tensor<1x904xf32> into tensor<1x1024xf32>
    %inserted_slice_583 = tensor.insert_slice %extracted_slice_581 into %inserted_slice_582[0, 0] [1, 120] [1, 1] : tensor<1x120xf32> into tensor<1x1024xf32>
    %extracted_slice_584 = tensor.extract_slice %2[126, 0] [1, 904] [1, 1] : tensor<128x1024xf32> to tensor<1x904xf32>
    %extracted_slice_585 = tensor.extract_slice %2[126, 904] [1, 120] [1, 1] : tensor<128x1024xf32> to tensor<1x120xf32>
    %inserted_slice_586 = tensor.insert_slice %extracted_slice_584 into %extracted_slice_115[0, 120] [1, 904] [1, 1] : tensor<1x904xf32> into tensor<1x1024xf32>
    %inserted_slice_587 = tensor.insert_slice %extracted_slice_585 into %inserted_slice_586[0, 0] [1, 120] [1, 1] : tensor<1x120xf32> into tensor<1x1024xf32>
    %extracted_slice_588 = tensor.extract_slice %2[127, 0] [1, 904] [1, 1] : tensor<128x1024xf32> to tensor<1x904xf32>
    %extracted_slice_589 = tensor.extract_slice %2[127, 904] [1, 120] [1, 1] : tensor<128x1024xf32> to tensor<1x120xf32>
    %inserted_slice_590 = tensor.insert_slice %extracted_slice_588 into %extracted_slice_116[0, 120] [1, 904] [1, 1] : tensor<1x904xf32> into tensor<1x1024xf32>
    %inserted_slice_591 = tensor.insert_slice %extracted_slice_589 into %inserted_slice_590[0, 0] [1, 120] [1, 1] : tensor<1x120xf32> into tensor<1x1024xf32>
    %extracted_slice_592 = tensor.extract_slice %4[4, 0] [1, 1020] [1, 1] : tensor<16x1024xf32> to tensor<1x1020xf32>
    %extracted_slice_593 = tensor.extract_slice %4[4, 1020] [1, 4] [1, 1] : tensor<16x1024xf32> to tensor<1x4xf32>
    %inserted_slice_594 = tensor.insert_slice %extracted_slice_592 into %extracted_slice_117[0, 4] [1, 1020] [1, 1] : tensor<1x1020xf32> into tensor<1x1024xf32>
    %inserted_slice_595 = tensor.insert_slice %extracted_slice_593 into %inserted_slice_594[0, 0] [1, 4] [1, 1] : tensor<1x4xf32> into tensor<1x1024xf32>
    %extracted_slice_596 = tensor.extract_slice %4[5, 0] [1, 1020] [1, 1] : tensor<16x1024xf32> to tensor<1x1020xf32>
    %extracted_slice_597 = tensor.extract_slice %4[5, 1020] [1, 4] [1, 1] : tensor<16x1024xf32> to tensor<1x4xf32>
    %inserted_slice_598 = tensor.insert_slice %extracted_slice_596 into %extracted_slice_118[0, 4] [1, 1020] [1, 1] : tensor<1x1020xf32> into tensor<1x1024xf32>
    %inserted_slice_599 = tensor.insert_slice %extracted_slice_597 into %inserted_slice_598[0, 0] [1, 4] [1, 1] : tensor<1x4xf32> into tensor<1x1024xf32>
    %extracted_slice_600 = tensor.extract_slice %4[6, 0] [1, 1020] [1, 1] : tensor<16x1024xf32> to tensor<1x1020xf32>
    %extracted_slice_601 = tensor.extract_slice %4[6, 1020] [1, 4] [1, 1] : tensor<16x1024xf32> to tensor<1x4xf32>
    %inserted_slice_602 = tensor.insert_slice %extracted_slice_600 into %extracted_slice_119[0, 4] [1, 1020] [1, 1] : tensor<1x1020xf32> into tensor<1x1024xf32>
    %inserted_slice_603 = tensor.insert_slice %extracted_slice_601 into %inserted_slice_602[0, 0] [1, 4] [1, 1] : tensor<1x4xf32> into tensor<1x1024xf32>
    %extracted_slice_604 = tensor.extract_slice %4[7, 0] [1, 1020] [1, 1] : tensor<16x1024xf32> to tensor<1x1020xf32>
    %extracted_slice_605 = tensor.extract_slice %4[7, 1020] [1, 4] [1, 1] : tensor<16x1024xf32> to tensor<1x4xf32>
    %inserted_slice_606 = tensor.insert_slice %extracted_slice_604 into %extracted_slice_120[0, 4] [1, 1020] [1, 1] : tensor<1x1020xf32> into tensor<1x1024xf32>
    %inserted_slice_607 = tensor.insert_slice %extracted_slice_605 into %inserted_slice_606[0, 0] [1, 4] [1, 1] : tensor<1x4xf32> into tensor<1x1024xf32>
    %extracted_slice_608 = tensor.extract_slice %4[8, 0] [1, 1016] [1, 1] : tensor<16x1024xf32> to tensor<1x1016xf32>
    %extracted_slice_609 = tensor.extract_slice %4[8, 1016] [1, 8] [1, 1] : tensor<16x1024xf32> to tensor<1x8xf32>
    %inserted_slice_610 = tensor.insert_slice %extracted_slice_608 into %extracted_slice_121[0, 8] [1, 1016] [1, 1] : tensor<1x1016xf32> into tensor<1x1024xf32>
    %inserted_slice_611 = tensor.insert_slice %extracted_slice_609 into %inserted_slice_610[0, 0] [1, 8] [1, 1] : tensor<1x8xf32> into tensor<1x1024xf32>
    %extracted_slice_612 = tensor.extract_slice %4[9, 0] [1, 1016] [1, 1] : tensor<16x1024xf32> to tensor<1x1016xf32>
    %extracted_slice_613 = tensor.extract_slice %4[9, 1016] [1, 8] [1, 1] : tensor<16x1024xf32> to tensor<1x8xf32>
    %inserted_slice_614 = tensor.insert_slice %extracted_slice_612 into %extracted_slice_122[0, 8] [1, 1016] [1, 1] : tensor<1x1016xf32> into tensor<1x1024xf32>
    %inserted_slice_615 = tensor.insert_slice %extracted_slice_613 into %inserted_slice_614[0, 0] [1, 8] [1, 1] : tensor<1x8xf32> into tensor<1x1024xf32>
    %extracted_slice_616 = tensor.extract_slice %4[10, 0] [1, 1016] [1, 1] : tensor<16x1024xf32> to tensor<1x1016xf32>
    %extracted_slice_617 = tensor.extract_slice %4[10, 1016] [1, 8] [1, 1] : tensor<16x1024xf32> to tensor<1x8xf32>
    %inserted_slice_618 = tensor.insert_slice %extracted_slice_616 into %extracted_slice_123[0, 8] [1, 1016] [1, 1] : tensor<1x1016xf32> into tensor<1x1024xf32>
    %inserted_slice_619 = tensor.insert_slice %extracted_slice_617 into %inserted_slice_618[0, 0] [1, 8] [1, 1] : tensor<1x8xf32> into tensor<1x1024xf32>
    %extracted_slice_620 = tensor.extract_slice %4[11, 0] [1, 1016] [1, 1] : tensor<16x1024xf32> to tensor<1x1016xf32>
    %extracted_slice_621 = tensor.extract_slice %4[11, 1016] [1, 8] [1, 1] : tensor<16x1024xf32> to tensor<1x8xf32>
    %inserted_slice_622 = tensor.insert_slice %extracted_slice_620 into %extracted_slice_124[0, 8] [1, 1016] [1, 1] : tensor<1x1016xf32> into tensor<1x1024xf32>
    %inserted_slice_623 = tensor.insert_slice %extracted_slice_621 into %inserted_slice_622[0, 0] [1, 8] [1, 1] : tensor<1x8xf32> into tensor<1x1024xf32>
    %extracted_slice_624 = tensor.extract_slice %4[12, 0] [1, 1012] [1, 1] : tensor<16x1024xf32> to tensor<1x1012xf32>
    %extracted_slice_625 = tensor.extract_slice %4[12, 1012] [1, 12] [1, 1] : tensor<16x1024xf32> to tensor<1x12xf32>
    %inserted_slice_626 = tensor.insert_slice %extracted_slice_624 into %extracted_slice_125[0, 12] [1, 1012] [1, 1] : tensor<1x1012xf32> into tensor<1x1024xf32>
    %inserted_slice_627 = tensor.insert_slice %extracted_slice_625 into %inserted_slice_626[0, 0] [1, 12] [1, 1] : tensor<1x12xf32> into tensor<1x1024xf32>
    %extracted_slice_628 = tensor.extract_slice %4[13, 0] [1, 1012] [1, 1] : tensor<16x1024xf32> to tensor<1x1012xf32>
    %extracted_slice_629 = tensor.extract_slice %4[13, 1012] [1, 12] [1, 1] : tensor<16x1024xf32> to tensor<1x12xf32>
    %inserted_slice_630 = tensor.insert_slice %extracted_slice_628 into %extracted_slice_126[0, 12] [1, 1012] [1, 1] : tensor<1x1012xf32> into tensor<1x1024xf32>
    %inserted_slice_631 = tensor.insert_slice %extracted_slice_629 into %inserted_slice_630[0, 0] [1, 12] [1, 1] : tensor<1x12xf32> into tensor<1x1024xf32>
    %extracted_slice_632 = tensor.extract_slice %4[14, 0] [1, 1012] [1, 1] : tensor<16x1024xf32> to tensor<1x1012xf32>
    %extracted_slice_633 = tensor.extract_slice %4[14, 1012] [1, 12] [1, 1] : tensor<16x1024xf32> to tensor<1x12xf32>
    %inserted_slice_634 = tensor.insert_slice %extracted_slice_632 into %extracted_slice_127[0, 12] [1, 1012] [1, 1] : tensor<1x1012xf32> into tensor<1x1024xf32>
    %inserted_slice_635 = tensor.insert_slice %extracted_slice_633 into %inserted_slice_634[0, 0] [1, 12] [1, 1] : tensor<1x12xf32> into tensor<1x1024xf32>
    %extracted_slice_636 = tensor.extract_slice %4[15, 0] [1, 1012] [1, 1] : tensor<16x1024xf32> to tensor<1x1012xf32>
    %extracted_slice_637 = tensor.extract_slice %4[15, 1012] [1, 12] [1, 1] : tensor<16x1024xf32> to tensor<1x12xf32>
    %inserted_slice_638 = tensor.insert_slice %extracted_slice_636 into %extracted_slice_128[0, 12] [1, 1012] [1, 1] : tensor<1x1012xf32> into tensor<1x1024xf32>
    %inserted_slice_639 = tensor.insert_slice %extracted_slice_637 into %inserted_slice_638[0, 0] [1, 12] [1, 1] : tensor<1x12xf32> into tensor<1x1024xf32>
    %extracted_slice_640 = tensor.extract_slice %0[12, 0] [1, 1024] [1, 1] : tensor<128x1024xf32> to tensor<1x1024xf32>
    %extracted_slice_641 = tensor.extract_slice %0[13, 0] [1, 1024] [1, 1] : tensor<128x1024xf32> to tensor<1x1024xf32>
    %extracted_slice_642 = tensor.extract_slice %0[14, 0] [1, 1024] [1, 1] : tensor<128x1024xf32> to tensor<1x1024xf32>
    %extracted_slice_643 = tensor.extract_slice %0[15, 0] [1, 1024] [1, 1] : tensor<128x1024xf32> to tensor<1x1024xf32>
    %extracted_slice_644 = tensor.extract_slice %0[16, 0] [1, 1024] [1, 1] : tensor<128x1024xf32> to tensor<1x1024xf32>
    %extracted_slice_645 = tensor.extract_slice %0[17, 0] [1, 1024] [1, 1] : tensor<128x1024xf32> to tensor<1x1024xf32>
    %extracted_slice_646 = tensor.extract_slice %0[18, 0] [1, 1024] [1, 1] : tensor<128x1024xf32> to tensor<1x1024xf32>
    %extracted_slice_647 = tensor.extract_slice %0[19, 0] [1, 1024] [1, 1] : tensor<128x1024xf32> to tensor<1x1024xf32>
    %extracted_slice_648 = tensor.extract_slice %0[20, 0] [1, 1024] [1, 1] : tensor<128x1024xf32> to tensor<1x1024xf32>
    %extracted_slice_649 = tensor.extract_slice %0[21, 0] [1, 1024] [1, 1] : tensor<128x1024xf32> to tensor<1x1024xf32>
    %extracted_slice_650 = tensor.extract_slice %0[22, 0] [1, 1024] [1, 1] : tensor<128x1024xf32> to tensor<1x1024xf32>
    %extracted_slice_651 = tensor.extract_slice %0[23, 0] [1, 1024] [1, 1] : tensor<128x1024xf32> to tensor<1x1024xf32>
    %extracted_slice_652 = tensor.extract_slice %0[24, 0] [1, 1024] [1, 1] : tensor<128x1024xf32> to tensor<1x1024xf32>
    %extracted_slice_653 = tensor.extract_slice %0[25, 0] [1, 1024] [1, 1] : tensor<128x1024xf32> to tensor<1x1024xf32>
    %extracted_slice_654 = tensor.extract_slice %0[26, 0] [1, 1024] [1, 1] : tensor<128x1024xf32> to tensor<1x1024xf32>
    %extracted_slice_655 = tensor.extract_slice %0[27, 0] [1, 1024] [1, 1] : tensor<128x1024xf32> to tensor<1x1024xf32>
    %extracted_slice_656 = tensor.extract_slice %0[28, 0] [1, 1024] [1, 1] : tensor<128x1024xf32> to tensor<1x1024xf32>
    %extracted_slice_657 = tensor.extract_slice %0[29, 0] [1, 1024] [1, 1] : tensor<128x1024xf32> to tensor<1x1024xf32>
    %extracted_slice_658 = tensor.extract_slice %0[30, 0] [1, 1024] [1, 1] : tensor<128x1024xf32> to tensor<1x1024xf32>
    %extracted_slice_659 = tensor.extract_slice %0[31, 0] [1, 1024] [1, 1] : tensor<128x1024xf32> to tensor<1x1024xf32>
    %extracted_slice_660 = tensor.extract_slice %0[32, 0] [1, 1024] [1, 1] : tensor<128x1024xf32> to tensor<1x1024xf32>
    %extracted_slice_661 = tensor.extract_slice %0[33, 0] [1, 1024] [1, 1] : tensor<128x1024xf32> to tensor<1x1024xf32>
    %extracted_slice_662 = tensor.extract_slice %0[34, 0] [1, 1024] [1, 1] : tensor<128x1024xf32> to tensor<1x1024xf32>
    %extracted_slice_663 = tensor.extract_slice %0[35, 0] [1, 1024] [1, 1] : tensor<128x1024xf32> to tensor<1x1024xf32>
    %extracted_slice_664 = tensor.extract_slice %0[36, 0] [1, 1024] [1, 1] : tensor<128x1024xf32> to tensor<1x1024xf32>
    %extracted_slice_665 = tensor.extract_slice %0[37, 0] [1, 1024] [1, 1] : tensor<128x1024xf32> to tensor<1x1024xf32>
    %extracted_slice_666 = tensor.extract_slice %0[38, 0] [1, 1024] [1, 1] : tensor<128x1024xf32> to tensor<1x1024xf32>
    %extracted_slice_667 = tensor.extract_slice %0[39, 0] [1, 1024] [1, 1] : tensor<128x1024xf32> to tensor<1x1024xf32>
    %extracted_slice_668 = tensor.extract_slice %0[40, 0] [1, 1024] [1, 1] : tensor<128x1024xf32> to tensor<1x1024xf32>
    %extracted_slice_669 = tensor.extract_slice %0[41, 0] [1, 1024] [1, 1] : tensor<128x1024xf32> to tensor<1x1024xf32>
    %extracted_slice_670 = tensor.extract_slice %0[42, 0] [1, 1024] [1, 1] : tensor<128x1024xf32> to tensor<1x1024xf32>
    %extracted_slice_671 = tensor.extract_slice %0[43, 0] [1, 1024] [1, 1] : tensor<128x1024xf32> to tensor<1x1024xf32>
    %extracted_slice_672 = tensor.extract_slice %0[44, 0] [1, 1024] [1, 1] : tensor<128x1024xf32> to tensor<1x1024xf32>
    %extracted_slice_673 = tensor.extract_slice %0[45, 0] [1, 1024] [1, 1] : tensor<128x1024xf32> to tensor<1x1024xf32>
    %extracted_slice_674 = tensor.extract_slice %0[46, 0] [1, 1024] [1, 1] : tensor<128x1024xf32> to tensor<1x1024xf32>
    %extracted_slice_675 = tensor.extract_slice %0[47, 0] [1, 1024] [1, 1] : tensor<128x1024xf32> to tensor<1x1024xf32>
    %extracted_slice_676 = tensor.extract_slice %0[48, 0] [1, 1024] [1, 1] : tensor<128x1024xf32> to tensor<1x1024xf32>
    %extracted_slice_677 = tensor.extract_slice %0[49, 0] [1, 1024] [1, 1] : tensor<128x1024xf32> to tensor<1x1024xf32>
    %extracted_slice_678 = tensor.extract_slice %0[50, 0] [1, 1024] [1, 1] : tensor<128x1024xf32> to tensor<1x1024xf32>
    %extracted_slice_679 = tensor.extract_slice %0[51, 0] [1, 1024] [1, 1] : tensor<128x1024xf32> to tensor<1x1024xf32>
    %extracted_slice_680 = tensor.extract_slice %0[52, 0] [1, 1024] [1, 1] : tensor<128x1024xf32> to tensor<1x1024xf32>
    %extracted_slice_681 = tensor.extract_slice %0[53, 0] [1, 1024] [1, 1] : tensor<128x1024xf32> to tensor<1x1024xf32>
    %extracted_slice_682 = tensor.extract_slice %0[54, 0] [1, 1024] [1, 1] : tensor<128x1024xf32> to tensor<1x1024xf32>
    %extracted_slice_683 = tensor.extract_slice %0[55, 0] [1, 1024] [1, 1] : tensor<128x1024xf32> to tensor<1x1024xf32>
    %extracted_slice_684 = tensor.extract_slice %0[56, 0] [1, 1024] [1, 1] : tensor<128x1024xf32> to tensor<1x1024xf32>
    %extracted_slice_685 = tensor.extract_slice %0[57, 0] [1, 1024] [1, 1] : tensor<128x1024xf32> to tensor<1x1024xf32>
    %extracted_slice_686 = tensor.extract_slice %0[58, 0] [1, 1024] [1, 1] : tensor<128x1024xf32> to tensor<1x1024xf32>
    %extracted_slice_687 = tensor.extract_slice %0[59, 0] [1, 1024] [1, 1] : tensor<128x1024xf32> to tensor<1x1024xf32>
    %extracted_slice_688 = tensor.extract_slice %0[60, 0] [1, 1024] [1, 1] : tensor<128x1024xf32> to tensor<1x1024xf32>
    %extracted_slice_689 = tensor.extract_slice %0[61, 0] [1, 1024] [1, 1] : tensor<128x1024xf32> to tensor<1x1024xf32>
    %extracted_slice_690 = tensor.extract_slice %0[62, 0] [1, 1024] [1, 1] : tensor<128x1024xf32> to tensor<1x1024xf32>
    %extracted_slice_691 = tensor.extract_slice %0[63, 0] [1, 1024] [1, 1] : tensor<128x1024xf32> to tensor<1x1024xf32>
    %extracted_slice_692 = tensor.extract_slice %0[64, 0] [1, 1024] [1, 1] : tensor<128x1024xf32> to tensor<1x1024xf32>
    %extracted_slice_693 = tensor.extract_slice %0[65, 0] [1, 1024] [1, 1] : tensor<128x1024xf32> to tensor<1x1024xf32>
    %extracted_slice_694 = tensor.extract_slice %0[66, 0] [1, 1024] [1, 1] : tensor<128x1024xf32> to tensor<1x1024xf32>
    %extracted_slice_695 = tensor.extract_slice %0[67, 0] [1, 1024] [1, 1] : tensor<128x1024xf32> to tensor<1x1024xf32>
    %extracted_slice_696 = tensor.extract_slice %0[68, 0] [1, 1024] [1, 1] : tensor<128x1024xf32> to tensor<1x1024xf32>
    %extracted_slice_697 = tensor.extract_slice %0[69, 0] [1, 1024] [1, 1] : tensor<128x1024xf32> to tensor<1x1024xf32>
    %extracted_slice_698 = tensor.extract_slice %0[70, 0] [1, 1024] [1, 1] : tensor<128x1024xf32> to tensor<1x1024xf32>
    %extracted_slice_699 = tensor.extract_slice %0[71, 0] [1, 1024] [1, 1] : tensor<128x1024xf32> to tensor<1x1024xf32>
    %extracted_slice_700 = tensor.extract_slice %0[72, 0] [1, 1024] [1, 1] : tensor<128x1024xf32> to tensor<1x1024xf32>
    %extracted_slice_701 = tensor.extract_slice %0[73, 0] [1, 1024] [1, 1] : tensor<128x1024xf32> to tensor<1x1024xf32>
    %extracted_slice_702 = tensor.extract_slice %0[74, 0] [1, 1024] [1, 1] : tensor<128x1024xf32> to tensor<1x1024xf32>
    %extracted_slice_703 = tensor.extract_slice %0[75, 0] [1, 1024] [1, 1] : tensor<128x1024xf32> to tensor<1x1024xf32>
    %extracted_slice_704 = tensor.extract_slice %0[76, 0] [1, 1024] [1, 1] : tensor<128x1024xf32> to tensor<1x1024xf32>
    %extracted_slice_705 = tensor.extract_slice %0[77, 0] [1, 1024] [1, 1] : tensor<128x1024xf32> to tensor<1x1024xf32>
    %extracted_slice_706 = tensor.extract_slice %0[78, 0] [1, 1024] [1, 1] : tensor<128x1024xf32> to tensor<1x1024xf32>
    %extracted_slice_707 = tensor.extract_slice %0[79, 0] [1, 1024] [1, 1] : tensor<128x1024xf32> to tensor<1x1024xf32>
    %extracted_slice_708 = tensor.extract_slice %0[80, 0] [1, 1024] [1, 1] : tensor<128x1024xf32> to tensor<1x1024xf32>
    %extracted_slice_709 = tensor.extract_slice %0[81, 0] [1, 1024] [1, 1] : tensor<128x1024xf32> to tensor<1x1024xf32>
    %extracted_slice_710 = tensor.extract_slice %0[82, 0] [1, 1024] [1, 1] : tensor<128x1024xf32> to tensor<1x1024xf32>
    %extracted_slice_711 = tensor.extract_slice %0[83, 0] [1, 1024] [1, 1] : tensor<128x1024xf32> to tensor<1x1024xf32>
    %extracted_slice_712 = tensor.extract_slice %0[84, 0] [1, 1024] [1, 1] : tensor<128x1024xf32> to tensor<1x1024xf32>
    %extracted_slice_713 = tensor.extract_slice %0[85, 0] [1, 1024] [1, 1] : tensor<128x1024xf32> to tensor<1x1024xf32>
    %extracted_slice_714 = tensor.extract_slice %0[86, 0] [1, 1024] [1, 1] : tensor<128x1024xf32> to tensor<1x1024xf32>
    %extracted_slice_715 = tensor.extract_slice %0[87, 0] [1, 1024] [1, 1] : tensor<128x1024xf32> to tensor<1x1024xf32>
    %extracted_slice_716 = tensor.extract_slice %0[88, 0] [1, 1024] [1, 1] : tensor<128x1024xf32> to tensor<1x1024xf32>
    %extracted_slice_717 = tensor.extract_slice %0[89, 0] [1, 1024] [1, 1] : tensor<128x1024xf32> to tensor<1x1024xf32>
    %extracted_slice_718 = tensor.extract_slice %0[90, 0] [1, 1024] [1, 1] : tensor<128x1024xf32> to tensor<1x1024xf32>
    %extracted_slice_719 = tensor.extract_slice %0[91, 0] [1, 1024] [1, 1] : tensor<128x1024xf32> to tensor<1x1024xf32>
    %extracted_slice_720 = tensor.extract_slice %0[92, 0] [1, 1024] [1, 1] : tensor<128x1024xf32> to tensor<1x1024xf32>
    %extracted_slice_721 = tensor.extract_slice %0[93, 0] [1, 1024] [1, 1] : tensor<128x1024xf32> to tensor<1x1024xf32>
    %extracted_slice_722 = tensor.extract_slice %0[94, 0] [1, 1024] [1, 1] : tensor<128x1024xf32> to tensor<1x1024xf32>
    %extracted_slice_723 = tensor.extract_slice %0[95, 0] [1, 1024] [1, 1] : tensor<128x1024xf32> to tensor<1x1024xf32>
    %extracted_slice_724 = tensor.extract_slice %0[96, 0] [1, 1024] [1, 1] : tensor<128x1024xf32> to tensor<1x1024xf32>
    %extracted_slice_725 = tensor.extract_slice %0[97, 0] [1, 1024] [1, 1] : tensor<128x1024xf32> to tensor<1x1024xf32>
    %extracted_slice_726 = tensor.extract_slice %0[98, 0] [1, 1024] [1, 1] : tensor<128x1024xf32> to tensor<1x1024xf32>
    %extracted_slice_727 = tensor.extract_slice %0[99, 0] [1, 1024] [1, 1] : tensor<128x1024xf32> to tensor<1x1024xf32>
    %extracted_slice_728 = tensor.extract_slice %0[100, 0] [1, 1024] [1, 1] : tensor<128x1024xf32> to tensor<1x1024xf32>
    %extracted_slice_729 = tensor.extract_slice %0[101, 0] [1, 1024] [1, 1] : tensor<128x1024xf32> to tensor<1x1024xf32>
    %extracted_slice_730 = tensor.extract_slice %0[102, 0] [1, 1024] [1, 1] : tensor<128x1024xf32> to tensor<1x1024xf32>
    %extracted_slice_731 = tensor.extract_slice %0[103, 0] [1, 1024] [1, 1] : tensor<128x1024xf32> to tensor<1x1024xf32>
    %extracted_slice_732 = tensor.extract_slice %0[104, 0] [1, 1024] [1, 1] : tensor<128x1024xf32> to tensor<1x1024xf32>
    %extracted_slice_733 = tensor.extract_slice %0[105, 0] [1, 1024] [1, 1] : tensor<128x1024xf32> to tensor<1x1024xf32>
    %extracted_slice_734 = tensor.extract_slice %0[106, 0] [1, 1024] [1, 1] : tensor<128x1024xf32> to tensor<1x1024xf32>
    %extracted_slice_735 = tensor.extract_slice %0[107, 0] [1, 1024] [1, 1] : tensor<128x1024xf32> to tensor<1x1024xf32>
    %extracted_slice_736 = tensor.extract_slice %0[108, 0] [1, 1024] [1, 1] : tensor<128x1024xf32> to tensor<1x1024xf32>
    %extracted_slice_737 = tensor.extract_slice %0[109, 0] [1, 1024] [1, 1] : tensor<128x1024xf32> to tensor<1x1024xf32>
    %extracted_slice_738 = tensor.extract_slice %0[110, 0] [1, 1024] [1, 1] : tensor<128x1024xf32> to tensor<1x1024xf32>
    %extracted_slice_739 = tensor.extract_slice %0[111, 0] [1, 1024] [1, 1] : tensor<128x1024xf32> to tensor<1x1024xf32>
    %extracted_slice_740 = tensor.extract_slice %0[112, 0] [1, 1024] [1, 1] : tensor<128x1024xf32> to tensor<1x1024xf32>
    %extracted_slice_741 = tensor.extract_slice %0[113, 0] [1, 1024] [1, 1] : tensor<128x1024xf32> to tensor<1x1024xf32>
    %extracted_slice_742 = tensor.extract_slice %0[114, 0] [1, 1024] [1, 1] : tensor<128x1024xf32> to tensor<1x1024xf32>
    %extracted_slice_743 = tensor.extract_slice %0[115, 0] [1, 1024] [1, 1] : tensor<128x1024xf32> to tensor<1x1024xf32>
    %extracted_slice_744 = tensor.extract_slice %0[116, 0] [1, 1024] [1, 1] : tensor<128x1024xf32> to tensor<1x1024xf32>
    %extracted_slice_745 = tensor.extract_slice %0[117, 0] [1, 1024] [1, 1] : tensor<128x1024xf32> to tensor<1x1024xf32>
    %extracted_slice_746 = tensor.extract_slice %0[118, 0] [1, 1024] [1, 1] : tensor<128x1024xf32> to tensor<1x1024xf32>
    %extracted_slice_747 = tensor.extract_slice %0[119, 0] [1, 1024] [1, 1] : tensor<128x1024xf32> to tensor<1x1024xf32>
    %extracted_slice_748 = tensor.extract_slice %0[120, 0] [1, 1024] [1, 1] : tensor<128x1024xf32> to tensor<1x1024xf32>
    %extracted_slice_749 = tensor.extract_slice %0[121, 0] [1, 1024] [1, 1] : tensor<128x1024xf32> to tensor<1x1024xf32>
    %extracted_slice_750 = tensor.extract_slice %0[122, 0] [1, 1024] [1, 1] : tensor<128x1024xf32> to tensor<1x1024xf32>
    %extracted_slice_751 = tensor.extract_slice %0[123, 0] [1, 1024] [1, 1] : tensor<128x1024xf32> to tensor<1x1024xf32>
    %extracted_slice_752 = tensor.extract_slice %0[124, 0] [1, 1024] [1, 1] : tensor<128x1024xf32> to tensor<1x1024xf32>
    %extracted_slice_753 = tensor.extract_slice %0[125, 0] [1, 1024] [1, 1] : tensor<128x1024xf32> to tensor<1x1024xf32>
    %extracted_slice_754 = tensor.extract_slice %0[126, 0] [1, 1024] [1, 1] : tensor<128x1024xf32> to tensor<1x1024xf32>
    %extracted_slice_755 = tensor.extract_slice %0[127, 0] [1, 1024] [1, 1] : tensor<128x1024xf32> to tensor<1x1024xf32>
    %extracted_slice_756 = tensor.extract_slice %0[12, 0] [1, 1012] [1, 1] : tensor<128x1024xf32> to tensor<1x1012xf32>
    %extracted_slice_757 = tensor.extract_slice %0[12, 1012] [1, 12] [1, 1] : tensor<128x1024xf32> to tensor<1x12xf32>
    %inserted_slice_758 = tensor.insert_slice %extracted_slice_756 into %extracted_slice_640[0, 12] [1, 1012] [1, 1] : tensor<1x1012xf32> into tensor<1x1024xf32>
    %inserted_slice_759 = tensor.insert_slice %extracted_slice_757 into %inserted_slice_758[0, 0] [1, 12] [1, 1] : tensor<1x12xf32> into tensor<1x1024xf32>
    %extracted_slice_760 = tensor.extract_slice %0[13, 0] [1, 1012] [1, 1] : tensor<128x1024xf32> to tensor<1x1012xf32>
    %extracted_slice_761 = tensor.extract_slice %0[13, 1012] [1, 12] [1, 1] : tensor<128x1024xf32> to tensor<1x12xf32>
    %inserted_slice_762 = tensor.insert_slice %extracted_slice_760 into %extracted_slice_641[0, 12] [1, 1012] [1, 1] : tensor<1x1012xf32> into tensor<1x1024xf32>
    %inserted_slice_763 = tensor.insert_slice %extracted_slice_761 into %inserted_slice_762[0, 0] [1, 12] [1, 1] : tensor<1x12xf32> into tensor<1x1024xf32>
    %extracted_slice_764 = tensor.extract_slice %0[14, 0] [1, 1012] [1, 1] : tensor<128x1024xf32> to tensor<1x1012xf32>
    %extracted_slice_765 = tensor.extract_slice %0[14, 1012] [1, 12] [1, 1] : tensor<128x1024xf32> to tensor<1x12xf32>
    %inserted_slice_766 = tensor.insert_slice %extracted_slice_764 into %extracted_slice_642[0, 12] [1, 1012] [1, 1] : tensor<1x1012xf32> into tensor<1x1024xf32>
    %inserted_slice_767 = tensor.insert_slice %extracted_slice_765 into %inserted_slice_766[0, 0] [1, 12] [1, 1] : tensor<1x12xf32> into tensor<1x1024xf32>
    %extracted_slice_768 = tensor.extract_slice %0[15, 0] [1, 1012] [1, 1] : tensor<128x1024xf32> to tensor<1x1012xf32>
    %extracted_slice_769 = tensor.extract_slice %0[15, 1012] [1, 12] [1, 1] : tensor<128x1024xf32> to tensor<1x12xf32>
    %inserted_slice_770 = tensor.insert_slice %extracted_slice_768 into %extracted_slice_643[0, 12] [1, 1012] [1, 1] : tensor<1x1012xf32> into tensor<1x1024xf32>
    %inserted_slice_771 = tensor.insert_slice %extracted_slice_769 into %inserted_slice_770[0, 0] [1, 12] [1, 1] : tensor<1x12xf32> into tensor<1x1024xf32>
    %extracted_slice_772 = tensor.extract_slice %0[16, 0] [1, 1012] [1, 1] : tensor<128x1024xf32> to tensor<1x1012xf32>
    %extracted_slice_773 = tensor.extract_slice %0[16, 1012] [1, 12] [1, 1] : tensor<128x1024xf32> to tensor<1x12xf32>
    %inserted_slice_774 = tensor.insert_slice %extracted_slice_772 into %extracted_slice_644[0, 12] [1, 1012] [1, 1] : tensor<1x1012xf32> into tensor<1x1024xf32>
    %inserted_slice_775 = tensor.insert_slice %extracted_slice_773 into %inserted_slice_774[0, 0] [1, 12] [1, 1] : tensor<1x12xf32> into tensor<1x1024xf32>
    %extracted_slice_776 = tensor.extract_slice %0[17, 0] [1, 1012] [1, 1] : tensor<128x1024xf32> to tensor<1x1012xf32>
    %extracted_slice_777 = tensor.extract_slice %0[17, 1012] [1, 12] [1, 1] : tensor<128x1024xf32> to tensor<1x12xf32>
    %inserted_slice_778 = tensor.insert_slice %extracted_slice_776 into %extracted_slice_645[0, 12] [1, 1012] [1, 1] : tensor<1x1012xf32> into tensor<1x1024xf32>
    %inserted_slice_779 = tensor.insert_slice %extracted_slice_777 into %inserted_slice_778[0, 0] [1, 12] [1, 1] : tensor<1x12xf32> into tensor<1x1024xf32>
    %extracted_slice_780 = tensor.extract_slice %0[18, 0] [1, 1012] [1, 1] : tensor<128x1024xf32> to tensor<1x1012xf32>
    %extracted_slice_781 = tensor.extract_slice %0[18, 1012] [1, 12] [1, 1] : tensor<128x1024xf32> to tensor<1x12xf32>
    %inserted_slice_782 = tensor.insert_slice %extracted_slice_780 into %extracted_slice_646[0, 12] [1, 1012] [1, 1] : tensor<1x1012xf32> into tensor<1x1024xf32>
    %inserted_slice_783 = tensor.insert_slice %extracted_slice_781 into %inserted_slice_782[0, 0] [1, 12] [1, 1] : tensor<1x12xf32> into tensor<1x1024xf32>
    %extracted_slice_784 = tensor.extract_slice %0[19, 0] [1, 1012] [1, 1] : tensor<128x1024xf32> to tensor<1x1012xf32>
    %extracted_slice_785 = tensor.extract_slice %0[19, 1012] [1, 12] [1, 1] : tensor<128x1024xf32> to tensor<1x12xf32>
    %inserted_slice_786 = tensor.insert_slice %extracted_slice_784 into %extracted_slice_647[0, 12] [1, 1012] [1, 1] : tensor<1x1012xf32> into tensor<1x1024xf32>
    %inserted_slice_787 = tensor.insert_slice %extracted_slice_785 into %inserted_slice_786[0, 0] [1, 12] [1, 1] : tensor<1x12xf32> into tensor<1x1024xf32>
    %extracted_slice_788 = tensor.extract_slice %0[20, 0] [1, 1012] [1, 1] : tensor<128x1024xf32> to tensor<1x1012xf32>
    %extracted_slice_789 = tensor.extract_slice %0[20, 1012] [1, 12] [1, 1] : tensor<128x1024xf32> to tensor<1x12xf32>
    %inserted_slice_790 = tensor.insert_slice %extracted_slice_788 into %extracted_slice_648[0, 12] [1, 1012] [1, 1] : tensor<1x1012xf32> into tensor<1x1024xf32>
    %inserted_slice_791 = tensor.insert_slice %extracted_slice_789 into %inserted_slice_790[0, 0] [1, 12] [1, 1] : tensor<1x12xf32> into tensor<1x1024xf32>
    %extracted_slice_792 = tensor.extract_slice %0[21, 0] [1, 1012] [1, 1] : tensor<128x1024xf32> to tensor<1x1012xf32>
    %extracted_slice_793 = tensor.extract_slice %0[21, 1012] [1, 12] [1, 1] : tensor<128x1024xf32> to tensor<1x12xf32>
    %inserted_slice_794 = tensor.insert_slice %extracted_slice_792 into %extracted_slice_649[0, 12] [1, 1012] [1, 1] : tensor<1x1012xf32> into tensor<1x1024xf32>
    %inserted_slice_795 = tensor.insert_slice %extracted_slice_793 into %inserted_slice_794[0, 0] [1, 12] [1, 1] : tensor<1x12xf32> into tensor<1x1024xf32>
    %extracted_slice_796 = tensor.extract_slice %0[22, 0] [1, 1012] [1, 1] : tensor<128x1024xf32> to tensor<1x1012xf32>
    %extracted_slice_797 = tensor.extract_slice %0[22, 1012] [1, 12] [1, 1] : tensor<128x1024xf32> to tensor<1x12xf32>
    %inserted_slice_798 = tensor.insert_slice %extracted_slice_796 into %extracted_slice_650[0, 12] [1, 1012] [1, 1] : tensor<1x1012xf32> into tensor<1x1024xf32>
    %inserted_slice_799 = tensor.insert_slice %extracted_slice_797 into %inserted_slice_798[0, 0] [1, 12] [1, 1] : tensor<1x12xf32> into tensor<1x1024xf32>
    %extracted_slice_800 = tensor.extract_slice %0[23, 0] [1, 1012] [1, 1] : tensor<128x1024xf32> to tensor<1x1012xf32>
    %extracted_slice_801 = tensor.extract_slice %0[23, 1012] [1, 12] [1, 1] : tensor<128x1024xf32> to tensor<1x12xf32>
    %inserted_slice_802 = tensor.insert_slice %extracted_slice_800 into %extracted_slice_651[0, 12] [1, 1012] [1, 1] : tensor<1x1012xf32> into tensor<1x1024xf32>
    %inserted_slice_803 = tensor.insert_slice %extracted_slice_801 into %inserted_slice_802[0, 0] [1, 12] [1, 1] : tensor<1x12xf32> into tensor<1x1024xf32>
    %extracted_slice_804 = tensor.extract_slice %0[24, 0] [1, 1000] [1, 1] : tensor<128x1024xf32> to tensor<1x1000xf32>
    %extracted_slice_805 = tensor.extract_slice %0[24, 1000] [1, 24] [1, 1] : tensor<128x1024xf32> to tensor<1x24xf32>
    %inserted_slice_806 = tensor.insert_slice %extracted_slice_804 into %extracted_slice_652[0, 24] [1, 1000] [1, 1] : tensor<1x1000xf32> into tensor<1x1024xf32>
    %inserted_slice_807 = tensor.insert_slice %extracted_slice_805 into %inserted_slice_806[0, 0] [1, 24] [1, 1] : tensor<1x24xf32> into tensor<1x1024xf32>
    %extracted_slice_808 = tensor.extract_slice %0[25, 0] [1, 1000] [1, 1] : tensor<128x1024xf32> to tensor<1x1000xf32>
    %extracted_slice_809 = tensor.extract_slice %0[25, 1000] [1, 24] [1, 1] : tensor<128x1024xf32> to tensor<1x24xf32>
    %inserted_slice_810 = tensor.insert_slice %extracted_slice_808 into %extracted_slice_653[0, 24] [1, 1000] [1, 1] : tensor<1x1000xf32> into tensor<1x1024xf32>
    %inserted_slice_811 = tensor.insert_slice %extracted_slice_809 into %inserted_slice_810[0, 0] [1, 24] [1, 1] : tensor<1x24xf32> into tensor<1x1024xf32>
    %extracted_slice_812 = tensor.extract_slice %0[26, 0] [1, 1000] [1, 1] : tensor<128x1024xf32> to tensor<1x1000xf32>
    %extracted_slice_813 = tensor.extract_slice %0[26, 1000] [1, 24] [1, 1] : tensor<128x1024xf32> to tensor<1x24xf32>
    %inserted_slice_814 = tensor.insert_slice %extracted_slice_812 into %extracted_slice_654[0, 24] [1, 1000] [1, 1] : tensor<1x1000xf32> into tensor<1x1024xf32>
    %inserted_slice_815 = tensor.insert_slice %extracted_slice_813 into %inserted_slice_814[0, 0] [1, 24] [1, 1] : tensor<1x24xf32> into tensor<1x1024xf32>
    %extracted_slice_816 = tensor.extract_slice %0[27, 0] [1, 1000] [1, 1] : tensor<128x1024xf32> to tensor<1x1000xf32>
    %extracted_slice_817 = tensor.extract_slice %0[27, 1000] [1, 24] [1, 1] : tensor<128x1024xf32> to tensor<1x24xf32>
    %inserted_slice_818 = tensor.insert_slice %extracted_slice_816 into %extracted_slice_655[0, 24] [1, 1000] [1, 1] : tensor<1x1000xf32> into tensor<1x1024xf32>
    %inserted_slice_819 = tensor.insert_slice %extracted_slice_817 into %inserted_slice_818[0, 0] [1, 24] [1, 1] : tensor<1x24xf32> into tensor<1x1024xf32>
    %extracted_slice_820 = tensor.extract_slice %0[28, 0] [1, 1000] [1, 1] : tensor<128x1024xf32> to tensor<1x1000xf32>
    %extracted_slice_821 = tensor.extract_slice %0[28, 1000] [1, 24] [1, 1] : tensor<128x1024xf32> to tensor<1x24xf32>
    %inserted_slice_822 = tensor.insert_slice %extracted_slice_820 into %extracted_slice_656[0, 24] [1, 1000] [1, 1] : tensor<1x1000xf32> into tensor<1x1024xf32>
    %inserted_slice_823 = tensor.insert_slice %extracted_slice_821 into %inserted_slice_822[0, 0] [1, 24] [1, 1] : tensor<1x24xf32> into tensor<1x1024xf32>
    %extracted_slice_824 = tensor.extract_slice %0[29, 0] [1, 1000] [1, 1] : tensor<128x1024xf32> to tensor<1x1000xf32>
    %extracted_slice_825 = tensor.extract_slice %0[29, 1000] [1, 24] [1, 1] : tensor<128x1024xf32> to tensor<1x24xf32>
    %inserted_slice_826 = tensor.insert_slice %extracted_slice_824 into %extracted_slice_657[0, 24] [1, 1000] [1, 1] : tensor<1x1000xf32> into tensor<1x1024xf32>
    %inserted_slice_827 = tensor.insert_slice %extracted_slice_825 into %inserted_slice_826[0, 0] [1, 24] [1, 1] : tensor<1x24xf32> into tensor<1x1024xf32>
    %extracted_slice_828 = tensor.extract_slice %0[30, 0] [1, 1000] [1, 1] : tensor<128x1024xf32> to tensor<1x1000xf32>
    %extracted_slice_829 = tensor.extract_slice %0[30, 1000] [1, 24] [1, 1] : tensor<128x1024xf32> to tensor<1x24xf32>
    %inserted_slice_830 = tensor.insert_slice %extracted_slice_828 into %extracted_slice_658[0, 24] [1, 1000] [1, 1] : tensor<1x1000xf32> into tensor<1x1024xf32>
    %inserted_slice_831 = tensor.insert_slice %extracted_slice_829 into %inserted_slice_830[0, 0] [1, 24] [1, 1] : tensor<1x24xf32> into tensor<1x1024xf32>
    %extracted_slice_832 = tensor.extract_slice %0[31, 0] [1, 1000] [1, 1] : tensor<128x1024xf32> to tensor<1x1000xf32>
    %extracted_slice_833 = tensor.extract_slice %0[31, 1000] [1, 24] [1, 1] : tensor<128x1024xf32> to tensor<1x24xf32>
    %inserted_slice_834 = tensor.insert_slice %extracted_slice_832 into %extracted_slice_659[0, 24] [1, 1000] [1, 1] : tensor<1x1000xf32> into tensor<1x1024xf32>
    %inserted_slice_835 = tensor.insert_slice %extracted_slice_833 into %inserted_slice_834[0, 0] [1, 24] [1, 1] : tensor<1x24xf32> into tensor<1x1024xf32>
    %extracted_slice_836 = tensor.extract_slice %0[32, 0] [1, 1000] [1, 1] : tensor<128x1024xf32> to tensor<1x1000xf32>
    %extracted_slice_837 = tensor.extract_slice %0[32, 1000] [1, 24] [1, 1] : tensor<128x1024xf32> to tensor<1x24xf32>
    %inserted_slice_838 = tensor.insert_slice %extracted_slice_836 into %extracted_slice_660[0, 24] [1, 1000] [1, 1] : tensor<1x1000xf32> into tensor<1x1024xf32>
    %inserted_slice_839 = tensor.insert_slice %extracted_slice_837 into %inserted_slice_838[0, 0] [1, 24] [1, 1] : tensor<1x24xf32> into tensor<1x1024xf32>
    %extracted_slice_840 = tensor.extract_slice %0[33, 0] [1, 1000] [1, 1] : tensor<128x1024xf32> to tensor<1x1000xf32>
    %extracted_slice_841 = tensor.extract_slice %0[33, 1000] [1, 24] [1, 1] : tensor<128x1024xf32> to tensor<1x24xf32>
    %inserted_slice_842 = tensor.insert_slice %extracted_slice_840 into %extracted_slice_661[0, 24] [1, 1000] [1, 1] : tensor<1x1000xf32> into tensor<1x1024xf32>
    %inserted_slice_843 = tensor.insert_slice %extracted_slice_841 into %inserted_slice_842[0, 0] [1, 24] [1, 1] : tensor<1x24xf32> into tensor<1x1024xf32>
    %extracted_slice_844 = tensor.extract_slice %0[34, 0] [1, 1000] [1, 1] : tensor<128x1024xf32> to tensor<1x1000xf32>
    %extracted_slice_845 = tensor.extract_slice %0[34, 1000] [1, 24] [1, 1] : tensor<128x1024xf32> to tensor<1x24xf32>
    %inserted_slice_846 = tensor.insert_slice %extracted_slice_844 into %extracted_slice_662[0, 24] [1, 1000] [1, 1] : tensor<1x1000xf32> into tensor<1x1024xf32>
    %inserted_slice_847 = tensor.insert_slice %extracted_slice_845 into %inserted_slice_846[0, 0] [1, 24] [1, 1] : tensor<1x24xf32> into tensor<1x1024xf32>
    %extracted_slice_848 = tensor.extract_slice %0[35, 0] [1, 1000] [1, 1] : tensor<128x1024xf32> to tensor<1x1000xf32>
    %extracted_slice_849 = tensor.extract_slice %0[35, 1000] [1, 24] [1, 1] : tensor<128x1024xf32> to tensor<1x24xf32>
    %inserted_slice_850 = tensor.insert_slice %extracted_slice_848 into %extracted_slice_663[0, 24] [1, 1000] [1, 1] : tensor<1x1000xf32> into tensor<1x1024xf32>
    %inserted_slice_851 = tensor.insert_slice %extracted_slice_849 into %inserted_slice_850[0, 0] [1, 24] [1, 1] : tensor<1x24xf32> into tensor<1x1024xf32>
    %extracted_slice_852 = tensor.extract_slice %0[36, 0] [1, 988] [1, 1] : tensor<128x1024xf32> to tensor<1x988xf32>
    %extracted_slice_853 = tensor.extract_slice %0[36, 988] [1, 36] [1, 1] : tensor<128x1024xf32> to tensor<1x36xf32>
    %inserted_slice_854 = tensor.insert_slice %extracted_slice_852 into %extracted_slice_664[0, 36] [1, 988] [1, 1] : tensor<1x988xf32> into tensor<1x1024xf32>
    %inserted_slice_855 = tensor.insert_slice %extracted_slice_853 into %inserted_slice_854[0, 0] [1, 36] [1, 1] : tensor<1x36xf32> into tensor<1x1024xf32>
    %extracted_slice_856 = tensor.extract_slice %0[37, 0] [1, 988] [1, 1] : tensor<128x1024xf32> to tensor<1x988xf32>
    %extracted_slice_857 = tensor.extract_slice %0[37, 988] [1, 36] [1, 1] : tensor<128x1024xf32> to tensor<1x36xf32>
    %inserted_slice_858 = tensor.insert_slice %extracted_slice_856 into %extracted_slice_665[0, 36] [1, 988] [1, 1] : tensor<1x988xf32> into tensor<1x1024xf32>
    %inserted_slice_859 = tensor.insert_slice %extracted_slice_857 into %inserted_slice_858[0, 0] [1, 36] [1, 1] : tensor<1x36xf32> into tensor<1x1024xf32>
    %extracted_slice_860 = tensor.extract_slice %0[38, 0] [1, 988] [1, 1] : tensor<128x1024xf32> to tensor<1x988xf32>
    %extracted_slice_861 = tensor.extract_slice %0[38, 988] [1, 36] [1, 1] : tensor<128x1024xf32> to tensor<1x36xf32>
    %inserted_slice_862 = tensor.insert_slice %extracted_slice_860 into %extracted_slice_666[0, 36] [1, 988] [1, 1] : tensor<1x988xf32> into tensor<1x1024xf32>
    %inserted_slice_863 = tensor.insert_slice %extracted_slice_861 into %inserted_slice_862[0, 0] [1, 36] [1, 1] : tensor<1x36xf32> into tensor<1x1024xf32>
    %extracted_slice_864 = tensor.extract_slice %0[39, 0] [1, 988] [1, 1] : tensor<128x1024xf32> to tensor<1x988xf32>
    %extracted_slice_865 = tensor.extract_slice %0[39, 988] [1, 36] [1, 1] : tensor<128x1024xf32> to tensor<1x36xf32>
    %inserted_slice_866 = tensor.insert_slice %extracted_slice_864 into %extracted_slice_667[0, 36] [1, 988] [1, 1] : tensor<1x988xf32> into tensor<1x1024xf32>
    %inserted_slice_867 = tensor.insert_slice %extracted_slice_865 into %inserted_slice_866[0, 0] [1, 36] [1, 1] : tensor<1x36xf32> into tensor<1x1024xf32>
    %extracted_slice_868 = tensor.extract_slice %0[40, 0] [1, 988] [1, 1] : tensor<128x1024xf32> to tensor<1x988xf32>
    %extracted_slice_869 = tensor.extract_slice %0[40, 988] [1, 36] [1, 1] : tensor<128x1024xf32> to tensor<1x36xf32>
    %inserted_slice_870 = tensor.insert_slice %extracted_slice_868 into %extracted_slice_668[0, 36] [1, 988] [1, 1] : tensor<1x988xf32> into tensor<1x1024xf32>
    %inserted_slice_871 = tensor.insert_slice %extracted_slice_869 into %inserted_slice_870[0, 0] [1, 36] [1, 1] : tensor<1x36xf32> into tensor<1x1024xf32>
    %extracted_slice_872 = tensor.extract_slice %0[41, 0] [1, 988] [1, 1] : tensor<128x1024xf32> to tensor<1x988xf32>
    %extracted_slice_873 = tensor.extract_slice %0[41, 988] [1, 36] [1, 1] : tensor<128x1024xf32> to tensor<1x36xf32>
    %inserted_slice_874 = tensor.insert_slice %extracted_slice_872 into %extracted_slice_669[0, 36] [1, 988] [1, 1] : tensor<1x988xf32> into tensor<1x1024xf32>
    %inserted_slice_875 = tensor.insert_slice %extracted_slice_873 into %inserted_slice_874[0, 0] [1, 36] [1, 1] : tensor<1x36xf32> into tensor<1x1024xf32>
    %extracted_slice_876 = tensor.extract_slice %0[42, 0] [1, 988] [1, 1] : tensor<128x1024xf32> to tensor<1x988xf32>
    %extracted_slice_877 = tensor.extract_slice %0[42, 988] [1, 36] [1, 1] : tensor<128x1024xf32> to tensor<1x36xf32>
    %inserted_slice_878 = tensor.insert_slice %extracted_slice_876 into %extracted_slice_670[0, 36] [1, 988] [1, 1] : tensor<1x988xf32> into tensor<1x1024xf32>
    %inserted_slice_879 = tensor.insert_slice %extracted_slice_877 into %inserted_slice_878[0, 0] [1, 36] [1, 1] : tensor<1x36xf32> into tensor<1x1024xf32>
    %extracted_slice_880 = tensor.extract_slice %0[43, 0] [1, 988] [1, 1] : tensor<128x1024xf32> to tensor<1x988xf32>
    %extracted_slice_881 = tensor.extract_slice %0[43, 988] [1, 36] [1, 1] : tensor<128x1024xf32> to tensor<1x36xf32>
    %inserted_slice_882 = tensor.insert_slice %extracted_slice_880 into %extracted_slice_671[0, 36] [1, 988] [1, 1] : tensor<1x988xf32> into tensor<1x1024xf32>
    %inserted_slice_883 = tensor.insert_slice %extracted_slice_881 into %inserted_slice_882[0, 0] [1, 36] [1, 1] : tensor<1x36xf32> into tensor<1x1024xf32>
    %extracted_slice_884 = tensor.extract_slice %0[44, 0] [1, 988] [1, 1] : tensor<128x1024xf32> to tensor<1x988xf32>
    %extracted_slice_885 = tensor.extract_slice %0[44, 988] [1, 36] [1, 1] : tensor<128x1024xf32> to tensor<1x36xf32>
    %inserted_slice_886 = tensor.insert_slice %extracted_slice_884 into %extracted_slice_672[0, 36] [1, 988] [1, 1] : tensor<1x988xf32> into tensor<1x1024xf32>
    %inserted_slice_887 = tensor.insert_slice %extracted_slice_885 into %inserted_slice_886[0, 0] [1, 36] [1, 1] : tensor<1x36xf32> into tensor<1x1024xf32>
    %extracted_slice_888 = tensor.extract_slice %0[45, 0] [1, 988] [1, 1] : tensor<128x1024xf32> to tensor<1x988xf32>
    %extracted_slice_889 = tensor.extract_slice %0[45, 988] [1, 36] [1, 1] : tensor<128x1024xf32> to tensor<1x36xf32>
    %inserted_slice_890 = tensor.insert_slice %extracted_slice_888 into %extracted_slice_673[0, 36] [1, 988] [1, 1] : tensor<1x988xf32> into tensor<1x1024xf32>
    %inserted_slice_891 = tensor.insert_slice %extracted_slice_889 into %inserted_slice_890[0, 0] [1, 36] [1, 1] : tensor<1x36xf32> into tensor<1x1024xf32>
    %extracted_slice_892 = tensor.extract_slice %0[46, 0] [1, 988] [1, 1] : tensor<128x1024xf32> to tensor<1x988xf32>
    %extracted_slice_893 = tensor.extract_slice %0[46, 988] [1, 36] [1, 1] : tensor<128x1024xf32> to tensor<1x36xf32>
    %inserted_slice_894 = tensor.insert_slice %extracted_slice_892 into %extracted_slice_674[0, 36] [1, 988] [1, 1] : tensor<1x988xf32> into tensor<1x1024xf32>
    %inserted_slice_895 = tensor.insert_slice %extracted_slice_893 into %inserted_slice_894[0, 0] [1, 36] [1, 1] : tensor<1x36xf32> into tensor<1x1024xf32>
    %extracted_slice_896 = tensor.extract_slice %0[47, 0] [1, 988] [1, 1] : tensor<128x1024xf32> to tensor<1x988xf32>
    %extracted_slice_897 = tensor.extract_slice %0[47, 988] [1, 36] [1, 1] : tensor<128x1024xf32> to tensor<1x36xf32>
    %inserted_slice_898 = tensor.insert_slice %extracted_slice_896 into %extracted_slice_675[0, 36] [1, 988] [1, 1] : tensor<1x988xf32> into tensor<1x1024xf32>
    %inserted_slice_899 = tensor.insert_slice %extracted_slice_897 into %inserted_slice_898[0, 0] [1, 36] [1, 1] : tensor<1x36xf32> into tensor<1x1024xf32>
    %extracted_slice_900 = tensor.extract_slice %0[48, 0] [1, 976] [1, 1] : tensor<128x1024xf32> to tensor<1x976xf32>
    %extracted_slice_901 = tensor.extract_slice %0[48, 976] [1, 48] [1, 1] : tensor<128x1024xf32> to tensor<1x48xf32>
    %inserted_slice_902 = tensor.insert_slice %extracted_slice_900 into %extracted_slice_676[0, 48] [1, 976] [1, 1] : tensor<1x976xf32> into tensor<1x1024xf32>
    %inserted_slice_903 = tensor.insert_slice %extracted_slice_901 into %inserted_slice_902[0, 0] [1, 48] [1, 1] : tensor<1x48xf32> into tensor<1x1024xf32>
    %extracted_slice_904 = tensor.extract_slice %0[49, 0] [1, 976] [1, 1] : tensor<128x1024xf32> to tensor<1x976xf32>
    %extracted_slice_905 = tensor.extract_slice %0[49, 976] [1, 48] [1, 1] : tensor<128x1024xf32> to tensor<1x48xf32>
    %inserted_slice_906 = tensor.insert_slice %extracted_slice_904 into %extracted_slice_677[0, 48] [1, 976] [1, 1] : tensor<1x976xf32> into tensor<1x1024xf32>
    %inserted_slice_907 = tensor.insert_slice %extracted_slice_905 into %inserted_slice_906[0, 0] [1, 48] [1, 1] : tensor<1x48xf32> into tensor<1x1024xf32>
    %extracted_slice_908 = tensor.extract_slice %0[50, 0] [1, 976] [1, 1] : tensor<128x1024xf32> to tensor<1x976xf32>
    %extracted_slice_909 = tensor.extract_slice %0[50, 976] [1, 48] [1, 1] : tensor<128x1024xf32> to tensor<1x48xf32>
    %inserted_slice_910 = tensor.insert_slice %extracted_slice_908 into %extracted_slice_678[0, 48] [1, 976] [1, 1] : tensor<1x976xf32> into tensor<1x1024xf32>
    %inserted_slice_911 = tensor.insert_slice %extracted_slice_909 into %inserted_slice_910[0, 0] [1, 48] [1, 1] : tensor<1x48xf32> into tensor<1x1024xf32>
    %extracted_slice_912 = tensor.extract_slice %0[51, 0] [1, 976] [1, 1] : tensor<128x1024xf32> to tensor<1x976xf32>
    %extracted_slice_913 = tensor.extract_slice %0[51, 976] [1, 48] [1, 1] : tensor<128x1024xf32> to tensor<1x48xf32>
    %inserted_slice_914 = tensor.insert_slice %extracted_slice_912 into %extracted_slice_679[0, 48] [1, 976] [1, 1] : tensor<1x976xf32> into tensor<1x1024xf32>
    %inserted_slice_915 = tensor.insert_slice %extracted_slice_913 into %inserted_slice_914[0, 0] [1, 48] [1, 1] : tensor<1x48xf32> into tensor<1x1024xf32>
    %extracted_slice_916 = tensor.extract_slice %0[52, 0] [1, 976] [1, 1] : tensor<128x1024xf32> to tensor<1x976xf32>
    %extracted_slice_917 = tensor.extract_slice %0[52, 976] [1, 48] [1, 1] : tensor<128x1024xf32> to tensor<1x48xf32>
    %inserted_slice_918 = tensor.insert_slice %extracted_slice_916 into %extracted_slice_680[0, 48] [1, 976] [1, 1] : tensor<1x976xf32> into tensor<1x1024xf32>
    %inserted_slice_919 = tensor.insert_slice %extracted_slice_917 into %inserted_slice_918[0, 0] [1, 48] [1, 1] : tensor<1x48xf32> into tensor<1x1024xf32>
    %extracted_slice_920 = tensor.extract_slice %0[53, 0] [1, 976] [1, 1] : tensor<128x1024xf32> to tensor<1x976xf32>
    %extracted_slice_921 = tensor.extract_slice %0[53, 976] [1, 48] [1, 1] : tensor<128x1024xf32> to tensor<1x48xf32>
    %inserted_slice_922 = tensor.insert_slice %extracted_slice_920 into %extracted_slice_681[0, 48] [1, 976] [1, 1] : tensor<1x976xf32> into tensor<1x1024xf32>
    %inserted_slice_923 = tensor.insert_slice %extracted_slice_921 into %inserted_slice_922[0, 0] [1, 48] [1, 1] : tensor<1x48xf32> into tensor<1x1024xf32>
    %extracted_slice_924 = tensor.extract_slice %0[54, 0] [1, 976] [1, 1] : tensor<128x1024xf32> to tensor<1x976xf32>
    %extracted_slice_925 = tensor.extract_slice %0[54, 976] [1, 48] [1, 1] : tensor<128x1024xf32> to tensor<1x48xf32>
    %inserted_slice_926 = tensor.insert_slice %extracted_slice_924 into %extracted_slice_682[0, 48] [1, 976] [1, 1] : tensor<1x976xf32> into tensor<1x1024xf32>
    %inserted_slice_927 = tensor.insert_slice %extracted_slice_925 into %inserted_slice_926[0, 0] [1, 48] [1, 1] : tensor<1x48xf32> into tensor<1x1024xf32>
    %extracted_slice_928 = tensor.extract_slice %0[55, 0] [1, 976] [1, 1] : tensor<128x1024xf32> to tensor<1x976xf32>
    %extracted_slice_929 = tensor.extract_slice %0[55, 976] [1, 48] [1, 1] : tensor<128x1024xf32> to tensor<1x48xf32>
    %inserted_slice_930 = tensor.insert_slice %extracted_slice_928 into %extracted_slice_683[0, 48] [1, 976] [1, 1] : tensor<1x976xf32> into tensor<1x1024xf32>
    %inserted_slice_931 = tensor.insert_slice %extracted_slice_929 into %inserted_slice_930[0, 0] [1, 48] [1, 1] : tensor<1x48xf32> into tensor<1x1024xf32>
    %extracted_slice_932 = tensor.extract_slice %0[56, 0] [1, 976] [1, 1] : tensor<128x1024xf32> to tensor<1x976xf32>
    %extracted_slice_933 = tensor.extract_slice %0[56, 976] [1, 48] [1, 1] : tensor<128x1024xf32> to tensor<1x48xf32>
    %inserted_slice_934 = tensor.insert_slice %extracted_slice_932 into %extracted_slice_684[0, 48] [1, 976] [1, 1] : tensor<1x976xf32> into tensor<1x1024xf32>
    %inserted_slice_935 = tensor.insert_slice %extracted_slice_933 into %inserted_slice_934[0, 0] [1, 48] [1, 1] : tensor<1x48xf32> into tensor<1x1024xf32>
    %extracted_slice_936 = tensor.extract_slice %0[57, 0] [1, 976] [1, 1] : tensor<128x1024xf32> to tensor<1x976xf32>
    %extracted_slice_937 = tensor.extract_slice %0[57, 976] [1, 48] [1, 1] : tensor<128x1024xf32> to tensor<1x48xf32>
    %inserted_slice_938 = tensor.insert_slice %extracted_slice_936 into %extracted_slice_685[0, 48] [1, 976] [1, 1] : tensor<1x976xf32> into tensor<1x1024xf32>
    %inserted_slice_939 = tensor.insert_slice %extracted_slice_937 into %inserted_slice_938[0, 0] [1, 48] [1, 1] : tensor<1x48xf32> into tensor<1x1024xf32>
    %extracted_slice_940 = tensor.extract_slice %0[58, 0] [1, 976] [1, 1] : tensor<128x1024xf32> to tensor<1x976xf32>
    %extracted_slice_941 = tensor.extract_slice %0[58, 976] [1, 48] [1, 1] : tensor<128x1024xf32> to tensor<1x48xf32>
    %inserted_slice_942 = tensor.insert_slice %extracted_slice_940 into %extracted_slice_686[0, 48] [1, 976] [1, 1] : tensor<1x976xf32> into tensor<1x1024xf32>
    %inserted_slice_943 = tensor.insert_slice %extracted_slice_941 into %inserted_slice_942[0, 0] [1, 48] [1, 1] : tensor<1x48xf32> into tensor<1x1024xf32>
    %extracted_slice_944 = tensor.extract_slice %0[59, 0] [1, 976] [1, 1] : tensor<128x1024xf32> to tensor<1x976xf32>
    %extracted_slice_945 = tensor.extract_slice %0[59, 976] [1, 48] [1, 1] : tensor<128x1024xf32> to tensor<1x48xf32>
    %inserted_slice_946 = tensor.insert_slice %extracted_slice_944 into %extracted_slice_687[0, 48] [1, 976] [1, 1] : tensor<1x976xf32> into tensor<1x1024xf32>
    %inserted_slice_947 = tensor.insert_slice %extracted_slice_945 into %inserted_slice_946[0, 0] [1, 48] [1, 1] : tensor<1x48xf32> into tensor<1x1024xf32>
    %extracted_slice_948 = tensor.extract_slice %0[60, 0] [1, 964] [1, 1] : tensor<128x1024xf32> to tensor<1x964xf32>
    %extracted_slice_949 = tensor.extract_slice %0[60, 964] [1, 60] [1, 1] : tensor<128x1024xf32> to tensor<1x60xf32>
    %inserted_slice_950 = tensor.insert_slice %extracted_slice_948 into %extracted_slice_688[0, 60] [1, 964] [1, 1] : tensor<1x964xf32> into tensor<1x1024xf32>
    %inserted_slice_951 = tensor.insert_slice %extracted_slice_949 into %inserted_slice_950[0, 0] [1, 60] [1, 1] : tensor<1x60xf32> into tensor<1x1024xf32>
    %extracted_slice_952 = tensor.extract_slice %0[61, 0] [1, 964] [1, 1] : tensor<128x1024xf32> to tensor<1x964xf32>
    %extracted_slice_953 = tensor.extract_slice %0[61, 964] [1, 60] [1, 1] : tensor<128x1024xf32> to tensor<1x60xf32>
    %inserted_slice_954 = tensor.insert_slice %extracted_slice_952 into %extracted_slice_689[0, 60] [1, 964] [1, 1] : tensor<1x964xf32> into tensor<1x1024xf32>
    %inserted_slice_955 = tensor.insert_slice %extracted_slice_953 into %inserted_slice_954[0, 0] [1, 60] [1, 1] : tensor<1x60xf32> into tensor<1x1024xf32>
    %extracted_slice_956 = tensor.extract_slice %0[62, 0] [1, 964] [1, 1] : tensor<128x1024xf32> to tensor<1x964xf32>
    %extracted_slice_957 = tensor.extract_slice %0[62, 964] [1, 60] [1, 1] : tensor<128x1024xf32> to tensor<1x60xf32>
    %inserted_slice_958 = tensor.insert_slice %extracted_slice_956 into %extracted_slice_690[0, 60] [1, 964] [1, 1] : tensor<1x964xf32> into tensor<1x1024xf32>
    %inserted_slice_959 = tensor.insert_slice %extracted_slice_957 into %inserted_slice_958[0, 0] [1, 60] [1, 1] : tensor<1x60xf32> into tensor<1x1024xf32>
    %extracted_slice_960 = tensor.extract_slice %0[63, 0] [1, 964] [1, 1] : tensor<128x1024xf32> to tensor<1x964xf32>
    %extracted_slice_961 = tensor.extract_slice %0[63, 964] [1, 60] [1, 1] : tensor<128x1024xf32> to tensor<1x60xf32>
    %inserted_slice_962 = tensor.insert_slice %extracted_slice_960 into %extracted_slice_691[0, 60] [1, 964] [1, 1] : tensor<1x964xf32> into tensor<1x1024xf32>
    %inserted_slice_963 = tensor.insert_slice %extracted_slice_961 into %inserted_slice_962[0, 0] [1, 60] [1, 1] : tensor<1x60xf32> into tensor<1x1024xf32>
    %extracted_slice_964 = tensor.extract_slice %0[64, 0] [1, 964] [1, 1] : tensor<128x1024xf32> to tensor<1x964xf32>
    %extracted_slice_965 = tensor.extract_slice %0[64, 964] [1, 60] [1, 1] : tensor<128x1024xf32> to tensor<1x60xf32>
    %inserted_slice_966 = tensor.insert_slice %extracted_slice_964 into %extracted_slice_692[0, 60] [1, 964] [1, 1] : tensor<1x964xf32> into tensor<1x1024xf32>
    %inserted_slice_967 = tensor.insert_slice %extracted_slice_965 into %inserted_slice_966[0, 0] [1, 60] [1, 1] : tensor<1x60xf32> into tensor<1x1024xf32>
    %extracted_slice_968 = tensor.extract_slice %0[65, 0] [1, 964] [1, 1] : tensor<128x1024xf32> to tensor<1x964xf32>
    %extracted_slice_969 = tensor.extract_slice %0[65, 964] [1, 60] [1, 1] : tensor<128x1024xf32> to tensor<1x60xf32>
    %inserted_slice_970 = tensor.insert_slice %extracted_slice_968 into %extracted_slice_693[0, 60] [1, 964] [1, 1] : tensor<1x964xf32> into tensor<1x1024xf32>
    %inserted_slice_971 = tensor.insert_slice %extracted_slice_969 into %inserted_slice_970[0, 0] [1, 60] [1, 1] : tensor<1x60xf32> into tensor<1x1024xf32>
    %extracted_slice_972 = tensor.extract_slice %0[66, 0] [1, 964] [1, 1] : tensor<128x1024xf32> to tensor<1x964xf32>
    %extracted_slice_973 = tensor.extract_slice %0[66, 964] [1, 60] [1, 1] : tensor<128x1024xf32> to tensor<1x60xf32>
    %inserted_slice_974 = tensor.insert_slice %extracted_slice_972 into %extracted_slice_694[0, 60] [1, 964] [1, 1] : tensor<1x964xf32> into tensor<1x1024xf32>
    %inserted_slice_975 = tensor.insert_slice %extracted_slice_973 into %inserted_slice_974[0, 0] [1, 60] [1, 1] : tensor<1x60xf32> into tensor<1x1024xf32>
    %extracted_slice_976 = tensor.extract_slice %0[67, 0] [1, 964] [1, 1] : tensor<128x1024xf32> to tensor<1x964xf32>
    %extracted_slice_977 = tensor.extract_slice %0[67, 964] [1, 60] [1, 1] : tensor<128x1024xf32> to tensor<1x60xf32>
    %inserted_slice_978 = tensor.insert_slice %extracted_slice_976 into %extracted_slice_695[0, 60] [1, 964] [1, 1] : tensor<1x964xf32> into tensor<1x1024xf32>
    %inserted_slice_979 = tensor.insert_slice %extracted_slice_977 into %inserted_slice_978[0, 0] [1, 60] [1, 1] : tensor<1x60xf32> into tensor<1x1024xf32>
    %extracted_slice_980 = tensor.extract_slice %0[68, 0] [1, 964] [1, 1] : tensor<128x1024xf32> to tensor<1x964xf32>
    %extracted_slice_981 = tensor.extract_slice %0[68, 964] [1, 60] [1, 1] : tensor<128x1024xf32> to tensor<1x60xf32>
    %inserted_slice_982 = tensor.insert_slice %extracted_slice_980 into %extracted_slice_696[0, 60] [1, 964] [1, 1] : tensor<1x964xf32> into tensor<1x1024xf32>
    %inserted_slice_983 = tensor.insert_slice %extracted_slice_981 into %inserted_slice_982[0, 0] [1, 60] [1, 1] : tensor<1x60xf32> into tensor<1x1024xf32>
    %extracted_slice_984 = tensor.extract_slice %0[69, 0] [1, 964] [1, 1] : tensor<128x1024xf32> to tensor<1x964xf32>
    %extracted_slice_985 = tensor.extract_slice %0[69, 964] [1, 60] [1, 1] : tensor<128x1024xf32> to tensor<1x60xf32>
    %inserted_slice_986 = tensor.insert_slice %extracted_slice_984 into %extracted_slice_697[0, 60] [1, 964] [1, 1] : tensor<1x964xf32> into tensor<1x1024xf32>
    %inserted_slice_987 = tensor.insert_slice %extracted_slice_985 into %inserted_slice_986[0, 0] [1, 60] [1, 1] : tensor<1x60xf32> into tensor<1x1024xf32>
    %extracted_slice_988 = tensor.extract_slice %0[70, 0] [1, 964] [1, 1] : tensor<128x1024xf32> to tensor<1x964xf32>
    %extracted_slice_989 = tensor.extract_slice %0[70, 964] [1, 60] [1, 1] : tensor<128x1024xf32> to tensor<1x60xf32>
    %inserted_slice_990 = tensor.insert_slice %extracted_slice_988 into %extracted_slice_698[0, 60] [1, 964] [1, 1] : tensor<1x964xf32> into tensor<1x1024xf32>
    %inserted_slice_991 = tensor.insert_slice %extracted_slice_989 into %inserted_slice_990[0, 0] [1, 60] [1, 1] : tensor<1x60xf32> into tensor<1x1024xf32>
    %extracted_slice_992 = tensor.extract_slice %0[71, 0] [1, 964] [1, 1] : tensor<128x1024xf32> to tensor<1x964xf32>
    %extracted_slice_993 = tensor.extract_slice %0[71, 964] [1, 60] [1, 1] : tensor<128x1024xf32> to tensor<1x60xf32>
    %inserted_slice_994 = tensor.insert_slice %extracted_slice_992 into %extracted_slice_699[0, 60] [1, 964] [1, 1] : tensor<1x964xf32> into tensor<1x1024xf32>
    %inserted_slice_995 = tensor.insert_slice %extracted_slice_993 into %inserted_slice_994[0, 0] [1, 60] [1, 1] : tensor<1x60xf32> into tensor<1x1024xf32>
    %extracted_slice_996 = tensor.extract_slice %0[72, 0] [1, 952] [1, 1] : tensor<128x1024xf32> to tensor<1x952xf32>
    %extracted_slice_997 = tensor.extract_slice %0[72, 952] [1, 72] [1, 1] : tensor<128x1024xf32> to tensor<1x72xf32>
    %inserted_slice_998 = tensor.insert_slice %extracted_slice_996 into %extracted_slice_700[0, 72] [1, 952] [1, 1] : tensor<1x952xf32> into tensor<1x1024xf32>
    %inserted_slice_999 = tensor.insert_slice %extracted_slice_997 into %inserted_slice_998[0, 0] [1, 72] [1, 1] : tensor<1x72xf32> into tensor<1x1024xf32>
    %extracted_slice_1000 = tensor.extract_slice %0[73, 0] [1, 952] [1, 1] : tensor<128x1024xf32> to tensor<1x952xf32>
    %extracted_slice_1001 = tensor.extract_slice %0[73, 952] [1, 72] [1, 1] : tensor<128x1024xf32> to tensor<1x72xf32>
    %inserted_slice_1002 = tensor.insert_slice %extracted_slice_1000 into %extracted_slice_701[0, 72] [1, 952] [1, 1] : tensor<1x952xf32> into tensor<1x1024xf32>
    %inserted_slice_1003 = tensor.insert_slice %extracted_slice_1001 into %inserted_slice_1002[0, 0] [1, 72] [1, 1] : tensor<1x72xf32> into tensor<1x1024xf32>
    %extracted_slice_1004 = tensor.extract_slice %0[74, 0] [1, 952] [1, 1] : tensor<128x1024xf32> to tensor<1x952xf32>
    %extracted_slice_1005 = tensor.extract_slice %0[74, 952] [1, 72] [1, 1] : tensor<128x1024xf32> to tensor<1x72xf32>
    %inserted_slice_1006 = tensor.insert_slice %extracted_slice_1004 into %extracted_slice_702[0, 72] [1, 952] [1, 1] : tensor<1x952xf32> into tensor<1x1024xf32>
    %inserted_slice_1007 = tensor.insert_slice %extracted_slice_1005 into %inserted_slice_1006[0, 0] [1, 72] [1, 1] : tensor<1x72xf32> into tensor<1x1024xf32>
    %extracted_slice_1008 = tensor.extract_slice %0[75, 0] [1, 952] [1, 1] : tensor<128x1024xf32> to tensor<1x952xf32>
    %extracted_slice_1009 = tensor.extract_slice %0[75, 952] [1, 72] [1, 1] : tensor<128x1024xf32> to tensor<1x72xf32>
    %inserted_slice_1010 = tensor.insert_slice %extracted_slice_1008 into %extracted_slice_703[0, 72] [1, 952] [1, 1] : tensor<1x952xf32> into tensor<1x1024xf32>
    %inserted_slice_1011 = tensor.insert_slice %extracted_slice_1009 into %inserted_slice_1010[0, 0] [1, 72] [1, 1] : tensor<1x72xf32> into tensor<1x1024xf32>
    %extracted_slice_1012 = tensor.extract_slice %0[76, 0] [1, 952] [1, 1] : tensor<128x1024xf32> to tensor<1x952xf32>
    %extracted_slice_1013 = tensor.extract_slice %0[76, 952] [1, 72] [1, 1] : tensor<128x1024xf32> to tensor<1x72xf32>
    %inserted_slice_1014 = tensor.insert_slice %extracted_slice_1012 into %extracted_slice_704[0, 72] [1, 952] [1, 1] : tensor<1x952xf32> into tensor<1x1024xf32>
    %inserted_slice_1015 = tensor.insert_slice %extracted_slice_1013 into %inserted_slice_1014[0, 0] [1, 72] [1, 1] : tensor<1x72xf32> into tensor<1x1024xf32>
    %extracted_slice_1016 = tensor.extract_slice %0[77, 0] [1, 952] [1, 1] : tensor<128x1024xf32> to tensor<1x952xf32>
    %extracted_slice_1017 = tensor.extract_slice %0[77, 952] [1, 72] [1, 1] : tensor<128x1024xf32> to tensor<1x72xf32>
    %inserted_slice_1018 = tensor.insert_slice %extracted_slice_1016 into %extracted_slice_705[0, 72] [1, 952] [1, 1] : tensor<1x952xf32> into tensor<1x1024xf32>
    %inserted_slice_1019 = tensor.insert_slice %extracted_slice_1017 into %inserted_slice_1018[0, 0] [1, 72] [1, 1] : tensor<1x72xf32> into tensor<1x1024xf32>
    %extracted_slice_1020 = tensor.extract_slice %0[78, 0] [1, 952] [1, 1] : tensor<128x1024xf32> to tensor<1x952xf32>
    %extracted_slice_1021 = tensor.extract_slice %0[78, 952] [1, 72] [1, 1] : tensor<128x1024xf32> to tensor<1x72xf32>
    %inserted_slice_1022 = tensor.insert_slice %extracted_slice_1020 into %extracted_slice_706[0, 72] [1, 952] [1, 1] : tensor<1x952xf32> into tensor<1x1024xf32>
    %inserted_slice_1023 = tensor.insert_slice %extracted_slice_1021 into %inserted_slice_1022[0, 0] [1, 72] [1, 1] : tensor<1x72xf32> into tensor<1x1024xf32>
    %extracted_slice_1024 = tensor.extract_slice %0[79, 0] [1, 952] [1, 1] : tensor<128x1024xf32> to tensor<1x952xf32>
    %extracted_slice_1025 = tensor.extract_slice %0[79, 952] [1, 72] [1, 1] : tensor<128x1024xf32> to tensor<1x72xf32>
    %inserted_slice_1026 = tensor.insert_slice %extracted_slice_1024 into %extracted_slice_707[0, 72] [1, 952] [1, 1] : tensor<1x952xf32> into tensor<1x1024xf32>
    %inserted_slice_1027 = tensor.insert_slice %extracted_slice_1025 into %inserted_slice_1026[0, 0] [1, 72] [1, 1] : tensor<1x72xf32> into tensor<1x1024xf32>
    %extracted_slice_1028 = tensor.extract_slice %0[80, 0] [1, 952] [1, 1] : tensor<128x1024xf32> to tensor<1x952xf32>
    %extracted_slice_1029 = tensor.extract_slice %0[80, 952] [1, 72] [1, 1] : tensor<128x1024xf32> to tensor<1x72xf32>
    %inserted_slice_1030 = tensor.insert_slice %extracted_slice_1028 into %extracted_slice_708[0, 72] [1, 952] [1, 1] : tensor<1x952xf32> into tensor<1x1024xf32>
    %inserted_slice_1031 = tensor.insert_slice %extracted_slice_1029 into %inserted_slice_1030[0, 0] [1, 72] [1, 1] : tensor<1x72xf32> into tensor<1x1024xf32>
    %extracted_slice_1032 = tensor.extract_slice %0[81, 0] [1, 952] [1, 1] : tensor<128x1024xf32> to tensor<1x952xf32>
    %extracted_slice_1033 = tensor.extract_slice %0[81, 952] [1, 72] [1, 1] : tensor<128x1024xf32> to tensor<1x72xf32>
    %inserted_slice_1034 = tensor.insert_slice %extracted_slice_1032 into %extracted_slice_709[0, 72] [1, 952] [1, 1] : tensor<1x952xf32> into tensor<1x1024xf32>
    %inserted_slice_1035 = tensor.insert_slice %extracted_slice_1033 into %inserted_slice_1034[0, 0] [1, 72] [1, 1] : tensor<1x72xf32> into tensor<1x1024xf32>
    %extracted_slice_1036 = tensor.extract_slice %0[82, 0] [1, 952] [1, 1] : tensor<128x1024xf32> to tensor<1x952xf32>
    %extracted_slice_1037 = tensor.extract_slice %0[82, 952] [1, 72] [1, 1] : tensor<128x1024xf32> to tensor<1x72xf32>
    %inserted_slice_1038 = tensor.insert_slice %extracted_slice_1036 into %extracted_slice_710[0, 72] [1, 952] [1, 1] : tensor<1x952xf32> into tensor<1x1024xf32>
    %inserted_slice_1039 = tensor.insert_slice %extracted_slice_1037 into %inserted_slice_1038[0, 0] [1, 72] [1, 1] : tensor<1x72xf32> into tensor<1x1024xf32>
    %extracted_slice_1040 = tensor.extract_slice %0[83, 0] [1, 952] [1, 1] : tensor<128x1024xf32> to tensor<1x952xf32>
    %extracted_slice_1041 = tensor.extract_slice %0[83, 952] [1, 72] [1, 1] : tensor<128x1024xf32> to tensor<1x72xf32>
    %inserted_slice_1042 = tensor.insert_slice %extracted_slice_1040 into %extracted_slice_711[0, 72] [1, 952] [1, 1] : tensor<1x952xf32> into tensor<1x1024xf32>
    %inserted_slice_1043 = tensor.insert_slice %extracted_slice_1041 into %inserted_slice_1042[0, 0] [1, 72] [1, 1] : tensor<1x72xf32> into tensor<1x1024xf32>
    %extracted_slice_1044 = tensor.extract_slice %0[84, 0] [1, 940] [1, 1] : tensor<128x1024xf32> to tensor<1x940xf32>
    %extracted_slice_1045 = tensor.extract_slice %0[84, 940] [1, 84] [1, 1] : tensor<128x1024xf32> to tensor<1x84xf32>
…
    %dps_1210 = bufferization.alloc_tensor() : tensor<!ciphertext>
    %ct_933 = cheddar.mult_plain %ctx, %ct_690, %extracted_217, %dps_1210 : (!context, tensor<!ciphertext>, tensor<!plaintext>, tensor<!ciphertext>) -> tensor<!ciphertext>
    %dps_1211 = bufferization.alloc_tensor() : tensor<!ciphertext>
    %ct_934 = cheddar.rescale %ctx, %ct_933, %dps_1211 : (!context, tensor<!ciphertext>, tensor<!ciphertext>) -> tensor<!ciphertext>
    %dps_1212 = bufferization.alloc_tensor() : tensor<!ciphertext>
    %ct_935 = cheddar.mult_plain %ctx, %ct_693, %extracted_218, %dps_1212 : (!context, tensor<!ciphertext>, tensor<!plaintext>, tensor<!ciphertext>) -> tensor<!ciphertext>
    %dps_1213 = bufferization.alloc_tensor() : tensor<!ciphertext>
    %ct_936 = cheddar.rescale %ctx, %ct_935, %dps_1213 : (!context, tensor<!ciphertext>, tensor<!ciphertext>) -> tensor<!ciphertext>
    %dps_1214 = bufferization.alloc_tensor() : tensor<!ciphertext>
    %ct_937 = cheddar.mult_plain %ctx, %ct_696, %extracted_219, %dps_1214 : (!context, tensor<!ciphertext>, tensor<!plaintext>, tensor<!ciphertext>) -> tensor<!ciphertext>
    %dps_1215 = bufferization.alloc_tensor() : tensor<!ciphertext>
    %ct_938 = cheddar.rescale %ctx, %ct_937, %dps_1215 : (!context, tensor<!ciphertext>, tensor<!ciphertext>) -> tensor<!ciphertext>
    %dps_1216 = bufferization.alloc_tensor() : tensor<!ciphertext>
    %ct_939 = cheddar.mult_plain %ctx, %ct_699, %extracted_220, %dps_1216 : (!context, tensor<!ciphertext>, tensor<!plaintext>, tensor<!ciphertext>) -> tensor<!ciphertext>
    %dps_1217 = bufferization.alloc_tensor() : tensor<!ciphertext>
    %ct_940 = cheddar.rescale %ctx, %ct_939, %dps_1217 : (!context, tensor<!ciphertext>, tensor<!ciphertext>) -> tensor<!ciphertext>
    %dps_1218 = bufferization.alloc_tensor() : tensor<!ciphertext>
    %ct_941 = cheddar.mult_plain %ctx, %ct_702, %extracted_221, %dps_1218 : (!context, tensor<!ciphertext>, tensor<!plaintext>, tensor<!ciphertext>) -> tensor<!ciphertext>
    %dps_1219 = bufferization.alloc_tensor() : tensor<!ciphertext>
    %ct_942 = cheddar.rescale %ctx, %ct_941, %dps_1219 : (!context, tensor<!ciphertext>, tensor<!ciphertext>) -> tensor<!ciphertext>
    %dps_1220 = bufferization.alloc_tensor() : tensor<!ciphertext>
    %ct_943 = cheddar.mult_plain %ctx, %ct_705, %extracted_222, %dps_1220 : (!context, tensor<!ciphertext>, tensor<!plaintext>, tensor<!ciphertext>) -> tensor<!ciphertext>
    %dps_1221 = bufferization.alloc_tensor() : tensor<!ciphertext>
    %ct_944 = cheddar.rescale %ctx, %ct_943, %dps_1221 : (!context, tensor<!ciphertext>, tensor<!ciphertext>) -> tensor<!ciphertext>
    %dps_1222 = bufferization.alloc_tensor() : tensor<!ciphertext>
    %ct_945 = cheddar.mult_plain %ctx, %ct_708, %extracted_223, %dps_1222 : (!context, tensor<!ciphertext>, tensor<!plaintext>, tensor<!ciphertext>) -> tensor<!ciphertext>
    %dps_1223 = bufferization.alloc_tensor() : tensor<!ciphertext>
    %ct_946 = cheddar.rescale %ctx, %ct_945, %dps_1223 : (!context, tensor<!ciphertext>, tensor<!ciphertext>) -> tensor<!ciphertext>
    %dps_1224 = bufferization.alloc_tensor() : tensor<!ciphertext>
    %ct_947 = cheddar.add %ctx, %ct_924, %ct_926, %dps_1224 : (!context, tensor<!ciphertext>, tensor<!ciphertext>, tensor<!ciphertext>) -> tensor<!ciphertext>
    %dps_1225 = bufferization.alloc_tensor() : tensor<!ciphertext>
    %ct_948 = cheddar.add %ctx, %ct_947, %ct_928, %dps_1225 : (!context, tensor<!ciphertext>, tensor<!ciphertext>, tensor<!ciphertext>) -> tensor<!ciphertext>
    %dps_1226 = bufferization.alloc_tensor() : tensor<!ciphertext>
    %ct_949 = cheddar.add %ctx, %ct_930, %ct_932, %dps_1226 : (!context, tensor<!ciphertext>, tensor<!ciphertext>, tensor<!ciphertext>) -> tensor<!ciphertext>
    %dps_1227 = bufferization.alloc_tensor() : tensor<!ciphertext>
    %ct_950 = cheddar.add %ctx, %ct_949, %ct_934, %dps_1227 : (!context, tensor<!ciphertext>, tensor<!ciphertext>, tensor<!ciphertext>) -> tensor<!ciphertext>
    %dps_1228 = bufferization.alloc_tensor() : tensor<!ciphertext>
    %ct_951 = cheddar.add %ctx, %ct_948, %ct_950, %dps_1228 : (!context, tensor<!ciphertext>, tensor<!ciphertext>, tensor<!ciphertext>) -> tensor<!ciphertext>
    %dps_1229 = bufferization.alloc_tensor() : tensor<!ciphertext>
    %ct_952 = cheddar.add %ctx, %ct_936, %ct_938, %dps_1229 : (!context, tensor<!ciphertext>, tensor<!ciphertext>, tensor<!ciphertext>) -> tensor<!ciphertext>
    %dps_1230 = bufferization.alloc_tensor() : tensor<!ciphertext>
    %ct_953 = cheddar.add %ctx, %ct_952, %ct_940, %dps_1230 : (!context, tensor<!ciphertext>, tensor<!ciphertext>, tensor<!ciphertext>) -> tensor<!ciphertext>
    %dps_1231 = bufferization.alloc_tensor() : tensor<!ciphertext>
    %ct_954 = cheddar.add %ctx, %ct_942, %ct_944, %dps_1231 : (!context, tensor<!ciphertext>, tensor<!ciphertext>, tensor<!ciphertext>) -> tensor<!ciphertext>
    %dps_1232 = bufferization.alloc_tensor() : tensor<!ciphertext>
    %ct_955 = cheddar.add %ctx, %ct_954, %ct_946, %dps_1232 : (!context, tensor<!ciphertext>, tensor<!ciphertext>, tensor<!ciphertext>) -> tensor<!ciphertext>
    %dps_1233 = bufferization.alloc_tensor() : tensor<!ciphertext>
    %ct_956 = cheddar.add %ctx, %ct_953, %ct_955, %dps_1233 : (!context, tensor<!ciphertext>, tensor<!ciphertext>, tensor<!ciphertext>) -> tensor<!ciphertext>
    %dps_1234 = bufferization.alloc_tensor() : tensor<!ciphertext>
    %ct_957 = cheddar.add %ctx, %ct_951, %ct_956, %dps_1234 : (!context, tensor<!ciphertext>, tensor<!ciphertext>, tensor<!ciphertext>) -> tensor<!ciphertext>
    %dps_1235 = bufferization.alloc_tensor() : tensor<!ciphertext>
    %ct_958 = cheddar.mult_plain %ctx, %ct_675, %extracted_224, %dps_1235 : (!context, tensor<!ciphertext>, tensor<!plaintext>, tensor<!ciphertext>) -> tensor<!ciphertext>
    %dps_1236 = bufferization.alloc_tensor() : tensor<!ciphertext>
    %ct_959 = cheddar.rescale %ctx, %ct_958, %dps_1236 : (!context, tensor<!ciphertext>, tensor<!ciphertext>) -> tensor<!ciphertext>
    %dps_1237 = bufferization.alloc_tensor() : tensor<!ciphertext>
    %ct_960 = cheddar.mult_plain %ctx, %ct_678, %extracted_225, %dps_1237 : (!context, tensor<!ciphertext>, tensor<!plaintext>, tensor<!ciphertext>) -> tensor<!ciphertext>
    %dps_1238 = bufferization.alloc_tensor() : tensor<!ciphertext>
    %ct_961 = cheddar.rescale %ctx, %ct_960, %dps_1238 : (!context, tensor<!ciphertext>, tensor<!ciphertext>) -> tensor<!ciphertext>
    %dps_1239 = bufferization.alloc_tensor() : tensor<!ciphertext>
    %ct_962 = cheddar.mult_plain %ctx, %ct_681, %extracted_226, %dps_1239 : (!context, tensor<!ciphertext>, tensor<!plaintext>, tensor<!ciphertext>) -> tensor<!ciphertext>
    %dps_1240 = bufferization.alloc_tensor() : tensor<!ciphertext>
    %ct_963 = cheddar.rescale %ctx, %ct_962, %dps_1240 : (!context, tensor<!ciphertext>, tensor<!ciphertext>) -> tensor<!ciphertext>
    %dps_1241 = bufferization.alloc_tensor() : tensor<!ciphertext>
    %ct_964 = cheddar.mult_plain %ctx, %ct_684, %extracted_227, %dps_1241 : (!context, tensor<!ciphertext>, tensor<!plaintext>, tensor<!ciphertext>) -> tensor<!ciphertext>
    %dps_1242 = bufferization.alloc_tensor() : tensor<!ciphertext>
    %ct_965 = cheddar.rescale %ctx, %ct_964, %dps_1242 : (!context, tensor<!ciphertext>, tensor<!ciphertext>) -> tensor<!ciphertext>
    %dps_1243 = bufferization.alloc_tensor() : tensor<!ciphertext>
    %ct_966 = cheddar.mult_plain %ctx, %ct_687, %extracted_228, %dps_1243 : (!context, tensor<!ciphertext>, tensor<!plaintext>, tensor<!ciphertext>) -> tensor<!ciphertext>
    %dps_1244 = bufferization.alloc_tensor() : tensor<!ciphertext>
    %ct_967 = cheddar.rescale %ctx, %ct_966, %dps_1244 : (!context, tensor<!ciphertext>, tensor<!ciphertext>) -> tensor<!ciphertext>
    %dps_1245 = bufferization.alloc_tensor() : tensor<!ciphertext>
    %ct_968 = cheddar.mult_plain %ctx, %ct_690, %extracted_229, %dps_1245 : (!context, tensor<!ciphertext>, tensor<!plaintext>, tensor<!ciphertext>) -> tensor<!ciphertext>
    %dps_1246 = bufferization.alloc_tensor() : tensor<!ciphertext>
    %ct_969 = cheddar.rescale %ctx, %ct_968, %dps_1246 : (!context, tensor<!ciphertext>, tensor<!ciphertext>) -> tensor<!ciphertext>
    %dps_1247 = bufferization.alloc_tensor() : tensor<!ciphertext>
    %ct_970 = cheddar.mult_plain %ctx, %ct_693, %extracted_230, %dps_1247 : (!context, tensor<!ciphertext>, tensor<!plaintext>, tensor<!ciphertext>) -> tensor<!ciphertext>
    %dps_1248 = bufferization.alloc_tensor() : tensor<!ciphertext>
    %ct_971 = cheddar.rescale %ctx, %ct_970, %dps_1248 : (!context, tensor<!ciphertext>, tensor<!ciphertext>) -> tensor<!ciphertext>
    %dps_1249 = bufferization.alloc_tensor() : tensor<!ciphertext>
    %ct_972 = cheddar.mult_plain %ctx, %ct_696, %extracted_231, %dps_1249 : (!context, tensor<!ciphertext>, tensor<!plaintext>, tensor<!ciphertext>) -> tensor<!ciphertext>
    %dps_1250 = bufferization.alloc_tensor() : tensor<!ciphertext>
    %ct_973 = cheddar.rescale %ctx, %ct_972, %dps_1250 : (!context, tensor<!ciphertext>, tensor<!ciphertext>) -> tensor<!ciphertext>
    %dps_1251 = bufferization.alloc_tensor() : tensor<!ciphertext>
    %ct_974 = cheddar.mult_plain %ctx, %ct_699, %extracted_232, %dps_1251 : (!context, tensor<!ciphertext>, tensor<!plaintext>, tensor<!ciphertext>) -> tensor<!ciphertext>
    %dps_1252 = bufferization.alloc_tensor() : tensor<!ciphertext>
    %ct_975 = cheddar.rescale %ctx, %ct_974, %dps_1252 : (!context, tensor<!ciphertext>, tensor<!ciphertext>) -> tensor<!ciphertext>
    %dps_1253 = bufferization.alloc_tensor() : tensor<!ciphertext>
    %ct_976 = cheddar.mult_plain %ctx, %ct_702, %extracted_233, %dps_1253 : (!context, tensor<!ciphertext>, tensor<!plaintext>, tensor<!ciphertext>) -> tensor<!ciphertext>
    %dps_1254 = bufferization.alloc_tensor() : tensor<!ciphertext>
    %ct_977 = cheddar.rescale %ctx, %ct_976, %dps_1254 : (!context, tensor<!ciphertext>, tensor<!ciphertext>) -> tensor<!ciphertext>
    %dps_1255 = bufferization.alloc_tensor() : tensor<!ciphertext>
    %ct_978 = cheddar.mult_plain %ctx, %ct_705, %extracted_234, %dps_1255 : (!context, tensor<!ciphertext>, tensor<!plaintext>, tensor<!ciphertext>) -> tensor<!ciphertext>
    %dps_1256 = bufferization.alloc_tensor() : tensor<!ciphertext>
    %ct_979 = cheddar.rescale %ctx, %ct_978, %dps_1256 : (!context, tensor<!ciphertext>, tensor<!ciphertext>) -> tensor<!ciphertext>
    %dps_1257 = bufferization.alloc_tensor() : tensor<!ciphertext>
    %ct_980 = cheddar.mult_plain %ctx, %ct_708, %extracted_235, %dps_1257 : (!context, tensor<!ciphertext>, tensor<!plaintext>, tensor<!ciphertext>) -> tensor<!ciphertext>
    %dps_1258 = bufferization.alloc_tensor() : tensor<!ciphertext>
    %ct_981 = cheddar.rescale %ctx, %ct_980, %dps_1258 : (!context, tensor<!ciphertext>, tensor<!ciphertext>) -> tensor<!ciphertext>
    %dps_1259 = bufferization.alloc_tensor() : tensor<!ciphertext>
    %ct_982 = cheddar.add %ctx, %ct_959, %ct_961, %dps_1259 : (!context, tensor<!ciphertext>, tensor<!ciphertext>, tensor<!ciphertext>) -> tensor<!ciphertext>
    %dps_1260 = bufferization.alloc_tensor() : tensor<!ciphertext>
    %ct_983 = cheddar.add %ctx, %ct_982, %ct_963, %dps_1260 : (!context, tensor<!ciphertext>, tensor<!ciphertext>, tensor<!ciphertext>) -> tensor<!ciphertext>
    %dps_1261 = bufferization.alloc_tensor() : tensor<!ciphertext>
    %ct_984 = cheddar.add %ctx, %ct_965, %ct_967, %dps_1261 : (!context, tensor<!ciphertext>, tensor<!ciphertext>, tensor<!ciphertext>) -> tensor<!ciphertext>
    %dps_1262 = bufferization.alloc_tensor() : tensor<!ciphertext>
    %ct_985 = cheddar.add %ctx, %ct_984, %ct_969, %dps_1262 : (!context, tensor<!ciphertext>, tensor<!ciphertext>, tensor<!ciphertext>) -> tensor<!ciphertext>
    %dps_1263 = bufferization.alloc_tensor() : tensor<!ciphertext>
    %ct_986 = cheddar.add %ctx, %ct_983, %ct_985, %dps_1263 : (!context, tensor<!ciphertext>, tensor<!ciphertext>, tensor<!ciphertext>) -> tensor<!ciphertext>
    %dps_1264 = bufferization.alloc_tensor() : tensor<!ciphertext>
    %ct_987 = cheddar.add %ctx, %ct_971, %ct_973, %dps_1264 : (!context, tensor<!ciphertext>, tensor<!ciphertext>, tensor<!ciphertext>) -> tensor<!ciphertext>
    %dps_1265 = bufferization.alloc_tensor() : tensor<!ciphertext>
    %ct_988 = cheddar.add %ctx, %ct_987, %ct_975, %dps_1265 : (!context, tensor<!ciphertext>, tensor<!ciphertext>, tensor<!ciphertext>) -> tensor<!ciphertext>
    %dps_1266 = bufferization.alloc_tensor() : tensor<!ciphertext>
    %ct_989 = cheddar.add %ctx, %ct_977, %ct_979, %dps_1266 : (!context, tensor<!ciphertext>, tensor<!ciphertext>, tensor<!ciphertext>) -> tensor<!ciphertext>
    %dps_1267 = bufferization.alloc_tensor() : tensor<!ciphertext>
    %ct_990 = cheddar.add %ctx, %ct_989, %ct_981, %dps_1267 : (!context, tensor<!ciphertext>, tensor<!ciphertext>, tensor<!ciphertext>) -> tensor<!ciphertext>
    %dps_1268 = bufferization.alloc_tensor() : tensor<!ciphertext>
    %ct_991 = cheddar.add %ctx, %ct_988, %ct_990, %dps_1268 : (!context, tensor<!ciphertext>, tensor<!ciphertext>, tensor<!ciphertext>) -> tensor<!ciphertext>
    %dps_1269 = bufferization.alloc_tensor() : tensor<!ciphertext>
    %ct_992 = cheddar.add %ctx, %ct_986, %ct_991, %dps_1269 : (!context, tensor<!ciphertext>, tensor<!ciphertext>, tensor<!ciphertext>) -> tensor<!ciphertext>
    %dps_1270 = bufferization.alloc_tensor() : tensor<!ciphertext>
    %ct_993 = cheddar.mult_plain %ctx, %ct_675, %extracted_236, %dps_1270 : (!context, tensor<!ciphertext>, tensor<!plaintext>, tensor<!ciphertext>) -> tensor<!ciphertext>
    %dps_1271 = bufferization.alloc_tensor() : tensor<!ciphertext>
    %ct_994 = cheddar.rescale %ctx, %ct_993, %dps_1271 : (!context, tensor<!ciphertext>, tensor<!ciphertext>) -> tensor<!ciphertext>
    %dps_1272 = bufferization.alloc_tensor() : tensor<!ciphertext>
    %ct_995 = cheddar.mult_plain %ctx, %ct_678, %extracted_237, %dps_1272 : (!context, tensor<!ciphertext>, tensor<!plaintext>, tensor<!ciphertext>) -> tensor<!ciphertext>
    %dps_1273 = bufferization.alloc_tensor() : tensor<!ciphertext>
    %ct_996 = cheddar.rescale %ctx, %ct_995, %dps_1273 : (!context, tensor<!ciphertext>, tensor<!ciphertext>) -> tensor<!ciphertext>
    %dps_1274 = bufferization.alloc_tensor() : tensor<!ciphertext>
    %ct_997 = cheddar.mult_plain %ctx, %ct_681, %extracted_238, %dps_1274 : (!context, tensor<!ciphertext>, tensor<!plaintext>, tensor<!ciphertext>) -> tensor<!ciphertext>
    %dps_1275 = bufferization.alloc_tensor() : tensor<!ciphertext>
    %ct_998 = cheddar.rescale %ctx, %ct_997, %dps_1275 : (!context, tensor<!ciphertext>, tensor<!ciphertext>) -> tensor<!ciphertext>
    %dps_1276 = bufferization.alloc_tensor() : tensor<!ciphertext>
    %ct_999 = cheddar.mult_plain %ctx, %ct_684, %extracted_239, %dps_1276 : (!context, tensor<!ciphertext>, tensor<!plaintext>, tensor<!ciphertext>) -> tensor<!ciphertext>
    %dps_1277 = bufferization.alloc_tensor() : tensor<!ciphertext>
    %ct_1000 = cheddar.rescale %ctx, %ct_999, %dps_1277 : (!context, tensor<!ciphertext>, tensor<!ciphertext>) -> tensor<!ciphertext>
    %dps_1278 = bufferization.alloc_tensor() : tensor<!ciphertext>
    %ct_1001 = cheddar.mult_plain %ctx, %ct_687, %extracted_240, %dps_1278 : (!context, tensor<!ciphertext>, tensor<!plaintext>, tensor<!ciphertext>) -> tensor<!ciphertext>
    %dps_1279 = bufferization.alloc_tensor() : tensor<!ciphertext>
    %ct_1002 = cheddar.rescale %ctx, %ct_1001, %dps_1279 : (!context, tensor<!ciphertext>, tensor<!ciphertext>) -> tensor<!ciphertext>
    %dps_1280 = bufferization.alloc_tensor() : tensor<!ciphertext>
    %ct_1003 = cheddar.mult_plain %ctx, %ct_690, %extracted_241, %dps_1280 : (!context, tensor<!ciphertext>, tensor<!plaintext>, tensor<!ciphertext>) -> tensor<!ciphertext>
    %dps_1281 = bufferization.alloc_tensor() : tensor<!ciphertext>
    %ct_1004 = cheddar.rescale %ctx, %ct_1003, %dps_1281 : (!context, tensor<!ciphertext>, tensor<!ciphertext>) -> tensor<!ciphertext>
    %dps_1282 = bufferization.alloc_tensor() : tensor<!ciphertext>
    %ct_1005 = cheddar.mult_plain %ctx, %ct_693, %extracted_242, %dps_1282 : (!context, tensor<!ciphertext>, tensor<!plaintext>, tensor<!ciphertext>) -> tensor<!ciphertext>
    %dps_1283 = bufferization.alloc_tensor() : tensor<!ciphertext>
    %ct_1006 = cheddar.rescale %ctx, %ct_1005, %dps_1283 : (!context, tensor<!ciphertext>, tensor<!ciphertext>) -> tensor<!ciphertext>
    %dps_1284 = bufferization.alloc_tensor() : tensor<!ciphertext>
    %ct_1007 = cheddar.mult_plain %ctx, %ct_696, %extracted_243, %dps_1284 : (!context, tensor<!ciphertext>, tensor<!plaintext>, tensor<!ciphertext>) -> tensor<!ciphertext>
    %dps_1285 = bufferization.alloc_tensor() : tensor<!ciphertext>
    %ct_1008 = cheddar.rescale %ctx, %ct_1007, %dps_1285 : (!context, tensor<!ciphertext>, tensor<!ciphertext>) -> tensor<!ciphertext>
    %dps_1286 = bufferization.alloc_tensor() : tensor<!ciphertext>
    %ct_1009 = cheddar.mult_plain %ctx, %ct_699, %extracted_244, %dps_1286 : (!context, tensor<!ciphertext>, tensor<!plaintext>, tensor<!ciphertext>) -> tensor<!ciphertext>
    %dps_1287 = bufferization.alloc_tensor() : tensor<!ciphertext>
    %ct_1010 = cheddar.rescale %ctx, %ct_1009, %dps_1287 : (!context, tensor<!ciphertext>, tensor<!ciphertext>) -> tensor<!ciphertext>
    %dps_1288 = bufferization.alloc_tensor() : tensor<!ciphertext>
    %ct_1011 = cheddar.mult_plain %ctx, %ct_702, %extracted_245, %dps_1288 : (!context, tensor<!ciphertext>, tensor<!plaintext>, tensor<!ciphertext>) -> tensor<!ciphertext>
    %dps_1289 = bufferization.alloc_tensor() : tensor<!ciphertext>
    %ct_1012 = cheddar.rescale %ctx, %ct_1011, %dps_1289 : (!context, tensor<!ciphertext>, tensor<!ciphertext>) -> tensor<!ciphertext>
    %dps_1290 = bufferization.alloc_tensor() : tensor<!ciphertext>
    %ct_1013 = cheddar.mult_plain %ctx, %ct_705, %extracted_246, %dps_1290 : (!context, tensor<!ciphertext>, tensor<!plaintext>, tensor<!ciphertext>) -> tensor<!ciphertext>
    %dps_1291 = bufferization.alloc_tensor() : tensor<!ciphertext>
    %ct_1014 = cheddar.rescale %ctx, %ct_1013, %dps_1291 : (!context, tensor<!ciphertext>, tensor<!ciphertext>) -> tensor<!ciphertext>
    %dps_1292 = bufferization.alloc_tensor() : tensor<!ciphertext>
    %ct_1015 = cheddar.mult_plain %ctx, %ct_708, %extracted_247, %dps_1292 : (!context, tensor<!ciphertext>, tensor<!plaintext>, tensor<!ciphertext>) -> tensor<!ciphertext>
    %dps_1293 = bufferization.alloc_tensor() : tensor<!ciphertext>
    %ct_1016 = cheddar.rescale %ctx, %ct_1015, %dps_1293 : (!context, tensor<!ciphertext>, tensor<!ciphertext>) -> tensor<!ciphertext>
    %dps_1294 = bufferization.alloc_tensor() : tensor<!ciphertext>
    %ct_1017 = cheddar.add %ctx, %ct_994, %ct_996, %dps_1294 : (!context, tensor<!ciphertext>, tensor<!ciphertext>, tensor<!ciphertext>) -> tensor<!ciphertext>
    %dps_1295 = bufferization.alloc_tensor() : tensor<!ciphertext>
    %ct_1018 = cheddar.add %ctx, %ct_1017, %ct_998, %dps_1295 : (!context, tensor<!ciphertext>, tensor<!ciphertext>, tensor<!ciphertext>) -> tensor<!ciphertext>
    %dps_1296 = bufferization.alloc_tensor() : tensor<!ciphertext>
    %ct_1019 = cheddar.add %ctx, %ct_1000, %ct_1002, %dps_1296 : (!context, tensor<!ciphertext>, tensor<!ciphertext>, tensor<!ciphertext>) -> tensor<!ciphertext>
    %dps_1297 = bufferization.alloc_tensor() : tensor<!ciphertext>
    %ct_1020 = cheddar.add %ctx, %ct_1019, %ct_1004, %dps_1297 : (!context, tensor<!ciphertext>, tensor<!ciphertext>, tensor<!ciphertext>) -> tensor<!ciphertext>
    %dps_1298 = bufferization.alloc_tensor() : tensor<!ciphertext>
    %ct_1021 = cheddar.add %ctx, %ct_1018, %ct_1020, %dps_1298 : (!context, tensor<!ciphertext>, tensor<!ciphertext>, tensor<!ciphertext>) -> tensor<!ciphertext>
    %dps_1299 = bufferization.alloc_tensor() : tensor<!ciphertext>
    %ct_1022 = cheddar.add %ctx, %ct_1006, %ct_1008, %dps_1299 : (!context, tensor<!ciphertext>, tensor<!ciphertext>, tensor<!ciphertext>) -> tensor<!ciphertext>
    %dps_1300 = bufferization.alloc_tensor() : tensor<!ciphertext>
    %ct_1023 = cheddar.add %ctx, %ct_1022, %ct_1010, %dps_1300 : (!context, tensor<!ciphertext>, tensor<!ciphertext>, tensor<!ciphertext>) -> tensor<!ciphertext>
    %dps_1301 = bufferization.alloc_tensor() : tensor<!ciphertext>
    %ct_1024 = cheddar.add %ctx, %ct_1012, %ct_1014, %dps_1301 : (!context, tensor<!ciphertext>, tensor<!ciphertext>, tensor<!ciphertext>) -> tensor<!ciphertext>
    %dps_1302 = bufferization.alloc_tensor() : tensor<!ciphertext>
    %ct_1025 = cheddar.add %ctx, %ct_1024, %ct_1016, %dps_1302 : (!context, tensor<!ciphertext>, tensor<!ciphertext>, tensor<!ciphertext>) -> tensor<!ciphertext>
    %dps_1303 = bufferization.alloc_tensor() : tensor<!ciphertext>
    %ct_1026 = cheddar.add %ctx, %ct_1023, %ct_1025, %dps_1303 : (!context, tensor<!ciphertext>, tensor<!ciphertext>, tensor<!ciphertext>) -> tensor<!ciphertext>
    %dps_1304 = bufferization.alloc_tensor() : tensor<!ciphertext>
    %ct_1027 = cheddar.add %ctx, %ct_1021, %ct_1026, %dps_1304 : (!context, tensor<!ciphertext>, tensor<!ciphertext>, tensor<!ciphertext>) -> tensor<!ciphertext>
    %dps_1305 = bufferization.alloc_tensor() : tensor<!ciphertext>
    %ct_1028 = cheddar.hrot %ctx, %ct_1027, %dps_1305, %c108 : (!context, tensor<!ciphertext>, tensor<!ciphertext>, index) -> tensor<!ciphertext>
    %dps_1306 = bufferization.alloc_tensor() : tensor<!ciphertext>
    %ct_1029 = cheddar.mult_plain %ctx, %ct_675, %extracted_248, %dps_1306 : (!context, tensor<!ciphertext>, tensor<!plaintext>, tensor<!ciphertext>) -> tensor<!ciphertext>
    %dps_1307 = bufferization.alloc_tensor() : tensor<!ciphertext>
    %ct_1030 = cheddar.rescale %ctx, %ct_1029, %dps_1307 : (!context, tensor<!ciphertext>, tensor<!ciphertext>) -> tensor<!ciphertext>
    %dps_1308 = bufferization.alloc_tensor() : tensor<!ciphertext>
    %ct_1031 = cheddar.mult_plain %ctx, %ct_678, %extracted_249, %dps_1308 : (!context, tensor<!ciphertext>, tensor<!plaintext>, tensor<!ciphertext>) -> tensor<!ciphertext>
    %dps_1309 = bufferization.alloc_tensor() : tensor<!ciphertext>
    %ct_1032 = cheddar.rescale %ctx, %ct_1031, %dps_1309 : (!context, tensor<!ciphertext>, tensor<!ciphertext>) -> tensor<!ciphertext>
    %dps_1310 = bufferization.alloc_tensor() : tensor<!ciphertext>
    %ct_1033 = cheddar.mult_plain %ctx, %ct_681, %extracted_250, %dps_1310 : (!context, tensor<!ciphertext>, tensor<!plaintext>, tensor<!ciphertext>) -> tensor<!ciphertext>
    %dps_1311 = bufferization.alloc_tensor() : tensor<!ciphertext>
    %ct_1034 = cheddar.rescale %ctx, %ct_1033, %dps_1311 : (!context, tensor<!ciphertext>, tensor<!ciphertext>) -> tensor<!ciphertext>
    %dps_1312 = bufferization.alloc_tensor() : tensor<!ciphertext>
    %ct_1035 = cheddar.mult_plain %ctx, %ct_684, %extracted_251, %dps_1312 : (!context, tensor<!ciphertext>, tensor<!plaintext>, tensor<!ciphertext>) -> tensor<!ciphertext>
    %dps_1313 = bufferization.alloc_tensor() : tensor<!ciphertext>
    %ct_1036 = cheddar.rescale %ctx, %ct_1035, %dps_1313 : (!context, tensor<!ciphertext>, tensor<!ciphertext>) -> tensor<!ciphertext>
    %dps_1314 = bufferization.alloc_tensor() : tensor<!ciphertext>
    %ct_1037 = cheddar.mult_plain %ctx, %ct_687, %extracted_252, %dps_1314 : (!context, tensor<!ciphertext>, tensor<!plaintext>, tensor<!ciphertext>) -> tensor<!ciphertext>
    %dps_1315 = bufferization.alloc_tensor() : tensor<!ciphertext>
    %ct_1038 = cheddar.rescale %ctx, %ct_1037, %dps_1315 : (!context, tensor<!ciphertext>, tensor<!ciphertext>) -> tensor<!ciphertext>
    %dps_1316 = bufferization.alloc_tensor() : tensor<!ciphertext>
    %ct_1039 = cheddar.mult_plain %ctx, %ct_690, %extracted_253, %dps_1316 : (!context, tensor<!ciphertext>, tensor<!plaintext>, tensor<!ciphertext>) -> tensor<!ciphertext>
    %dps_1317 = bufferization.alloc_tensor() : tensor<!ciphertext>
    %ct_1040 = cheddar.rescale %ctx, %ct_1039, %dps_1317 : (!context, tensor<!ciphertext>, tensor<!ciphertext>) -> tensor<!ciphertext>
    %dps_1318 = bufferization.alloc_tensor() : tensor<!ciphertext>
    %ct_1041 = cheddar.mult_plain %ctx, %ct_693, %extracted_254, %dps_1318 : (!context, tensor<!ciphertext>, tensor<!plaintext>, tensor<!ciphertext>) -> tensor<!ciphertext>
    %dps_1319 = bufferization.alloc_tensor() : tensor<!ciphertext>
    %ct_1042 = cheddar.rescale %ctx, %ct_1041, %dps_1319 : (!context, tensor<!ciphertext>, tensor<!ciphertext>) -> tensor<!ciphertext>
    %dps_1320 = bufferization.alloc_tensor() : tensor<!ciphertext>
    %ct_1043 = cheddar.mult_plain %ctx, %ct_696, %extracted_255, %dps_1320 : (!context, tensor<!ciphertext>, tensor<!plaintext>, tensor<!ciphertext>) -> tensor<!ciphertext>
    %dps_1321 = bufferization.alloc_tensor() : tensor<!ciphertext>
    %ct_1044 = cheddar.rescale %ctx, %ct_1043, %dps_1321 : (!context, tensor<!ciphertext>, tensor<!ciphertext>) -> tensor<!ciphertext>
    %dps_1322 = bufferization.alloc_tensor() : tensor<!ciphertext>
    %ct_1045 = cheddar.add %ctx, %ct_1030, %ct_1032, %dps_1322 : (!context, tensor<!ciphertext>, tensor<!ciphertext>, tensor<!ciphertext>) -> tensor<!ciphertext>
    %dps_1323 = bufferization.alloc_tensor() : tensor<!ciphertext>
    %ct_1046 = cheddar.add %ctx, %ct_1034, %ct_1036, %dps_1323 : (!context, tensor<!ciphertext>, tensor<!ciphertext>, tensor<!ciphertext>) -> tensor<!ciphertext>
    %dps_1324 = bufferization.alloc_tensor() : tensor<!ciphertext>
    %ct_1047 = cheddar.add %ctx, %ct_1045, %ct_1046, %dps_1324 : (!context, tensor<!ciphertext>, tensor<!ciphertext>, tensor<!ciphertext>) -> tensor<!ciphertext>
    %dps_1325 = bufferization.alloc_tensor() : tensor<!ciphertext>
    %ct_1048 = cheddar.add %ctx, %ct_1038, %ct_1040, %dps_1325 : (!context, tensor<!ciphertext>, tensor<!ciphertext>, tensor<!ciphertext>) -> tensor<!ciphertext>
    %dps_1326 = bufferization.alloc_tensor() : tensor<!ciphertext>
    %ct_1049 = cheddar.add %ctx, %ct_1042, %ct_1044, %dps_1326 : (!context, tensor<!ciphertext>, tensor<!ciphertext>, tensor<!ciphertext>) -> tensor<!ciphertext>
    %dps_1327 = bufferization.alloc_tensor() : tensor<!ciphertext>
    %ct_1050 = cheddar.add %ctx, %ct_1048, %ct_1049, %dps_1327 : (!context, tensor<!ciphertext>, tensor<!ciphertext>, tensor<!ciphertext>) -> tensor<!ciphertext>
    %dps_1328 = bufferization.alloc_tensor() : tensor<!ciphertext>
    %ct_1051 = cheddar.add %ctx, %ct_1047, %ct_1050, %dps_1328 : (!context, tensor<!ciphertext>, tensor<!ciphertext>, tensor<!ciphertext>) -> tensor<!ciphertext>
    %dps_1329 = bufferization.alloc_tensor() : tensor<!ciphertext>
    %ct_1052 = cheddar.add_plain %ctx, %ct_677, %extracted_256, %dps_1329 : (!context, tensor<!ciphertext>, tensor<!plaintext>, tensor<!ciphertext>) -> tensor<!ciphertext>
    %dps_1330 = bufferization.alloc_tensor() : tensor<!ciphertext>
    %ct_1053 = cheddar.add %ctx, %ct_680, %ct_683, %dps_1330 : (!context, tensor<!ciphertext>, tensor<!ciphertext>, tensor<!ciphertext>) -> tensor<!ciphertext>
    %dps_1331 = bufferization.alloc_tensor() : tensor<!ciphertext>
    %ct_1054 = cheddar.add %ctx, %ct_1053, %ct_686, %dps_1331 : (!context, tensor<!ciphertext>, tensor<!ciphertext>, tensor<!ciphertext>) -> tensor<!ciphertext>
    %dps_1332 = bufferization.alloc_tensor() : tensor<!ciphertext>
    %ct_1055 = cheddar.add %ctx, %ct_1052, %ct_1054, %dps_1332 : (!context, tensor<!ciphertext>, tensor<!ciphertext>, tensor<!ciphertext>) -> tensor<!ciphertext>
    %dps_1333 = bufferization.alloc_tensor() : tensor<!ciphertext>
    %ct_1056 = cheddar.add %ctx, %ct_689, %ct_692, %dps_1333 : (!context, tensor<!ciphertext>, tensor<!ciphertext>, tensor<!ciphertext>) -> tensor<!ciphertext>
    %dps_1334 = bufferization.alloc_tensor() : tensor<!ciphertext>
    %ct_1057 = cheddar.add %ctx, %ct_1056, %ct_695, %dps_1334 : (!context, tensor<!ciphertext>, tensor<!ciphertext>, tensor<!ciphertext>) -> tensor<!ciphertext>
    %dps_1335 = bufferization.alloc_tensor() : tensor<!ciphertext>
    %ct_1058 = cheddar.add %ctx, %ct_698, %ct_701, %dps_1335 : (!context, tensor<!ciphertext>, tensor<!ciphertext>, tensor<!ciphertext>) -> tensor<!ciphertext>
    %dps_1336 = bufferization.alloc_tensor() : tensor<!ciphertext>
    %ct_1059 = cheddar.add %ctx, %ct_1058, %ct_704, %dps_1336 : (!context, tensor<!ciphertext>, tensor<!ciphertext>, tensor<!ciphertext>) -> tensor<!ciphertext>
    %dps_1337 = bufferization.alloc_tensor() : tensor<!ciphertext>
    %ct_1060 = cheddar.add %ctx, %ct_1057, %ct_1059, %dps_1337 : (!context, tensor<!ciphertext>, tensor<!ciphertext>, tensor<!ciphertext>) -> tensor<!ciphertext>
    %dps_1338 = bufferization.alloc_tensor() : tensor<!ciphertext>
    %ct_1061 = cheddar.add %ctx, %ct_1055, %ct_1060, %dps_1338 : (!context, tensor<!ciphertext>, tensor<!ciphertext>, tensor<!ciphertext>) -> tensor<!ciphertext>
    %dps_1339 = bufferization.alloc_tensor() : tensor<!ciphertext>
    %ct_1062 = cheddar.add %ctx, %ct_707, %ct_710, %dps_1339 : (!context, tensor<!ciphertext>, tensor<!ciphertext>, tensor<!ciphertext>) -> tensor<!ciphertext>
    %dps_1340 = bufferization.alloc_tensor() : tensor<!ciphertext>
    %ct_1063 = cheddar.hrot_add %ctx, %ct_745, %ct_1062, %dps_1340 {distance = 12 : i64} : (!context, tensor<!ciphertext>, tensor<!ciphertext>, tensor<!ciphertext>) -> tensor<!ciphertext>
    %dps_1341 = bufferization.alloc_tensor() : tensor<!ciphertext>
    %ct_1064 = cheddar.hrot_add %ctx, %ct_780, %ct_816, %dps_1341 {distance = 24 : i64} : (!context, tensor<!ciphertext>, tensor<!ciphertext>, tensor<!ciphertext>) -> tensor<!ciphertext>
    %dps_1342 = bufferization.alloc_tensor() : tensor<!ciphertext>
    %ct_1065 = cheddar.hrot_add %ctx, %ct_851, %ct_1064, %dps_1342 {distance = 48 : i64} : (!context, tensor<!ciphertext>, tensor<!ciphertext>, tensor<!ciphertext>) -> tensor<!ciphertext>
    %dps_1343 = bufferization.alloc_tensor() : tensor<!ciphertext>
    %ct_1066 = cheddar.add %ctx, %ct_1063, %ct_1065, %dps_1343 : (!context, tensor<!ciphertext>, tensor<!ciphertext>, tensor<!ciphertext>) -> tensor<!ciphertext>
    %dps_1344 = bufferization.alloc_tensor() : tensor<!ciphertext>
    %ct_1067 = cheddar.hrot_add %ctx, %ct_886, %ct_922, %dps_1344 {distance = 60 : i64} : (!context, tensor<!ciphertext>, tensor<!ciphertext>, tensor<!ciphertext>) -> tensor<!ciphertext>
    %dps_1345 = bufferization.alloc_tensor() : tensor<!ciphertext>
    %ct_1068 = cheddar.hrot_add %ctx, %ct_957, %ct_1067, %dps_1345 {distance = 84 : i64} : (!context, tensor<!ciphertext>, tensor<!ciphertext>, tensor<!ciphertext>) -> tensor<!ciphertext>
    %dps_1346 = bufferization.alloc_tensor() : tensor<!ciphertext>
    %ct_1069 = cheddar.hrot_add %ctx, %ct_992, %ct_1028, %dps_1346 {distance = 96 : i64} : (!context, tensor<!ciphertext>, tensor<!ciphertext>, tensor<!ciphertext>) -> tensor<!ciphertext>
    %dps_1347 = bufferization.alloc_tensor() : tensor<!ciphertext>
    %ct_1070 = cheddar.hrot_add %ctx, %ct_1051, %ct_1069, %dps_1347 {distance = 120 : i64} : (!context, tensor<!ciphertext>, tensor<!ciphertext>, tensor<!ciphertext>) -> tensor<!ciphertext>
    %dps_1348 = bufferization.alloc_tensor() : tensor<!ciphertext>
    %ct_1071 = cheddar.add %ctx, %ct_1068, %ct_1070, %dps_1348 : (!context, tensor<!ciphertext>, tensor<!ciphertext>, tensor<!ciphertext>) -> tensor<!ciphertext>
    %dps_1349 = bufferization.alloc_tensor() : tensor<!ciphertext>
    %ct_1072 = cheddar.add %ctx, %ct_1066, %ct_1071, %dps_1349 : (!context, tensor<!ciphertext>, tensor<!ciphertext>, tensor<!ciphertext>) -> tensor<!ciphertext>
    %dps_1350 = bufferization.alloc_tensor() : tensor<!ciphertext>
    %ct_1073 = cheddar.add %ctx, %ct_1061, %ct_1072, %dps_1350 : (!context, tensor<!ciphertext>, tensor<!ciphertext>, tensor<!ciphertext>) -> tensor<!ciphertext>
    %dps_1351 = bufferization.alloc_tensor() : tensor<!ciphertext>
    %ct_1074 = cheddar.hmult %ctx, %ct_1073, %ct_1073, %evk, %dps_1351 : (!context, tensor<!ciphertext>, tensor<!ciphertext>, !eval_key, tensor<!ciphertext>) -> tensor<!ciphertext>
    %dps_1352 = bufferization.alloc_tensor() : tensor<!ciphertext>
    %ct_1075 = cheddar.mult_plain %ctx, %ct_1074, %extracted_257, %dps_1352 : (!context, tensor<!ciphertext>, tensor<!plaintext>, tensor<!ciphertext>) -> tensor<!ciphertext>
    %dps_1353 = bufferization.alloc_tensor() : tensor<!ciphertext>
    %ct_1076 = cheddar.rescale %ctx, %ct_1075, %dps_1353 : (!context, tensor<!ciphertext>, tensor<!ciphertext>) -> tensor<!ciphertext>
    %dps_1354 = bufferization.alloc_tensor() : tensor<!ciphertext>
    %ct_1077 = cheddar.hrot %ctx, %ct_1074, %dps_1354, %c1 : (!context, tensor<!ciphertext>, tensor<!ciphertext>, index) -> tensor<!ciphertext>
    %dps_1355 = bufferization.alloc_tensor() : tensor<!ciphertext>
    %ct_1078 = cheddar.mult_plain %ctx, %ct_1077, %extracted_258, %dps_1355 : (!context, tensor<!ciphertext>, tensor<!plaintext>, tensor<!ciphertext>) -> tensor<!ciphertext>
    %dps_1356 = bufferization.alloc_tensor() : tensor<!ciphertext>
    %ct_1079 = cheddar.rescale %ctx, %ct_1078, %dps_1356 : (!context, tensor<!ciphertext>, tensor<!ciphertext>) -> tensor<!ciphertext>
    %dps_1357 = bufferization.alloc_tensor() : tensor<!ciphertext>
    %ct_1080 = cheddar.hrot %ctx, %ct_1074, %dps_1357, %c2 : (!context, tensor<!ciphertext>, tensor<!ciphertext>, index) -> tensor<!ciphertext>
    %dps_1358 = bufferization.alloc_tensor() : tensor<!ciphertext>
    %ct_1081 = cheddar.mult_plain %ctx, %ct_1080, %extracted_259, %dps_1358 : (!context, tensor<!ciphertext>, tensor<!plaintext>, tensor<!ciphertext>) -> tensor<!ciphertext>
    %dps_1359 = bufferization.alloc_tensor() : tensor<!ciphertext>
    %ct_1082 = cheddar.rescale %ctx, %ct_1081, %dps_1359 : (!context, tensor<!ciphertext>, tensor<!ciphertext>) -> tensor<!ciphertext>
    %dps_1360 = bufferization.alloc_tensor() : tensor<!ciphertext>
    %ct_1083 = cheddar.hrot %ctx, %ct_1074, %dps_1360, %c3 : (!context, tensor<!ciphertext>, tensor<!ciphertext>, index) -> tensor<!ciphertext>
    %dps_1361 = bufferization.alloc_tensor() : tensor<!ciphertext>
    %ct_1084 = cheddar.mult_plain %ctx, %ct_1083, %extracted_260, %dps_1361 : (!context, tensor<!ciphertext>, tensor<!plaintext>, tensor<!ciphertext>) -> tensor<!ciphertext>
    %dps_1362 = bufferization.alloc_tensor() : tensor<!ciphertext>
    %ct_1085 = cheddar.rescale %ctx, %ct_1084, %dps_1362 : (!context, tensor<!ciphertext>, tensor<!ciphertext>) -> tensor<!ciphertext>
    %dps_1363 = bufferization.alloc_tensor() : tensor<!ciphertext>
    %ct_1086 = cheddar.mult_plain %ctx, %ct_1074, %extracted_261, %dps_1363 : (!context, tensor<!ciphertext>, tensor<!plaintext>, tensor<!ciphertext>) -> tensor<!ciphertext>
    %dps_1364 = bufferization.alloc_tensor() : tensor<!ciphertext>
    %ct_1087 = cheddar.rescale %ctx, %ct_1086, %dps_1364 : (!context, tensor<!ciphertext>, tensor<!ciphertext>) -> tensor<!ciphertext>
    %dps_1365 = bufferization.alloc_tensor() : tensor<!ciphertext>
    %ct_1088 = cheddar.mult_plain %ctx, %ct_1077, %extracted_262, %dps_1365 : (!context, tensor<!ciphertext>, tensor<!plaintext>, tensor<!ciphertext>) -> tensor<!ciphertext>
    %dps_1366 = bufferization.alloc_tensor() : tensor<!ciphertext>
    %ct_1089 = cheddar.rescale %ctx, %ct_1088, %dps_1366 : (!context, tensor<!ciphertext>, tensor<!ciphertext>) -> tensor<!ciphertext>
    %dps_1367 = bufferization.alloc_tensor() : tensor<!ciphertext>
    %ct_1090 = cheddar.mult_plain %ctx, %ct_1080, %extracted_263, %dps_1367 : (!context, tensor<!ciphertext>, tensor<!plaintext>, tensor<!ciphertext>) -> tensor<!ciphertext>
    %dps_1368 = bufferization.alloc_tensor() : tensor<!ciphertext>
    %ct_1091 = cheddar.rescale %ctx, %ct_1090, %dps_1368 : (!context, tensor<!ciphertext>, tensor<!ciphertext>) -> tensor<!ciphertext>
    %dps_1369 = bufferization.alloc_tensor() : tensor<!ciphertext>
    %ct_1092 = cheddar.mult_plain %ctx, %ct_1083, %extracted_264, %dps_1369 : (!context, tensor<!ciphertext>, tensor<!plaintext>, tensor<!ciphertext>) -> tensor<!ciphertext>
    %dps_1370 = bufferization.alloc_tensor() : tensor<!ciphertext>
    %ct_1093 = cheddar.rescale %ctx, %ct_1092, %dps_1370 : (!context, tensor<!ciphertext>, tensor<!ciphertext>) -> tensor<!ciphertext>
    %dps_1371 = bufferization.alloc_tensor() : tensor<!ciphertext>
    %ct_1094 = cheddar.add %ctx, %ct_1087, %ct_1089, %dps_1371 : (!context, tensor<!ciphertext>, tensor<!ciphertext>, tensor<!ciphertext>) -> tensor<!ciphertext>
    %dps_1372 = bufferization.alloc_tensor() : tensor<!ciphertext>
    %ct_1095 = cheddar.add %ctx, %ct_1091, %ct_1093, %dps_1372 : (!context, tensor<!ciphertext>, tensor<!ciphertext>, tensor<!ciphertext>) -> tensor<!ciphertext>
    %dps_1373 = bufferization.alloc_tensor() : tensor<!ciphertext>
    %ct_1096 = cheddar.add %ctx, %ct_1094, %ct_1095, %dps_1373 : (!context, tensor<!ciphertext>, tensor<!ciphertext>, tensor<!ciphertext>) -> tensor<!ciphertext>
    %dps_1374 = bufferization.alloc_tensor() : tensor<!ciphertext>
    %ct_1097 = cheddar.mult_plain %ctx, %ct_1074, %extracted_265, %dps_1374 : (!context, tensor<!ciphertext>, tensor<!plaintext>, tensor<!ciphertext>) -> tensor<!ciphertext>
    %dps_1375 = bufferization.alloc_tensor() : tensor<!ciphertext>
    %ct_1098 = cheddar.rescale %ctx, %ct_1097, %dps_1375 : (!context, tensor<!ciphertext>, tensor<!ciphertext>) -> tensor<!ciphertext>
    %dps_1376 = bufferization.alloc_tensor() : tensor<!ciphertext>
    %ct_1099 = cheddar.mult_plain %ctx, %ct_1077, %extracted_266, %dps_1376 : (!context, tensor<!ciphertext>, tensor<!plaintext>, tensor<!ciphertext>) -> tensor<!ciphertext>
    %dps_1377 = bufferization.alloc_tensor() : tensor<!ciphertext>
    %ct_1100 = cheddar.rescale %ctx, %ct_1099, %dps_1377 : (!context, tensor<!ciphertext>, tensor<!ciphertext>) -> tensor<!ciphertext>
    %dps_1378 = bufferization.alloc_tensor() : tensor<!ciphertext>
    %ct_1101 = cheddar.mult_plain %ctx, %ct_1080, %extracted_267, %dps_1378 : (!context, tensor<!ciphertext>, tensor<!plaintext>, tensor<!ciphertext>) -> tensor<!ciphertext>
    %dps_1379 = bufferization.alloc_tensor() : tensor<!ciphertext>
    %ct_1102 = cheddar.rescale %ctx, %ct_1101, %dps_1379 : (!context, tensor<!ciphertext>, tensor<!ciphertext>) -> tensor<!ciphertext>
    %dps_1380 = bufferization.alloc_tensor() : tensor<!ciphertext>
    %ct_1103 = cheddar.mult_plain %ctx, %ct_1083, %extracted_268, %dps_1380 : (!context, tensor<!ciphertext>, tensor<!plaintext>, tensor<!ciphertext>) -> tensor<!ciphertext>
    %dps_1381 = bufferization.alloc_tensor() : tensor<!ciphertext>
    %ct_1104 = cheddar.rescale %ctx, %ct_1103, %dps_1381 : (!context, tensor<!ciphertext>, tensor<!ciphertext>) -> tensor<!ciphertext>
    %dps_1382 = bufferization.alloc_tensor() : tensor<!ciphertext>
    %ct_1105 = cheddar.add %ctx, %ct_1098, %ct_1100, %dps_1382 : (!context, tensor<!ciphertext>, tensor<!ciphertext>, tensor<!ciphertext>) -> tensor<!ciphertext>
    %dps_1383 = bufferization.alloc_tensor() : tensor<!ciphertext>
    %ct_1106 = cheddar.add %ctx, %ct_1102, %ct_1104, %dps_1383 : (!context, tensor<!ciphertext>, tensor<!ciphertext>, tensor<!ciphertext>) -> tensor<!ciphertext>
    %dps_1384 = bufferization.alloc_tensor() : tensor<!ciphertext>
    %ct_1107 = cheddar.add %ctx, %ct_1105, %ct_1106, %dps_1384 : (!context, tensor<!ciphertext>, tensor<!ciphertext>, tensor<!ciphertext>) -> tensor<!ciphertext>
    %dps_1385 = bufferization.alloc_tensor() : tensor<!ciphertext>
    %ct_1108 = cheddar.mult_plain %ctx, %ct_1074, %extracted_269, %dps_1385 : (!context, tensor<!ciphertext>, tensor<!plaintext>, tensor<!ciphertext>) -> tensor<!ciphertext>
    %dps_1386 = bufferization.alloc_tensor() : tensor<!ciphertext>
    %ct_1109 = cheddar.rescale %ctx, %ct_1108, %dps_1386 : (!context, tensor<!ciphertext>, tensor<!ciphertext>) -> tensor<!ciphertext>
    %dps_1387 = bufferization.alloc_tensor() : tensor<!ciphertext>
    %ct_1110 = cheddar.mult_plain %ctx, %ct_1077, %extracted_270, %dps_1387 : (!context, tensor<!ciphertext>, tensor<!plaintext>, tensor<!ciphertext>) -> tensor<!ciphertext>
    %dps_1388 = bufferization.alloc_tensor() : tensor<!ciphertext>
    %ct_1111 = cheddar.rescale %ctx, %ct_1110, %dps_1388 : (!context, tensor<!ciphertext>, tensor<!ciphertext>) -> tensor<!ciphertext>
    %dps_1389 = bufferization.alloc_tensor() : tensor<!ciphertext>
    %ct_1112 = cheddar.mult_plain %ctx, %ct_1080, %extracted_271, %dps_1389 : (!context, tensor<!ciphertext>, tensor<!plaintext>, tensor<!ciphertext>) -> tensor<!ciphertext>
    %dps_1390 = bufferization.alloc_tensor() : tensor<!ciphertext>
    %ct_1113 = cheddar.rescale %ctx, %ct_1112, %dps_1390 : (!context, tensor<!ciphertext>, tensor<!ciphertext>) -> tensor<!ciphertext>
    %dps_1391 = bufferization.alloc_tensor() : tensor<!ciphertext>
    %ct_1114 = cheddar.mult_plain %ctx, %ct_1083, %extracted_272, %dps_1391 : (!context, tensor<!ciphertext>, tensor<!plaintext>, tensor<!ciphertext>) -> tensor<!ciphertext>
    %dps_1392 = bufferization.alloc_tensor() : tensor<!ciphertext>
    %ct_1115 = cheddar.rescale %ctx, %ct_1114, %dps_1392 : (!context, tensor<!ciphertext>, tensor<!ciphertext>) -> tensor<!ciphertext>
    %dps_1393 = bufferization.alloc_tensor() : tensor<!ciphertext>
    %ct_1116 = cheddar.add %ctx, %ct_1109, %ct_1111, %dps_1393 : (!context, tensor<!ciphertext>, tensor<!ciphertext>, tensor<!ciphertext>) -> tensor<!ciphertext>
    %dps_1394 = bufferization.alloc_tensor() : tensor<!ciphertext>
    %ct_1117 = cheddar.add %ctx, %ct_1113, %ct_1115, %dps_1394 : (!context, tensor<!ciphertext>, tensor<!ciphertext>, tensor<!ciphertext>) -> tensor<!ciphertext>
    %dps_1395 = bufferization.alloc_tensor() : tensor<!ciphertext>
    %ct_1118 = cheddar.add %ctx, %ct_1116, %ct_1117, %dps_1395 : (!context, tensor<!ciphertext>, tensor<!ciphertext>, tensor<!ciphertext>) -> tensor<!ciphertext>
    %dps_1396 = bufferization.alloc_tensor() : tensor<!ciphertext>
    %ct_1119 = cheddar.hrot %ctx, %ct_1118, %dps_1396, %c12 : (!context, tensor<!ciphertext>, tensor<!ciphertext>, index) -> tensor<!ciphertext>
    %dps_1397 = bufferization.alloc_tensor() : tensor<!ciphertext>
    %ct_1120 = cheddar.add %ctx, %ct_1076, %ct_1079, %dps_1397 : (!context, tensor<!ciphertext>, tensor<!ciphertext>, tensor<!ciphertext>) -> tensor<!ciphertext>
    %dps_1398 = bufferization.alloc_tensor() : tensor<!ciphertext>
    %ct_1121 = cheddar.add %ctx, %ct_1120, %ct_1082, %dps_1398 : (!context, tensor<!ciphertext>, tensor<!ciphertext>, tensor<!ciphertext>) -> tensor<!ciphertext>
    %dps_1399 = bufferization.alloc_tensor() : tensor<!ciphertext>
    %ct_1122 = cheddar.hrot_add %ctx, %ct_1096, %ct_1085, %dps_1399 {distance = 4 : i64} : (!context, tensor<!ciphertext>, tensor<!ciphertext>, tensor<!ciphertext>) -> tensor<!ciphertext>
    %dps_1400 = bufferization.alloc_tensor() : tensor<!ciphertext>
    %ct_1123 = cheddar.hrot_add %ctx, %ct_1107, %ct_1119, %dps_1400 {distance = 8 : i64} : (!context, tensor<!ciphertext>, tensor<!ciphertext>, tensor<!ciphertext>) -> tensor<!ciphertext>
    %dps_1401 = bufferization.alloc_tensor() : tensor<!ciphertext>
    %ct_1124 = cheddar.add %ctx, %ct_1122, %ct_1123, %dps_1401 : (!context, tensor<!ciphertext>, tensor<!ciphertext>, tensor<!ciphertext>) -> tensor<!ciphertext>
    %dps_1402 = bufferization.alloc_tensor() : tensor<!ciphertext>
    %ct_1125 = cheddar.add %ctx, %ct_1121, %ct_1124, %dps_1402 : (!context, tensor<!ciphertext>, tensor<!ciphertext>, tensor<!ciphertext>) -> tensor<!ciphertext>
    %dps_1403 = bufferization.alloc_tensor() : tensor<!ciphertext>
    %ct_1126 = cheddar.hrot_add %ctx, %ct_1125, %ct_1125, %dps_1403 {distance = 64 : i64} : (!context, tensor<!ciphertext>, tensor<!ciphertext>, tensor<!ciphertext>) -> tensor<!ciphertext>
    %dps_1404 = bufferization.alloc_tensor() : tensor<!ciphertext>
    %ct_1127 = cheddar.hrot_add %ctx, %ct_1126, %ct_1126, %dps_1404 {distance = 32 : i64} : (!context, tensor<!ciphertext>, tensor<!ciphertext>, tensor<!ciphertext>) -> tensor<!ciphertext>
    %dps_1405 = bufferization.alloc_tensor() : tensor<!ciphertext>
    %ct_1128 = cheddar.add_plain %ctx, %ct_1127, %extracted_273, %dps_1405 : (!context, tensor<!ciphertext>, tensor<!plaintext>, tensor<!ciphertext>) -> tensor<!ciphertext>
    %0 = tensor.empty() : tensor<1x!ciphertext>
    %dps_1406 = bufferization.alloc_tensor() : tensor<!ciphertext>
    %ct_1129 = cheddar.hrot_add %ctx, %ct_1127, %ct_1128, %dps_1406 {distance = 16 : i64} : (!context, tensor<!ciphertext>, tensor<!ciphertext>, tensor<!ciphertext>) -> tensor<!ciphertext>
    %inserted = tensor.insert_slice %ct_1129 into %0[0] [1] [1] : tensor<!ciphertext> into tensor<1x!ciphertext>
    return %inserted : tensor<1x!ciphertext>
  }
  func.func public @orion_mlp(%ctx: !context, %encoder: !encoder, %ui: !user_interface, %evk: !eval_key, %arg0: tensor<1x!ciphertext> {tensor_ext.original_type = #tensor_ext.original_type<originalType = tensor<1x784xf32>, layout = #tensor_ext.layout<"{ [i0, i1] -> [ct, slot] : i0 = 0 and ct = 0 and (-i1 + slot) mod 1024 = 0 and 0 <= i1 <= 783 and 0 <= slot <= 1023 }">>}, %arg1: tensor<128x784xf32>, %arg2: tensor<128xf32>, %arg3: tensor<128x128xf32>, %arg4: tensor<128xf32>, %arg5: tensor<10x128xf32>, %arg6: tensor<10xf32>) -> (tensor<1x!ciphertext> {tensor_ext.original_type = #original_type}) {
    %0:16 = call @orion_mlp__preprocessing(%encoder, %arg1, %arg2, %arg3, %arg4, %arg5, %arg6) : (!encoder, tensor<128x784xf32>, tensor<128xf32>, tensor<128x128xf32>, tensor<128xf32>, tensor<10x128xf32>, tensor<10xf32>) -> (tensor<18x!plaintext>, tensor<18x!plaintext>, tensor<18x!plaintext>, tensor<18x!plaintext>, tensor<18x!plaintext>, tensor<18x!plaintext>, tensor<18x!plaintext>, tensor<18x!plaintext>, tensor<18x!plaintext>, tensor<18x!plaintext>, tensor<18x!plaintext>, tensor<18x!plaintext>, tensor<18x!plaintext>, tensor<18x!plaintext>, tensor<18x!plaintext>, tensor<5x!plaintext>)
    %1 = call @orion_mlp__preprocessed(%ctx, %encoder, %ui, %evk, %arg0, %0#0, %0#1, %0#2, %0#3, %0#4, %0#5, %0#6, %0#7, %0#8, %0#9, %0#10, %0#11, %0#12, %0#13, %0#14, %0#15) : (!context, !encoder, !user_interface, !eval_key, tensor<1x!ciphertext>, tensor<18x!plaintext>, tensor<18x!plaintext>, tensor<18x!plaintext>, tensor<18x!plaintext>, tensor<18x!plaintext>, tensor<18x!plaintext>, tensor<18x!plaintext>, tensor<18x!plaintext>, tensor<18x!plaintext>, tensor<18x!plaintext>, tensor<18x!plaintext>, tensor<18x!plaintext>, tensor<18x!plaintext>, tensor<18x!plaintext>, tensor<18x!plaintext>, tensor<5x!plaintext>) -> tensor<1x!ciphertext>
    return %1 : tensor<1x!ciphertext>
  }
  func.func @orion_mlp__encrypt__arg0(%ctx: !context, %encoder: !encoder, %ui: !user_interface, %evk: !eval_key, %arg0: tensor<1x784xf32>, %ui_0: !user_interface) -> tensor<1x!ciphertext> attributes {client.enc_func = {func_name = "orion_mlp", index = 0 : i64}} {
    %c0 = arith.constant 0 : index
    %cst = arith.constant dense<0.000000e+00> : tensor<1x1024xf32>
    %c0_i32 = arith.constant 0 : i32
    %c1_i32 = arith.constant 1 : i32
    %c784_i32 = arith.constant 784 : i32
    %0 = scf.for %arg1 = %c0_i32 to %c784_i32 step %c1_i32 iter_args(%arg2 = %cst) -> (tensor<1x1024xf32>)  : i32 {
      %1 = arith.index_cast %arg1 : i32 to index
      %extracted = tensor.extract %arg0[%c0, %1] : tensor<1x784xf32>
      %inserted = tensor.insert %extracted into %arg2[%c0, %1] : tensor<1x1024xf32>
      scf.yield %inserted : tensor<1x1024xf32>
    }
    %extracted_slice = tensor.extract_slice %0[0, 0] [1, 1024] [1, 1] : tensor<1x1024xf32> to tensor<1024xf32>
    %dps_1407 = bufferization.alloc_tensor() : tensor<!plaintext>
    %pt = cheddar.encode %encoder, %extracted_slice, %dps_1407 {level = 5 : i64, scale = 4.500000e+01 : f64} : (!encoder, tensor<1024xf32>, tensor<!plaintext>) -> tensor<!plaintext>
    %dps_1408 = bufferization.alloc_tensor() : tensor<!ciphertext>
    %ct = cheddar.encrypt %ui, %pt, %dps_1408 : (!user_interface, tensor<!plaintext>, tensor<!ciphertext>) -> tensor<!ciphertext>
    %fe_1409 = tensor.empty() : tensor<1x!ciphertext>
    %from_elements = tensor.insert_slice %ct into %fe_1409[0] [1] [1] : tensor<!ciphertext> into tensor<1x!ciphertext>
    return %from_elements : tensor<1x!ciphertext>
  }
  func.func @orion_mlp__decrypt__result0(%ctx: !context, %encoder: !encoder, %ui: !user_interface, %evk: !eval_key, %arg0: tensor<1x!ciphertext>, %ui_0: !user_interface) -> tensor<1x10xf32> attributes {client.dec_func = {func_name = "orion_mlp", index = 0 : i64}} {
    %c0 = arith.constant 0 : index
    %c1024_i32 = arith.constant 1024 : i32
    %c16_i32 = arith.constant 16 : i32
    %c6_i32 = arith.constant 6 : i32
    %c1_i32 = arith.constant 1 : i32
    %c1023_i32 = arith.constant 1023 : i32
    %c0_i32 = arith.constant 0 : i32
    %cst = arith.constant dense<0.000000e+00> : tensor<1x10xf32>
    %c1029_i32 = arith.constant 1029 : i32
    %extracted = tensor.extract_slice %arg0[0] [1] [1] : tensor<1x!ciphertext> to tensor<!ciphertext>
    %dps_1410 = bufferization.alloc_tensor() : tensor<!plaintext>
    %pt = cheddar.decrypt %ui, %extracted, %dps_1410 : (!user_interface, tensor<!ciphertext>, tensor<!plaintext>) -> tensor<!plaintext>
    %0 = tensor.empty() : tensor<1x1024xf32>
    %1 = cheddar.decode %encoder, %pt, %0 : (!encoder, tensor<!plaintext>, tensor<1x1024xf32>) -> tensor<1x1024xf32>
    %2 = scf.for %arg1 = %c0_i32 to %c1024_i32 step %c1_i32 iter_args(%arg2 = %cst) -> (tensor<1x10xf32>)  : i32 {
      %3 = arith.subi %c1023_i32, %arg1 : i32
      %4 = arith.subi %c1029_i32, %arg1 : i32
      %5 = arith.remsi %4, %c16_i32 : i32
      %6 = arith.cmpi sge, %5, %c6_i32 : i32
      %7 = scf.if %6 -> (tensor<1x10xf32>) {
        %8 = arith.remsi %3, %c16_i32 : i32
        %9 = arith.index_cast %3 : i32 to index
        %extracted_1 = tensor.extract %1[%c0, %9] : tensor<1x1024xf32>
        %10 = arith.index_cast %8 : i32 to index
        %inserted = tensor.insert %extracted_1 into %arg2[%c0, %10] : tensor<1x10xf32>
        scf.yield %inserted : tensor<1x10xf32>
      } else {
        scf.yield %arg2 : tensor<1x10xf32>
      }
      scf.yield %7 : tensor<1x10xf32>
    }
    return %2 : tensor<1x10xf32>
  }
}
