// Orion MLP at the cheddar level: the input to the full-module e2e test.
// Generated from tests/Examples/common/orion_mlp/orion_mlp.mlir with:
//   heir-opt --annotate-module='backend=cheddar scheme=ckks' \
//            --torch-linalg-to-ckks=ciphertext-degree=1024 --scheme-to-cheddar
// then bake_scales.py to write each encode's exact canonical GetScale(level)^k
// scale (the emitter emits it verbatim). Unlike the relu mnist model, the Quad
// activation needs no further scale hand-edits (HACKS.md #5).
//
!ciphertext = !cheddar.ciphertext
!context = !cheddar.context
!encoder = !cheddar.encoder
!eval_key = !cheddar.eval_key
!plaintext = !cheddar.plaintext
!user_interface = !cheddar.user_interface
#layout = #tensor_ext.layout<"{ [i0, i1] -> [ct, slot] : i0 = 0 and ct = 0 and (-i1 + slot) mod 16 = 0 and 0 <= i1 <= 9 and 0 <= slot <= 1023 }">
#original_type = #tensor_ext.original_type<originalType = tensor<1x10xf32>, layout = #layout>
module attributes {backend.cheddar, cheddar.P = array<i64: 1152921504607338497, 1152921504608747521>, cheddar.Q = array<i64: 36028797017456641, 35184373006337, 35184370941953, 35184372744193, 35184371138561, 35184372121601>, cheddar.logDefaultScale = 45 : i64, cheddar.logN = 14 : i64, scheme.actual_slot_count = 8192 : i64, scheme.requested_slot_count = 1024 : i64} {
  func.func private @_assign_layout_9864425298912401538(%arg0: tensor<1x10xf32>) -> tensor<1x1024xf32> attributes {client.pack_func = {func_name = "orion_mlp"}} {
    %c0 = arith.constant 0 : index
    %c16_i32 = arith.constant 16 : i32
    %c6_i32 = arith.constant 6 : i32
    %cst = arith.constant dense<0.000000e+00> : tensor<1x1024xf32>
    %c0_i32 = arith.constant 0 : i32
    %c1_i32 = arith.constant 1 : i32
    %c1024_i32 = arith.constant 1024 : i32
    %0 = scf.for %arg1 = %c0_i32 to %c1024_i32 step %c1_i32 iter_args(%arg2 = %cst) -> (tensor<1x1024xf32>)  : i32 {
      %1 = arith.addi %arg1, %c6_i32 : i32
      %2 = arith.remsi %1, %c16_i32 : i32
      %3 = arith.cmpi sge, %2, %c6_i32 : i32
      %4 = scf.if %3 -> (tensor<1x1024xf32>) {
        %5 = arith.remsi %arg1, %c16_i32 : i32
        %6 = arith.index_cast %5 : i32 to index
        %extracted = tensor.extract %arg0[%c0, %6] : tensor<1x10xf32>
        %7 = arith.index_cast %arg1 : i32 to index
        %inserted = tensor.insert %extracted into %arg2[%c0, %7] : tensor<1x1024xf32>
        scf.yield %inserted : tensor<1x1024xf32>
      } else {
        scf.yield %arg2 : tensor<1x1024xf32>
      }
      scf.yield %4 : tensor<1x1024xf32>
    }
    return %0 : tensor<1x1024xf32>
  }
  func.func private @_assign_layout_7303438454019385380(%arg0: tensor<10x128xf32>) -> tensor<16x1024xf32> attributes {client.pack_func = {func_name = "orion_mlp"}} {
    %c127_i32 = arith.constant 127 : i32
    %c1018_i32 = arith.constant 1018 : i32
    %c128_i32 = arith.constant 128 : i32
    %c1151_i32 = arith.constant 1151 : i32
    %c6_i32 = arith.constant 6 : i32
    %c9_i32 = arith.constant 9 : i32
    %c16_i32 = arith.constant 16 : i32
    %cst = arith.constant dense<0.000000e+00> : tensor<16x1024xf32>
    %c0_i32 = arith.constant 0 : i32
    %c1_i32 = arith.constant 1 : i32
    %0 = scf.for %arg1 = %c0_i32 to %c16_i32 step %c1_i32 iter_args(%arg2 = %cst) -> (tensor<16x1024xf32>)  : i32 {
      %1 = scf.for %arg3 = %c0_i32 to %c1018_i32 step %c1_i32 iter_args(%arg4 = %arg2) -> (tensor<16x1024xf32>)  : i32 {
        %2 = arith.remsi %arg3, %c16_i32 : i32
        %3 = arith.cmpi sle, %2, %c9_i32 : i32
        %4 = scf.if %3 -> (tensor<16x1024xf32>) {
          %5 = arith.addi %arg3, %c6_i32 : i32
          %6 = arith.remsi %5, %c16_i32 : i32
          %7 = arith.subi %6, %c6_i32 : i32
          %8 = arith.subi %c0_i32, %arg1 : i32
          %9 = arith.subi %8, %arg3 : i32
          %10 = arith.addi %9, %c1151_i32 : i32
          %11 = arith.remsi %10, %c128_i32 : i32
          %12 = arith.subi %c127_i32, %11 : i32
          %13 = arith.index_cast %7 : i32 to index
          %14 = arith.index_cast %12 : i32 to index
          %extracted = tensor.extract %arg0[%13, %14] : tensor<10x128xf32>
          %15 = arith.index_cast %arg1 : i32 to index
          %16 = arith.index_cast %arg3 : i32 to index
          %inserted = tensor.insert %extracted into %arg4[%15, %16] : tensor<16x1024xf32>
          scf.yield %inserted : tensor<16x1024xf32>
        } else {
          scf.yield %arg4 : tensor<16x1024xf32>
        }
        scf.yield %4 : tensor<16x1024xf32>
      }
      scf.yield %1 : tensor<16x1024xf32>
    }
    return %0 : tensor<16x1024xf32>
  }
  func.func private @_assign_layout_17446555292945368118(%arg0: tensor<128x128xf32>) -> tensor<128x1024xf32> attributes {client.pack_func = {func_name = "orion_mlp"}} {
    %c1024_i32 = arith.constant 1024 : i32
    %c128_i32 = arith.constant 128 : i32
    %cst = arith.constant dense<0.000000e+00> : tensor<128x1024xf32>
    %c0_i32 = arith.constant 0 : i32
    %c1_i32 = arith.constant 1 : i32
    %0 = scf.for %arg1 = %c0_i32 to %c128_i32 step %c1_i32 iter_args(%arg2 = %cst) -> (tensor<128x1024xf32>)  : i32 {
      %1 = scf.for %arg3 = %c0_i32 to %c1024_i32 step %c1_i32 iter_args(%arg4 = %arg2) -> (tensor<128x1024xf32>)  : i32 {
        %2 = arith.remsi %arg3, %c128_i32 : i32
        %3 = arith.addi %arg1, %arg3 : i32
        %4 = arith.remsi %3, %c128_i32 : i32
        %5 = arith.index_cast %2 : i32 to index
        %6 = arith.index_cast %4 : i32 to index
        %extracted = tensor.extract %arg0[%5, %6] : tensor<128x128xf32>
        %7 = arith.index_cast %arg1 : i32 to index
        %8 = arith.index_cast %arg3 : i32 to index
        %inserted = tensor.insert %extracted into %arg4[%7, %8] : tensor<128x1024xf32>
        scf.yield %inserted : tensor<128x1024xf32>
      }
      scf.yield %1 : tensor<128x1024xf32>
    }
    return %0 : tensor<128x1024xf32>
  }
  func.func private @_assign_layout_16508205788638207003(%arg0: tensor<1x128xf32>) -> tensor<1x1024xf32> attributes {client.pack_func = {func_name = "orion_mlp"}} {
    %c0 = arith.constant 0 : index
    %c128_i32 = arith.constant 128 : i32
    %cst = arith.constant dense<0.000000e+00> : tensor<1x1024xf32>
    %c0_i32 = arith.constant 0 : i32
    %c1_i32 = arith.constant 1 : i32
    %c1024_i32 = arith.constant 1024 : i32
    %0 = scf.for %arg1 = %c0_i32 to %c1024_i32 step %c1_i32 iter_args(%arg2 = %cst) -> (tensor<1x1024xf32>)  : i32 {
      %1 = arith.remsi %arg1, %c128_i32 : i32
      %2 = arith.index_cast %1 : i32 to index
      %extracted = tensor.extract %arg0[%c0, %2] : tensor<1x128xf32>
      %3 = arith.index_cast %arg1 : i32 to index
      %inserted = tensor.insert %extracted into %arg2[%c0, %3] : tensor<1x1024xf32>
      scf.yield %inserted : tensor<1x1024xf32>
    }
    return %0 : tensor<1x1024xf32>
  }
  func.func private @_assign_layout_998512944501177605(%arg0: tensor<128x784xf32>) -> tensor<128x1024xf32> attributes {client.pack_func = {func_name = "orion_mlp"}} {
    %c783_i32 = arith.constant 783 : i32
    %c1807_i32 = arith.constant 1807 : i32
    %c128_i32 = arith.constant 128 : i32
    %c1024_i32 = arith.constant 1024 : i32
    %c240_i32 = arith.constant 240 : i32
    %cst = arith.constant dense<0.000000e+00> : tensor<128x1024xf32>
    %c0_i32 = arith.constant 0 : i32
    %c1_i32 = arith.constant 1 : i32
    %0 = scf.for %arg1 = %c0_i32 to %c128_i32 step %c1_i32 iter_args(%arg2 = %cst) -> (tensor<128x1024xf32>)  : i32 {
      %1 = scf.for %arg3 = %c0_i32 to %c1024_i32 step %c1_i32 iter_args(%arg4 = %arg2) -> (tensor<128x1024xf32>)  : i32 {
        %2 = arith.addi %arg1, %arg3 : i32
        %3 = arith.addi %2, %c240_i32 : i32
        %4 = arith.remsi %3, %c1024_i32 : i32
        %5 = arith.cmpi sge, %4, %c240_i32 : i32
        %6 = scf.if %5 -> (tensor<128x1024xf32>) {
          %7 = arith.remsi %arg3, %c128_i32 : i32
          %8 = arith.subi %c0_i32, %arg1 : i32
          %9 = arith.subi %8, %arg3 : i32
          %10 = arith.addi %9, %c1807_i32 : i32
          %11 = arith.remsi %10, %c1024_i32 : i32
          %12 = arith.subi %c783_i32, %11 : i32
          %13 = arith.index_cast %7 : i32 to index
          %14 = arith.index_cast %12 : i32 to index
          %extracted = tensor.extract %arg0[%13, %14] : tensor<128x784xf32>
          %15 = arith.index_cast %arg1 : i32 to index
          %16 = arith.index_cast %arg3 : i32 to index
          %inserted = tensor.insert %extracted into %arg4[%15, %16] : tensor<128x1024xf32>
          scf.yield %inserted : tensor<128x1024xf32>
        } else {
          scf.yield %arg4 : tensor<128x1024xf32>
        }
        scf.yield %6 : tensor<128x1024xf32>
      }
      scf.yield %1 : tensor<128x1024xf32>
    }
    return %0 : tensor<128x1024xf32>
  }
  func.func @orion_mlp__preprocessing(%ctx: !context, %encoder: !encoder, %arg0: tensor<128x784xf32>, %arg1: tensor<128xf32>, %arg2: tensor<128x128xf32>, %arg3: tensor<128xf32>, %arg4: tensor<10x128xf32>, %arg5: tensor<10xf32>) -> (tensor<19x!plaintext>, tensor<19x!plaintext>, tensor<19x!plaintext>, tensor<19x!plaintext>, tensor<19x!plaintext>, tensor<19x!plaintext>, tensor<19x!plaintext>, tensor<19x!plaintext>, tensor<19x!plaintext>, tensor<19x!plaintext>, tensor<19x!plaintext>, tensor<19x!plaintext>, tensor<19x!plaintext>, tensor<19x!plaintext>, tensor<6x!plaintext>, tensor<3x!plaintext>) attributes {client.pack_func = {func_name = "orion_mlp"}} {
    %expanded = tensor.expand_shape %arg1 [[0, 1]] output_shape [1, 128] : tensor<128xf32> into tensor<1x128xf32>
    %expanded_0 = tensor.expand_shape %arg3 [[0, 1]] output_shape [1, 128] : tensor<128xf32> into tensor<1x128xf32>
    %expanded_1 = tensor.expand_shape %arg5 [[0, 1]] output_shape [1, 10] : tensor<10xf32> into tensor<1x10xf32>
    %0 = call @_assign_layout_998512944501177605(%arg0) : (tensor<128x784xf32>) -> tensor<128x1024xf32>
    %1 = call @_assign_layout_16508205788638207003(%expanded) : (tensor<1x128xf32>) -> tensor<1x1024xf32>
    %2 = call @_assign_layout_17446555292945368118(%arg2) : (tensor<128x128xf32>) -> tensor<128x1024xf32>
    %3 = call @_assign_layout_16508205788638207003(%expanded_0) : (tensor<1x128xf32>) -> tensor<1x1024xf32>
    %4 = call @_assign_layout_7303438454019385380(%arg4) : (tensor<10x128xf32>) -> tensor<16x1024xf32>
    %5 = call @_assign_layout_9864425298912401538(%expanded_1) : (tensor<1x10xf32>) -> tensor<1x1024xf32>
    %extracted_slice = tensor.extract_slice %2[12, 0] [1, 1012] [1, 1] : tensor<128x1024xf32> to tensor<1x1012xf32>
    %extracted_slice_2 = tensor.extract_slice %2[12, 1012] [1, 12] [1, 1] : tensor<128x1024xf32> to tensor<1x12xf32>
    %6 = tensor.empty() : tensor<1x1024xf32>
    %inserted_slice = tensor.insert_slice %extracted_slice into %6[0, 12] [1, 1012] [1, 1] : tensor<1x1012xf32> into tensor<1x1024xf32>
    %inserted_slice_3 = tensor.insert_slice %extracted_slice_2 into %inserted_slice[0, 0] [1, 12] [1, 1] : tensor<1x12xf32> into tensor<1x1024xf32>
    %extracted_slice_4 = tensor.extract_slice %2[13, 0] [1, 1012] [1, 1] : tensor<128x1024xf32> to tensor<1x1012xf32>
    %extracted_slice_5 = tensor.extract_slice %2[13, 1012] [1, 12] [1, 1] : tensor<128x1024xf32> to tensor<1x12xf32>
    %inserted_slice_6 = tensor.insert_slice %extracted_slice_4 into %6[0, 12] [1, 1012] [1, 1] : tensor<1x1012xf32> into tensor<1x1024xf32>
    %inserted_slice_7 = tensor.insert_slice %extracted_slice_5 into %inserted_slice_6[0, 0] [1, 12] [1, 1] : tensor<1x12xf32> into tensor<1x1024xf32>
    %extracted_slice_8 = tensor.extract_slice %2[14, 0] [1, 1012] [1, 1] : tensor<128x1024xf32> to tensor<1x1012xf32>
    %extracted_slice_9 = tensor.extract_slice %2[14, 1012] [1, 12] [1, 1] : tensor<128x1024xf32> to tensor<1x12xf32>
    %inserted_slice_10 = tensor.insert_slice %extracted_slice_8 into %6[0, 12] [1, 1012] [1, 1] : tensor<1x1012xf32> into tensor<1x1024xf32>
    %inserted_slice_11 = tensor.insert_slice %extracted_slice_9 into %inserted_slice_10[0, 0] [1, 12] [1, 1] : tensor<1x12xf32> into tensor<1x1024xf32>
    %extracted_slice_12 = tensor.extract_slice %2[15, 0] [1, 1012] [1, 1] : tensor<128x1024xf32> to tensor<1x1012xf32>
    %extracted_slice_13 = tensor.extract_slice %2[15, 1012] [1, 12] [1, 1] : tensor<128x1024xf32> to tensor<1x12xf32>
    %inserted_slice_14 = tensor.insert_slice %extracted_slice_12 into %6[0, 12] [1, 1012] [1, 1] : tensor<1x1012xf32> into tensor<1x1024xf32>
    %inserted_slice_15 = tensor.insert_slice %extracted_slice_13 into %inserted_slice_14[0, 0] [1, 12] [1, 1] : tensor<1x12xf32> into tensor<1x1024xf32>
    %extracted_slice_16 = tensor.extract_slice %2[16, 0] [1, 1012] [1, 1] : tensor<128x1024xf32> to tensor<1x1012xf32>
    %extracted_slice_17 = tensor.extract_slice %2[16, 1012] [1, 12] [1, 1] : tensor<128x1024xf32> to tensor<1x12xf32>
    %inserted_slice_18 = tensor.insert_slice %extracted_slice_16 into %6[0, 12] [1, 1012] [1, 1] : tensor<1x1012xf32> into tensor<1x1024xf32>
    %inserted_slice_19 = tensor.insert_slice %extracted_slice_17 into %inserted_slice_18[0, 0] [1, 12] [1, 1] : tensor<1x12xf32> into tensor<1x1024xf32>
    %extracted_slice_20 = tensor.extract_slice %2[17, 0] [1, 1012] [1, 1] : tensor<128x1024xf32> to tensor<1x1012xf32>
    %extracted_slice_21 = tensor.extract_slice %2[17, 1012] [1, 12] [1, 1] : tensor<128x1024xf32> to tensor<1x12xf32>
    %inserted_slice_22 = tensor.insert_slice %extracted_slice_20 into %6[0, 12] [1, 1012] [1, 1] : tensor<1x1012xf32> into tensor<1x1024xf32>
    %inserted_slice_23 = tensor.insert_slice %extracted_slice_21 into %inserted_slice_22[0, 0] [1, 12] [1, 1] : tensor<1x12xf32> into tensor<1x1024xf32>
    %extracted_slice_24 = tensor.extract_slice %2[18, 0] [1, 1012] [1, 1] : tensor<128x1024xf32> to tensor<1x1012xf32>
    %extracted_slice_25 = tensor.extract_slice %2[18, 1012] [1, 12] [1, 1] : tensor<128x1024xf32> to tensor<1x12xf32>
    %inserted_slice_26 = tensor.insert_slice %extracted_slice_24 into %6[0, 12] [1, 1012] [1, 1] : tensor<1x1012xf32> into tensor<1x1024xf32>
    %inserted_slice_27 = tensor.insert_slice %extracted_slice_25 into %inserted_slice_26[0, 0] [1, 12] [1, 1] : tensor<1x12xf32> into tensor<1x1024xf32>
    %extracted_slice_28 = tensor.extract_slice %2[19, 0] [1, 1012] [1, 1] : tensor<128x1024xf32> to tensor<1x1012xf32>
    %extracted_slice_29 = tensor.extract_slice %2[19, 1012] [1, 12] [1, 1] : tensor<128x1024xf32> to tensor<1x12xf32>
    %inserted_slice_30 = tensor.insert_slice %extracted_slice_28 into %6[0, 12] [1, 1012] [1, 1] : tensor<1x1012xf32> into tensor<1x1024xf32>
    %inserted_slice_31 = tensor.insert_slice %extracted_slice_29 into %inserted_slice_30[0, 0] [1, 12] [1, 1] : tensor<1x12xf32> into tensor<1x1024xf32>
    %extracted_slice_32 = tensor.extract_slice %2[20, 0] [1, 1012] [1, 1] : tensor<128x1024xf32> to tensor<1x1012xf32>
    %extracted_slice_33 = tensor.extract_slice %2[20, 1012] [1, 12] [1, 1] : tensor<128x1024xf32> to tensor<1x12xf32>
    %inserted_slice_34 = tensor.insert_slice %extracted_slice_32 into %6[0, 12] [1, 1012] [1, 1] : tensor<1x1012xf32> into tensor<1x1024xf32>
    %inserted_slice_35 = tensor.insert_slice %extracted_slice_33 into %inserted_slice_34[0, 0] [1, 12] [1, 1] : tensor<1x12xf32> into tensor<1x1024xf32>
    %extracted_slice_36 = tensor.extract_slice %2[21, 0] [1, 1012] [1, 1] : tensor<128x1024xf32> to tensor<1x1012xf32>
    %extracted_slice_37 = tensor.extract_slice %2[21, 1012] [1, 12] [1, 1] : tensor<128x1024xf32> to tensor<1x12xf32>
    %inserted_slice_38 = tensor.insert_slice %extracted_slice_36 into %6[0, 12] [1, 1012] [1, 1] : tensor<1x1012xf32> into tensor<1x1024xf32>
    %inserted_slice_39 = tensor.insert_slice %extracted_slice_37 into %inserted_slice_38[0, 0] [1, 12] [1, 1] : tensor<1x12xf32> into tensor<1x1024xf32>
    %extracted_slice_40 = tensor.extract_slice %2[22, 0] [1, 1012] [1, 1] : tensor<128x1024xf32> to tensor<1x1012xf32>
    %extracted_slice_41 = tensor.extract_slice %2[22, 1012] [1, 12] [1, 1] : tensor<128x1024xf32> to tensor<1x12xf32>
    %inserted_slice_42 = tensor.insert_slice %extracted_slice_40 into %6[0, 12] [1, 1012] [1, 1] : tensor<1x1012xf32> into tensor<1x1024xf32>
    %inserted_slice_43 = tensor.insert_slice %extracted_slice_41 into %inserted_slice_42[0, 0] [1, 12] [1, 1] : tensor<1x12xf32> into tensor<1x1024xf32>
    %extracted_slice_44 = tensor.extract_slice %2[23, 0] [1, 1012] [1, 1] : tensor<128x1024xf32> to tensor<1x1012xf32>
    %extracted_slice_45 = tensor.extract_slice %2[23, 1012] [1, 12] [1, 1] : tensor<128x1024xf32> to tensor<1x12xf32>
    %inserted_slice_46 = tensor.insert_slice %extracted_slice_44 into %6[0, 12] [1, 1012] [1, 1] : tensor<1x1012xf32> into tensor<1x1024xf32>
    %inserted_slice_47 = tensor.insert_slice %extracted_slice_45 into %inserted_slice_46[0, 0] [1, 12] [1, 1] : tensor<1x12xf32> into tensor<1x1024xf32>
    %extracted_slice_48 = tensor.extract_slice %2[24, 0] [1, 1000] [1, 1] : tensor<128x1024xf32> to tensor<1x1000xf32>
    %extracted_slice_49 = tensor.extract_slice %2[24, 1000] [1, 24] [1, 1] : tensor<128x1024xf32> to tensor<1x24xf32>
    %inserted_slice_50 = tensor.insert_slice %extracted_slice_48 into %6[0, 24] [1, 1000] [1, 1] : tensor<1x1000xf32> into tensor<1x1024xf32>
    %inserted_slice_51 = tensor.insert_slice %extracted_slice_49 into %inserted_slice_50[0, 0] [1, 24] [1, 1] : tensor<1x24xf32> into tensor<1x1024xf32>
    %extracted_slice_52 = tensor.extract_slice %2[25, 0] [1, 1000] [1, 1] : tensor<128x1024xf32> to tensor<1x1000xf32>
    %extracted_slice_53 = tensor.extract_slice %2[25, 1000] [1, 24] [1, 1] : tensor<128x1024xf32> to tensor<1x24xf32>
    %inserted_slice_54 = tensor.insert_slice %extracted_slice_52 into %6[0, 24] [1, 1000] [1, 1] : tensor<1x1000xf32> into tensor<1x1024xf32>
    %inserted_slice_55 = tensor.insert_slice %extracted_slice_53 into %inserted_slice_54[0, 0] [1, 24] [1, 1] : tensor<1x24xf32> into tensor<1x1024xf32>
    %extracted_slice_56 = tensor.extract_slice %2[26, 0] [1, 1000] [1, 1] : tensor<128x1024xf32> to tensor<1x1000xf32>
    %extracted_slice_57 = tensor.extract_slice %2[26, 1000] [1, 24] [1, 1] : tensor<128x1024xf32> to tensor<1x24xf32>
    %inserted_slice_58 = tensor.insert_slice %extracted_slice_56 into %6[0, 24] [1, 1000] [1, 1] : tensor<1x1000xf32> into tensor<1x1024xf32>
    %inserted_slice_59 = tensor.insert_slice %extracted_slice_57 into %inserted_slice_58[0, 0] [1, 24] [1, 1] : tensor<1x24xf32> into tensor<1x1024xf32>
    %extracted_slice_60 = tensor.extract_slice %2[27, 0] [1, 1000] [1, 1] : tensor<128x1024xf32> to tensor<1x1000xf32>
    %extracted_slice_61 = tensor.extract_slice %2[27, 1000] [1, 24] [1, 1] : tensor<128x1024xf32> to tensor<1x24xf32>
    %inserted_slice_62 = tensor.insert_slice %extracted_slice_60 into %6[0, 24] [1, 1000] [1, 1] : tensor<1x1000xf32> into tensor<1x1024xf32>
    %inserted_slice_63 = tensor.insert_slice %extracted_slice_61 into %inserted_slice_62[0, 0] [1, 24] [1, 1] : tensor<1x24xf32> into tensor<1x1024xf32>
    %extracted_slice_64 = tensor.extract_slice %2[28, 0] [1, 1000] [1, 1] : tensor<128x1024xf32> to tensor<1x1000xf32>
    %extracted_slice_65 = tensor.extract_slice %2[28, 1000] [1, 24] [1, 1] : tensor<128x1024xf32> to tensor<1x24xf32>
    %inserted_slice_66 = tensor.insert_slice %extracted_slice_64 into %6[0, 24] [1, 1000] [1, 1] : tensor<1x1000xf32> into tensor<1x1024xf32>
    %inserted_slice_67 = tensor.insert_slice %extracted_slice_65 into %inserted_slice_66[0, 0] [1, 24] [1, 1] : tensor<1x24xf32> into tensor<1x1024xf32>
    %extracted_slice_68 = tensor.extract_slice %2[29, 0] [1, 1000] [1, 1] : tensor<128x1024xf32> to tensor<1x1000xf32>
    %extracted_slice_69 = tensor.extract_slice %2[29, 1000] [1, 24] [1, 1] : tensor<128x1024xf32> to tensor<1x24xf32>
    %inserted_slice_70 = tensor.insert_slice %extracted_slice_68 into %6[0, 24] [1, 1000] [1, 1] : tensor<1x1000xf32> into tensor<1x1024xf32>
    %inserted_slice_71 = tensor.insert_slice %extracted_slice_69 into %inserted_slice_70[0, 0] [1, 24] [1, 1] : tensor<1x24xf32> into tensor<1x1024xf32>
    %extracted_slice_72 = tensor.extract_slice %2[30, 0] [1, 1000] [1, 1] : tensor<128x1024xf32> to tensor<1x1000xf32>
    %extracted_slice_73 = tensor.extract_slice %2[30, 1000] [1, 24] [1, 1] : tensor<128x1024xf32> to tensor<1x24xf32>
    %inserted_slice_74 = tensor.insert_slice %extracted_slice_72 into %6[0, 24] [1, 1000] [1, 1] : tensor<1x1000xf32> into tensor<1x1024xf32>
    %inserted_slice_75 = tensor.insert_slice %extracted_slice_73 into %inserted_slice_74[0, 0] [1, 24] [1, 1] : tensor<1x24xf32> into tensor<1x1024xf32>
    %extracted_slice_76 = tensor.extract_slice %2[31, 0] [1, 1000] [1, 1] : tensor<128x1024xf32> to tensor<1x1000xf32>
    %extracted_slice_77 = tensor.extract_slice %2[31, 1000] [1, 24] [1, 1] : tensor<128x1024xf32> to tensor<1x24xf32>
    %inserted_slice_78 = tensor.insert_slice %extracted_slice_76 into %6[0, 24] [1, 1000] [1, 1] : tensor<1x1000xf32> into tensor<1x1024xf32>
    %inserted_slice_79 = tensor.insert_slice %extracted_slice_77 into %inserted_slice_78[0, 0] [1, 24] [1, 1] : tensor<1x24xf32> into tensor<1x1024xf32>
    %extracted_slice_80 = tensor.extract_slice %2[32, 0] [1, 1000] [1, 1] : tensor<128x1024xf32> to tensor<1x1000xf32>
    %extracted_slice_81 = tensor.extract_slice %2[32, 1000] [1, 24] [1, 1] : tensor<128x1024xf32> to tensor<1x24xf32>
    %inserted_slice_82 = tensor.insert_slice %extracted_slice_80 into %6[0, 24] [1, 1000] [1, 1] : tensor<1x1000xf32> into tensor<1x1024xf32>
    %inserted_slice_83 = tensor.insert_slice %extracted_slice_81 into %inserted_slice_82[0, 0] [1, 24] [1, 1] : tensor<1x24xf32> into tensor<1x1024xf32>
    %extracted_slice_84 = tensor.extract_slice %2[33, 0] [1, 1000] [1, 1] : tensor<128x1024xf32> to tensor<1x1000xf32>
    %extracted_slice_85 = tensor.extract_slice %2[33, 1000] [1, 24] [1, 1] : tensor<128x1024xf32> to tensor<1x24xf32>
    %inserted_slice_86 = tensor.insert_slice %extracted_slice_84 into %6[0, 24] [1, 1000] [1, 1] : tensor<1x1000xf32> into tensor<1x1024xf32>
    %inserted_slice_87 = tensor.insert_slice %extracted_slice_85 into %inserted_slice_86[0, 0] [1, 24] [1, 1] : tensor<1x24xf32> into tensor<1x1024xf32>
    %extracted_slice_88 = tensor.extract_slice %2[34, 0] [1, 1000] [1, 1] : tensor<128x1024xf32> to tensor<1x1000xf32>
    %extracted_slice_89 = tensor.extract_slice %2[34, 1000] [1, 24] [1, 1] : tensor<128x1024xf32> to tensor<1x24xf32>
    %inserted_slice_90 = tensor.insert_slice %extracted_slice_88 into %6[0, 24] [1, 1000] [1, 1] : tensor<1x1000xf32> into tensor<1x1024xf32>
    %inserted_slice_91 = tensor.insert_slice %extracted_slice_89 into %inserted_slice_90[0, 0] [1, 24] [1, 1] : tensor<1x24xf32> into tensor<1x1024xf32>
    %extracted_slice_92 = tensor.extract_slice %2[35, 0] [1, 1000] [1, 1] : tensor<128x1024xf32> to tensor<1x1000xf32>
    %extracted_slice_93 = tensor.extract_slice %2[35, 1000] [1, 24] [1, 1] : tensor<128x1024xf32> to tensor<1x24xf32>
    %inserted_slice_94 = tensor.insert_slice %extracted_slice_92 into %6[0, 24] [1, 1000] [1, 1] : tensor<1x1000xf32> into tensor<1x1024xf32>
    %inserted_slice_95 = tensor.insert_slice %extracted_slice_93 into %inserted_slice_94[0, 0] [1, 24] [1, 1] : tensor<1x24xf32> into tensor<1x1024xf32>
    %extracted_slice_96 = tensor.extract_slice %2[36, 0] [1, 988] [1, 1] : tensor<128x1024xf32> to tensor<1x988xf32>
    %extracted_slice_97 = tensor.extract_slice %2[36, 988] [1, 36] [1, 1] : tensor<128x1024xf32> to tensor<1x36xf32>
    %inserted_slice_98 = tensor.insert_slice %extracted_slice_96 into %6[0, 36] [1, 988] [1, 1] : tensor<1x988xf32> into tensor<1x1024xf32>
    %inserted_slice_99 = tensor.insert_slice %extracted_slice_97 into %inserted_slice_98[0, 0] [1, 36] [1, 1] : tensor<1x36xf32> into tensor<1x1024xf32>
    %extracted_slice_100 = tensor.extract_slice %2[37, 0] [1, 988] [1, 1] : tensor<128x1024xf32> to tensor<1x988xf32>
    %extracted_slice_101 = tensor.extract_slice %2[37, 988] [1, 36] [1, 1] : tensor<128x1024xf32> to tensor<1x36xf32>
    %inserted_slice_102 = tensor.insert_slice %extracted_slice_100 into %6[0, 36] [1, 988] [1, 1] : tensor<1x988xf32> into tensor<1x1024xf32>
    %inserted_slice_103 = tensor.insert_slice %extracted_slice_101 into %inserted_slice_102[0, 0] [1, 36] [1, 1] : tensor<1x36xf32> into tensor<1x1024xf32>
    %extracted_slice_104 = tensor.extract_slice %2[38, 0] [1, 988] [1, 1] : tensor<128x1024xf32> to tensor<1x988xf32>
    %extracted_slice_105 = tensor.extract_slice %2[38, 988] [1, 36] [1, 1] : tensor<128x1024xf32> to tensor<1x36xf32>
    %inserted_slice_106 = tensor.insert_slice %extracted_slice_104 into %6[0, 36] [1, 988] [1, 1] : tensor<1x988xf32> into tensor<1x1024xf32>
    %inserted_slice_107 = tensor.insert_slice %extracted_slice_105 into %inserted_slice_106[0, 0] [1, 36] [1, 1] : tensor<1x36xf32> into tensor<1x1024xf32>
    %extracted_slice_108 = tensor.extract_slice %2[39, 0] [1, 988] [1, 1] : tensor<128x1024xf32> to tensor<1x988xf32>
    %extracted_slice_109 = tensor.extract_slice %2[39, 988] [1, 36] [1, 1] : tensor<128x1024xf32> to tensor<1x36xf32>
    %inserted_slice_110 = tensor.insert_slice %extracted_slice_108 into %6[0, 36] [1, 988] [1, 1] : tensor<1x988xf32> into tensor<1x1024xf32>
    %inserted_slice_111 = tensor.insert_slice %extracted_slice_109 into %inserted_slice_110[0, 0] [1, 36] [1, 1] : tensor<1x36xf32> into tensor<1x1024xf32>
    %extracted_slice_112 = tensor.extract_slice %2[40, 0] [1, 988] [1, 1] : tensor<128x1024xf32> to tensor<1x988xf32>
    %extracted_slice_113 = tensor.extract_slice %2[40, 988] [1, 36] [1, 1] : tensor<128x1024xf32> to tensor<1x36xf32>
    %inserted_slice_114 = tensor.insert_slice %extracted_slice_112 into %6[0, 36] [1, 988] [1, 1] : tensor<1x988xf32> into tensor<1x1024xf32>
    %inserted_slice_115 = tensor.insert_slice %extracted_slice_113 into %inserted_slice_114[0, 0] [1, 36] [1, 1] : tensor<1x36xf32> into tensor<1x1024xf32>
    %extracted_slice_116 = tensor.extract_slice %2[41, 0] [1, 988] [1, 1] : tensor<128x1024xf32> to tensor<1x988xf32>
    %extracted_slice_117 = tensor.extract_slice %2[41, 988] [1, 36] [1, 1] : tensor<128x1024xf32> to tensor<1x36xf32>
    %inserted_slice_118 = tensor.insert_slice %extracted_slice_116 into %6[0, 36] [1, 988] [1, 1] : tensor<1x988xf32> into tensor<1x1024xf32>
    %inserted_slice_119 = tensor.insert_slice %extracted_slice_117 into %inserted_slice_118[0, 0] [1, 36] [1, 1] : tensor<1x36xf32> into tensor<1x1024xf32>
    %extracted_slice_120 = tensor.extract_slice %2[42, 0] [1, 988] [1, 1] : tensor<128x1024xf32> to tensor<1x988xf32>
    %extracted_slice_121 = tensor.extract_slice %2[42, 988] [1, 36] [1, 1] : tensor<128x1024xf32> to tensor<1x36xf32>
    %inserted_slice_122 = tensor.insert_slice %extracted_slice_120 into %6[0, 36] [1, 988] [1, 1] : tensor<1x988xf32> into tensor<1x1024xf32>
    %inserted_slice_123 = tensor.insert_slice %extracted_slice_121 into %inserted_slice_122[0, 0] [1, 36] [1, 1] : tensor<1x36xf32> into tensor<1x1024xf32>
    %extracted_slice_124 = tensor.extract_slice %2[43, 0] [1, 988] [1, 1] : tensor<128x1024xf32> to tensor<1x988xf32>
    %extracted_slice_125 = tensor.extract_slice %2[43, 988] [1, 36] [1, 1] : tensor<128x1024xf32> to tensor<1x36xf32>
    %inserted_slice_126 = tensor.insert_slice %extracted_slice_124 into %6[0, 36] [1, 988] [1, 1] : tensor<1x988xf32> into tensor<1x1024xf32>
    %inserted_slice_127 = tensor.insert_slice %extracted_slice_125 into %inserted_slice_126[0, 0] [1, 36] [1, 1] : tensor<1x36xf32> into tensor<1x1024xf32>
    %extracted_slice_128 = tensor.extract_slice %2[44, 0] [1, 988] [1, 1] : tensor<128x1024xf32> to tensor<1x988xf32>
    %extracted_slice_129 = tensor.extract_slice %2[44, 988] [1, 36] [1, 1] : tensor<128x1024xf32> to tensor<1x36xf32>
    %inserted_slice_130 = tensor.insert_slice %extracted_slice_128 into %6[0, 36] [1, 988] [1, 1] : tensor<1x988xf32> into tensor<1x1024xf32>
    %inserted_slice_131 = tensor.insert_slice %extracted_slice_129 into %inserted_slice_130[0, 0] [1, 36] [1, 1] : tensor<1x36xf32> into tensor<1x1024xf32>
    %extracted_slice_132 = tensor.extract_slice %2[45, 0] [1, 988] [1, 1] : tensor<128x1024xf32> to tensor<1x988xf32>
    %extracted_slice_133 = tensor.extract_slice %2[45, 988] [1, 36] [1, 1] : tensor<128x1024xf32> to tensor<1x36xf32>
    %inserted_slice_134 = tensor.insert_slice %extracted_slice_132 into %6[0, 36] [1, 988] [1, 1] : tensor<1x988xf32> into tensor<1x1024xf32>
    %inserted_slice_135 = tensor.insert_slice %extracted_slice_133 into %inserted_slice_134[0, 0] [1, 36] [1, 1] : tensor<1x36xf32> into tensor<1x1024xf32>
    %extracted_slice_136 = tensor.extract_slice %2[46, 0] [1, 988] [1, 1] : tensor<128x1024xf32> to tensor<1x988xf32>
    %extracted_slice_137 = tensor.extract_slice %2[46, 988] [1, 36] [1, 1] : tensor<128x1024xf32> to tensor<1x36xf32>
    %inserted_slice_138 = tensor.insert_slice %extracted_slice_136 into %6[0, 36] [1, 988] [1, 1] : tensor<1x988xf32> into tensor<1x1024xf32>
    %inserted_slice_139 = tensor.insert_slice %extracted_slice_137 into %inserted_slice_138[0, 0] [1, 36] [1, 1] : tensor<1x36xf32> into tensor<1x1024xf32>
    %extracted_slice_140 = tensor.extract_slice %2[47, 0] [1, 988] [1, 1] : tensor<128x1024xf32> to tensor<1x988xf32>
    %extracted_slice_141 = tensor.extract_slice %2[47, 988] [1, 36] [1, 1] : tensor<128x1024xf32> to tensor<1x36xf32>
    %inserted_slice_142 = tensor.insert_slice %extracted_slice_140 into %6[0, 36] [1, 988] [1, 1] : tensor<1x988xf32> into tensor<1x1024xf32>
    %inserted_slice_143 = tensor.insert_slice %extracted_slice_141 into %inserted_slice_142[0, 0] [1, 36] [1, 1] : tensor<1x36xf32> into tensor<1x1024xf32>
    %extracted_slice_144 = tensor.extract_slice %2[48, 0] [1, 976] [1, 1] : tensor<128x1024xf32> to tensor<1x976xf32>
    %extracted_slice_145 = tensor.extract_slice %2[48, 976] [1, 48] [1, 1] : tensor<128x1024xf32> to tensor<1x48xf32>
    %inserted_slice_146 = tensor.insert_slice %extracted_slice_144 into %6[0, 48] [1, 976] [1, 1] : tensor<1x976xf32> into tensor<1x1024xf32>
    %inserted_slice_147 = tensor.insert_slice %extracted_slice_145 into %inserted_slice_146[0, 0] [1, 48] [1, 1] : tensor<1x48xf32> into tensor<1x1024xf32>
    %extracted_slice_148 = tensor.extract_slice %2[49, 0] [1, 976] [1, 1] : tensor<128x1024xf32> to tensor<1x976xf32>
    %extracted_slice_149 = tensor.extract_slice %2[49, 976] [1, 48] [1, 1] : tensor<128x1024xf32> to tensor<1x48xf32>
    %inserted_slice_150 = tensor.insert_slice %extracted_slice_148 into %6[0, 48] [1, 976] [1, 1] : tensor<1x976xf32> into tensor<1x1024xf32>
    %inserted_slice_151 = tensor.insert_slice %extracted_slice_149 into %inserted_slice_150[0, 0] [1, 48] [1, 1] : tensor<1x48xf32> into tensor<1x1024xf32>
    %extracted_slice_152 = tensor.extract_slice %2[50, 0] [1, 976] [1, 1] : tensor<128x1024xf32> to tensor<1x976xf32>
    %extracted_slice_153 = tensor.extract_slice %2[50, 976] [1, 48] [1, 1] : tensor<128x1024xf32> to tensor<1x48xf32>
    %inserted_slice_154 = tensor.insert_slice %extracted_slice_152 into %6[0, 48] [1, 976] [1, 1] : tensor<1x976xf32> into tensor<1x1024xf32>
    %inserted_slice_155 = tensor.insert_slice %extracted_slice_153 into %inserted_slice_154[0, 0] [1, 48] [1, 1] : tensor<1x48xf32> into tensor<1x1024xf32>
    %extracted_slice_156 = tensor.extract_slice %2[51, 0] [1, 976] [1, 1] : tensor<128x1024xf32> to tensor<1x976xf32>
    %extracted_slice_157 = tensor.extract_slice %2[51, 976] [1, 48] [1, 1] : tensor<128x1024xf32> to tensor<1x48xf32>
    %inserted_slice_158 = tensor.insert_slice %extracted_slice_156 into %6[0, 48] [1, 976] [1, 1] : tensor<1x976xf32> into tensor<1x1024xf32>
    %inserted_slice_159 = tensor.insert_slice %extracted_slice_157 into %inserted_slice_158[0, 0] [1, 48] [1, 1] : tensor<1x48xf32> into tensor<1x1024xf32>
    %extracted_slice_160 = tensor.extract_slice %2[52, 0] [1, 976] [1, 1] : tensor<128x1024xf32> to tensor<1x976xf32>
    %extracted_slice_161 = tensor.extract_slice %2[52, 976] [1, 48] [1, 1] : tensor<128x1024xf32> to tensor<1x48xf32>
    %inserted_slice_162 = tensor.insert_slice %extracted_slice_160 into %6[0, 48] [1, 976] [1, 1] : tensor<1x976xf32> into tensor<1x1024xf32>
    %inserted_slice_163 = tensor.insert_slice %extracted_slice_161 into %inserted_slice_162[0, 0] [1, 48] [1, 1] : tensor<1x48xf32> into tensor<1x1024xf32>
    %extracted_slice_164 = tensor.extract_slice %2[53, 0] [1, 976] [1, 1] : tensor<128x1024xf32> to tensor<1x976xf32>
    %extracted_slice_165 = tensor.extract_slice %2[53, 976] [1, 48] [1, 1] : tensor<128x1024xf32> to tensor<1x48xf32>
    %inserted_slice_166 = tensor.insert_slice %extracted_slice_164 into %6[0, 48] [1, 976] [1, 1] : tensor<1x976xf32> into tensor<1x1024xf32>
    %inserted_slice_167 = tensor.insert_slice %extracted_slice_165 into %inserted_slice_166[0, 0] [1, 48] [1, 1] : tensor<1x48xf32> into tensor<1x1024xf32>
    %extracted_slice_168 = tensor.extract_slice %2[54, 0] [1, 976] [1, 1] : tensor<128x1024xf32> to tensor<1x976xf32>
    %extracted_slice_169 = tensor.extract_slice %2[54, 976] [1, 48] [1, 1] : tensor<128x1024xf32> to tensor<1x48xf32>
    %inserted_slice_170 = tensor.insert_slice %extracted_slice_168 into %6[0, 48] [1, 976] [1, 1] : tensor<1x976xf32> into tensor<1x1024xf32>
    %inserted_slice_171 = tensor.insert_slice %extracted_slice_169 into %inserted_slice_170[0, 0] [1, 48] [1, 1] : tensor<1x48xf32> into tensor<1x1024xf32>
    %extracted_slice_172 = tensor.extract_slice %2[55, 0] [1, 976] [1, 1] : tensor<128x1024xf32> to tensor<1x976xf32>
    %extracted_slice_173 = tensor.extract_slice %2[55, 976] [1, 48] [1, 1] : tensor<128x1024xf32> to tensor<1x48xf32>
    %inserted_slice_174 = tensor.insert_slice %extracted_slice_172 into %6[0, 48] [1, 976] [1, 1] : tensor<1x976xf32> into tensor<1x1024xf32>
    %inserted_slice_175 = tensor.insert_slice %extracted_slice_173 into %inserted_slice_174[0, 0] [1, 48] [1, 1] : tensor<1x48xf32> into tensor<1x1024xf32>
    %extracted_slice_176 = tensor.extract_slice %2[56, 0] [1, 976] [1, 1] : tensor<128x1024xf32> to tensor<1x976xf32>
    %extracted_slice_177 = tensor.extract_slice %2[56, 976] [1, 48] [1, 1] : tensor<128x1024xf32> to tensor<1x48xf32>
    %inserted_slice_178 = tensor.insert_slice %extracted_slice_176 into %6[0, 48] [1, 976] [1, 1] : tensor<1x976xf32> into tensor<1x1024xf32>
    %inserted_slice_179 = tensor.insert_slice %extracted_slice_177 into %inserted_slice_178[0, 0] [1, 48] [1, 1] : tensor<1x48xf32> into tensor<1x1024xf32>
    %extracted_slice_180 = tensor.extract_slice %2[57, 0] [1, 976] [1, 1] : tensor<128x1024xf32> to tensor<1x976xf32>
    %extracted_slice_181 = tensor.extract_slice %2[57, 976] [1, 48] [1, 1] : tensor<128x1024xf32> to tensor<1x48xf32>
    %inserted_slice_182 = tensor.insert_slice %extracted_slice_180 into %6[0, 48] [1, 976] [1, 1] : tensor<1x976xf32> into tensor<1x1024xf32>
    %inserted_slice_183 = tensor.insert_slice %extracted_slice_181 into %inserted_slice_182[0, 0] [1, 48] [1, 1] : tensor<1x48xf32> into tensor<1x1024xf32>
    %extracted_slice_184 = tensor.extract_slice %2[58, 0] [1, 976] [1, 1] : tensor<128x1024xf32> to tensor<1x976xf32>
    %extracted_slice_185 = tensor.extract_slice %2[58, 976] [1, 48] [1, 1] : tensor<128x1024xf32> to tensor<1x48xf32>
    %inserted_slice_186 = tensor.insert_slice %extracted_slice_184 into %6[0, 48] [1, 976] [1, 1] : tensor<1x976xf32> into tensor<1x1024xf32>
    %inserted_slice_187 = tensor.insert_slice %extracted_slice_185 into %inserted_slice_186[0, 0] [1, 48] [1, 1] : tensor<1x48xf32> into tensor<1x1024xf32>
    %extracted_slice_188 = tensor.extract_slice %2[59, 0] [1, 976] [1, 1] : tensor<128x1024xf32> to tensor<1x976xf32>
    %extracted_slice_189 = tensor.extract_slice %2[59, 976] [1, 48] [1, 1] : tensor<128x1024xf32> to tensor<1x48xf32>
    %inserted_slice_190 = tensor.insert_slice %extracted_slice_188 into %6[0, 48] [1, 976] [1, 1] : tensor<1x976xf32> into tensor<1x1024xf32>
    %inserted_slice_191 = tensor.insert_slice %extracted_slice_189 into %inserted_slice_190[0, 0] [1, 48] [1, 1] : tensor<1x48xf32> into tensor<1x1024xf32>
    %extracted_slice_192 = tensor.extract_slice %2[60, 0] [1, 964] [1, 1] : tensor<128x1024xf32> to tensor<1x964xf32>
    %extracted_slice_193 = tensor.extract_slice %2[60, 964] [1, 60] [1, 1] : tensor<128x1024xf32> to tensor<1x60xf32>
    %inserted_slice_194 = tensor.insert_slice %extracted_slice_192 into %6[0, 60] [1, 964] [1, 1] : tensor<1x964xf32> into tensor<1x1024xf32>
    %inserted_slice_195 = tensor.insert_slice %extracted_slice_193 into %inserted_slice_194[0, 0] [1, 60] [1, 1] : tensor<1x60xf32> into tensor<1x1024xf32>
    %extracted_slice_196 = tensor.extract_slice %2[61, 0] [1, 964] [1, 1] : tensor<128x1024xf32> to tensor<1x964xf32>
    %extracted_slice_197 = tensor.extract_slice %2[61, 964] [1, 60] [1, 1] : tensor<128x1024xf32> to tensor<1x60xf32>
    %inserted_slice_198 = tensor.insert_slice %extracted_slice_196 into %6[0, 60] [1, 964] [1, 1] : tensor<1x964xf32> into tensor<1x1024xf32>
    %inserted_slice_199 = tensor.insert_slice %extracted_slice_197 into %inserted_slice_198[0, 0] [1, 60] [1, 1] : tensor<1x60xf32> into tensor<1x1024xf32>
    %extracted_slice_200 = tensor.extract_slice %2[62, 0] [1, 964] [1, 1] : tensor<128x1024xf32> to tensor<1x964xf32>
    %extracted_slice_201 = tensor.extract_slice %2[62, 964] [1, 60] [1, 1] : tensor<128x1024xf32> to tensor<1x60xf32>
    %inserted_slice_202 = tensor.insert_slice %extracted_slice_200 into %6[0, 60] [1, 964] [1, 1] : tensor<1x964xf32> into tensor<1x1024xf32>
    %inserted_slice_203 = tensor.insert_slice %extracted_slice_201 into %inserted_slice_202[0, 0] [1, 60] [1, 1] : tensor<1x60xf32> into tensor<1x1024xf32>
    %extracted_slice_204 = tensor.extract_slice %2[63, 0] [1, 964] [1, 1] : tensor<128x1024xf32> to tensor<1x964xf32>
    %extracted_slice_205 = tensor.extract_slice %2[63, 964] [1, 60] [1, 1] : tensor<128x1024xf32> to tensor<1x60xf32>
    %inserted_slice_206 = tensor.insert_slice %extracted_slice_204 into %6[0, 60] [1, 964] [1, 1] : tensor<1x964xf32> into tensor<1x1024xf32>
    %inserted_slice_207 = tensor.insert_slice %extracted_slice_205 into %inserted_slice_206[0, 0] [1, 60] [1, 1] : tensor<1x60xf32> into tensor<1x1024xf32>
    %extracted_slice_208 = tensor.extract_slice %2[64, 0] [1, 964] [1, 1] : tensor<128x1024xf32> to tensor<1x964xf32>
    %extracted_slice_209 = tensor.extract_slice %2[64, 964] [1, 60] [1, 1] : tensor<128x1024xf32> to tensor<1x60xf32>
    %inserted_slice_210 = tensor.insert_slice %extracted_slice_208 into %6[0, 60] [1, 964] [1, 1] : tensor<1x964xf32> into tensor<1x1024xf32>
    %inserted_slice_211 = tensor.insert_slice %extracted_slice_209 into %inserted_slice_210[0, 0] [1, 60] [1, 1] : tensor<1x60xf32> into tensor<1x1024xf32>
    %extracted_slice_212 = tensor.extract_slice %2[65, 0] [1, 964] [1, 1] : tensor<128x1024xf32> to tensor<1x964xf32>
    %extracted_slice_213 = tensor.extract_slice %2[65, 964] [1, 60] [1, 1] : tensor<128x1024xf32> to tensor<1x60xf32>
    %inserted_slice_214 = tensor.insert_slice %extracted_slice_212 into %6[0, 60] [1, 964] [1, 1] : tensor<1x964xf32> into tensor<1x1024xf32>
    %inserted_slice_215 = tensor.insert_slice %extracted_slice_213 into %inserted_slice_214[0, 0] [1, 60] [1, 1] : tensor<1x60xf32> into tensor<1x1024xf32>
    %extracted_slice_216 = tensor.extract_slice %2[66, 0] [1, 964] [1, 1] : tensor<128x1024xf32> to tensor<1x964xf32>
    %extracted_slice_217 = tensor.extract_slice %2[66, 964] [1, 60] [1, 1] : tensor<128x1024xf32> to tensor<1x60xf32>
    %inserted_slice_218 = tensor.insert_slice %extracted_slice_216 into %6[0, 60] [1, 964] [1, 1] : tensor<1x964xf32> into tensor<1x1024xf32>
    %inserted_slice_219 = tensor.insert_slice %extracted_slice_217 into %inserted_slice_218[0, 0] [1, 60] [1, 1] : tensor<1x60xf32> into tensor<1x1024xf32>
    %extracted_slice_220 = tensor.extract_slice %2[67, 0] [1, 964] [1, 1] : tensor<128x1024xf32> to tensor<1x964xf32>
    %extracted_slice_221 = tensor.extract_slice %2[67, 964] [1, 60] [1, 1] : tensor<128x1024xf32> to tensor<1x60xf32>
    %inserted_slice_222 = tensor.insert_slice %extracted_slice_220 into %6[0, 60] [1, 964] [1, 1] : tensor<1x964xf32> into tensor<1x1024xf32>
    %inserted_slice_223 = tensor.insert_slice %extracted_slice_221 into %inserted_slice_222[0, 0] [1, 60] [1, 1] : tensor<1x60xf32> into tensor<1x1024xf32>
    %extracted_slice_224 = tensor.extract_slice %2[68, 0] [1, 964] [1, 1] : tensor<128x1024xf32> to tensor<1x964xf32>
    %extracted_slice_225 = tensor.extract_slice %2[68, 964] [1, 60] [1, 1] : tensor<128x1024xf32> to tensor<1x60xf32>
    %inserted_slice_226 = tensor.insert_slice %extracted_slice_224 into %6[0, 60] [1, 964] [1, 1] : tensor<1x964xf32> into tensor<1x1024xf32>
    %inserted_slice_227 = tensor.insert_slice %extracted_slice_225 into %inserted_slice_226[0, 0] [1, 60] [1, 1] : tensor<1x60xf32> into tensor<1x1024xf32>
    %extracted_slice_228 = tensor.extract_slice %2[69, 0] [1, 964] [1, 1] : tensor<128x1024xf32> to tensor<1x964xf32>
    %extracted_slice_229 = tensor.extract_slice %2[69, 964] [1, 60] [1, 1] : tensor<128x1024xf32> to tensor<1x60xf32>
    %inserted_slice_230 = tensor.insert_slice %extracted_slice_228 into %6[0, 60] [1, 964] [1, 1] : tensor<1x964xf32> into tensor<1x1024xf32>
    %inserted_slice_231 = tensor.insert_slice %extracted_slice_229 into %inserted_slice_230[0, 0] [1, 60] [1, 1] : tensor<1x60xf32> into tensor<1x1024xf32>
    %extracted_slice_232 = tensor.extract_slice %2[70, 0] [1, 964] [1, 1] : tensor<128x1024xf32> to tensor<1x964xf32>
    %extracted_slice_233 = tensor.extract_slice %2[70, 964] [1, 60] [1, 1] : tensor<128x1024xf32> to tensor<1x60xf32>
    %inserted_slice_234 = tensor.insert_slice %extracted_slice_232 into %6[0, 60] [1, 964] [1, 1] : tensor<1x964xf32> into tensor<1x1024xf32>
    %inserted_slice_235 = tensor.insert_slice %extracted_slice_233 into %inserted_slice_234[0, 0] [1, 60] [1, 1] : tensor<1x60xf32> into tensor<1x1024xf32>
    %extracted_slice_236 = tensor.extract_slice %2[71, 0] [1, 964] [1, 1] : tensor<128x1024xf32> to tensor<1x964xf32>
    %extracted_slice_237 = tensor.extract_slice %2[71, 964] [1, 60] [1, 1] : tensor<128x1024xf32> to tensor<1x60xf32>
    %inserted_slice_238 = tensor.insert_slice %extracted_slice_236 into %6[0, 60] [1, 964] [1, 1] : tensor<1x964xf32> into tensor<1x1024xf32>
    %inserted_slice_239 = tensor.insert_slice %extracted_slice_237 into %inserted_slice_238[0, 0] [1, 60] [1, 1] : tensor<1x60xf32> into tensor<1x1024xf32>
    %extracted_slice_240 = tensor.extract_slice %2[72, 0] [1, 952] [1, 1] : tensor<128x1024xf32> to tensor<1x952xf32>
    %extracted_slice_241 = tensor.extract_slice %2[72, 952] [1, 72] [1, 1] : tensor<128x1024xf32> to tensor<1x72xf32>
    %inserted_slice_242 = tensor.insert_slice %extracted_slice_240 into %6[0, 72] [1, 952] [1, 1] : tensor<1x952xf32> into tensor<1x1024xf32>
    %inserted_slice_243 = tensor.insert_slice %extracted_slice_241 into %inserted_slice_242[0, 0] [1, 72] [1, 1] : tensor<1x72xf32> into tensor<1x1024xf32>
    %extracted_slice_244 = tensor.extract_slice %2[73, 0] [1, 952] [1, 1] : tensor<128x1024xf32> to tensor<1x952xf32>
    %extracted_slice_245 = tensor.extract_slice %2[73, 952] [1, 72] [1, 1] : tensor<128x1024xf32> to tensor<1x72xf32>
    %inserted_slice_246 = tensor.insert_slice %extracted_slice_244 into %6[0, 72] [1, 952] [1, 1] : tensor<1x952xf32> into tensor<1x1024xf32>
    %inserted_slice_247 = tensor.insert_slice %extracted_slice_245 into %inserted_slice_246[0, 0] [1, 72] [1, 1] : tensor<1x72xf32> into tensor<1x1024xf32>
    %extracted_slice_248 = tensor.extract_slice %2[74, 0] [1, 952] [1, 1] : tensor<128x1024xf32> to tensor<1x952xf32>
    %extracted_slice_249 = tensor.extract_slice %2[74, 952] [1, 72] [1, 1] : tensor<128x1024xf32> to tensor<1x72xf32>
    %inserted_slice_250 = tensor.insert_slice %extracted_slice_248 into %6[0, 72] [1, 952] [1, 1] : tensor<1x952xf32> into tensor<1x1024xf32>
    %inserted_slice_251 = tensor.insert_slice %extracted_slice_249 into %inserted_slice_250[0, 0] [1, 72] [1, 1] : tensor<1x72xf32> into tensor<1x1024xf32>
    %extracted_slice_252 = tensor.extract_slice %2[75, 0] [1, 952] [1, 1] : tensor<128x1024xf32> to tensor<1x952xf32>
    %extracted_slice_253 = tensor.extract_slice %2[75, 952] [1, 72] [1, 1] : tensor<128x1024xf32> to tensor<1x72xf32>
    %inserted_slice_254 = tensor.insert_slice %extracted_slice_252 into %6[0, 72] [1, 952] [1, 1] : tensor<1x952xf32> into tensor<1x1024xf32>
    %inserted_slice_255 = tensor.insert_slice %extracted_slice_253 into %inserted_slice_254[0, 0] [1, 72] [1, 1] : tensor<1x72xf32> into tensor<1x1024xf32>
    %extracted_slice_256 = tensor.extract_slice %2[76, 0] [1, 952] [1, 1] : tensor<128x1024xf32> to tensor<1x952xf32>
    %extracted_slice_257 = tensor.extract_slice %2[76, 952] [1, 72] [1, 1] : tensor<128x1024xf32> to tensor<1x72xf32>
    %inserted_slice_258 = tensor.insert_slice %extracted_slice_256 into %6[0, 72] [1, 952] [1, 1] : tensor<1x952xf32> into tensor<1x1024xf32>
    %inserted_slice_259 = tensor.insert_slice %extracted_slice_257 into %inserted_slice_258[0, 0] [1, 72] [1, 1] : tensor<1x72xf32> into tensor<1x1024xf32>
    %extracted_slice_260 = tensor.extract_slice %2[77, 0] [1, 952] [1, 1] : tensor<128x1024xf32> to tensor<1x952xf32>
    %extracted_slice_261 = tensor.extract_slice %2[77, 952] [1, 72] [1, 1] : tensor<128x1024xf32> to tensor<1x72xf32>
    %inserted_slice_262 = tensor.insert_slice %extracted_slice_260 into %6[0, 72] [1, 952] [1, 1] : tensor<1x952xf32> into tensor<1x1024xf32>
    %inserted_slice_263 = tensor.insert_slice %extracted_slice_261 into %inserted_slice_262[0, 0] [1, 72] [1, 1] : tensor<1x72xf32> into tensor<1x1024xf32>
    %extracted_slice_264 = tensor.extract_slice %2[78, 0] [1, 952] [1, 1] : tensor<128x1024xf32> to tensor<1x952xf32>
    %extracted_slice_265 = tensor.extract_slice %2[78, 952] [1, 72] [1, 1] : tensor<128x1024xf32> to tensor<1x72xf32>
    %inserted_slice_266 = tensor.insert_slice %extracted_slice_264 into %6[0, 72] [1, 952] [1, 1] : tensor<1x952xf32> into tensor<1x1024xf32>
    %inserted_slice_267 = tensor.insert_slice %extracted_slice_265 into %inserted_slice_266[0, 0] [1, 72] [1, 1] : tensor<1x72xf32> into tensor<1x1024xf32>
    %extracted_slice_268 = tensor.extract_slice %2[79, 0] [1, 952] [1, 1] : tensor<128x1024xf32> to tensor<1x952xf32>
    %extracted_slice_269 = tensor.extract_slice %2[79, 952] [1, 72] [1, 1] : tensor<128x1024xf32> to tensor<1x72xf32>
    %inserted_slice_270 = tensor.insert_slice %extracted_slice_268 into %6[0, 72] [1, 952] [1, 1] : tensor<1x952xf32> into tensor<1x1024xf32>
    %inserted_slice_271 = tensor.insert_slice %extracted_slice_269 into %inserted_slice_270[0, 0] [1, 72] [1, 1] : tensor<1x72xf32> into tensor<1x1024xf32>
    %extracted_slice_272 = tensor.extract_slice %2[80, 0] [1, 952] [1, 1] : tensor<128x1024xf32> to tensor<1x952xf32>
    %extracted_slice_273 = tensor.extract_slice %2[80, 952] [1, 72] [1, 1] : tensor<128x1024xf32> to tensor<1x72xf32>
    %inserted_slice_274 = tensor.insert_slice %extracted_slice_272 into %6[0, 72] [1, 952] [1, 1] : tensor<1x952xf32> into tensor<1x1024xf32>
    %inserted_slice_275 = tensor.insert_slice %extracted_slice_273 into %inserted_slice_274[0, 0] [1, 72] [1, 1] : tensor<1x72xf32> into tensor<1x1024xf32>
    %extracted_slice_276 = tensor.extract_slice %2[81, 0] [1, 952] [1, 1] : tensor<128x1024xf32> to tensor<1x952xf32>
    %extracted_slice_277 = tensor.extract_slice %2[81, 952] [1, 72] [1, 1] : tensor<128x1024xf32> to tensor<1x72xf32>
    %inserted_slice_278 = tensor.insert_slice %extracted_slice_276 into %6[0, 72] [1, 952] [1, 1] : tensor<1x952xf32> into tensor<1x1024xf32>
    %inserted_slice_279 = tensor.insert_slice %extracted_slice_277 into %inserted_slice_278[0, 0] [1, 72] [1, 1] : tensor<1x72xf32> into tensor<1x1024xf32>
    %extracted_slice_280 = tensor.extract_slice %2[82, 0] [1, 952] [1, 1] : tensor<128x1024xf32> to tensor<1x952xf32>
    %extracted_slice_281 = tensor.extract_slice %2[82, 952] [1, 72] [1, 1] : tensor<128x1024xf32> to tensor<1x72xf32>
    %inserted_slice_282 = tensor.insert_slice %extracted_slice_280 into %6[0, 72] [1, 952] [1, 1] : tensor<1x952xf32> into tensor<1x1024xf32>
    %inserted_slice_283 = tensor.insert_slice %extracted_slice_281 into %inserted_slice_282[0, 0] [1, 72] [1, 1] : tensor<1x72xf32> into tensor<1x1024xf32>
    %extracted_slice_284 = tensor.extract_slice %2[83, 0] [1, 952] [1, 1] : tensor<128x1024xf32> to tensor<1x952xf32>
    %extracted_slice_285 = tensor.extract_slice %2[83, 952] [1, 72] [1, 1] : tensor<128x1024xf32> to tensor<1x72xf32>
    %inserted_slice_286 = tensor.insert_slice %extracted_slice_284 into %6[0, 72] [1, 952] [1, 1] : tensor<1x952xf32> into tensor<1x1024xf32>
    %inserted_slice_287 = tensor.insert_slice %extracted_slice_285 into %inserted_slice_286[0, 0] [1, 72] [1, 1] : tensor<1x72xf32> into tensor<1x1024xf32>
    %extracted_slice_288 = tensor.extract_slice %2[84, 0] [1, 940] [1, 1] : tensor<128x1024xf32> to tensor<1x940xf32>
    %extracted_slice_289 = tensor.extract_slice %2[84, 940] [1, 84] [1, 1] : tensor<128x1024xf32> to tensor<1x84xf32>
    %inserted_slice_290 = tensor.insert_slice %extracted_slice_288 into %6[0, 84] [1, 940] [1, 1] : tensor<1x940xf32> into tensor<1x1024xf32>
    %inserted_slice_291 = tensor.insert_slice %extracted_slice_289 into %inserted_slice_290[0, 0] [1, 84] [1, 1] : tensor<1x84xf32> into tensor<1x1024xf32>
    %extracted_slice_292 = tensor.extract_slice %2[85, 0] [1, 940] [1, 1] : tensor<128x1024xf32> to tensor<1x940xf32>
    %extracted_slice_293 = tensor.extract_slice %2[85, 940] [1, 84] [1, 1] : tensor<128x1024xf32> to tensor<1x84xf32>
    %inserted_slice_294 = tensor.insert_slice %extracted_slice_292 into %6[0, 84] [1, 940] [1, 1] : tensor<1x940xf32> into tensor<1x1024xf32>
    %inserted_slice_295 = tensor.insert_slice %extracted_slice_293 into %inserted_slice_294[0, 0] [1, 84] [1, 1] : tensor<1x84xf32> into tensor<1x1024xf32>
    %extracted_slice_296 = tensor.extract_slice %2[86, 0] [1, 940] [1, 1] : tensor<128x1024xf32> to tensor<1x940xf32>
    %extracted_slice_297 = tensor.extract_slice %2[86, 940] [1, 84] [1, 1] : tensor<128x1024xf32> to tensor<1x84xf32>
    %inserted_slice_298 = tensor.insert_slice %extracted_slice_296 into %6[0, 84] [1, 940] [1, 1] : tensor<1x940xf32> into tensor<1x1024xf32>
    %inserted_slice_299 = tensor.insert_slice %extracted_slice_297 into %inserted_slice_298[0, 0] [1, 84] [1, 1] : tensor<1x84xf32> into tensor<1x1024xf32>
    %extracted_slice_300 = tensor.extract_slice %2[87, 0] [1, 940] [1, 1] : tensor<128x1024xf32> to tensor<1x940xf32>
    %extracted_slice_301 = tensor.extract_slice %2[87, 940] [1, 84] [1, 1] : tensor<128x1024xf32> to tensor<1x84xf32>
    %inserted_slice_302 = tensor.insert_slice %extracted_slice_300 into %6[0, 84] [1, 940] [1, 1] : tensor<1x940xf32> into tensor<1x1024xf32>
    %inserted_slice_303 = tensor.insert_slice %extracted_slice_301 into %inserted_slice_302[0, 0] [1, 84] [1, 1] : tensor<1x84xf32> into tensor<1x1024xf32>
    %extracted_slice_304 = tensor.extract_slice %2[88, 0] [1, 940] [1, 1] : tensor<128x1024xf32> to tensor<1x940xf32>
    %extracted_slice_305 = tensor.extract_slice %2[88, 940] [1, 84] [1, 1] : tensor<128x1024xf32> to tensor<1x84xf32>
    %inserted_slice_306 = tensor.insert_slice %extracted_slice_304 into %6[0, 84] [1, 940] [1, 1] : tensor<1x940xf32> into tensor<1x1024xf32>
    %inserted_slice_307 = tensor.insert_slice %extracted_slice_305 into %inserted_slice_306[0, 0] [1, 84] [1, 1] : tensor<1x84xf32> into tensor<1x1024xf32>
    %extracted_slice_308 = tensor.extract_slice %2[89, 0] [1, 940] [1, 1] : tensor<128x1024xf32> to tensor<1x940xf32>
    %extracted_slice_309 = tensor.extract_slice %2[89, 940] [1, 84] [1, 1] : tensor<128x1024xf32> to tensor<1x84xf32>
    %inserted_slice_310 = tensor.insert_slice %extracted_slice_308 into %6[0, 84] [1, 940] [1, 1] : tensor<1x940xf32> into tensor<1x1024xf32>
    %inserted_slice_311 = tensor.insert_slice %extracted_slice_309 into %inserted_slice_310[0, 0] [1, 84] [1, 1] : tensor<1x84xf32> into tensor<1x1024xf32>
    %extracted_slice_312 = tensor.extract_slice %2[90, 0] [1, 940] [1, 1] : tensor<128x1024xf32> to tensor<1x940xf32>
    %extracted_slice_313 = tensor.extract_slice %2[90, 940] [1, 84] [1, 1] : tensor<128x1024xf32> to tensor<1x84xf32>
    %inserted_slice_314 = tensor.insert_slice %extracted_slice_312 into %6[0, 84] [1, 940] [1, 1] : tensor<1x940xf32> into tensor<1x1024xf32>
    %inserted_slice_315 = tensor.insert_slice %extracted_slice_313 into %inserted_slice_314[0, 0] [1, 84] [1, 1] : tensor<1x84xf32> into tensor<1x1024xf32>
    %extracted_slice_316 = tensor.extract_slice %2[91, 0] [1, 940] [1, 1] : tensor<128x1024xf32> to tensor<1x940xf32>
    %extracted_slice_317 = tensor.extract_slice %2[91, 940] [1, 84] [1, 1] : tensor<128x1024xf32> to tensor<1x84xf32>
    %inserted_slice_318 = tensor.insert_slice %extracted_slice_316 into %6[0, 84] [1, 940] [1, 1] : tensor<1x940xf32> into tensor<1x1024xf32>
    %inserted_slice_319 = tensor.insert_slice %extracted_slice_317 into %inserted_slice_318[0, 0] [1, 84] [1, 1] : tensor<1x84xf32> into tensor<1x1024xf32>
    %extracted_slice_320 = tensor.extract_slice %2[92, 0] [1, 940] [1, 1] : tensor<128x1024xf32> to tensor<1x940xf32>
    %extracted_slice_321 = tensor.extract_slice %2[92, 940] [1, 84] [1, 1] : tensor<128x1024xf32> to tensor<1x84xf32>
    %inserted_slice_322 = tensor.insert_slice %extracted_slice_320 into %6[0, 84] [1, 940] [1, 1] : tensor<1x940xf32> into tensor<1x1024xf32>
    %inserted_slice_323 = tensor.insert_slice %extracted_slice_321 into %inserted_slice_322[0, 0] [1, 84] [1, 1] : tensor<1x84xf32> into tensor<1x1024xf32>
    %extracted_slice_324 = tensor.extract_slice %2[93, 0] [1, 940] [1, 1] : tensor<128x1024xf32> to tensor<1x940xf32>
    %extracted_slice_325 = tensor.extract_slice %2[93, 940] [1, 84] [1, 1] : tensor<128x1024xf32> to tensor<1x84xf32>
    %inserted_slice_326 = tensor.insert_slice %extracted_slice_324 into %6[0, 84] [1, 940] [1, 1] : tensor<1x940xf32> into tensor<1x1024xf32>
    %inserted_slice_327 = tensor.insert_slice %extracted_slice_325 into %inserted_slice_326[0, 0] [1, 84] [1, 1] : tensor<1x84xf32> into tensor<1x1024xf32>
    %extracted_slice_328 = tensor.extract_slice %2[94, 0] [1, 940] [1, 1] : tensor<128x1024xf32> to tensor<1x940xf32>
    %extracted_slice_329 = tensor.extract_slice %2[94, 940] [1, 84] [1, 1] : tensor<128x1024xf32> to tensor<1x84xf32>
    %inserted_slice_330 = tensor.insert_slice %extracted_slice_328 into %6[0, 84] [1, 940] [1, 1] : tensor<1x940xf32> into tensor<1x1024xf32>
    %inserted_slice_331 = tensor.insert_slice %extracted_slice_329 into %inserted_slice_330[0, 0] [1, 84] [1, 1] : tensor<1x84xf32> into tensor<1x1024xf32>
    %extracted_slice_332 = tensor.extract_slice %2[95, 0] [1, 940] [1, 1] : tensor<128x1024xf32> to tensor<1x940xf32>
    %extracted_slice_333 = tensor.extract_slice %2[95, 940] [1, 84] [1, 1] : tensor<128x1024xf32> to tensor<1x84xf32>
    %inserted_slice_334 = tensor.insert_slice %extracted_slice_332 into %6[0, 84] [1, 940] [1, 1] : tensor<1x940xf32> into tensor<1x1024xf32>
    %inserted_slice_335 = tensor.insert_slice %extracted_slice_333 into %inserted_slice_334[0, 0] [1, 84] [1, 1] : tensor<1x84xf32> into tensor<1x1024xf32>
    %extracted_slice_336 = tensor.extract_slice %2[96, 0] [1, 928] [1, 1] : tensor<128x1024xf32> to tensor<1x928xf32>
    %extracted_slice_337 = tensor.extract_slice %2[96, 928] [1, 96] [1, 1] : tensor<128x1024xf32> to tensor<1x96xf32>
    %inserted_slice_338 = tensor.insert_slice %extracted_slice_336 into %6[0, 96] [1, 928] [1, 1] : tensor<1x928xf32> into tensor<1x1024xf32>
    %inserted_slice_339 = tensor.insert_slice %extracted_slice_337 into %inserted_slice_338[0, 0] [1, 96] [1, 1] : tensor<1x96xf32> into tensor<1x1024xf32>
    %extracted_slice_340 = tensor.extract_slice %2[97, 0] [1, 928] [1, 1] : tensor<128x1024xf32> to tensor<1x928xf32>
    %extracted_slice_341 = tensor.extract_slice %2[97, 928] [1, 96] [1, 1] : tensor<128x1024xf32> to tensor<1x96xf32>
    %inserted_slice_342 = tensor.insert_slice %extracted_slice_340 into %6[0, 96] [1, 928] [1, 1] : tensor<1x928xf32> into tensor<1x1024xf32>
    %inserted_slice_343 = tensor.insert_slice %extracted_slice_341 into %inserted_slice_342[0, 0] [1, 96] [1, 1] : tensor<1x96xf32> into tensor<1x1024xf32>
    %extracted_slice_344 = tensor.extract_slice %2[98, 0] [1, 928] [1, 1] : tensor<128x1024xf32> to tensor<1x928xf32>
    %extracted_slice_345 = tensor.extract_slice %2[98, 928] [1, 96] [1, 1] : tensor<128x1024xf32> to tensor<1x96xf32>
    %inserted_slice_346 = tensor.insert_slice %extracted_slice_344 into %6[0, 96] [1, 928] [1, 1] : tensor<1x928xf32> into tensor<1x1024xf32>
    %inserted_slice_347 = tensor.insert_slice %extracted_slice_345 into %inserted_slice_346[0, 0] [1, 96] [1, 1] : tensor<1x96xf32> into tensor<1x1024xf32>
    %extracted_slice_348 = tensor.extract_slice %2[99, 0] [1, 928] [1, 1] : tensor<128x1024xf32> to tensor<1x928xf32>
    %extracted_slice_349 = tensor.extract_slice %2[99, 928] [1, 96] [1, 1] : tensor<128x1024xf32> to tensor<1x96xf32>
    %inserted_slice_350 = tensor.insert_slice %extracted_slice_348 into %6[0, 96] [1, 928] [1, 1] : tensor<1x928xf32> into tensor<1x1024xf32>
    %inserted_slice_351 = tensor.insert_slice %extracted_slice_349 into %inserted_slice_350[0, 0] [1, 96] [1, 1] : tensor<1x96xf32> into tensor<1x1024xf32>
    %extracted_slice_352 = tensor.extract_slice %2[100, 0] [1, 928] [1, 1] : tensor<128x1024xf32> to tensor<1x928xf32>
    %extracted_slice_353 = tensor.extract_slice %2[100, 928] [1, 96] [1, 1] : tensor<128x1024xf32> to tensor<1x96xf32>
    %inserted_slice_354 = tensor.insert_slice %extracted_slice_352 into %6[0, 96] [1, 928] [1, 1] : tensor<1x928xf32> into tensor<1x1024xf32>
    %inserted_slice_355 = tensor.insert_slice %extracted_slice_353 into %inserted_slice_354[0, 0] [1, 96] [1, 1] : tensor<1x96xf32> into tensor<1x1024xf32>
    %extracted_slice_356 = tensor.extract_slice %2[101, 0] [1, 928] [1, 1] : tensor<128x1024xf32> to tensor<1x928xf32>
    %extracted_slice_357 = tensor.extract_slice %2[101, 928] [1, 96] [1, 1] : tensor<128x1024xf32> to tensor<1x96xf32>
    %inserted_slice_358 = tensor.insert_slice %extracted_slice_356 into %6[0, 96] [1, 928] [1, 1] : tensor<1x928xf32> into tensor<1x1024xf32>
    %inserted_slice_359 = tensor.insert_slice %extracted_slice_357 into %inserted_slice_358[0, 0] [1, 96] [1, 1] : tensor<1x96xf32> into tensor<1x1024xf32>
    %extracted_slice_360 = tensor.extract_slice %2[102, 0] [1, 928] [1, 1] : tensor<128x1024xf32> to tensor<1x928xf32>
    %extracted_slice_361 = tensor.extract_slice %2[102, 928] [1, 96] [1, 1] : tensor<128x1024xf32> to tensor<1x96xf32>
    %inserted_slice_362 = tensor.insert_slice %extracted_slice_360 into %6[0, 96] [1, 928] [1, 1] : tensor<1x928xf32> into tensor<1x1024xf32>
    %inserted_slice_363 = tensor.insert_slice %extracted_slice_361 into %inserted_slice_362[0, 0] [1, 96] [1, 1] : tensor<1x96xf32> into tensor<1x1024xf32>
    %extracted_slice_364 = tensor.extract_slice %2[103, 0] [1, 928] [1, 1] : tensor<128x1024xf32> to tensor<1x928xf32>
    %extracted_slice_365 = tensor.extract_slice %2[103, 928] [1, 96] [1, 1] : tensor<128x1024xf32> to tensor<1x96xf32>
    %inserted_slice_366 = tensor.insert_slice %extracted_slice_364 into %6[0, 96] [1, 928] [1, 1] : tensor<1x928xf32> into tensor<1x1024xf32>
    %inserted_slice_367 = tensor.insert_slice %extracted_slice_365 into %inserted_slice_366[0, 0] [1, 96] [1, 1] : tensor<1x96xf32> into tensor<1x1024xf32>
    %extracted_slice_368 = tensor.extract_slice %2[104, 0] [1, 928] [1, 1] : tensor<128x1024xf32> to tensor<1x928xf32>
    %extracted_slice_369 = tensor.extract_slice %2[104, 928] [1, 96] [1, 1] : tensor<128x1024xf32> to tensor<1x96xf32>
    %inserted_slice_370 = tensor.insert_slice %extracted_slice_368 into %6[0, 96] [1, 928] [1, 1] : tensor<1x928xf32> into tensor<1x1024xf32>
    %inserted_slice_371 = tensor.insert_slice %extracted_slice_369 into %inserted_slice_370[0, 0] [1, 96] [1, 1] : tensor<1x96xf32> into tensor<1x1024xf32>
    %extracted_slice_372 = tensor.extract_slice %2[105, 0] [1, 928] [1, 1] : tensor<128x1024xf32> to tensor<1x928xf32>
    %extracted_slice_373 = tensor.extract_slice %2[105, 928] [1, 96] [1, 1] : tensor<128x1024xf32> to tensor<1x96xf32>
    %inserted_slice_374 = tensor.insert_slice %extracted_slice_372 into %6[0, 96] [1, 928] [1, 1] : tensor<1x928xf32> into tensor<1x1024xf32>
    %inserted_slice_375 = tensor.insert_slice %extracted_slice_373 into %inserted_slice_374[0, 0] [1, 96] [1, 1] : tensor<1x96xf32> into tensor<1x1024xf32>
    %extracted_slice_376 = tensor.extract_slice %2[106, 0] [1, 928] [1, 1] : tensor<128x1024xf32> to tensor<1x928xf32>
    %extracted_slice_377 = tensor.extract_slice %2[106, 928] [1, 96] [1, 1] : tensor<128x1024xf32> to tensor<1x96xf32>
    %inserted_slice_378 = tensor.insert_slice %extracted_slice_376 into %6[0, 96] [1, 928] [1, 1] : tensor<1x928xf32> into tensor<1x1024xf32>
    %inserted_slice_379 = tensor.insert_slice %extracted_slice_377 into %inserted_slice_378[0, 0] [1, 96] [1, 1] : tensor<1x96xf32> into tensor<1x1024xf32>
    %extracted_slice_380 = tensor.extract_slice %2[107, 0] [1, 928] [1, 1] : tensor<128x1024xf32> to tensor<1x928xf32>
    %extracted_slice_381 = tensor.extract_slice %2[107, 928] [1, 96] [1, 1] : tensor<128x1024xf32> to tensor<1x96xf32>
    %inserted_slice_382 = tensor.insert_slice %extracted_slice_380 into %6[0, 96] [1, 928] [1, 1] : tensor<1x928xf32> into tensor<1x1024xf32>
    %inserted_slice_383 = tensor.insert_slice %extracted_slice_381 into %inserted_slice_382[0, 0] [1, 96] [1, 1] : tensor<1x96xf32> into tensor<1x1024xf32>
    %extracted_slice_384 = tensor.extract_slice %2[108, 0] [1, 916] [1, 1] : tensor<128x1024xf32> to tensor<1x916xf32>
    %extracted_slice_385 = tensor.extract_slice %2[108, 916] [1, 108] [1, 1] : tensor<128x1024xf32> to tensor<1x108xf32>
    %inserted_slice_386 = tensor.insert_slice %extracted_slice_384 into %6[0, 108] [1, 916] [1, 1] : tensor<1x916xf32> into tensor<1x1024xf32>
    %inserted_slice_387 = tensor.insert_slice %extracted_slice_385 into %inserted_slice_386[0, 0] [1, 108] [1, 1] : tensor<1x108xf32> into tensor<1x1024xf32>
    %extracted_slice_388 = tensor.extract_slice %2[109, 0] [1, 916] [1, 1] : tensor<128x1024xf32> to tensor<1x916xf32>
    %extracted_slice_389 = tensor.extract_slice %2[109, 916] [1, 108] [1, 1] : tensor<128x1024xf32> to tensor<1x108xf32>
    %inserted_slice_390 = tensor.insert_slice %extracted_slice_388 into %6[0, 108] [1, 916] [1, 1] : tensor<1x916xf32> into tensor<1x1024xf32>
    %inserted_slice_391 = tensor.insert_slice %extracted_slice_389 into %inserted_slice_390[0, 0] [1, 108] [1, 1] : tensor<1x108xf32> into tensor<1x1024xf32>
    %extracted_slice_392 = tensor.extract_slice %2[110, 0] [1, 916] [1, 1] : tensor<128x1024xf32> to tensor<1x916xf32>
    %extracted_slice_393 = tensor.extract_slice %2[110, 916] [1, 108] [1, 1] : tensor<128x1024xf32> to tensor<1x108xf32>
    %inserted_slice_394 = tensor.insert_slice %extracted_slice_392 into %6[0, 108] [1, 916] [1, 1] : tensor<1x916xf32> into tensor<1x1024xf32>
    %inserted_slice_395 = tensor.insert_slice %extracted_slice_393 into %inserted_slice_394[0, 0] [1, 108] [1, 1] : tensor<1x108xf32> into tensor<1x1024xf32>
    %extracted_slice_396 = tensor.extract_slice %2[111, 0] [1, 916] [1, 1] : tensor<128x1024xf32> to tensor<1x916xf32>
    %extracted_slice_397 = tensor.extract_slice %2[111, 916] [1, 108] [1, 1] : tensor<128x1024xf32> to tensor<1x108xf32>
    %inserted_slice_398 = tensor.insert_slice %extracted_slice_396 into %6[0, 108] [1, 916] [1, 1] : tensor<1x916xf32> into tensor<1x1024xf32>
    %inserted_slice_399 = tensor.insert_slice %extracted_slice_397 into %inserted_slice_398[0, 0] [1, 108] [1, 1] : tensor<1x108xf32> into tensor<1x1024xf32>
    %extracted_slice_400 = tensor.extract_slice %2[112, 0] [1, 916] [1, 1] : tensor<128x1024xf32> to tensor<1x916xf32>
    %extracted_slice_401 = tensor.extract_slice %2[112, 916] [1, 108] [1, 1] : tensor<128x1024xf32> to tensor<1x108xf32>
    %inserted_slice_402 = tensor.insert_slice %extracted_slice_400 into %6[0, 108] [1, 916] [1, 1] : tensor<1x916xf32> into tensor<1x1024xf32>
    %inserted_slice_403 = tensor.insert_slice %extracted_slice_401 into %inserted_slice_402[0, 0] [1, 108] [1, 1] : tensor<1x108xf32> into tensor<1x1024xf32>
    %extracted_slice_404 = tensor.extract_slice %2[113, 0] [1, 916] [1, 1] : tensor<128x1024xf32> to tensor<1x916xf32>
    %extracted_slice_405 = tensor.extract_slice %2[113, 916] [1, 108] [1, 1] : tensor<128x1024xf32> to tensor<1x108xf32>
    %inserted_slice_406 = tensor.insert_slice %extracted_slice_404 into %6[0, 108] [1, 916] [1, 1] : tensor<1x916xf32> into tensor<1x1024xf32>
    %inserted_slice_407 = tensor.insert_slice %extracted_slice_405 into %inserted_slice_406[0, 0] [1, 108] [1, 1] : tensor<1x108xf32> into tensor<1x1024xf32>
    %extracted_slice_408 = tensor.extract_slice %2[114, 0] [1, 916] [1, 1] : tensor<128x1024xf32> to tensor<1x916xf32>
    %extracted_slice_409 = tensor.extract_slice %2[114, 916] [1, 108] [1, 1] : tensor<128x1024xf32> to tensor<1x108xf32>
    %inserted_slice_410 = tensor.insert_slice %extracted_slice_408 into %6[0, 108] [1, 916] [1, 1] : tensor<1x916xf32> into tensor<1x1024xf32>
    %inserted_slice_411 = tensor.insert_slice %extracted_slice_409 into %inserted_slice_410[0, 0] [1, 108] [1, 1] : tensor<1x108xf32> into tensor<1x1024xf32>
    %extracted_slice_412 = tensor.extract_slice %2[115, 0] [1, 916] [1, 1] : tensor<128x1024xf32> to tensor<1x916xf32>
    %extracted_slice_413 = tensor.extract_slice %2[115, 916] [1, 108] [1, 1] : tensor<128x1024xf32> to tensor<1x108xf32>
    %inserted_slice_414 = tensor.insert_slice %extracted_slice_412 into %6[0, 108] [1, 916] [1, 1] : tensor<1x916xf32> into tensor<1x1024xf32>
    %inserted_slice_415 = tensor.insert_slice %extracted_slice_413 into %inserted_slice_414[0, 0] [1, 108] [1, 1] : tensor<1x108xf32> into tensor<1x1024xf32>
    %extracted_slice_416 = tensor.extract_slice %2[116, 0] [1, 916] [1, 1] : tensor<128x1024xf32> to tensor<1x916xf32>
    %extracted_slice_417 = tensor.extract_slice %2[116, 916] [1, 108] [1, 1] : tensor<128x1024xf32> to tensor<1x108xf32>
    %inserted_slice_418 = tensor.insert_slice %extracted_slice_416 into %6[0, 108] [1, 916] [1, 1] : tensor<1x916xf32> into tensor<1x1024xf32>
    %inserted_slice_419 = tensor.insert_slice %extracted_slice_417 into %inserted_slice_418[0, 0] [1, 108] [1, 1] : tensor<1x108xf32> into tensor<1x1024xf32>
    %extracted_slice_420 = tensor.extract_slice %2[117, 0] [1, 916] [1, 1] : tensor<128x1024xf32> to tensor<1x916xf32>
    %extracted_slice_421 = tensor.extract_slice %2[117, 916] [1, 108] [1, 1] : tensor<128x1024xf32> to tensor<1x108xf32>
    %inserted_slice_422 = tensor.insert_slice %extracted_slice_420 into %6[0, 108] [1, 916] [1, 1] : tensor<1x916xf32> into tensor<1x1024xf32>
    %inserted_slice_423 = tensor.insert_slice %extracted_slice_421 into %inserted_slice_422[0, 0] [1, 108] [1, 1] : tensor<1x108xf32> into tensor<1x1024xf32>
    %extracted_slice_424 = tensor.extract_slice %2[118, 0] [1, 916] [1, 1] : tensor<128x1024xf32> to tensor<1x916xf32>
    %extracted_slice_425 = tensor.extract_slice %2[118, 916] [1, 108] [1, 1] : tensor<128x1024xf32> to tensor<1x108xf32>
    %inserted_slice_426 = tensor.insert_slice %extracted_slice_424 into %6[0, 108] [1, 916] [1, 1] : tensor<1x916xf32> into tensor<1x1024xf32>
    %inserted_slice_427 = tensor.insert_slice %extracted_slice_425 into %inserted_slice_426[0, 0] [1, 108] [1, 1] : tensor<1x108xf32> into tensor<1x1024xf32>
    %extracted_slice_428 = tensor.extract_slice %2[119, 0] [1, 916] [1, 1] : tensor<128x1024xf32> to tensor<1x916xf32>
    %extracted_slice_429 = tensor.extract_slice %2[119, 916] [1, 108] [1, 1] : tensor<128x1024xf32> to tensor<1x108xf32>
    %inserted_slice_430 = tensor.insert_slice %extracted_slice_428 into %6[0, 108] [1, 916] [1, 1] : tensor<1x916xf32> into tensor<1x1024xf32>
    %inserted_slice_431 = tensor.insert_slice %extracted_slice_429 into %inserted_slice_430[0, 0] [1, 108] [1, 1] : tensor<1x108xf32> into tensor<1x1024xf32>
    %extracted_slice_432 = tensor.extract_slice %2[120, 0] [1, 904] [1, 1] : tensor<128x1024xf32> to tensor<1x904xf32>
    %extracted_slice_433 = tensor.extract_slice %2[120, 904] [1, 120] [1, 1] : tensor<128x1024xf32> to tensor<1x120xf32>
    %inserted_slice_434 = tensor.insert_slice %extracted_slice_432 into %6[0, 120] [1, 904] [1, 1] : tensor<1x904xf32> into tensor<1x1024xf32>
    %inserted_slice_435 = tensor.insert_slice %extracted_slice_433 into %inserted_slice_434[0, 0] [1, 120] [1, 1] : tensor<1x120xf32> into tensor<1x1024xf32>
    %extracted_slice_436 = tensor.extract_slice %2[121, 0] [1, 904] [1, 1] : tensor<128x1024xf32> to tensor<1x904xf32>
    %extracted_slice_437 = tensor.extract_slice %2[121, 904] [1, 120] [1, 1] : tensor<128x1024xf32> to tensor<1x120xf32>
    %inserted_slice_438 = tensor.insert_slice %extracted_slice_436 into %6[0, 120] [1, 904] [1, 1] : tensor<1x904xf32> into tensor<1x1024xf32>
    %inserted_slice_439 = tensor.insert_slice %extracted_slice_437 into %inserted_slice_438[0, 0] [1, 120] [1, 1] : tensor<1x120xf32> into tensor<1x1024xf32>
    %extracted_slice_440 = tensor.extract_slice %2[122, 0] [1, 904] [1, 1] : tensor<128x1024xf32> to tensor<1x904xf32>
    %extracted_slice_441 = tensor.extract_slice %2[122, 904] [1, 120] [1, 1] : tensor<128x1024xf32> to tensor<1x120xf32>
    %inserted_slice_442 = tensor.insert_slice %extracted_slice_440 into %6[0, 120] [1, 904] [1, 1] : tensor<1x904xf32> into tensor<1x1024xf32>
    %inserted_slice_443 = tensor.insert_slice %extracted_slice_441 into %inserted_slice_442[0, 0] [1, 120] [1, 1] : tensor<1x120xf32> into tensor<1x1024xf32>
    %extracted_slice_444 = tensor.extract_slice %2[123, 0] [1, 904] [1, 1] : tensor<128x1024xf32> to tensor<1x904xf32>
    %extracted_slice_445 = tensor.extract_slice %2[123, 904] [1, 120] [1, 1] : tensor<128x1024xf32> to tensor<1x120xf32>
    %inserted_slice_446 = tensor.insert_slice %extracted_slice_444 into %6[0, 120] [1, 904] [1, 1] : tensor<1x904xf32> into tensor<1x1024xf32>
    %inserted_slice_447 = tensor.insert_slice %extracted_slice_445 into %inserted_slice_446[0, 0] [1, 120] [1, 1] : tensor<1x120xf32> into tensor<1x1024xf32>
    %extracted_slice_448 = tensor.extract_slice %2[124, 0] [1, 904] [1, 1] : tensor<128x1024xf32> to tensor<1x904xf32>
    %extracted_slice_449 = tensor.extract_slice %2[124, 904] [1, 120] [1, 1] : tensor<128x1024xf32> to tensor<1x120xf32>
    %inserted_slice_450 = tensor.insert_slice %extracted_slice_448 into %6[0, 120] [1, 904] [1, 1] : tensor<1x904xf32> into tensor<1x1024xf32>
    %inserted_slice_451 = tensor.insert_slice %extracted_slice_449 into %inserted_slice_450[0, 0] [1, 120] [1, 1] : tensor<1x120xf32> into tensor<1x1024xf32>
    %extracted_slice_452 = tensor.extract_slice %2[125, 0] [1, 904] [1, 1] : tensor<128x1024xf32> to tensor<1x904xf32>
    %extracted_slice_453 = tensor.extract_slice %2[125, 904] [1, 120] [1, 1] : tensor<128x1024xf32> to tensor<1x120xf32>
    %inserted_slice_454 = tensor.insert_slice %extracted_slice_452 into %6[0, 120] [1, 904] [1, 1] : tensor<1x904xf32> into tensor<1x1024xf32>
    %inserted_slice_455 = tensor.insert_slice %extracted_slice_453 into %inserted_slice_454[0, 0] [1, 120] [1, 1] : tensor<1x120xf32> into tensor<1x1024xf32>
    %extracted_slice_456 = tensor.extract_slice %2[126, 0] [1, 904] [1, 1] : tensor<128x1024xf32> to tensor<1x904xf32>
    %extracted_slice_457 = tensor.extract_slice %2[126, 904] [1, 120] [1, 1] : tensor<128x1024xf32> to tensor<1x120xf32>
    %inserted_slice_458 = tensor.insert_slice %extracted_slice_456 into %6[0, 120] [1, 904] [1, 1] : tensor<1x904xf32> into tensor<1x1024xf32>
    %inserted_slice_459 = tensor.insert_slice %extracted_slice_457 into %inserted_slice_458[0, 0] [1, 120] [1, 1] : tensor<1x120xf32> into tensor<1x1024xf32>
    %extracted_slice_460 = tensor.extract_slice %2[127, 0] [1, 904] [1, 1] : tensor<128x1024xf32> to tensor<1x904xf32>
    %extracted_slice_461 = tensor.extract_slice %2[127, 904] [1, 120] [1, 1] : tensor<128x1024xf32> to tensor<1x120xf32>
    %inserted_slice_462 = tensor.insert_slice %extracted_slice_460 into %6[0, 120] [1, 904] [1, 1] : tensor<1x904xf32> into tensor<1x1024xf32>
    %inserted_slice_463 = tensor.insert_slice %extracted_slice_461 into %inserted_slice_462[0, 0] [1, 120] [1, 1] : tensor<1x120xf32> into tensor<1x1024xf32>
    %extracted_slice_464 = tensor.extract_slice %4[4, 0] [1, 1020] [1, 1] : tensor<16x1024xf32> to tensor<1x1020xf32>
    %extracted_slice_465 = tensor.extract_slice %4[4, 1020] [1, 4] [1, 1] : tensor<16x1024xf32> to tensor<1x4xf32>
    %inserted_slice_466 = tensor.insert_slice %extracted_slice_464 into %6[0, 4] [1, 1020] [1, 1] : tensor<1x1020xf32> into tensor<1x1024xf32>
    %inserted_slice_467 = tensor.insert_slice %extracted_slice_465 into %inserted_slice_466[0, 0] [1, 4] [1, 1] : tensor<1x4xf32> into tensor<1x1024xf32>
    %extracted_slice_468 = tensor.extract_slice %4[5, 0] [1, 1020] [1, 1] : tensor<16x1024xf32> to tensor<1x1020xf32>
    %extracted_slice_469 = tensor.extract_slice %4[5, 1020] [1, 4] [1, 1] : tensor<16x1024xf32> to tensor<1x4xf32>
    %inserted_slice_470 = tensor.insert_slice %extracted_slice_468 into %6[0, 4] [1, 1020] [1, 1] : tensor<1x1020xf32> into tensor<1x1024xf32>
    %inserted_slice_471 = tensor.insert_slice %extracted_slice_469 into %inserted_slice_470[0, 0] [1, 4] [1, 1] : tensor<1x4xf32> into tensor<1x1024xf32>
    %extracted_slice_472 = tensor.extract_slice %4[6, 0] [1, 1020] [1, 1] : tensor<16x1024xf32> to tensor<1x1020xf32>
    %extracted_slice_473 = tensor.extract_slice %4[6, 1020] [1, 4] [1, 1] : tensor<16x1024xf32> to tensor<1x4xf32>
    %inserted_slice_474 = tensor.insert_slice %extracted_slice_472 into %6[0, 4] [1, 1020] [1, 1] : tensor<1x1020xf32> into tensor<1x1024xf32>
    %inserted_slice_475 = tensor.insert_slice %extracted_slice_473 into %inserted_slice_474[0, 0] [1, 4] [1, 1] : tensor<1x4xf32> into tensor<1x1024xf32>
    %extracted_slice_476 = tensor.extract_slice %4[7, 0] [1, 1020] [1, 1] : tensor<16x1024xf32> to tensor<1x1020xf32>
    %extracted_slice_477 = tensor.extract_slice %4[7, 1020] [1, 4] [1, 1] : tensor<16x1024xf32> to tensor<1x4xf32>
    %inserted_slice_478 = tensor.insert_slice %extracted_slice_476 into %6[0, 4] [1, 1020] [1, 1] : tensor<1x1020xf32> into tensor<1x1024xf32>
    %inserted_slice_479 = tensor.insert_slice %extracted_slice_477 into %inserted_slice_478[0, 0] [1, 4] [1, 1] : tensor<1x4xf32> into tensor<1x1024xf32>
    %extracted_slice_480 = tensor.extract_slice %4[8, 0] [1, 1016] [1, 1] : tensor<16x1024xf32> to tensor<1x1016xf32>
    %extracted_slice_481 = tensor.extract_slice %4[8, 1016] [1, 8] [1, 1] : tensor<16x1024xf32> to tensor<1x8xf32>
    %inserted_slice_482 = tensor.insert_slice %extracted_slice_480 into %6[0, 8] [1, 1016] [1, 1] : tensor<1x1016xf32> into tensor<1x1024xf32>
    %inserted_slice_483 = tensor.insert_slice %extracted_slice_481 into %inserted_slice_482[0, 0] [1, 8] [1, 1] : tensor<1x8xf32> into tensor<1x1024xf32>
    %extracted_slice_484 = tensor.extract_slice %4[9, 0] [1, 1016] [1, 1] : tensor<16x1024xf32> to tensor<1x1016xf32>
    %extracted_slice_485 = tensor.extract_slice %4[9, 1016] [1, 8] [1, 1] : tensor<16x1024xf32> to tensor<1x8xf32>
    %inserted_slice_486 = tensor.insert_slice %extracted_slice_484 into %6[0, 8] [1, 1016] [1, 1] : tensor<1x1016xf32> into tensor<1x1024xf32>
    %inserted_slice_487 = tensor.insert_slice %extracted_slice_485 into %inserted_slice_486[0, 0] [1, 8] [1, 1] : tensor<1x8xf32> into tensor<1x1024xf32>
    %extracted_slice_488 = tensor.extract_slice %4[10, 0] [1, 1016] [1, 1] : tensor<16x1024xf32> to tensor<1x1016xf32>
    %extracted_slice_489 = tensor.extract_slice %4[10, 1016] [1, 8] [1, 1] : tensor<16x1024xf32> to tensor<1x8xf32>
    %inserted_slice_490 = tensor.insert_slice %extracted_slice_488 into %6[0, 8] [1, 1016] [1, 1] : tensor<1x1016xf32> into tensor<1x1024xf32>
    %inserted_slice_491 = tensor.insert_slice %extracted_slice_489 into %inserted_slice_490[0, 0] [1, 8] [1, 1] : tensor<1x8xf32> into tensor<1x1024xf32>
    %extracted_slice_492 = tensor.extract_slice %4[11, 0] [1, 1016] [1, 1] : tensor<16x1024xf32> to tensor<1x1016xf32>
    %extracted_slice_493 = tensor.extract_slice %4[11, 1016] [1, 8] [1, 1] : tensor<16x1024xf32> to tensor<1x8xf32>
    %inserted_slice_494 = tensor.insert_slice %extracted_slice_492 into %6[0, 8] [1, 1016] [1, 1] : tensor<1x1016xf32> into tensor<1x1024xf32>
    %inserted_slice_495 = tensor.insert_slice %extracted_slice_493 into %inserted_slice_494[0, 0] [1, 8] [1, 1] : tensor<1x8xf32> into tensor<1x1024xf32>
    %extracted_slice_496 = tensor.extract_slice %4[12, 0] [1, 1012] [1, 1] : tensor<16x1024xf32> to tensor<1x1012xf32>
    %extracted_slice_497 = tensor.extract_slice %4[12, 1012] [1, 12] [1, 1] : tensor<16x1024xf32> to tensor<1x12xf32>
    %inserted_slice_498 = tensor.insert_slice %extracted_slice_496 into %6[0, 12] [1, 1012] [1, 1] : tensor<1x1012xf32> into tensor<1x1024xf32>
    %inserted_slice_499 = tensor.insert_slice %extracted_slice_497 into %inserted_slice_498[0, 0] [1, 12] [1, 1] : tensor<1x12xf32> into tensor<1x1024xf32>
    %extracted_slice_500 = tensor.extract_slice %4[13, 0] [1, 1012] [1, 1] : tensor<16x1024xf32> to tensor<1x1012xf32>
    %extracted_slice_501 = tensor.extract_slice %4[13, 1012] [1, 12] [1, 1] : tensor<16x1024xf32> to tensor<1x12xf32>
    %inserted_slice_502 = tensor.insert_slice %extracted_slice_500 into %6[0, 12] [1, 1012] [1, 1] : tensor<1x1012xf32> into tensor<1x1024xf32>
    %inserted_slice_503 = tensor.insert_slice %extracted_slice_501 into %inserted_slice_502[0, 0] [1, 12] [1, 1] : tensor<1x12xf32> into tensor<1x1024xf32>
    %extracted_slice_504 = tensor.extract_slice %4[14, 0] [1, 1012] [1, 1] : tensor<16x1024xf32> to tensor<1x1012xf32>
    %extracted_slice_505 = tensor.extract_slice %4[14, 1012] [1, 12] [1, 1] : tensor<16x1024xf32> to tensor<1x12xf32>
    %inserted_slice_506 = tensor.insert_slice %extracted_slice_504 into %6[0, 12] [1, 1012] [1, 1] : tensor<1x1012xf32> into tensor<1x1024xf32>
    %inserted_slice_507 = tensor.insert_slice %extracted_slice_505 into %inserted_slice_506[0, 0] [1, 12] [1, 1] : tensor<1x12xf32> into tensor<1x1024xf32>
    %extracted_slice_508 = tensor.extract_slice %4[15, 0] [1, 1012] [1, 1] : tensor<16x1024xf32> to tensor<1x1012xf32>
    %extracted_slice_509 = tensor.extract_slice %4[15, 1012] [1, 12] [1, 1] : tensor<16x1024xf32> to tensor<1x12xf32>
    %inserted_slice_510 = tensor.insert_slice %extracted_slice_508 into %6[0, 12] [1, 1012] [1, 1] : tensor<1x1012xf32> into tensor<1x1024xf32>
    %inserted_slice_511 = tensor.insert_slice %extracted_slice_509 into %inserted_slice_510[0, 0] [1, 12] [1, 1] : tensor<1x12xf32> into tensor<1x1024xf32>
    %extracted_slice_512 = tensor.extract_slice %0[12, 0] [1, 1012] [1, 1] : tensor<128x1024xf32> to tensor<1x1012xf32>
    %extracted_slice_513 = tensor.extract_slice %0[12, 1012] [1, 12] [1, 1] : tensor<128x1024xf32> to tensor<1x12xf32>
    %inserted_slice_514 = tensor.insert_slice %extracted_slice_512 into %6[0, 12] [1, 1012] [1, 1] : tensor<1x1012xf32> into tensor<1x1024xf32>
    %inserted_slice_515 = tensor.insert_slice %extracted_slice_513 into %inserted_slice_514[0, 0] [1, 12] [1, 1] : tensor<1x12xf32> into tensor<1x1024xf32>
    %extracted_slice_516 = tensor.extract_slice %0[13, 0] [1, 1012] [1, 1] : tensor<128x1024xf32> to tensor<1x1012xf32>
    %extracted_slice_517 = tensor.extract_slice %0[13, 1012] [1, 12] [1, 1] : tensor<128x1024xf32> to tensor<1x12xf32>
    %inserted_slice_518 = tensor.insert_slice %extracted_slice_516 into %6[0, 12] [1, 1012] [1, 1] : tensor<1x1012xf32> into tensor<1x1024xf32>
    %inserted_slice_519 = tensor.insert_slice %extracted_slice_517 into %inserted_slice_518[0, 0] [1, 12] [1, 1] : tensor<1x12xf32> into tensor<1x1024xf32>
    %extracted_slice_520 = tensor.extract_slice %0[14, 0] [1, 1012] [1, 1] : tensor<128x1024xf32> to tensor<1x1012xf32>
    %extracted_slice_521 = tensor.extract_slice %0[14, 1012] [1, 12] [1, 1] : tensor<128x1024xf32> to tensor<1x12xf32>
    %inserted_slice_522 = tensor.insert_slice %extracted_slice_520 into %6[0, 12] [1, 1012] [1, 1] : tensor<1x1012xf32> into tensor<1x1024xf32>
    %inserted_slice_523 = tensor.insert_slice %extracted_slice_521 into %inserted_slice_522[0, 0] [1, 12] [1, 1] : tensor<1x12xf32> into tensor<1x1024xf32>
    %extracted_slice_524 = tensor.extract_slice %0[15, 0] [1, 1012] [1, 1] : tensor<128x1024xf32> to tensor<1x1012xf32>
    %extracted_slice_525 = tensor.extract_slice %0[15, 1012] [1, 12] [1, 1] : tensor<128x1024xf32> to tensor<1x12xf32>
    %inserted_slice_526 = tensor.insert_slice %extracted_slice_524 into %6[0, 12] [1, 1012] [1, 1] : tensor<1x1012xf32> into tensor<1x1024xf32>
    %inserted_slice_527 = tensor.insert_slice %extracted_slice_525 into %inserted_slice_526[0, 0] [1, 12] [1, 1] : tensor<1x12xf32> into tensor<1x1024xf32>
    %extracted_slice_528 = tensor.extract_slice %0[16, 0] [1, 1012] [1, 1] : tensor<128x1024xf32> to tensor<1x1012xf32>
    %extracted_slice_529 = tensor.extract_slice %0[16, 1012] [1, 12] [1, 1] : tensor<128x1024xf32> to tensor<1x12xf32>
    %inserted_slice_530 = tensor.insert_slice %extracted_slice_528 into %6[0, 12] [1, 1012] [1, 1] : tensor<1x1012xf32> into tensor<1x1024xf32>
    %inserted_slice_531 = tensor.insert_slice %extracted_slice_529 into %inserted_slice_530[0, 0] [1, 12] [1, 1] : tensor<1x12xf32> into tensor<1x1024xf32>
    %extracted_slice_532 = tensor.extract_slice %0[17, 0] [1, 1012] [1, 1] : tensor<128x1024xf32> to tensor<1x1012xf32>
    %extracted_slice_533 = tensor.extract_slice %0[17, 1012] [1, 12] [1, 1] : tensor<128x1024xf32> to tensor<1x12xf32>
    %inserted_slice_534 = tensor.insert_slice %extracted_slice_532 into %6[0, 12] [1, 1012] [1, 1] : tensor<1x1012xf32> into tensor<1x1024xf32>
    %inserted_slice_535 = tensor.insert_slice %extracted_slice_533 into %inserted_slice_534[0, 0] [1, 12] [1, 1] : tensor<1x12xf32> into tensor<1x1024xf32>
    %extracted_slice_536 = tensor.extract_slice %0[18, 0] [1, 1012] [1, 1] : tensor<128x1024xf32> to tensor<1x1012xf32>
    %extracted_slice_537 = tensor.extract_slice %0[18, 1012] [1, 12] [1, 1] : tensor<128x1024xf32> to tensor<1x12xf32>
    %inserted_slice_538 = tensor.insert_slice %extracted_slice_536 into %6[0, 12] [1, 1012] [1, 1] : tensor<1x1012xf32> into tensor<1x1024xf32>
    %inserted_slice_539 = tensor.insert_slice %extracted_slice_537 into %inserted_slice_538[0, 0] [1, 12] [1, 1] : tensor<1x12xf32> into tensor<1x1024xf32>
    %extracted_slice_540 = tensor.extract_slice %0[19, 0] [1, 1012] [1, 1] : tensor<128x1024xf32> to tensor<1x1012xf32>
    %extracted_slice_541 = tensor.extract_slice %0[19, 1012] [1, 12] [1, 1] : tensor<128x1024xf32> to tensor<1x12xf32>
    %inserted_slice_542 = tensor.insert_slice %extracted_slice_540 into %6[0, 12] [1, 1012] [1, 1] : tensor<1x1012xf32> into tensor<1x1024xf32>
    %inserted_slice_543 = tensor.insert_slice %extracted_slice_541 into %inserted_slice_542[0, 0] [1, 12] [1, 1] : tensor<1x12xf32> into tensor<1x1024xf32>
    %extracted_slice_544 = tensor.extract_slice %0[20, 0] [1, 1012] [1, 1] : tensor<128x1024xf32> to tensor<1x1012xf32>
    %extracted_slice_545 = tensor.extract_slice %0[20, 1012] [1, 12] [1, 1] : tensor<128x1024xf32> to tensor<1x12xf32>
    %inserted_slice_546 = tensor.insert_slice %extracted_slice_544 into %6[0, 12] [1, 1012] [1, 1] : tensor<1x1012xf32> into tensor<1x1024xf32>
    %inserted_slice_547 = tensor.insert_slice %extracted_slice_545 into %inserted_slice_546[0, 0] [1, 12] [1, 1] : tensor<1x12xf32> into tensor<1x1024xf32>
    %extracted_slice_548 = tensor.extract_slice %0[21, 0] [1, 1012] [1, 1] : tensor<128x1024xf32> to tensor<1x1012xf32>
    %extracted_slice_549 = tensor.extract_slice %0[21, 1012] [1, 12] [1, 1] : tensor<128x1024xf32> to tensor<1x12xf32>
    %inserted_slice_550 = tensor.insert_slice %extracted_slice_548 into %6[0, 12] [1, 1012] [1, 1] : tensor<1x1012xf32> into tensor<1x1024xf32>
    %inserted_slice_551 = tensor.insert_slice %extracted_slice_549 into %inserted_slice_550[0, 0] [1, 12] [1, 1] : tensor<1x12xf32> into tensor<1x1024xf32>
    %extracted_slice_552 = tensor.extract_slice %0[22, 0] [1, 1012] [1, 1] : tensor<128x1024xf32> to tensor<1x1012xf32>
    %extracted_slice_553 = tensor.extract_slice %0[22, 1012] [1, 12] [1, 1] : tensor<128x1024xf32> to tensor<1x12xf32>
    %inserted_slice_554 = tensor.insert_slice %extracted_slice_552 into %6[0, 12] [1, 1012] [1, 1] : tensor<1x1012xf32> into tensor<1x1024xf32>
    %inserted_slice_555 = tensor.insert_slice %extracted_slice_553 into %inserted_slice_554[0, 0] [1, 12] [1, 1] : tensor<1x12xf32> into tensor<1x1024xf32>
    %extracted_slice_556 = tensor.extract_slice %0[23, 0] [1, 1012] [1, 1] : tensor<128x1024xf32> to tensor<1x1012xf32>
    %extracted_slice_557 = tensor.extract_slice %0[23, 1012] [1, 12] [1, 1] : tensor<128x1024xf32> to tensor<1x12xf32>
    %inserted_slice_558 = tensor.insert_slice %extracted_slice_556 into %6[0, 12] [1, 1012] [1, 1] : tensor<1x1012xf32> into tensor<1x1024xf32>
    %inserted_slice_559 = tensor.insert_slice %extracted_slice_557 into %inserted_slice_558[0, 0] [1, 12] [1, 1] : tensor<1x12xf32> into tensor<1x1024xf32>
    %extracted_slice_560 = tensor.extract_slice %0[24, 0] [1, 1000] [1, 1] : tensor<128x1024xf32> to tensor<1x1000xf32>
    %extracted_slice_561 = tensor.extract_slice %0[24, 1000] [1, 24] [1, 1] : tensor<128x1024xf32> to tensor<1x24xf32>
    %inserted_slice_562 = tensor.insert_slice %extracted_slice_560 into %6[0, 24] [1, 1000] [1, 1] : tensor<1x1000xf32> into tensor<1x1024xf32>
    %inserted_slice_563 = tensor.insert_slice %extracted_slice_561 into %inserted_slice_562[0, 0] [1, 24] [1, 1] : tensor<1x24xf32> into tensor<1x1024xf32>
    %extracted_slice_564 = tensor.extract_slice %0[25, 0] [1, 1000] [1, 1] : tensor<128x1024xf32> to tensor<1x1000xf32>
    %extracted_slice_565 = tensor.extract_slice %0[25, 1000] [1, 24] [1, 1] : tensor<128x1024xf32> to tensor<1x24xf32>
    %inserted_slice_566 = tensor.insert_slice %extracted_slice_564 into %6[0, 24] [1, 1000] [1, 1] : tensor<1x1000xf32> into tensor<1x1024xf32>
    %inserted_slice_567 = tensor.insert_slice %extracted_slice_565 into %inserted_slice_566[0, 0] [1, 24] [1, 1] : tensor<1x24xf32> into tensor<1x1024xf32>
    %extracted_slice_568 = tensor.extract_slice %0[26, 0] [1, 1000] [1, 1] : tensor<128x1024xf32> to tensor<1x1000xf32>
    %extracted_slice_569 = tensor.extract_slice %0[26, 1000] [1, 24] [1, 1] : tensor<128x1024xf32> to tensor<1x24xf32>
    %inserted_slice_570 = tensor.insert_slice %extracted_slice_568 into %6[0, 24] [1, 1000] [1, 1] : tensor<1x1000xf32> into tensor<1x1024xf32>
    %inserted_slice_571 = tensor.insert_slice %extracted_slice_569 into %inserted_slice_570[0, 0] [1, 24] [1, 1] : tensor<1x24xf32> into tensor<1x1024xf32>
    %extracted_slice_572 = tensor.extract_slice %0[27, 0] [1, 1000] [1, 1] : tensor<128x1024xf32> to tensor<1x1000xf32>
    %extracted_slice_573 = tensor.extract_slice %0[27, 1000] [1, 24] [1, 1] : tensor<128x1024xf32> to tensor<1x24xf32>
    %inserted_slice_574 = tensor.insert_slice %extracted_slice_572 into %6[0, 24] [1, 1000] [1, 1] : tensor<1x1000xf32> into tensor<1x1024xf32>
    %inserted_slice_575 = tensor.insert_slice %extracted_slice_573 into %inserted_slice_574[0, 0] [1, 24] [1, 1] : tensor<1x24xf32> into tensor<1x1024xf32>
    %extracted_slice_576 = tensor.extract_slice %0[28, 0] [1, 1000] [1, 1] : tensor<128x1024xf32> to tensor<1x1000xf32>
    %extracted_slice_577 = tensor.extract_slice %0[28, 1000] [1, 24] [1, 1] : tensor<128x1024xf32> to tensor<1x24xf32>
    %inserted_slice_578 = tensor.insert_slice %extracted_slice_576 into %6[0, 24] [1, 1000] [1, 1] : tensor<1x1000xf32> into tensor<1x1024xf32>
    %inserted_slice_579 = tensor.insert_slice %extracted_slice_577 into %inserted_slice_578[0, 0] [1, 24] [1, 1] : tensor<1x24xf32> into tensor<1x1024xf32>
    %extracted_slice_580 = tensor.extract_slice %0[29, 0] [1, 1000] [1, 1] : tensor<128x1024xf32> to tensor<1x1000xf32>
    %extracted_slice_581 = tensor.extract_slice %0[29, 1000] [1, 24] [1, 1] : tensor<128x1024xf32> to tensor<1x24xf32>
    %inserted_slice_582 = tensor.insert_slice %extracted_slice_580 into %6[0, 24] [1, 1000] [1, 1] : tensor<1x1000xf32> into tensor<1x1024xf32>
    %inserted_slice_583 = tensor.insert_slice %extracted_slice_581 into %inserted_slice_582[0, 0] [1, 24] [1, 1] : tensor<1x24xf32> into tensor<1x1024xf32>
    %extracted_slice_584 = tensor.extract_slice %0[30, 0] [1, 1000] [1, 1] : tensor<128x1024xf32> to tensor<1x1000xf32>
    %extracted_slice_585 = tensor.extract_slice %0[30, 1000] [1, 24] [1, 1] : tensor<128x1024xf32> to tensor<1x24xf32>
    %inserted_slice_586 = tensor.insert_slice %extracted_slice_584 into %6[0, 24] [1, 1000] [1, 1] : tensor<1x1000xf32> into tensor<1x1024xf32>
    %inserted_slice_587 = tensor.insert_slice %extracted_slice_585 into %inserted_slice_586[0, 0] [1, 24] [1, 1] : tensor<1x24xf32> into tensor<1x1024xf32>
    %extracted_slice_588 = tensor.extract_slice %0[31, 0] [1, 1000] [1, 1] : tensor<128x1024xf32> to tensor<1x1000xf32>
    %extracted_slice_589 = tensor.extract_slice %0[31, 1000] [1, 24] [1, 1] : tensor<128x1024xf32> to tensor<1x24xf32>
    %inserted_slice_590 = tensor.insert_slice %extracted_slice_588 into %6[0, 24] [1, 1000] [1, 1] : tensor<1x1000xf32> into tensor<1x1024xf32>
    %inserted_slice_591 = tensor.insert_slice %extracted_slice_589 into %inserted_slice_590[0, 0] [1, 24] [1, 1] : tensor<1x24xf32> into tensor<1x1024xf32>
    %extracted_slice_592 = tensor.extract_slice %0[32, 0] [1, 1000] [1, 1] : tensor<128x1024xf32> to tensor<1x1000xf32>
    %extracted_slice_593 = tensor.extract_slice %0[32, 1000] [1, 24] [1, 1] : tensor<128x1024xf32> to tensor<1x24xf32>
    %inserted_slice_594 = tensor.insert_slice %extracted_slice_592 into %6[0, 24] [1, 1000] [1, 1] : tensor<1x1000xf32> into tensor<1x1024xf32>
    %inserted_slice_595 = tensor.insert_slice %extracted_slice_593 into %inserted_slice_594[0, 0] [1, 24] [1, 1] : tensor<1x24xf32> into tensor<1x1024xf32>
    %extracted_slice_596 = tensor.extract_slice %0[33, 0] [1, 1000] [1, 1] : tensor<128x1024xf32> to tensor<1x1000xf32>
    %extracted_slice_597 = tensor.extract_slice %0[33, 1000] [1, 24] [1, 1] : tensor<128x1024xf32> to tensor<1x24xf32>
    %inserted_slice_598 = tensor.insert_slice %extracted_slice_596 into %6[0, 24] [1, 1000] [1, 1] : tensor<1x1000xf32> into tensor<1x1024xf32>
    %inserted_slice_599 = tensor.insert_slice %extracted_slice_597 into %inserted_slice_598[0, 0] [1, 24] [1, 1] : tensor<1x24xf32> into tensor<1x1024xf32>
    %extracted_slice_600 = tensor.extract_slice %0[34, 0] [1, 1000] [1, 1] : tensor<128x1024xf32> to tensor<1x1000xf32>
    %extracted_slice_601 = tensor.extract_slice %0[34, 1000] [1, 24] [1, 1] : tensor<128x1024xf32> to tensor<1x24xf32>
    %inserted_slice_602 = tensor.insert_slice %extracted_slice_600 into %6[0, 24] [1, 1000] [1, 1] : tensor<1x1000xf32> into tensor<1x1024xf32>
    %inserted_slice_603 = tensor.insert_slice %extracted_slice_601 into %inserted_slice_602[0, 0] [1, 24] [1, 1] : tensor<1x24xf32> into tensor<1x1024xf32>
    %extracted_slice_604 = tensor.extract_slice %0[35, 0] [1, 1000] [1, 1] : tensor<128x1024xf32> to tensor<1x1000xf32>
    %extracted_slice_605 = tensor.extract_slice %0[35, 1000] [1, 24] [1, 1] : tensor<128x1024xf32> to tensor<1x24xf32>
    %inserted_slice_606 = tensor.insert_slice %extracted_slice_604 into %6[0, 24] [1, 1000] [1, 1] : tensor<1x1000xf32> into tensor<1x1024xf32>
    %inserted_slice_607 = tensor.insert_slice %extracted_slice_605 into %inserted_slice_606[0, 0] [1, 24] [1, 1] : tensor<1x24xf32> into tensor<1x1024xf32>
    %extracted_slice_608 = tensor.extract_slice %0[36, 0] [1, 988] [1, 1] : tensor<128x1024xf32> to tensor<1x988xf32>
    %extracted_slice_609 = tensor.extract_slice %0[36, 988] [1, 36] [1, 1] : tensor<128x1024xf32> to tensor<1x36xf32>
    %inserted_slice_610 = tensor.insert_slice %extracted_slice_608 into %6[0, 36] [1, 988] [1, 1] : tensor<1x988xf32> into tensor<1x1024xf32>
    %inserted_slice_611 = tensor.insert_slice %extracted_slice_609 into %inserted_slice_610[0, 0] [1, 36] [1, 1] : tensor<1x36xf32> into tensor<1x1024xf32>
    %extracted_slice_612 = tensor.extract_slice %0[37, 0] [1, 988] [1, 1] : tensor<128x1024xf32> to tensor<1x988xf32>
    %extracted_slice_613 = tensor.extract_slice %0[37, 988] [1, 36] [1, 1] : tensor<128x1024xf32> to tensor<1x36xf32>
    %inserted_slice_614 = tensor.insert_slice %extracted_slice_612 into %6[0, 36] [1, 988] [1, 1] : tensor<1x988xf32> into tensor<1x1024xf32>
    %inserted_slice_615 = tensor.insert_slice %extracted_slice_613 into %inserted_slice_614[0, 0] [1, 36] [1, 1] : tensor<1x36xf32> into tensor<1x1024xf32>
    %extracted_slice_616 = tensor.extract_slice %0[38, 0] [1, 988] [1, 1] : tensor<128x1024xf32> to tensor<1x988xf32>
    %extracted_slice_617 = tensor.extract_slice %0[38, 988] [1, 36] [1, 1] : tensor<128x1024xf32> to tensor<1x36xf32>
    %inserted_slice_618 = tensor.insert_slice %extracted_slice_616 into %6[0, 36] [1, 988] [1, 1] : tensor<1x988xf32> into tensor<1x1024xf32>
    %inserted_slice_619 = tensor.insert_slice %extracted_slice_617 into %inserted_slice_618[0, 0] [1, 36] [1, 1] : tensor<1x36xf32> into tensor<1x1024xf32>
    %extracted_slice_620 = tensor.extract_slice %0[39, 0] [1, 988] [1, 1] : tensor<128x1024xf32> to tensor<1x988xf32>
    %extracted_slice_621 = tensor.extract_slice %0[39, 988] [1, 36] [1, 1] : tensor<128x1024xf32> to tensor<1x36xf32>
    %inserted_slice_622 = tensor.insert_slice %extracted_slice_620 into %6[0, 36] [1, 988] [1, 1] : tensor<1x988xf32> into tensor<1x1024xf32>
    %inserted_slice_623 = tensor.insert_slice %extracted_slice_621 into %inserted_slice_622[0, 0] [1, 36] [1, 1] : tensor<1x36xf32> into tensor<1x1024xf32>
    %extracted_slice_624 = tensor.extract_slice %0[40, 0] [1, 988] [1, 1] : tensor<128x1024xf32> to tensor<1x988xf32>
    %extracted_slice_625 = tensor.extract_slice %0[40, 988] [1, 36] [1, 1] : tensor<128x1024xf32> to tensor<1x36xf32>
    %inserted_slice_626 = tensor.insert_slice %extracted_slice_624 into %6[0, 36] [1, 988] [1, 1] : tensor<1x988xf32> into tensor<1x1024xf32>
    %inserted_slice_627 = tensor.insert_slice %extracted_slice_625 into %inserted_slice_626[0, 0] [1, 36] [1, 1] : tensor<1x36xf32> into tensor<1x1024xf32>
    %extracted_slice_628 = tensor.extract_slice %0[41, 0] [1, 988] [1, 1] : tensor<128x1024xf32> to tensor<1x988xf32>
    %extracted_slice_629 = tensor.extract_slice %0[41, 988] [1, 36] [1, 1] : tensor<128x1024xf32> to tensor<1x36xf32>
    %inserted_slice_630 = tensor.insert_slice %extracted_slice_628 into %6[0, 36] [1, 988] [1, 1] : tensor<1x988xf32> into tensor<1x1024xf32>
    %inserted_slice_631 = tensor.insert_slice %extracted_slice_629 into %inserted_slice_630[0, 0] [1, 36] [1, 1] : tensor<1x36xf32> into tensor<1x1024xf32>
    %extracted_slice_632 = tensor.extract_slice %0[42, 0] [1, 988] [1, 1] : tensor<128x1024xf32> to tensor<1x988xf32>
    %extracted_slice_633 = tensor.extract_slice %0[42, 988] [1, 36] [1, 1] : tensor<128x1024xf32> to tensor<1x36xf32>
    %inserted_slice_634 = tensor.insert_slice %extracted_slice_632 into %6[0, 36] [1, 988] [1, 1] : tensor<1x988xf32> into tensor<1x1024xf32>
    %inserted_slice_635 = tensor.insert_slice %extracted_slice_633 into %inserted_slice_634[0, 0] [1, 36] [1, 1] : tensor<1x36xf32> into tensor<1x1024xf32>
    %extracted_slice_636 = tensor.extract_slice %0[43, 0] [1, 988] [1, 1] : tensor<128x1024xf32> to tensor<1x988xf32>
    %extracted_slice_637 = tensor.extract_slice %0[43, 988] [1, 36] [1, 1] : tensor<128x1024xf32> to tensor<1x36xf32>
    %inserted_slice_638 = tensor.insert_slice %extracted_slice_636 into %6[0, 36] [1, 988] [1, 1] : tensor<1x988xf32> into tensor<1x1024xf32>
    %inserted_slice_639 = tensor.insert_slice %extracted_slice_637 into %inserted_slice_638[0, 0] [1, 36] [1, 1] : tensor<1x36xf32> into tensor<1x1024xf32>
    %extracted_slice_640 = tensor.extract_slice %0[44, 0] [1, 988] [1, 1] : tensor<128x1024xf32> to tensor<1x988xf32>
    %extracted_slice_641 = tensor.extract_slice %0[44, 988] [1, 36] [1, 1] : tensor<128x1024xf32> to tensor<1x36xf32>
    %inserted_slice_642 = tensor.insert_slice %extracted_slice_640 into %6[0, 36] [1, 988] [1, 1] : tensor<1x988xf32> into tensor<1x1024xf32>
    %inserted_slice_643 = tensor.insert_slice %extracted_slice_641 into %inserted_slice_642[0, 0] [1, 36] [1, 1] : tensor<1x36xf32> into tensor<1x1024xf32>
    %extracted_slice_644 = tensor.extract_slice %0[45, 0] [1, 988] [1, 1] : tensor<128x1024xf32> to tensor<1x988xf32>
    %extracted_slice_645 = tensor.extract_slice %0[45, 988] [1, 36] [1, 1] : tensor<128x1024xf32> to tensor<1x36xf32>
    %inserted_slice_646 = tensor.insert_slice %extracted_slice_644 into %6[0, 36] [1, 988] [1, 1] : tensor<1x988xf32> into tensor<1x1024xf32>
    %inserted_slice_647 = tensor.insert_slice %extracted_slice_645 into %inserted_slice_646[0, 0] [1, 36] [1, 1] : tensor<1x36xf32> into tensor<1x1024xf32>
    %extracted_slice_648 = tensor.extract_slice %0[46, 0] [1, 988] [1, 1] : tensor<128x1024xf32> to tensor<1x988xf32>
    %extracted_slice_649 = tensor.extract_slice %0[46, 988] [1, 36] [1, 1] : tensor<128x1024xf32> to tensor<1x36xf32>
    %inserted_slice_650 = tensor.insert_slice %extracted_slice_648 into %6[0, 36] [1, 988] [1, 1] : tensor<1x988xf32> into tensor<1x1024xf32>
    %inserted_slice_651 = tensor.insert_slice %extracted_slice_649 into %inserted_slice_650[0, 0] [1, 36] [1, 1] : tensor<1x36xf32> into tensor<1x1024xf32>
    %extracted_slice_652 = tensor.extract_slice %0[47, 0] [1, 988] [1, 1] : tensor<128x1024xf32> to tensor<1x988xf32>
    %extracted_slice_653 = tensor.extract_slice %0[47, 988] [1, 36] [1, 1] : tensor<128x1024xf32> to tensor<1x36xf32>
    %inserted_slice_654 = tensor.insert_slice %extracted_slice_652 into %6[0, 36] [1, 988] [1, 1] : tensor<1x988xf32> into tensor<1x1024xf32>
    %inserted_slice_655 = tensor.insert_slice %extracted_slice_653 into %inserted_slice_654[0, 0] [1, 36] [1, 1] : tensor<1x36xf32> into tensor<1x1024xf32>
    %extracted_slice_656 = tensor.extract_slice %0[48, 0] [1, 976] [1, 1] : tensor<128x1024xf32> to tensor<1x976xf32>
    %extracted_slice_657 = tensor.extract_slice %0[48, 976] [1, 48] [1, 1] : tensor<128x1024xf32> to tensor<1x48xf32>
    %inserted_slice_658 = tensor.insert_slice %extracted_slice_656 into %6[0, 48] [1, 976] [1, 1] : tensor<1x976xf32> into tensor<1x1024xf32>
    %inserted_slice_659 = tensor.insert_slice %extracted_slice_657 into %inserted_slice_658[0, 0] [1, 48] [1, 1] : tensor<1x48xf32> into tensor<1x1024xf32>
    %extracted_slice_660 = tensor.extract_slice %0[49, 0] [1, 976] [1, 1] : tensor<128x1024xf32> to tensor<1x976xf32>
    %extracted_slice_661 = tensor.extract_slice %0[49, 976] [1, 48] [1, 1] : tensor<128x1024xf32> to tensor<1x48xf32>
    %inserted_slice_662 = tensor.insert_slice %extracted_slice_660 into %6[0, 48] [1, 976] [1, 1] : tensor<1x976xf32> into tensor<1x1024xf32>
    %inserted_slice_663 = tensor.insert_slice %extracted_slice_661 into %inserted_slice_662[0, 0] [1, 48] [1, 1] : tensor<1x48xf32> into tensor<1x1024xf32>
    %extracted_slice_664 = tensor.extract_slice %0[50, 0] [1, 976] [1, 1] : tensor<128x1024xf32> to tensor<1x976xf32>
    %extracted_slice_665 = tensor.extract_slice %0[50, 976] [1, 48] [1, 1] : tensor<128x1024xf32> to tensor<1x48xf32>
    %inserted_slice_666 = tensor.insert_slice %extracted_slice_664 into %6[0, 48] [1, 976] [1, 1] : tensor<1x976xf32> into tensor<1x1024xf32>
    %inserted_slice_667 = tensor.insert_slice %extracted_slice_665 into %inserted_slice_666[0, 0] [1, 48] [1, 1] : tensor<1x48xf32> into tensor<1x1024xf32>
    %extracted_slice_668 = tensor.extract_slice %0[51, 0] [1, 976] [1, 1] : tensor<128x1024xf32> to tensor<1x976xf32>
    %extracted_slice_669 = tensor.extract_slice %0[51, 976] [1, 48] [1, 1] : tensor<128x1024xf32> to tensor<1x48xf32>
    %inserted_slice_670 = tensor.insert_slice %extracted_slice_668 into %6[0, 48] [1, 976] [1, 1] : tensor<1x976xf32> into tensor<1x1024xf32>
    %inserted_slice_671 = tensor.insert_slice %extracted_slice_669 into %inserted_slice_670[0, 0] [1, 48] [1, 1] : tensor<1x48xf32> into tensor<1x1024xf32>
    %extracted_slice_672 = tensor.extract_slice %0[52, 0] [1, 976] [1, 1] : tensor<128x1024xf32> to tensor<1x976xf32>
    %extracted_slice_673 = tensor.extract_slice %0[52, 976] [1, 48] [1, 1] : tensor<128x1024xf32> to tensor<1x48xf32>
    %inserted_slice_674 = tensor.insert_slice %extracted_slice_672 into %6[0, 48] [1, 976] [1, 1] : tensor<1x976xf32> into tensor<1x1024xf32>
    %inserted_slice_675 = tensor.insert_slice %extracted_slice_673 into %inserted_slice_674[0, 0] [1, 48] [1, 1] : tensor<1x48xf32> into tensor<1x1024xf32>
    %extracted_slice_676 = tensor.extract_slice %0[53, 0] [1, 976] [1, 1] : tensor<128x1024xf32> to tensor<1x976xf32>
    %extracted_slice_677 = tensor.extract_slice %0[53, 976] [1, 48] [1, 1] : tensor<128x1024xf32> to tensor<1x48xf32>
    %inserted_slice_678 = tensor.insert_slice %extracted_slice_676 into %6[0, 48] [1, 976] [1, 1] : tensor<1x976xf32> into tensor<1x1024xf32>
    %inserted_slice_679 = tensor.insert_slice %extracted_slice_677 into %inserted_slice_678[0, 0] [1, 48] [1, 1] : tensor<1x48xf32> into tensor<1x1024xf32>
    %extracted_slice_680 = tensor.extract_slice %0[54, 0] [1, 976] [1, 1] : tensor<128x1024xf32> to tensor<1x976xf32>
    %extracted_slice_681 = tensor.extract_slice %0[54, 976] [1, 48] [1, 1] : tensor<128x1024xf32> to tensor<1x48xf32>
    %inserted_slice_682 = tensor.insert_slice %extracted_slice_680 into %6[0, 48] [1, 976] [1, 1] : tensor<1x976xf32> into tensor<1x1024xf32>
    %inserted_slice_683 = tensor.insert_slice %extracted_slice_681 into %inserted_slice_682[0, 0] [1, 48] [1, 1] : tensor<1x48xf32> into tensor<1x1024xf32>
    %extracted_slice_684 = tensor.extract_slice %0[55, 0] [1, 976] [1, 1] : tensor<128x1024xf32> to tensor<1x976xf32>
    %extracted_slice_685 = tensor.extract_slice %0[55, 976] [1, 48] [1, 1] : tensor<128x1024xf32> to tensor<1x48xf32>
    %inserted_slice_686 = tensor.insert_slice %extracted_slice_684 into %6[0, 48] [1, 976] [1, 1] : tensor<1x976xf32> into tensor<1x1024xf32>
    %inserted_slice_687 = tensor.insert_slice %extracted_slice_685 into %inserted_slice_686[0, 0] [1, 48] [1, 1] : tensor<1x48xf32> into tensor<1x1024xf32>
    %extracted_slice_688 = tensor.extract_slice %0[56, 0] [1, 976] [1, 1] : tensor<128x1024xf32> to tensor<1x976xf32>
    %extracted_slice_689 = tensor.extract_slice %0[56, 976] [1, 48] [1, 1] : tensor<128x1024xf32> to tensor<1x48xf32>
    %inserted_slice_690 = tensor.insert_slice %extracted_slice_688 into %6[0, 48] [1, 976] [1, 1] : tensor<1x976xf32> into tensor<1x1024xf32>
    %inserted_slice_691 = tensor.insert_slice %extracted_slice_689 into %inserted_slice_690[0, 0] [1, 48] [1, 1] : tensor<1x48xf32> into tensor<1x1024xf32>
    %extracted_slice_692 = tensor.extract_slice %0[57, 0] [1, 976] [1, 1] : tensor<128x1024xf32> to tensor<1x976xf32>
    %extracted_slice_693 = tensor.extract_slice %0[57, 976] [1, 48] [1, 1] : tensor<128x1024xf32> to tensor<1x48xf32>
    %inserted_slice_694 = tensor.insert_slice %extracted_slice_692 into %6[0, 48] [1, 976] [1, 1] : tensor<1x976xf32> into tensor<1x1024xf32>
    %inserted_slice_695 = tensor.insert_slice %extracted_slice_693 into %inserted_slice_694[0, 0] [1, 48] [1, 1] : tensor<1x48xf32> into tensor<1x1024xf32>
    %extracted_slice_696 = tensor.extract_slice %0[58, 0] [1, 976] [1, 1] : tensor<128x1024xf32> to tensor<1x976xf32>
    %extracted_slice_697 = tensor.extract_slice %0[58, 976] [1, 48] [1, 1] : tensor<128x1024xf32> to tensor<1x48xf32>
    %inserted_slice_698 = tensor.insert_slice %extracted_slice_696 into %6[0, 48] [1, 976] [1, 1] : tensor<1x976xf32> into tensor<1x1024xf32>
    %inserted_slice_699 = tensor.insert_slice %extracted_slice_697 into %inserted_slice_698[0, 0] [1, 48] [1, 1] : tensor<1x48xf32> into tensor<1x1024xf32>
    %extracted_slice_700 = tensor.extract_slice %0[59, 0] [1, 976] [1, 1] : tensor<128x1024xf32> to tensor<1x976xf32>
    %extracted_slice_701 = tensor.extract_slice %0[59, 976] [1, 48] [1, 1] : tensor<128x1024xf32> to tensor<1x48xf32>
    %inserted_slice_702 = tensor.insert_slice %extracted_slice_700 into %6[0, 48] [1, 976] [1, 1] : tensor<1x976xf32> into tensor<1x1024xf32>
    %inserted_slice_703 = tensor.insert_slice %extracted_slice_701 into %inserted_slice_702[0, 0] [1, 48] [1, 1] : tensor<1x48xf32> into tensor<1x1024xf32>
    %extracted_slice_704 = tensor.extract_slice %0[60, 0] [1, 964] [1, 1] : tensor<128x1024xf32> to tensor<1x964xf32>
    %extracted_slice_705 = tensor.extract_slice %0[60, 964] [1, 60] [1, 1] : tensor<128x1024xf32> to tensor<1x60xf32>
    %inserted_slice_706 = tensor.insert_slice %extracted_slice_704 into %6[0, 60] [1, 964] [1, 1] : tensor<1x964xf32> into tensor<1x1024xf32>
    %inserted_slice_707 = tensor.insert_slice %extracted_slice_705 into %inserted_slice_706[0, 0] [1, 60] [1, 1] : tensor<1x60xf32> into tensor<1x1024xf32>
    %extracted_slice_708 = tensor.extract_slice %0[61, 0] [1, 964] [1, 1] : tensor<128x1024xf32> to tensor<1x964xf32>
    %extracted_slice_709 = tensor.extract_slice %0[61, 964] [1, 60] [1, 1] : tensor<128x1024xf32> to tensor<1x60xf32>
    %inserted_slice_710 = tensor.insert_slice %extracted_slice_708 into %6[0, 60] [1, 964] [1, 1] : tensor<1x964xf32> into tensor<1x1024xf32>
    %inserted_slice_711 = tensor.insert_slice %extracted_slice_709 into %inserted_slice_710[0, 0] [1, 60] [1, 1] : tensor<1x60xf32> into tensor<1x1024xf32>
    %extracted_slice_712 = tensor.extract_slice %0[62, 0] [1, 964] [1, 1] : tensor<128x1024xf32> to tensor<1x964xf32>
    %extracted_slice_713 = tensor.extract_slice %0[62, 964] [1, 60] [1, 1] : tensor<128x1024xf32> to tensor<1x60xf32>
    %inserted_slice_714 = tensor.insert_slice %extracted_slice_712 into %6[0, 60] [1, 964] [1, 1] : tensor<1x964xf32> into tensor<1x1024xf32>
    %inserted_slice_715 = tensor.insert_slice %extracted_slice_713 into %inserted_slice_714[0, 0] [1, 60] [1, 1] : tensor<1x60xf32> into tensor<1x1024xf32>
    %extracted_slice_716 = tensor.extract_slice %0[63, 0] [1, 964] [1, 1] : tensor<128x1024xf32> to tensor<1x964xf32>
    %extracted_slice_717 = tensor.extract_slice %0[63, 964] [1, 60] [1, 1] : tensor<128x1024xf32> to tensor<1x60xf32>
    %inserted_slice_718 = tensor.insert_slice %extracted_slice_716 into %6[0, 60] [1, 964] [1, 1] : tensor<1x964xf32> into tensor<1x1024xf32>
    %inserted_slice_719 = tensor.insert_slice %extracted_slice_717 into %inserted_slice_718[0, 0] [1, 60] [1, 1] : tensor<1x60xf32> into tensor<1x1024xf32>
    %extracted_slice_720 = tensor.extract_slice %0[64, 0] [1, 964] [1, 1] : tensor<128x1024xf32> to tensor<1x964xf32>
    %extracted_slice_721 = tensor.extract_slice %0[64, 964] [1, 60] [1, 1] : tensor<128x1024xf32> to tensor<1x60xf32>
    %inserted_slice_722 = tensor.insert_slice %extracted_slice_720 into %6[0, 60] [1, 964] [1, 1] : tensor<1x964xf32> into tensor<1x1024xf32>
    %inserted_slice_723 = tensor.insert_slice %extracted_slice_721 into %inserted_slice_722[0, 0] [1, 60] [1, 1] : tensor<1x60xf32> into tensor<1x1024xf32>
    %extracted_slice_724 = tensor.extract_slice %0[65, 0] [1, 964] [1, 1] : tensor<128x1024xf32> to tensor<1x964xf32>
    %extracted_slice_725 = tensor.extract_slice %0[65, 964] [1, 60] [1, 1] : tensor<128x1024xf32> to tensor<1x60xf32>
    %inserted_slice_726 = tensor.insert_slice %extracted_slice_724 into %6[0, 60] [1, 964] [1, 1] : tensor<1x964xf32> into tensor<1x1024xf32>
    %inserted_slice_727 = tensor.insert_slice %extracted_slice_725 into %inserted_slice_726[0, 0] [1, 60] [1, 1] : tensor<1x60xf32> into tensor<1x1024xf32>
    %extracted_slice_728 = tensor.extract_slice %0[66, 0] [1, 964] [1, 1] : tensor<128x1024xf32> to tensor<1x964xf32>
    %extracted_slice_729 = tensor.extract_slice %0[66, 964] [1, 60] [1, 1] : tensor<128x1024xf32> to tensor<1x60xf32>
    %inserted_slice_730 = tensor.insert_slice %extracted_slice_728 into %6[0, 60] [1, 964] [1, 1] : tensor<1x964xf32> into tensor<1x1024xf32>
    %inserted_slice_731 = tensor.insert_slice %extracted_slice_729 into %inserted_slice_730[0, 0] [1, 60] [1, 1] : tensor<1x60xf32> into tensor<1x1024xf32>
    %extracted_slice_732 = tensor.extract_slice %0[67, 0] [1, 964] [1, 1] : tensor<128x1024xf32> to tensor<1x964xf32>
    %extracted_slice_733 = tensor.extract_slice %0[67, 964] [1, 60] [1, 1] : tensor<128x1024xf32> to tensor<1x60xf32>
    %inserted_slice_734 = tensor.insert_slice %extracted_slice_732 into %6[0, 60] [1, 964] [1, 1] : tensor<1x964xf32> into tensor<1x1024xf32>
    %inserted_slice_735 = tensor.insert_slice %extracted_slice_733 into %inserted_slice_734[0, 0] [1, 60] [1, 1] : tensor<1x60xf32> into tensor<1x1024xf32>
    %extracted_slice_736 = tensor.extract_slice %0[68, 0] [1, 964] [1, 1] : tensor<128x1024xf32> to tensor<1x964xf32>
    %extracted_slice_737 = tensor.extract_slice %0[68, 964] [1, 60] [1, 1] : tensor<128x1024xf32> to tensor<1x60xf32>
    %inserted_slice_738 = tensor.insert_slice %extracted_slice_736 into %6[0, 60] [1, 964] [1, 1] : tensor<1x964xf32> into tensor<1x1024xf32>
    %inserted_slice_739 = tensor.insert_slice %extracted_slice_737 into %inserted_slice_738[0, 0] [1, 60] [1, 1] : tensor<1x60xf32> into tensor<1x1024xf32>
    %extracted_slice_740 = tensor.extract_slice %0[69, 0] [1, 964] [1, 1] : tensor<128x1024xf32> to tensor<1x964xf32>
    %extracted_slice_741 = tensor.extract_slice %0[69, 964] [1, 60] [1, 1] : tensor<128x1024xf32> to tensor<1x60xf32>
    %inserted_slice_742 = tensor.insert_slice %extracted_slice_740 into %6[0, 60] [1, 964] [1, 1] : tensor<1x964xf32> into tensor<1x1024xf32>
    %inserted_slice_743 = tensor.insert_slice %extracted_slice_741 into %inserted_slice_742[0, 0] [1, 60] [1, 1] : tensor<1x60xf32> into tensor<1x1024xf32>
    %extracted_slice_744 = tensor.extract_slice %0[70, 0] [1, 964] [1, 1] : tensor<128x1024xf32> to tensor<1x964xf32>
    %extracted_slice_745 = tensor.extract_slice %0[70, 964] [1, 60] [1, 1] : tensor<128x1024xf32> to tensor<1x60xf32>
    %inserted_slice_746 = tensor.insert_slice %extracted_slice_744 into %6[0, 60] [1, 964] [1, 1] : tensor<1x964xf32> into tensor<1x1024xf32>
    %inserted_slice_747 = tensor.insert_slice %extracted_slice_745 into %inserted_slice_746[0, 0] [1, 60] [1, 1] : tensor<1x60xf32> into tensor<1x1024xf32>
    %extracted_slice_748 = tensor.extract_slice %0[71, 0] [1, 964] [1, 1] : tensor<128x1024xf32> to tensor<1x964xf32>
    %extracted_slice_749 = tensor.extract_slice %0[71, 964] [1, 60] [1, 1] : tensor<128x1024xf32> to tensor<1x60xf32>
    %inserted_slice_750 = tensor.insert_slice %extracted_slice_748 into %6[0, 60] [1, 964] [1, 1] : tensor<1x964xf32> into tensor<1x1024xf32>
    %inserted_slice_751 = tensor.insert_slice %extracted_slice_749 into %inserted_slice_750[0, 0] [1, 60] [1, 1] : tensor<1x60xf32> into tensor<1x1024xf32>
    %extracted_slice_752 = tensor.extract_slice %0[72, 0] [1, 952] [1, 1] : tensor<128x1024xf32> to tensor<1x952xf32>
    %extracted_slice_753 = tensor.extract_slice %0[72, 952] [1, 72] [1, 1] : tensor<128x1024xf32> to tensor<1x72xf32>
    %inserted_slice_754 = tensor.insert_slice %extracted_slice_752 into %6[0, 72] [1, 952] [1, 1] : tensor<1x952xf32> into tensor<1x1024xf32>
    %inserted_slice_755 = tensor.insert_slice %extracted_slice_753 into %inserted_slice_754[0, 0] [1, 72] [1, 1] : tensor<1x72xf32> into tensor<1x1024xf32>
    %extracted_slice_756 = tensor.extract_slice %0[73, 0] [1, 952] [1, 1] : tensor<128x1024xf32> to tensor<1x952xf32>
    %extracted_slice_757 = tensor.extract_slice %0[73, 952] [1, 72] [1, 1] : tensor<128x1024xf32> to tensor<1x72xf32>
    %inserted_slice_758 = tensor.insert_slice %extracted_slice_756 into %6[0, 72] [1, 952] [1, 1] : tensor<1x952xf32> into tensor<1x1024xf32>
    %inserted_slice_759 = tensor.insert_slice %extracted_slice_757 into %inserted_slice_758[0, 0] [1, 72] [1, 1] : tensor<1x72xf32> into tensor<1x1024xf32>
    %extracted_slice_760 = tensor.extract_slice %0[74, 0] [1, 952] [1, 1] : tensor<128x1024xf32> to tensor<1x952xf32>
    %extracted_slice_761 = tensor.extract_slice %0[74, 952] [1, 72] [1, 1] : tensor<128x1024xf32> to tensor<1x72xf32>
    %inserted_slice_762 = tensor.insert_slice %extracted_slice_760 into %6[0, 72] [1, 952] [1, 1] : tensor<1x952xf32> into tensor<1x1024xf32>
    %inserted_slice_763 = tensor.insert_slice %extracted_slice_761 into %inserted_slice_762[0, 0] [1, 72] [1, 1] : tensor<1x72xf32> into tensor<1x1024xf32>
    %extracted_slice_764 = tensor.extract_slice %0[75, 0] [1, 952] [1, 1] : tensor<128x1024xf32> to tensor<1x952xf32>
    %extracted_slice_765 = tensor.extract_slice %0[75, 952] [1, 72] [1, 1] : tensor<128x1024xf32> to tensor<1x72xf32>
    %inserted_slice_766 = tensor.insert_slice %extracted_slice_764 into %6[0, 72] [1, 952] [1, 1] : tensor<1x952xf32> into tensor<1x1024xf32>
    %inserted_slice_767 = tensor.insert_slice %extracted_slice_765 into %inserted_slice_766[0, 0] [1, 72] [1, 1] : tensor<1x72xf32> into tensor<1x1024xf32>
    %extracted_slice_768 = tensor.extract_slice %0[76, 0] [1, 952] [1, 1] : tensor<128x1024xf32> to tensor<1x952xf32>
    %extracted_slice_769 = tensor.extract_slice %0[76, 952] [1, 72] [1, 1] : tensor<128x1024xf32> to tensor<1x72xf32>
    %inserted_slice_770 = tensor.insert_slice %extracted_slice_768 into %6[0, 72] [1, 952] [1, 1] : tensor<1x952xf32> into tensor<1x1024xf32>
    %inserted_slice_771 = tensor.insert_slice %extracted_slice_769 into %inserted_slice_770[0, 0] [1, 72] [1, 1] : tensor<1x72xf32> into tensor<1x1024xf32>
    %extracted_slice_772 = tensor.extract_slice %0[77, 0] [1, 952] [1, 1] : tensor<128x1024xf32> to tensor<1x952xf32>
    %extracted_slice_773 = tensor.extract_slice %0[77, 952] [1, 72] [1, 1] : tensor<128x1024xf32> to tensor<1x72xf32>
    %inserted_slice_774 = tensor.insert_slice %extracted_slice_772 into %6[0, 72] [1, 952] [1, 1] : tensor<1x952xf32> into tensor<1x1024xf32>
    %inserted_slice_775 = tensor.insert_slice %extracted_slice_773 into %inserted_slice_774[0, 0] [1, 72] [1, 1] : tensor<1x72xf32> into tensor<1x1024xf32>
    %extracted_slice_776 = tensor.extract_slice %0[78, 0] [1, 952] [1, 1] : tensor<128x1024xf32> to tensor<1x952xf32>
    %extracted_slice_777 = tensor.extract_slice %0[78, 952] [1, 72] [1, 1] : tensor<128x1024xf32> to tensor<1x72xf32>
    %inserted_slice_778 = tensor.insert_slice %extracted_slice_776 into %6[0, 72] [1, 952] [1, 1] : tensor<1x952xf32> into tensor<1x1024xf32>
    %inserted_slice_779 = tensor.insert_slice %extracted_slice_777 into %inserted_slice_778[0, 0] [1, 72] [1, 1] : tensor<1x72xf32> into tensor<1x1024xf32>
    %extracted_slice_780 = tensor.extract_slice %0[79, 0] [1, 952] [1, 1] : tensor<128x1024xf32> to tensor<1x952xf32>
    %extracted_slice_781 = tensor.extract_slice %0[79, 952] [1, 72] [1, 1] : tensor<128x1024xf32> to tensor<1x72xf32>
    %inserted_slice_782 = tensor.insert_slice %extracted_slice_780 into %6[0, 72] [1, 952] [1, 1] : tensor<1x952xf32> into tensor<1x1024xf32>
    %inserted_slice_783 = tensor.insert_slice %extracted_slice_781 into %inserted_slice_782[0, 0] [1, 72] [1, 1] : tensor<1x72xf32> into tensor<1x1024xf32>
    %extracted_slice_784 = tensor.extract_slice %0[80, 0] [1, 952] [1, 1] : tensor<128x1024xf32> to tensor<1x952xf32>
    %extracted_slice_785 = tensor.extract_slice %0[80, 952] [1, 72] [1, 1] : tensor<128x1024xf32> to tensor<1x72xf32>
    %inserted_slice_786 = tensor.insert_slice %extracted_slice_784 into %6[0, 72] [1, 952] [1, 1] : tensor<1x952xf32> into tensor<1x1024xf32>
    %inserted_slice_787 = tensor.insert_slice %extracted_slice_785 into %inserted_slice_786[0, 0] [1, 72] [1, 1] : tensor<1x72xf32> into tensor<1x1024xf32>
    %extracted_slice_788 = tensor.extract_slice %0[81, 0] [1, 952] [1, 1] : tensor<128x1024xf32> to tensor<1x952xf32>
    %extracted_slice_789 = tensor.extract_slice %0[81, 952] [1, 72] [1, 1] : tensor<128x1024xf32> to tensor<1x72xf32>
    %inserted_slice_790 = tensor.insert_slice %extracted_slice_788 into %6[0, 72] [1, 952] [1, 1] : tensor<1x952xf32> into tensor<1x1024xf32>
    %inserted_slice_791 = tensor.insert_slice %extracted_slice_789 into %inserted_slice_790[0, 0] [1, 72] [1, 1] : tensor<1x72xf32> into tensor<1x1024xf32>
    %extracted_slice_792 = tensor.extract_slice %0[82, 0] [1, 952] [1, 1] : tensor<128x1024xf32> to tensor<1x952xf32>
    %extracted_slice_793 = tensor.extract_slice %0[82, 952] [1, 72] [1, 1] : tensor<128x1024xf32> to tensor<1x72xf32>
    %inserted_slice_794 = tensor.insert_slice %extracted_slice_792 into %6[0, 72] [1, 952] [1, 1] : tensor<1x952xf32> into tensor<1x1024xf32>
    %inserted_slice_795 = tensor.insert_slice %extracted_slice_793 into %inserted_slice_794[0, 0] [1, 72] [1, 1] : tensor<1x72xf32> into tensor<1x1024xf32>
    %extracted_slice_796 = tensor.extract_slice %0[83, 0] [1, 952] [1, 1] : tensor<128x1024xf32> to tensor<1x952xf32>
    %extracted_slice_797 = tensor.extract_slice %0[83, 952] [1, 72] [1, 1] : tensor<128x1024xf32> to tensor<1x72xf32>
    %inserted_slice_798 = tensor.insert_slice %extracted_slice_796 into %6[0, 72] [1, 952] [1, 1] : tensor<1x952xf32> into tensor<1x1024xf32>
    %inserted_slice_799 = tensor.insert_slice %extracted_slice_797 into %inserted_slice_798[0, 0] [1, 72] [1, 1] : tensor<1x72xf32> into tensor<1x1024xf32>
    %extracted_slice_800 = tensor.extract_slice %0[84, 0] [1, 940] [1, 1] : tensor<128x1024xf32> to tensor<1x940xf32>
    %extracted_slice_801 = tensor.extract_slice %0[84, 940] [1, 84] [1, 1] : tensor<128x1024xf32> to tensor<1x84xf32>
    %inserted_slice_802 = tensor.insert_slice %extracted_slice_800 into %6[0, 84] [1, 940] [1, 1] : tensor<1x940xf32> into tensor<1x1024xf32>
    %inserted_slice_803 = tensor.insert_slice %extracted_slice_801 into %inserted_slice_802[0, 0] [1, 84] [1, 1] : tensor<1x84xf32> into tensor<1x1024xf32>
    %extracted_slice_804 = tensor.extract_slice %0[85, 0] [1, 940] [1, 1] : tensor<128x1024xf32> to tensor<1x940xf32>
    %extracted_slice_805 = tensor.extract_slice %0[85, 940] [1, 84] [1, 1] : tensor<128x1024xf32> to tensor<1x84xf32>
    %inserted_slice_806 = tensor.insert_slice %extracted_slice_804 into %6[0, 84] [1, 940] [1, 1] : tensor<1x940xf32> into tensor<1x1024xf32>
    %inserted_slice_807 = tensor.insert_slice %extracted_slice_805 into %inserted_slice_806[0, 0] [1, 84] [1, 1] : tensor<1x84xf32> into tensor<1x1024xf32>
    %extracted_slice_808 = tensor.extract_slice %0[86, 0] [1, 940] [1, 1] : tensor<128x1024xf32> to tensor<1x940xf32>
    %extracted_slice_809 = tensor.extract_slice %0[86, 940] [1, 84] [1, 1] : tensor<128x1024xf32> to tensor<1x84xf32>
    %inserted_slice_810 = tensor.insert_slice %extracted_slice_808 into %6[0, 84] [1, 940] [1, 1] : tensor<1x940xf32> into tensor<1x1024xf32>
    %inserted_slice_811 = tensor.insert_slice %extracted_slice_809 into %inserted_slice_810[0, 0] [1, 84] [1, 1] : tensor<1x84xf32> into tensor<1x1024xf32>
    %extracted_slice_812 = tensor.extract_slice %0[87, 0] [1, 940] [1, 1] : tensor<128x1024xf32> to tensor<1x940xf32>
    %extracted_slice_813 = tensor.extract_slice %0[87, 940] [1, 84] [1, 1] : tensor<128x1024xf32> to tensor<1x84xf32>
    %inserted_slice_814 = tensor.insert_slice %extracted_slice_812 into %6[0, 84] [1, 940] [1, 1] : tensor<1x940xf32> into tensor<1x1024xf32>
    %inserted_slice_815 = tensor.insert_slice %extracted_slice_813 into %inserted_slice_814[0, 0] [1, 84] [1, 1] : tensor<1x84xf32> into tensor<1x1024xf32>
    %extracted_slice_816 = tensor.extract_slice %0[88, 0] [1, 940] [1, 1] : tensor<128x1024xf32> to tensor<1x940xf32>
    %extracted_slice_817 = tensor.extract_slice %0[88, 940] [1, 84] [1, 1] : tensor<128x1024xf32> to tensor<1x84xf32>
    %inserted_slice_818 = tensor.insert_slice %extracted_slice_816 into %6[0, 84] [1, 940] [1, 1] : tensor<1x940xf32> into tensor<1x1024xf32>
    %inserted_slice_819 = tensor.insert_slice %extracted_slice_817 into %inserted_slice_818[0, 0] [1, 84] [1, 1] : tensor<1x84xf32> into tensor<1x1024xf32>
    %extracted_slice_820 = tensor.extract_slice %0[89, 0] [1, 940] [1, 1] : tensor<128x1024xf32> to tensor<1x940xf32>
    %extracted_slice_821 = tensor.extract_slice %0[89, 940] [1, 84] [1, 1] : tensor<128x1024xf32> to tensor<1x84xf32>
    %inserted_slice_822 = tensor.insert_slice %extracted_slice_820 into %6[0, 84] [1, 940] [1, 1] : tensor<1x940xf32> into tensor<1x1024xf32>
    %inserted_slice_823 = tensor.insert_slice %extracted_slice_821 into %inserted_slice_822[0, 0] [1, 84] [1, 1] : tensor<1x84xf32> into tensor<1x1024xf32>
    %extracted_slice_824 = tensor.extract_slice %0[90, 0] [1, 940] [1, 1] : tensor<128x1024xf32> to tensor<1x940xf32>
    %extracted_slice_825 = tensor.extract_slice %0[90, 940] [1, 84] [1, 1] : tensor<128x1024xf32> to tensor<1x84xf32>
    %inserted_slice_826 = tensor.insert_slice %extracted_slice_824 into %6[0, 84] [1, 940] [1, 1] : tensor<1x940xf32> into tensor<1x1024xf32>
    %inserted_slice_827 = tensor.insert_slice %extracted_slice_825 into %inserted_slice_826[0, 0] [1, 84] [1, 1] : tensor<1x84xf32> into tensor<1x1024xf32>
    %extracted_slice_828 = tensor.extract_slice %0[91, 0] [1, 940] [1, 1] : tensor<128x1024xf32> to tensor<1x940xf32>
    %extracted_slice_829 = tensor.extract_slice %0[91, 940] [1, 84] [1, 1] : tensor<128x1024xf32> to tensor<1x84xf32>
    %inserted_slice_830 = tensor.insert_slice %extracted_slice_828 into %6[0, 84] [1, 940] [1, 1] : tensor<1x940xf32> into tensor<1x1024xf32>
    %inserted_slice_831 = tensor.insert_slice %extracted_slice_829 into %inserted_slice_830[0, 0] [1, 84] [1, 1] : tensor<1x84xf32> into tensor<1x1024xf32>
    %extracted_slice_832 = tensor.extract_slice %0[92, 0] [1, 940] [1, 1] : tensor<128x1024xf32> to tensor<1x940xf32>
    %extracted_slice_833 = tensor.extract_slice %0[92, 940] [1, 84] [1, 1] : tensor<128x1024xf32> to tensor<1x84xf32>
    %inserted_slice_834 = tensor.insert_slice %extracted_slice_832 into %6[0, 84] [1, 940] [1, 1] : tensor<1x940xf32> into tensor<1x1024xf32>
    %inserted_slice_835 = tensor.insert_slice %extracted_slice_833 into %inserted_slice_834[0, 0] [1, 84] [1, 1] : tensor<1x84xf32> into tensor<1x1024xf32>
    %extracted_slice_836 = tensor.extract_slice %0[93, 0] [1, 940] [1, 1] : tensor<128x1024xf32> to tensor<1x940xf32>
    %extracted_slice_837 = tensor.extract_slice %0[93, 940] [1, 84] [1, 1] : tensor<128x1024xf32> to tensor<1x84xf32>
    %inserted_slice_838 = tensor.insert_slice %extracted_slice_836 into %6[0, 84] [1, 940] [1, 1] : tensor<1x940xf32> into tensor<1x1024xf32>
    %inserted_slice_839 = tensor.insert_slice %extracted_slice_837 into %inserted_slice_838[0, 0] [1, 84] [1, 1] : tensor<1x84xf32> into tensor<1x1024xf32>
    %extracted_slice_840 = tensor.extract_slice %0[94, 0] [1, 940] [1, 1] : tensor<128x1024xf32> to tensor<1x940xf32>
    %extracted_slice_841 = tensor.extract_slice %0[94, 940] [1, 84] [1, 1] : tensor<128x1024xf32> to tensor<1x84xf32>
    %inserted_slice_842 = tensor.insert_slice %extracted_slice_840 into %6[0, 84] [1, 940] [1, 1] : tensor<1x940xf32> into tensor<1x1024xf32>
    %inserted_slice_843 = tensor.insert_slice %extracted_slice_841 into %inserted_slice_842[0, 0] [1, 84] [1, 1] : tensor<1x84xf32> into tensor<1x1024xf32>
    %extracted_slice_844 = tensor.extract_slice %0[95, 0] [1, 940] [1, 1] : tensor<128x1024xf32> to tensor<1x940xf32>
    %extracted_slice_845 = tensor.extract_slice %0[95, 940] [1, 84] [1, 1] : tensor<128x1024xf32> to tensor<1x84xf32>
    %inserted_slice_846 = tensor.insert_slice %extracted_slice_844 into %6[0, 84] [1, 940] [1, 1] : tensor<1x940xf32> into tensor<1x1024xf32>
    %inserted_slice_847 = tensor.insert_slice %extracted_slice_845 into %inserted_slice_846[0, 0] [1, 84] [1, 1] : tensor<1x84xf32> into tensor<1x1024xf32>
    %extracted_slice_848 = tensor.extract_slice %0[96, 0] [1, 928] [1, 1] : tensor<128x1024xf32> to tensor<1x928xf32>
    %extracted_slice_849 = tensor.extract_slice %0[96, 928] [1, 96] [1, 1] : tensor<128x1024xf32> to tensor<1x96xf32>
    %inserted_slice_850 = tensor.insert_slice %extracted_slice_848 into %6[0, 96] [1, 928] [1, 1] : tensor<1x928xf32> into tensor<1x1024xf32>
    %inserted_slice_851 = tensor.insert_slice %extracted_slice_849 into %inserted_slice_850[0, 0] [1, 96] [1, 1] : tensor<1x96xf32> into tensor<1x1024xf32>
    %extracted_slice_852 = tensor.extract_slice %0[97, 0] [1, 928] [1, 1] : tensor<128x1024xf32> to tensor<1x928xf32>
    %extracted_slice_853 = tensor.extract_slice %0[97, 928] [1, 96] [1, 1] : tensor<128x1024xf32> to tensor<1x96xf32>
    %inserted_slice_854 = tensor.insert_slice %extracted_slice_852 into %6[0, 96] [1, 928] [1, 1] : tensor<1x928xf32> into tensor<1x1024xf32>
    %inserted_slice_855 = tensor.insert_slice %extracted_slice_853 into %inserted_slice_854[0, 0] [1, 96] [1, 1] : tensor<1x96xf32> into tensor<1x1024xf32>
    %extracted_slice_856 = tensor.extract_slice %0[98, 0] [1, 928] [1, 1] : tensor<128x1024xf32> to tensor<1x928xf32>
    %extracted_slice_857 = tensor.extract_slice %0[98, 928] [1, 96] [1, 1] : tensor<128x1024xf32> to tensor<1x96xf32>
    %inserted_slice_858 = tensor.insert_slice %extracted_slice_856 into %6[0, 96] [1, 928] [1, 1] : tensor<1x928xf32> into tensor<1x1024xf32>
    %inserted_slice_859 = tensor.insert_slice %extracted_slice_857 into %inserted_slice_858[0, 0] [1, 96] [1, 1] : tensor<1x96xf32> into tensor<1x1024xf32>
    %extracted_slice_860 = tensor.extract_slice %0[99, 0] [1, 928] [1, 1] : tensor<128x1024xf32> to tensor<1x928xf32>
    %extracted_slice_861 = tensor.extract_slice %0[99, 928] [1, 96] [1, 1] : tensor<128x1024xf32> to tensor<1x96xf32>
    %inserted_slice_862 = tensor.insert_slice %extracted_slice_860 into %6[0, 96] [1, 928] [1, 1] : tensor<1x928xf32> into tensor<1x1024xf32>
    %inserted_slice_863 = tensor.insert_slice %extracted_slice_861 into %inserted_slice_862[0, 0] [1, 96] [1, 1] : tensor<1x96xf32> into tensor<1x1024xf32>
    %extracted_slice_864 = tensor.extract_slice %0[100, 0] [1, 928] [1, 1] : tensor<128x1024xf32> to tensor<1x928xf32>
    %extracted_slice_865 = tensor.extract_slice %0[100, 928] [1, 96] [1, 1] : tensor<128x1024xf32> to tensor<1x96xf32>
    %inserted_slice_866 = tensor.insert_slice %extracted_slice_864 into %6[0, 96] [1, 928] [1, 1] : tensor<1x928xf32> into tensor<1x1024xf32>
    %inserted_slice_867 = tensor.insert_slice %extracted_slice_865 into %inserted_slice_866[0, 0] [1, 96] [1, 1] : tensor<1x96xf32> into tensor<1x1024xf32>
    %extracted_slice_868 = tensor.extract_slice %0[101, 0] [1, 928] [1, 1] : tensor<128x1024xf32> to tensor<1x928xf32>
    %extracted_slice_869 = tensor.extract_slice %0[101, 928] [1, 96] [1, 1] : tensor<128x1024xf32> to tensor<1x96xf32>
    %inserted_slice_870 = tensor.insert_slice %extracted_slice_868 into %6[0, 96] [1, 928] [1, 1] : tensor<1x928xf32> into tensor<1x1024xf32>
    %inserted_slice_871 = tensor.insert_slice %extracted_slice_869 into %inserted_slice_870[0, 0] [1, 96] [1, 1] : tensor<1x96xf32> into tensor<1x1024xf32>
    %extracted_slice_872 = tensor.extract_slice %0[102, 0] [1, 928] [1, 1] : tensor<128x1024xf32> to tensor<1x928xf32>
    %extracted_slice_873 = tensor.extract_slice %0[102, 928] [1, 96] [1, 1] : tensor<128x1024xf32> to tensor<1x96xf32>
    %inserted_slice_874 = tensor.insert_slice %extracted_slice_872 into %6[0, 96] [1, 928] [1, 1] : tensor<1x928xf32> into tensor<1x1024xf32>
    %inserted_slice_875 = tensor.insert_slice %extracted_slice_873 into %inserted_slice_874[0, 0] [1, 96] [1, 1] : tensor<1x96xf32> into tensor<1x1024xf32>
    %extracted_slice_876 = tensor.extract_slice %0[103, 0] [1, 928] [1, 1] : tensor<128x1024xf32> to tensor<1x928xf32>
    %extracted_slice_877 = tensor.extract_slice %0[103, 928] [1, 96] [1, 1] : tensor<128x1024xf32> to tensor<1x96xf32>
    %inserted_slice_878 = tensor.insert_slice %extracted_slice_876 into %6[0, 96] [1, 928] [1, 1] : tensor<1x928xf32> into tensor<1x1024xf32>
    %inserted_slice_879 = tensor.insert_slice %extracted_slice_877 into %inserted_slice_878[0, 0] [1, 96] [1, 1] : tensor<1x96xf32> into tensor<1x1024xf32>
    %extracted_slice_880 = tensor.extract_slice %0[104, 0] [1, 928] [1, 1] : tensor<128x1024xf32> to tensor<1x928xf32>
    %extracted_slice_881 = tensor.extract_slice %0[104, 928] [1, 96] [1, 1] : tensor<128x1024xf32> to tensor<1x96xf32>
    %inserted_slice_882 = tensor.insert_slice %extracted_slice_880 into %6[0, 96] [1, 928] [1, 1] : tensor<1x928xf32> into tensor<1x1024xf32>
    %inserted_slice_883 = tensor.insert_slice %extracted_slice_881 into %inserted_slice_882[0, 0] [1, 96] [1, 1] : tensor<1x96xf32> into tensor<1x1024xf32>
    %extracted_slice_884 = tensor.extract_slice %0[105, 0] [1, 928] [1, 1] : tensor<128x1024xf32> to tensor<1x928xf32>
    %extracted_slice_885 = tensor.extract_slice %0[105, 928] [1, 96] [1, 1] : tensor<128x1024xf32> to tensor<1x96xf32>
    %inserted_slice_886 = tensor.insert_slice %extracted_slice_884 into %6[0, 96] [1, 928] [1, 1] : tensor<1x928xf32> into tensor<1x1024xf32>
    %inserted_slice_887 = tensor.insert_slice %extracted_slice_885 into %inserted_slice_886[0, 0] [1, 96] [1, 1] : tensor<1x96xf32> into tensor<1x1024xf32>
    %extracted_slice_888 = tensor.extract_slice %0[106, 0] [1, 928] [1, 1] : tensor<128x1024xf32> to tensor<1x928xf32>
    %extracted_slice_889 = tensor.extract_slice %0[106, 928] [1, 96] [1, 1] : tensor<128x1024xf32> to tensor<1x96xf32>
    %inserted_slice_890 = tensor.insert_slice %extracted_slice_888 into %6[0, 96] [1, 928] [1, 1] : tensor<1x928xf32> into tensor<1x1024xf32>
    %inserted_slice_891 = tensor.insert_slice %extracted_slice_889 into %inserted_slice_890[0, 0] [1, 96] [1, 1] : tensor<1x96xf32> into tensor<1x1024xf32>
    %extracted_slice_892 = tensor.extract_slice %0[107, 0] [1, 928] [1, 1] : tensor<128x1024xf32> to tensor<1x928xf32>
    %extracted_slice_893 = tensor.extract_slice %0[107, 928] [1, 96] [1, 1] : tensor<128x1024xf32> to tensor<1x96xf32>
    %inserted_slice_894 = tensor.insert_slice %extracted_slice_892 into %6[0, 96] [1, 928] [1, 1] : tensor<1x928xf32> into tensor<1x1024xf32>
    %inserted_slice_895 = tensor.insert_slice %extracted_slice_893 into %inserted_slice_894[0, 0] [1, 96] [1, 1] : tensor<1x96xf32> into tensor<1x1024xf32>
    %extracted_slice_896 = tensor.extract_slice %0[108, 0] [1, 916] [1, 1] : tensor<128x1024xf32> to tensor<1x916xf32>
    %extracted_slice_897 = tensor.extract_slice %0[108, 916] [1, 108] [1, 1] : tensor<128x1024xf32> to tensor<1x108xf32>
    %inserted_slice_898 = tensor.insert_slice %extracted_slice_896 into %6[0, 108] [1, 916] [1, 1] : tensor<1x916xf32> into tensor<1x1024xf32>
    %inserted_slice_899 = tensor.insert_slice %extracted_slice_897 into %inserted_slice_898[0, 0] [1, 108] [1, 1] : tensor<1x108xf32> into tensor<1x1024xf32>
    %extracted_slice_900 = tensor.extract_slice %0[109, 0] [1, 916] [1, 1] : tensor<128x1024xf32> to tensor<1x916xf32>
    %extracted_slice_901 = tensor.extract_slice %0[109, 916] [1, 108] [1, 1] : tensor<128x1024xf32> to tensor<1x108xf32>
    %inserted_slice_902 = tensor.insert_slice %extracted_slice_900 into %6[0, 108] [1, 916] [1, 1] : tensor<1x916xf32> into tensor<1x1024xf32>
    %inserted_slice_903 = tensor.insert_slice %extracted_slice_901 into %inserted_slice_902[0, 0] [1, 108] [1, 1] : tensor<1x108xf32> into tensor<1x1024xf32>
    %extracted_slice_904 = tensor.extract_slice %0[110, 0] [1, 916] [1, 1] : tensor<128x1024xf32> to tensor<1x916xf32>
    %extracted_slice_905 = tensor.extract_slice %0[110, 916] [1, 108] [1, 1] : tensor<128x1024xf32> to tensor<1x108xf32>
    %inserted_slice_906 = tensor.insert_slice %extracted_slice_904 into %6[0, 108] [1, 916] [1, 1] : tensor<1x916xf32> into tensor<1x1024xf32>
    %inserted_slice_907 = tensor.insert_slice %extracted_slice_905 into %inserted_slice_906[0, 0] [1, 108] [1, 1] : tensor<1x108xf32> into tensor<1x1024xf32>
    %extracted_slice_908 = tensor.extract_slice %0[111, 0] [1, 916] [1, 1] : tensor<128x1024xf32> to tensor<1x916xf32>
    %extracted_slice_909 = tensor.extract_slice %0[111, 916] [1, 108] [1, 1] : tensor<128x1024xf32> to tensor<1x108xf32>
    %inserted_slice_910 = tensor.insert_slice %extracted_slice_908 into %6[0, 108] [1, 916] [1, 1] : tensor<1x916xf32> into tensor<1x1024xf32>
    %inserted_slice_911 = tensor.insert_slice %extracted_slice_909 into %inserted_slice_910[0, 0] [1, 108] [1, 1] : tensor<1x108xf32> into tensor<1x1024xf32>
    %extracted_slice_912 = tensor.extract_slice %0[112, 0] [1, 916] [1, 1] : tensor<128x1024xf32> to tensor<1x916xf32>
    %extracted_slice_913 = tensor.extract_slice %0[112, 916] [1, 108] [1, 1] : tensor<128x1024xf32> to tensor<1x108xf32>
    %inserted_slice_914 = tensor.insert_slice %extracted_slice_912 into %6[0, 108] [1, 916] [1, 1] : tensor<1x916xf32> into tensor<1x1024xf32>
    %inserted_slice_915 = tensor.insert_slice %extracted_slice_913 into %inserted_slice_914[0, 0] [1, 108] [1, 1] : tensor<1x108xf32> into tensor<1x1024xf32>
    %extracted_slice_916 = tensor.extract_slice %0[113, 0] [1, 916] [1, 1] : tensor<128x1024xf32> to tensor<1x916xf32>
    %extracted_slice_917 = tensor.extract_slice %0[113, 916] [1, 108] [1, 1] : tensor<128x1024xf32> to tensor<1x108xf32>
    %inserted_slice_918 = tensor.insert_slice %extracted_slice_916 into %6[0, 108] [1, 916] [1, 1] : tensor<1x916xf32> into tensor<1x1024xf32>
    %inserted_slice_919 = tensor.insert_slice %extracted_slice_917 into %inserted_slice_918[0, 0] [1, 108] [1, 1] : tensor<1x108xf32> into tensor<1x1024xf32>
    %extracted_slice_920 = tensor.extract_slice %0[114, 0] [1, 916] [1, 1] : tensor<128x1024xf32> to tensor<1x916xf32>
    %extracted_slice_921 = tensor.extract_slice %0[114, 916] [1, 108] [1, 1] : tensor<128x1024xf32> to tensor<1x108xf32>
    %inserted_slice_922 = tensor.insert_slice %extracted_slice_920 into %6[0, 108] [1, 916] [1, 1] : tensor<1x916xf32> into tensor<1x1024xf32>
    %inserted_slice_923 = tensor.insert_slice %extracted_slice_921 into %inserted_slice_922[0, 0] [1, 108] [1, 1] : tensor<1x108xf32> into tensor<1x1024xf32>
    %extracted_slice_924 = tensor.extract_slice %0[115, 0] [1, 916] [1, 1] : tensor<128x1024xf32> to tensor<1x916xf32>
    %extracted_slice_925 = tensor.extract_slice %0[115, 916] [1, 108] [1, 1] : tensor<128x1024xf32> to tensor<1x108xf32>
    %inserted_slice_926 = tensor.insert_slice %extracted_slice_924 into %6[0, 108] [1, 916] [1, 1] : tensor<1x916xf32> into tensor<1x1024xf32>
    %inserted_slice_927 = tensor.insert_slice %extracted_slice_925 into %inserted_slice_926[0, 0] [1, 108] [1, 1] : tensor<1x108xf32> into tensor<1x1024xf32>
    %extracted_slice_928 = tensor.extract_slice %0[116, 0] [1, 916] [1, 1] : tensor<128x1024xf32> to tensor<1x916xf32>
    %extracted_slice_929 = tensor.extract_slice %0[116, 916] [1, 108] [1, 1] : tensor<128x1024xf32> to tensor<1x108xf32>
    %inserted_slice_930 = tensor.insert_slice %extracted_slice_928 into %6[0, 108] [1, 916] [1, 1] : tensor<1x916xf32> into tensor<1x1024xf32>
    %inserted_slice_931 = tensor.insert_slice %extracted_slice_929 into %inserted_slice_930[0, 0] [1, 108] [1, 1] : tensor<1x108xf32> into tensor<1x1024xf32>
    %extracted_slice_932 = tensor.extract_slice %0[117, 0] [1, 916] [1, 1] : tensor<128x1024xf32> to tensor<1x916xf32>
    %extracted_slice_933 = tensor.extract_slice %0[117, 916] [1, 108] [1, 1] : tensor<128x1024xf32> to tensor<1x108xf32>
    %inserted_slice_934 = tensor.insert_slice %extracted_slice_932 into %6[0, 108] [1, 916] [1, 1] : tensor<1x916xf32> into tensor<1x1024xf32>
    %inserted_slice_935 = tensor.insert_slice %extracted_slice_933 into %inserted_slice_934[0, 0] [1, 108] [1, 1] : tensor<1x108xf32> into tensor<1x1024xf32>
    %extracted_slice_936 = tensor.extract_slice %0[118, 0] [1, 916] [1, 1] : tensor<128x1024xf32> to tensor<1x916xf32>
    %extracted_slice_937 = tensor.extract_slice %0[118, 916] [1, 108] [1, 1] : tensor<128x1024xf32> to tensor<1x108xf32>
    %inserted_slice_938 = tensor.insert_slice %extracted_slice_936 into %6[0, 108] [1, 916] [1, 1] : tensor<1x916xf32> into tensor<1x1024xf32>
    %inserted_slice_939 = tensor.insert_slice %extracted_slice_937 into %inserted_slice_938[0, 0] [1, 108] [1, 1] : tensor<1x108xf32> into tensor<1x1024xf32>
    %extracted_slice_940 = tensor.extract_slice %0[119, 0] [1, 916] [1, 1] : tensor<128x1024xf32> to tensor<1x916xf32>
    %extracted_slice_941 = tensor.extract_slice %0[119, 916] [1, 108] [1, 1] : tensor<128x1024xf32> to tensor<1x108xf32>
    %inserted_slice_942 = tensor.insert_slice %extracted_slice_940 into %6[0, 108] [1, 916] [1, 1] : tensor<1x916xf32> into tensor<1x1024xf32>
    %inserted_slice_943 = tensor.insert_slice %extracted_slice_941 into %inserted_slice_942[0, 0] [1, 108] [1, 1] : tensor<1x108xf32> into tensor<1x1024xf32>
    %extracted_slice_944 = tensor.extract_slice %0[120, 0] [1, 904] [1, 1] : tensor<128x1024xf32> to tensor<1x904xf32>
    %extracted_slice_945 = tensor.extract_slice %0[120, 904] [1, 120] [1, 1] : tensor<128x1024xf32> to tensor<1x120xf32>
    %inserted_slice_946 = tensor.insert_slice %extracted_slice_944 into %6[0, 120] [1, 904] [1, 1] : tensor<1x904xf32> into tensor<1x1024xf32>
    %inserted_slice_947 = tensor.insert_slice %extracted_slice_945 into %inserted_slice_946[0, 0] [1, 120] [1, 1] : tensor<1x120xf32> into tensor<1x1024xf32>
    %extracted_slice_948 = tensor.extract_slice %0[121, 0] [1, 904] [1, 1] : tensor<128x1024xf32> to tensor<1x904xf32>
    %extracted_slice_949 = tensor.extract_slice %0[121, 904] [1, 120] [1, 1] : tensor<128x1024xf32> to tensor<1x120xf32>
    %inserted_slice_950 = tensor.insert_slice %extracted_slice_948 into %6[0, 120] [1, 904] [1, 1] : tensor<1x904xf32> into tensor<1x1024xf32>
    %inserted_slice_951 = tensor.insert_slice %extracted_slice_949 into %inserted_slice_950[0, 0] [1, 120] [1, 1] : tensor<1x120xf32> into tensor<1x1024xf32>
    %extracted_slice_952 = tensor.extract_slice %0[122, 0] [1, 904] [1, 1] : tensor<128x1024xf32> to tensor<1x904xf32>
    %extracted_slice_953 = tensor.extract_slice %0[122, 904] [1, 120] [1, 1] : tensor<128x1024xf32> to tensor<1x120xf32>
    %inserted_slice_954 = tensor.insert_slice %extracted_slice_952 into %6[0, 120] [1, 904] [1, 1] : tensor<1x904xf32> into tensor<1x1024xf32>
    %inserted_slice_955 = tensor.insert_slice %extracted_slice_953 into %inserted_slice_954[0, 0] [1, 120] [1, 1] : tensor<1x120xf32> into tensor<1x1024xf32>
    %extracted_slice_956 = tensor.extract_slice %0[123, 0] [1, 904] [1, 1] : tensor<128x1024xf32> to tensor<1x904xf32>
    %extracted_slice_957 = tensor.extract_slice %0[123, 904] [1, 120] [1, 1] : tensor<128x1024xf32> to tensor<1x120xf32>
    %inserted_slice_958 = tensor.insert_slice %extracted_slice_956 into %6[0, 120] [1, 904] [1, 1] : tensor<1x904xf32> into tensor<1x1024xf32>
    %inserted_slice_959 = tensor.insert_slice %extracted_slice_957 into %inserted_slice_958[0, 0] [1, 120] [1, 1] : tensor<1x120xf32> into tensor<1x1024xf32>
    %extracted_slice_960 = tensor.extract_slice %0[124, 0] [1, 904] [1, 1] : tensor<128x1024xf32> to tensor<1x904xf32>
    %extracted_slice_961 = tensor.extract_slice %0[124, 904] [1, 120] [1, 1] : tensor<128x1024xf32> to tensor<1x120xf32>
    %inserted_slice_962 = tensor.insert_slice %extracted_slice_960 into %6[0, 120] [1, 904] [1, 1] : tensor<1x904xf32> into tensor<1x1024xf32>
    %inserted_slice_963 = tensor.insert_slice %extracted_slice_961 into %inserted_slice_962[0, 0] [1, 120] [1, 1] : tensor<1x120xf32> into tensor<1x1024xf32>
    %extracted_slice_964 = tensor.extract_slice %0[125, 0] [1, 904] [1, 1] : tensor<128x1024xf32> to tensor<1x904xf32>
    %extracted_slice_965 = tensor.extract_slice %0[125, 904] [1, 120] [1, 1] : tensor<128x1024xf32> to tensor<1x120xf32>
    %inserted_slice_966 = tensor.insert_slice %extracted_slice_964 into %6[0, 120] [1, 904] [1, 1] : tensor<1x904xf32> into tensor<1x1024xf32>
    %inserted_slice_967 = tensor.insert_slice %extracted_slice_965 into %inserted_slice_966[0, 0] [1, 120] [1, 1] : tensor<1x120xf32> into tensor<1x1024xf32>
    %extracted_slice_968 = tensor.extract_slice %0[126, 0] [1, 904] [1, 1] : tensor<128x1024xf32> to tensor<1x904xf32>
    %extracted_slice_969 = tensor.extract_slice %0[126, 904] [1, 120] [1, 1] : tensor<128x1024xf32> to tensor<1x120xf32>
    %inserted_slice_970 = tensor.insert_slice %extracted_slice_968 into %6[0, 120] [1, 904] [1, 1] : tensor<1x904xf32> into tensor<1x1024xf32>
    %inserted_slice_971 = tensor.insert_slice %extracted_slice_969 into %inserted_slice_970[0, 0] [1, 120] [1, 1] : tensor<1x120xf32> into tensor<1x1024xf32>
    %extracted_slice_972 = tensor.extract_slice %0[127, 0] [1, 904] [1, 1] : tensor<128x1024xf32> to tensor<1x904xf32>
    %extracted_slice_973 = tensor.extract_slice %0[127, 904] [1, 120] [1, 1] : tensor<128x1024xf32> to tensor<1x120xf32>
    %inserted_slice_974 = tensor.insert_slice %extracted_slice_972 into %6[0, 120] [1, 904] [1, 1] : tensor<1x904xf32> into tensor<1x1024xf32>
    %inserted_slice_975 = tensor.insert_slice %extracted_slice_973 into %inserted_slice_974[0, 0] [1, 120] [1, 1] : tensor<1x120xf32> into tensor<1x1024xf32>
    %extracted_slice_976 = tensor.extract_slice %0[0, 0] [1, 1024] [1, 1] : tensor<128x1024xf32> to tensor<1024xf32>
    %pt = cheddar.encode %encoder, %extracted_slice_976 {level = 5 : i64, scale = 0x42BFFFFFFD3800F7 : f64} : (!encoder, tensor<1024xf32>) -> !plaintext
    %extracted_slice_977 = tensor.extract_slice %0[1, 0] [1, 1024] [1, 1] : tensor<128x1024xf32> to tensor<1024xf32>
    %pt_978 = cheddar.encode %encoder, %extracted_slice_977 {level = 5 : i64, scale = 0x42BFFFFFFD3800F7 : f64} : (!encoder, tensor<1024xf32>) -> !plaintext
    %extracted_slice_979 = tensor.extract_slice %0[2, 0] [1, 1024] [1, 1] : tensor<128x1024xf32> to tensor<1024xf32>
    %pt_980 = cheddar.encode %encoder, %extracted_slice_979 {level = 5 : i64, scale = 0x42BFFFFFFD3800F7 : f64} : (!encoder, tensor<1024xf32>) -> !plaintext
    %extracted_slice_981 = tensor.extract_slice %0[3, 0] [1, 1024] [1, 1] : tensor<128x1024xf32> to tensor<1024xf32>
    %pt_982 = cheddar.encode %encoder, %extracted_slice_981 {level = 5 : i64, scale = 0x42BFFFFFFD3800F7 : f64} : (!encoder, tensor<1024xf32>) -> !plaintext
    %extracted_slice_983 = tensor.extract_slice %0[4, 0] [1, 1024] [1, 1] : tensor<128x1024xf32> to tensor<1024xf32>
    %pt_984 = cheddar.encode %encoder, %extracted_slice_983 {level = 5 : i64, scale = 0x42BFFFFFFD3800F7 : f64} : (!encoder, tensor<1024xf32>) -> !plaintext
    %extracted_slice_985 = tensor.extract_slice %0[5, 0] [1, 1024] [1, 1] : tensor<128x1024xf32> to tensor<1024xf32>
    %pt_986 = cheddar.encode %encoder, %extracted_slice_985 {level = 5 : i64, scale = 0x42BFFFFFFD3800F7 : f64} : (!encoder, tensor<1024xf32>) -> !plaintext
    %extracted_slice_987 = tensor.extract_slice %0[6, 0] [1, 1024] [1, 1] : tensor<128x1024xf32> to tensor<1024xf32>
    %pt_988 = cheddar.encode %encoder, %extracted_slice_987 {level = 5 : i64, scale = 0x42BFFFFFFD3800F7 : f64} : (!encoder, tensor<1024xf32>) -> !plaintext
    %extracted_slice_989 = tensor.extract_slice %0[7, 0] [1, 1024] [1, 1] : tensor<128x1024xf32> to tensor<1024xf32>
    %pt_990 = cheddar.encode %encoder, %extracted_slice_989 {level = 5 : i64, scale = 0x42BFFFFFFD3800F7 : f64} : (!encoder, tensor<1024xf32>) -> !plaintext
    %extracted_slice_991 = tensor.extract_slice %0[8, 0] [1, 1024] [1, 1] : tensor<128x1024xf32> to tensor<1024xf32>
    %pt_992 = cheddar.encode %encoder, %extracted_slice_991 {level = 5 : i64, scale = 0x42BFFFFFFD3800F7 : f64} : (!encoder, tensor<1024xf32>) -> !plaintext
    %extracted_slice_993 = tensor.extract_slice %0[9, 0] [1, 1024] [1, 1] : tensor<128x1024xf32> to tensor<1024xf32>
    %pt_994 = cheddar.encode %encoder, %extracted_slice_993 {level = 5 : i64, scale = 0x42BFFFFFFD3800F7 : f64} : (!encoder, tensor<1024xf32>) -> !plaintext
    %extracted_slice_995 = tensor.extract_slice %0[10, 0] [1, 1024] [1, 1] : tensor<128x1024xf32> to tensor<1024xf32>
    %pt_996 = cheddar.encode %encoder, %extracted_slice_995 {level = 5 : i64, scale = 0x42BFFFFFFD3800F7 : f64} : (!encoder, tensor<1024xf32>) -> !plaintext
    %extracted_slice_997 = tensor.extract_slice %0[11, 0] [1, 1024] [1, 1] : tensor<128x1024xf32> to tensor<1024xf32>
    %pt_998 = cheddar.encode %encoder, %extracted_slice_997 {level = 5 : i64, scale = 0x42BFFFFFFD3800F7 : f64} : (!encoder, tensor<1024xf32>) -> !plaintext
    %extracted_slice_999 = tensor.extract_slice %inserted_slice_515[0, 0] [1, 1024] [1, 1] : tensor<1x1024xf32> to tensor<1024xf32>
    %pt_1000 = cheddar.encode %encoder, %extracted_slice_999 {level = 5 : i64, scale = 0x42BFFFFFFD3800F7 : f64} : (!encoder, tensor<1024xf32>) -> !plaintext
    %extracted_slice_1001 = tensor.extract_slice %inserted_slice_519[0, 0] [1, 1024] [1, 1] : tensor<1x1024xf32> to tensor<1024xf32>
    %pt_1002 = cheddar.encode %encoder, %extracted_slice_1001 {level = 5 : i64, scale = 0x42BFFFFFFD3800F7 : f64} : (!encoder, tensor<1024xf32>) -> !plaintext
    %extracted_slice_1003 = tensor.extract_slice %inserted_slice_523[0, 0] [1, 1024] [1, 1] : tensor<1x1024xf32> to tensor<1024xf32>
    %pt_1004 = cheddar.encode %encoder, %extracted_slice_1003 {level = 5 : i64, scale = 0x42BFFFFFFD3800F7 : f64} : (!encoder, tensor<1024xf32>) -> !plaintext
    %extracted_slice_1005 = tensor.extract_slice %inserted_slice_527[0, 0] [1, 1024] [1, 1] : tensor<1x1024xf32> to tensor<1024xf32>
    %pt_1006 = cheddar.encode %encoder, %extracted_slice_1005 {level = 5 : i64, scale = 0x42BFFFFFFD3800F7 : f64} : (!encoder, tensor<1024xf32>) -> !plaintext
    %extracted_slice_1007 = tensor.extract_slice %inserted_slice_531[0, 0] [1, 1024] [1, 1] : tensor<1x1024xf32> to tensor<1024xf32>
    %pt_1008 = cheddar.encode %encoder, %extracted_slice_1007 {level = 5 : i64, scale = 0x42BFFFFFFD3800F7 : f64} : (!encoder, tensor<1024xf32>) -> !plaintext
    %extracted_slice_1009 = tensor.extract_slice %inserted_slice_535[0, 0] [1, 1024] [1, 1] : tensor<1x1024xf32> to tensor<1024xf32>
    %pt_1010 = cheddar.encode %encoder, %extracted_slice_1009 {level = 5 : i64, scale = 0x42BFFFFFFD3800F7 : f64} : (!encoder, tensor<1024xf32>) -> !plaintext
    %extracted_slice_1011 = tensor.extract_slice %inserted_slice_539[0, 0] [1, 1024] [1, 1] : tensor<1x1024xf32> to tensor<1024xf32>
    %pt_1012 = cheddar.encode %encoder, %extracted_slice_1011 {level = 5 : i64, scale = 0x42BFFFFFFD3800F7 : f64} : (!encoder, tensor<1024xf32>) -> !plaintext
    %extracted_slice_1013 = tensor.extract_slice %inserted_slice_543[0, 0] [1, 1024] [1, 1] : tensor<1x1024xf32> to tensor<1024xf32>
    %pt_1014 = cheddar.encode %encoder, %extracted_slice_1013 {level = 5 : i64, scale = 0x42BFFFFFFD3800F7 : f64} : (!encoder, tensor<1024xf32>) -> !plaintext
    %extracted_slice_1015 = tensor.extract_slice %inserted_slice_547[0, 0] [1, 1024] [1, 1] : tensor<1x1024xf32> to tensor<1024xf32>
    %pt_1016 = cheddar.encode %encoder, %extracted_slice_1015 {level = 5 : i64, scale = 0x42BFFFFFFD3800F7 : f64} : (!encoder, tensor<1024xf32>) -> !plaintext
    %extracted_slice_1017 = tensor.extract_slice %inserted_slice_551[0, 0] [1, 1024] [1, 1] : tensor<1x1024xf32> to tensor<1024xf32>
    %pt_1018 = cheddar.encode %encoder, %extracted_slice_1017 {level = 5 : i64, scale = 0x42BFFFFFFD3800F7 : f64} : (!encoder, tensor<1024xf32>) -> !plaintext
    %extracted_slice_1019 = tensor.extract_slice %inserted_slice_555[0, 0] [1, 1024] [1, 1] : tensor<1x1024xf32> to tensor<1024xf32>
    %pt_1020 = cheddar.encode %encoder, %extracted_slice_1019 {level = 5 : i64, scale = 0x42BFFFFFFD3800F7 : f64} : (!encoder, tensor<1024xf32>) -> !plaintext
    %extracted_slice_1021 = tensor.extract_slice %inserted_slice_559[0, 0] [1, 1024] [1, 1] : tensor<1x1024xf32> to tensor<1024xf32>
    %pt_1022 = cheddar.encode %encoder, %extracted_slice_1021 {level = 5 : i64, scale = 0x42BFFFFFFD3800F7 : f64} : (!encoder, tensor<1024xf32>) -> !plaintext
    %extracted_slice_1023 = tensor.extract_slice %inserted_slice_563[0, 0] [1, 1024] [1, 1] : tensor<1x1024xf32> to tensor<1024xf32>
    %pt_1024 = cheddar.encode %encoder, %extracted_slice_1023 {level = 5 : i64, scale = 0x42BFFFFFFD3800F7 : f64} : (!encoder, tensor<1024xf32>) -> !plaintext
    %extracted_slice_1025 = tensor.extract_slice %inserted_slice_567[0, 0] [1, 1024] [1, 1] : tensor<1x1024xf32> to tensor<1024xf32>
    %pt_1026 = cheddar.encode %encoder, %extracted_slice_1025 {level = 5 : i64, scale = 0x42BFFFFFFD3800F7 : f64} : (!encoder, tensor<1024xf32>) -> !plaintext
    %extracted_slice_1027 = tensor.extract_slice %inserted_slice_571[0, 0] [1, 1024] [1, 1] : tensor<1x1024xf32> to tensor<1024xf32>
    %pt_1028 = cheddar.encode %encoder, %extracted_slice_1027 {level = 5 : i64, scale = 0x42BFFFFFFD3800F7 : f64} : (!encoder, tensor<1024xf32>) -> !plaintext
    %extracted_slice_1029 = tensor.extract_slice %inserted_slice_575[0, 0] [1, 1024] [1, 1] : tensor<1x1024xf32> to tensor<1024xf32>
    %pt_1030 = cheddar.encode %encoder, %extracted_slice_1029 {level = 5 : i64, scale = 0x42BFFFFFFD3800F7 : f64} : (!encoder, tensor<1024xf32>) -> !plaintext
    %extracted_slice_1031 = tensor.extract_slice %inserted_slice_579[0, 0] [1, 1024] [1, 1] : tensor<1x1024xf32> to tensor<1024xf32>
    %pt_1032 = cheddar.encode %encoder, %extracted_slice_1031 {level = 5 : i64, scale = 0x42BFFFFFFD3800F7 : f64} : (!encoder, tensor<1024xf32>) -> !plaintext
    %extracted_slice_1033 = tensor.extract_slice %inserted_slice_583[0, 0] [1, 1024] [1, 1] : tensor<1x1024xf32> to tensor<1024xf32>
    %pt_1034 = cheddar.encode %encoder, %extracted_slice_1033 {level = 5 : i64, scale = 0x42BFFFFFFD3800F7 : f64} : (!encoder, tensor<1024xf32>) -> !plaintext
    %extracted_slice_1035 = tensor.extract_slice %inserted_slice_587[0, 0] [1, 1024] [1, 1] : tensor<1x1024xf32> to tensor<1024xf32>
    %pt_1036 = cheddar.encode %encoder, %extracted_slice_1035 {level = 5 : i64, scale = 0x42BFFFFFFD3800F7 : f64} : (!encoder, tensor<1024xf32>) -> !plaintext
    %extracted_slice_1037 = tensor.extract_slice %inserted_slice_591[0, 0] [1, 1024] [1, 1] : tensor<1x1024xf32> to tensor<1024xf32>
…
    %ct_479 = cheddar.add %ctx, %ct_468, %ct_469 : (!context, !ciphertext, !ciphertext) -> !ciphertext
    %ct_480 = cheddar.add %ctx, %ct_479, %ct_470 : (!context, !ciphertext, !ciphertext) -> !ciphertext
    %ct_481 = cheddar.add %ctx, %ct_478, %ct_480 : (!context, !ciphertext, !ciphertext) -> !ciphertext
    %ct_482 = cheddar.add %ctx, %ct_471, %ct_472 : (!context, !ciphertext, !ciphertext) -> !ciphertext
    %ct_483 = cheddar.add %ctx, %ct_482, %ct_473 : (!context, !ciphertext, !ciphertext) -> !ciphertext
    %ct_484 = cheddar.add %ctx, %ct_474, %ct_475 : (!context, !ciphertext, !ciphertext) -> !ciphertext
    %ct_485 = cheddar.add %ctx, %ct_484, %ct_476 : (!context, !ciphertext, !ciphertext) -> !ciphertext
    %ct_486 = cheddar.add %ctx, %ct_483, %ct_485 : (!context, !ciphertext, !ciphertext) -> !ciphertext
    %ct_487 = cheddar.add %ctx, %ct_481, %ct_486 : (!context, !ciphertext, !ciphertext) -> !ciphertext
    %ct_488 = cheddar.hrot %ctx, %ct_487, %c96 : (!context, !ciphertext, index) -> !ciphertext
    %ct_489 = cheddar.mult_plain %ctx, %extracted_274, %extracted_107 : (!context, !ciphertext, !plaintext) -> !ciphertext
    %ct_490 = cheddar.mult_plain %ctx, %ct_275, %extracted_108 : (!context, !ciphertext, !plaintext) -> !ciphertext
    %ct_491 = cheddar.mult_plain %ctx, %ct_277, %extracted_109 : (!context, !ciphertext, !plaintext) -> !ciphertext
    %ct_492 = cheddar.mult_plain %ctx, %ct_279, %extracted_110 : (!context, !ciphertext, !plaintext) -> !ciphertext
    %ct_493 = cheddar.mult_plain %ctx, %ct_281, %extracted_111 : (!context, !ciphertext, !plaintext) -> !ciphertext
    %ct_494 = cheddar.mult_plain %ctx, %ct_283, %extracted_112 : (!context, !ciphertext, !plaintext) -> !ciphertext
    %ct_495 = cheddar.mult_plain %ctx, %ct_285, %extracted_113 : (!context, !ciphertext, !plaintext) -> !ciphertext
    %ct_496 = cheddar.mult_plain %ctx, %ct_287, %extracted_114 : (!context, !ciphertext, !plaintext) -> !ciphertext
    %ct_497 = cheddar.mult_plain %ctx, %ct_289, %extracted_115 : (!context, !ciphertext, !plaintext) -> !ciphertext
    %ct_498 = cheddar.mult_plain %ctx, %ct_291, %extracted_116 : (!context, !ciphertext, !plaintext) -> !ciphertext
    %ct_499 = cheddar.mult_plain %ctx, %ct_293, %extracted_117 : (!context, !ciphertext, !plaintext) -> !ciphertext
    %ct_500 = cheddar.mult_plain %ctx, %ct_295, %extracted_118 : (!context, !ciphertext, !plaintext) -> !ciphertext
    %ct_501 = cheddar.add %ctx, %ct_489, %ct_490 : (!context, !ciphertext, !ciphertext) -> !ciphertext
    %ct_502 = cheddar.add %ctx, %ct_501, %ct_491 : (!context, !ciphertext, !ciphertext) -> !ciphertext
    %ct_503 = cheddar.add %ctx, %ct_492, %ct_493 : (!context, !ciphertext, !ciphertext) -> !ciphertext
    %ct_504 = cheddar.add %ctx, %ct_503, %ct_494 : (!context, !ciphertext, !ciphertext) -> !ciphertext
    %ct_505 = cheddar.add %ctx, %ct_502, %ct_504 : (!context, !ciphertext, !ciphertext) -> !ciphertext
    %ct_506 = cheddar.add %ctx, %ct_495, %ct_496 : (!context, !ciphertext, !ciphertext) -> !ciphertext
    %ct_507 = cheddar.add %ctx, %ct_506, %ct_497 : (!context, !ciphertext, !ciphertext) -> !ciphertext
    %ct_508 = cheddar.add %ctx, %ct_498, %ct_499 : (!context, !ciphertext, !ciphertext) -> !ciphertext
    %ct_509 = cheddar.add %ctx, %ct_508, %ct_500 : (!context, !ciphertext, !ciphertext) -> !ciphertext
    %ct_510 = cheddar.add %ctx, %ct_507, %ct_509 : (!context, !ciphertext, !ciphertext) -> !ciphertext
    %ct_511 = cheddar.add %ctx, %ct_505, %ct_510 : (!context, !ciphertext, !ciphertext) -> !ciphertext
    %ct_512 = cheddar.hrot %ctx, %ct_511, %c108 : (!context, !ciphertext, index) -> !ciphertext
    %ct_513 = cheddar.mult_plain %ctx, %extracted_274, %extracted_119 : (!context, !ciphertext, !plaintext) -> !ciphertext
    %ct_514 = cheddar.mult_plain %ctx, %ct_275, %extracted_120 : (!context, !ciphertext, !plaintext) -> !ciphertext
    %ct_515 = cheddar.mult_plain %ctx, %ct_277, %extracted_121 : (!context, !ciphertext, !plaintext) -> !ciphertext
    %ct_516 = cheddar.mult_plain %ctx, %ct_279, %extracted_122 : (!context, !ciphertext, !plaintext) -> !ciphertext
    %ct_517 = cheddar.mult_plain %ctx, %ct_281, %extracted_123 : (!context, !ciphertext, !plaintext) -> !ciphertext
    %ct_518 = cheddar.mult_plain %ctx, %ct_283, %extracted_124 : (!context, !ciphertext, !plaintext) -> !ciphertext
    %ct_519 = cheddar.mult_plain %ctx, %ct_285, %extracted_125 : (!context, !ciphertext, !plaintext) -> !ciphertext
    %ct_520 = cheddar.mult_plain %ctx, %ct_287, %extracted_126 : (!context, !ciphertext, !plaintext) -> !ciphertext
    %ct_521 = cheddar.add %ctx, %ct_513, %ct_514 : (!context, !ciphertext, !ciphertext) -> !ciphertext
    %ct_522 = cheddar.add %ctx, %ct_515, %ct_516 : (!context, !ciphertext, !ciphertext) -> !ciphertext
    %ct_523 = cheddar.add %ctx, %ct_521, %ct_522 : (!context, !ciphertext, !ciphertext) -> !ciphertext
    %ct_524 = cheddar.add %ctx, %ct_517, %ct_518 : (!context, !ciphertext, !ciphertext) -> !ciphertext
    %ct_525 = cheddar.add %ctx, %ct_519, %ct_520 : (!context, !ciphertext, !ciphertext) -> !ciphertext
    %ct_526 = cheddar.add %ctx, %ct_524, %ct_525 : (!context, !ciphertext, !ciphertext) -> !ciphertext
    %ct_527 = cheddar.add %ctx, %ct_523, %ct_526 : (!context, !ciphertext, !ciphertext) -> !ciphertext
    %ct_528 = cheddar.hrot %ctx, %ct_527, %c120 : (!context, !ciphertext, index) -> !ciphertext
    %ct_529 = cheddar.add %ctx, %ct, %ct_276 : (!context, !ciphertext, !ciphertext) -> !ciphertext
    %ct_530 = cheddar.add %ctx, %ct_278, %ct_280 : (!context, !ciphertext, !ciphertext) -> !ciphertext
    %ct_531 = cheddar.add %ctx, %ct_530, %ct_282 : (!context, !ciphertext, !ciphertext) -> !ciphertext
    %ct_532 = cheddar.add %ctx, %ct_529, %ct_531 : (!context, !ciphertext, !ciphertext) -> !ciphertext
    %ct_533 = cheddar.add %ctx, %ct_284, %ct_286 : (!context, !ciphertext, !ciphertext) -> !ciphertext
    %ct_534 = cheddar.add %ctx, %ct_533, %ct_288 : (!context, !ciphertext, !ciphertext) -> !ciphertext
    %ct_535 = cheddar.add %ctx, %ct_290, %ct_292 : (!context, !ciphertext, !ciphertext) -> !ciphertext
    %ct_536 = cheddar.add %ctx, %ct_535, %ct_294 : (!context, !ciphertext, !ciphertext) -> !ciphertext
    %ct_537 = cheddar.add %ctx, %ct_534, %ct_536 : (!context, !ciphertext, !ciphertext) -> !ciphertext
    %ct_538 = cheddar.add %ctx, %ct_532, %ct_537 : (!context, !ciphertext, !ciphertext) -> !ciphertext
    %ct_539 = cheddar.add %ctx, %ct_296, %ct_320 : (!context, !ciphertext, !ciphertext) -> !ciphertext
    %ct_540 = cheddar.add %ctx, %ct_344, %ct_368 : (!context, !ciphertext, !ciphertext) -> !ciphertext
    %ct_541 = cheddar.add %ctx, %ct_540, %ct_392 : (!context, !ciphertext, !ciphertext) -> !ciphertext
    %ct_542 = cheddar.add %ctx, %ct_539, %ct_541 : (!context, !ciphertext, !ciphertext) -> !ciphertext
    %ct_543 = cheddar.add %ctx, %ct_416, %ct_440 : (!context, !ciphertext, !ciphertext) -> !ciphertext
    %ct_544 = cheddar.add %ctx, %ct_543, %ct_464 : (!context, !ciphertext, !ciphertext) -> !ciphertext
    %ct_545 = cheddar.add %ctx, %ct_488, %ct_512 : (!context, !ciphertext, !ciphertext) -> !ciphertext
    %ct_546 = cheddar.add %ctx, %ct_545, %ct_528 : (!context, !ciphertext, !ciphertext) -> !ciphertext
    %ct_547 = cheddar.add %ctx, %ct_544, %ct_546 : (!context, !ciphertext, !ciphertext) -> !ciphertext
    %ct_548 = cheddar.add %ctx, %ct_542, %ct_547 : (!context, !ciphertext, !ciphertext) -> !ciphertext
    %ct_549 = cheddar.add %ctx, %ct_538, %ct_548 : (!context, !ciphertext, !ciphertext) -> !ciphertext
    %ct_550 = cheddar.hrot %ctx, %ct_549, %c512 : (!context, !ciphertext, index) -> !ciphertext
    %ct_551 = cheddar.add %ctx, %ct_549, %ct_550 : (!context, !ciphertext, !ciphertext) -> !ciphertext
    %ct_552 = cheddar.hrot %ctx, %ct_551, %c256 : (!context, !ciphertext, index) -> !ciphertext
    %ct_553 = cheddar.add %ctx, %ct_551, %ct_552 : (!context, !ciphertext, !ciphertext) -> !ciphertext
    %ct_554 = cheddar.hrot %ctx, %ct_553, %c128 : (!context, !ciphertext, index) -> !ciphertext
    %ct_555 = cheddar.add_plain %ctx, %ct_553, %extracted_271 : (!context, !ciphertext, !plaintext) -> !ciphertext
    %ct_556 = cheddar.add %ctx, %ct_555, %ct_554 : (!context, !ciphertext, !ciphertext) -> !ciphertext
    %ct_557 = cheddar.rescale %ctx, %ct_556 : (!context, !ciphertext) -> !ciphertext
    %ct_558 = cheddar.mult %ctx, %ct_557, %ct_557 : (!context, !ciphertext, !ciphertext) -> !ciphertext
    %ct_559 = cheddar.relinearize %ctx, %ct_558, %evk : (!context, !ciphertext, !eval_key) -> !ciphertext
    %ct_560 = cheddar.rescale %ctx, %ct_559 : (!context, !ciphertext) -> !ciphertext
    %ct_561 = cheddar.mult_plain %ctx, %ct_560, %extracted_127 : (!context, !ciphertext, !plaintext) -> !ciphertext
    %ct_562 = cheddar.hrot %ctx, %ct_559, %c1 : (!context, !ciphertext, index) -> !ciphertext
    %ct_563 = cheddar.rescale %ctx, %ct_562 : (!context, !ciphertext) -> !ciphertext
    %ct_564 = cheddar.mult_plain %ctx, %ct_563, %extracted_128 : (!context, !ciphertext, !plaintext) -> !ciphertext
    %ct_565 = cheddar.hrot %ctx, %ct_559, %c2 : (!context, !ciphertext, index) -> !ciphertext
    %ct_566 = cheddar.rescale %ctx, %ct_565 : (!context, !ciphertext) -> !ciphertext
    %ct_567 = cheddar.mult_plain %ctx, %ct_566, %extracted_129 : (!context, !ciphertext, !plaintext) -> !ciphertext
    %ct_568 = cheddar.hrot %ctx, %ct_559, %c3 : (!context, !ciphertext, index) -> !ciphertext
    %ct_569 = cheddar.rescale %ctx, %ct_568 : (!context, !ciphertext) -> !ciphertext
    %ct_570 = cheddar.mult_plain %ctx, %ct_569, %extracted_130 : (!context, !ciphertext, !plaintext) -> !ciphertext
    %ct_571 = cheddar.hrot %ctx, %ct_559, %c4 : (!context, !ciphertext, index) -> !ciphertext
    %ct_572 = cheddar.rescale %ctx, %ct_571 : (!context, !ciphertext) -> !ciphertext
    %ct_573 = cheddar.mult_plain %ctx, %ct_572, %extracted_131 : (!context, !ciphertext, !plaintext) -> !ciphertext
    %ct_574 = cheddar.hrot %ctx, %ct_559, %c5 : (!context, !ciphertext, index) -> !ciphertext
    %ct_575 = cheddar.rescale %ctx, %ct_574 : (!context, !ciphertext) -> !ciphertext
    %ct_576 = cheddar.mult_plain %ctx, %ct_575, %extracted_132 : (!context, !ciphertext, !plaintext) -> !ciphertext
    %ct_577 = cheddar.hrot %ctx, %ct_559, %c6 : (!context, !ciphertext, index) -> !ciphertext
    %ct_578 = cheddar.rescale %ctx, %ct_577 : (!context, !ciphertext) -> !ciphertext
    %ct_579 = cheddar.mult_plain %ctx, %ct_578, %extracted_133 : (!context, !ciphertext, !plaintext) -> !ciphertext
    %ct_580 = cheddar.hrot %ctx, %ct_559, %c7 : (!context, !ciphertext, index) -> !ciphertext
    %ct_581 = cheddar.rescale %ctx, %ct_580 : (!context, !ciphertext) -> !ciphertext
    %ct_582 = cheddar.mult_plain %ctx, %ct_581, %extracted_134 : (!context, !ciphertext, !plaintext) -> !ciphertext
    %ct_583 = cheddar.hrot %ctx, %ct_559, %c8 : (!context, !ciphertext, index) -> !ciphertext
    %ct_584 = cheddar.rescale %ctx, %ct_583 : (!context, !ciphertext) -> !ciphertext
    %ct_585 = cheddar.mult_plain %ctx, %ct_584, %extracted_135 : (!context, !ciphertext, !plaintext) -> !ciphertext
    %ct_586 = cheddar.hrot %ctx, %ct_559, %c9 : (!context, !ciphertext, index) -> !ciphertext
    %ct_587 = cheddar.rescale %ctx, %ct_586 : (!context, !ciphertext) -> !ciphertext
    %ct_588 = cheddar.mult_plain %ctx, %ct_587, %extracted_136 : (!context, !ciphertext, !plaintext) -> !ciphertext
    %ct_589 = cheddar.hrot %ctx, %ct_559, %c10 : (!context, !ciphertext, index) -> !ciphertext
    %ct_590 = cheddar.rescale %ctx, %ct_589 : (!context, !ciphertext) -> !ciphertext
    %ct_591 = cheddar.mult_plain %ctx, %ct_590, %extracted_137 : (!context, !ciphertext, !plaintext) -> !ciphertext
    %ct_592 = cheddar.hrot %ctx, %ct_559, %c11 : (!context, !ciphertext, index) -> !ciphertext
    %ct_593 = cheddar.rescale %ctx, %ct_592 : (!context, !ciphertext) -> !ciphertext
    %ct_594 = cheddar.mult_plain %ctx, %ct_593, %extracted_138 : (!context, !ciphertext, !plaintext) -> !ciphertext
    %ct_595 = cheddar.mult_plain %ctx, %ct_560, %extracted_139 : (!context, !ciphertext, !plaintext) -> !ciphertext
    %ct_596 = cheddar.mult_plain %ctx, %ct_563, %extracted_140 : (!context, !ciphertext, !plaintext) -> !ciphertext
    %ct_597 = cheddar.mult_plain %ctx, %ct_566, %extracted_141 : (!context, !ciphertext, !plaintext) -> !ciphertext
    %ct_598 = cheddar.mult_plain %ctx, %ct_569, %extracted_142 : (!context, !ciphertext, !plaintext) -> !ciphertext
    %ct_599 = cheddar.mult_plain %ctx, %ct_572, %extracted_143 : (!context, !ciphertext, !plaintext) -> !ciphertext
    %ct_600 = cheddar.mult_plain %ctx, %ct_575, %extracted_144 : (!context, !ciphertext, !plaintext) -> !ciphertext
    %ct_601 = cheddar.mult_plain %ctx, %ct_578, %extracted_145 : (!context, !ciphertext, !plaintext) -> !ciphertext
    %ct_602 = cheddar.mult_plain %ctx, %ct_581, %extracted_146 : (!context, !ciphertext, !plaintext) -> !ciphertext
    %ct_603 = cheddar.mult_plain %ctx, %ct_584, %extracted_147 : (!context, !ciphertext, !plaintext) -> !ciphertext
    %ct_604 = cheddar.mult_plain %ctx, %ct_587, %extracted_148 : (!context, !ciphertext, !plaintext) -> !ciphertext
    %ct_605 = cheddar.mult_plain %ctx, %ct_590, %extracted_149 : (!context, !ciphertext, !plaintext) -> !ciphertext
    %ct_606 = cheddar.mult_plain %ctx, %ct_593, %extracted_150 : (!context, !ciphertext, !plaintext) -> !ciphertext
    %ct_607 = cheddar.add %ctx, %ct_595, %ct_596 : (!context, !ciphertext, !ciphertext) -> !ciphertext
    %ct_608 = cheddar.add %ctx, %ct_607, %ct_597 : (!context, !ciphertext, !ciphertext) -> !ciphertext
    %ct_609 = cheddar.add %ctx, %ct_598, %ct_599 : (!context, !ciphertext, !ciphertext) -> !ciphertext
    %ct_610 = cheddar.add %ctx, %ct_609, %ct_600 : (!context, !ciphertext, !ciphertext) -> !ciphertext
    %ct_611 = cheddar.add %ctx, %ct_608, %ct_610 : (!context, !ciphertext, !ciphertext) -> !ciphertext
    %ct_612 = cheddar.add %ctx, %ct_601, %ct_602 : (!context, !ciphertext, !ciphertext) -> !ciphertext
    %ct_613 = cheddar.add %ctx, %ct_612, %ct_603 : (!context, !ciphertext, !ciphertext) -> !ciphertext
    %ct_614 = cheddar.add %ctx, %ct_604, %ct_605 : (!context, !ciphertext, !ciphertext) -> !ciphertext
    %ct_615 = cheddar.add %ctx, %ct_614, %ct_606 : (!context, !ciphertext, !ciphertext) -> !ciphertext
    %ct_616 = cheddar.add %ctx, %ct_613, %ct_615 : (!context, !ciphertext, !ciphertext) -> !ciphertext
    %ct_617 = cheddar.add %ctx, %ct_611, %ct_616 : (!context, !ciphertext, !ciphertext) -> !ciphertext
    %ct_618 = cheddar.hrot %ctx, %ct_617, %c12 : (!context, !ciphertext, index) -> !ciphertext
    %ct_619 = cheddar.mult_plain %ctx, %ct_560, %extracted_151 : (!context, !ciphertext, !plaintext) -> !ciphertext
    %ct_620 = cheddar.mult_plain %ctx, %ct_563, %extracted_152 : (!context, !ciphertext, !plaintext) -> !ciphertext
    %ct_621 = cheddar.mult_plain %ctx, %ct_566, %extracted_153 : (!context, !ciphertext, !plaintext) -> !ciphertext
    %ct_622 = cheddar.mult_plain %ctx, %ct_569, %extracted_154 : (!context, !ciphertext, !plaintext) -> !ciphertext
    %ct_623 = cheddar.mult_plain %ctx, %ct_572, %extracted_155 : (!context, !ciphertext, !plaintext) -> !ciphertext
    %ct_624 = cheddar.mult_plain %ctx, %ct_575, %extracted_156 : (!context, !ciphertext, !plaintext) -> !ciphertext
    %ct_625 = cheddar.mult_plain %ctx, %ct_578, %extracted_157 : (!context, !ciphertext, !plaintext) -> !ciphertext
    %ct_626 = cheddar.mult_plain %ctx, %ct_581, %extracted_158 : (!context, !ciphertext, !plaintext) -> !ciphertext
    %ct_627 = cheddar.mult_plain %ctx, %ct_584, %extracted_159 : (!context, !ciphertext, !plaintext) -> !ciphertext
    %ct_628 = cheddar.mult_plain %ctx, %ct_587, %extracted_160 : (!context, !ciphertext, !plaintext) -> !ciphertext
    %ct_629 = cheddar.mult_plain %ctx, %ct_590, %extracted_161 : (!context, !ciphertext, !plaintext) -> !ciphertext
    %ct_630 = cheddar.mult_plain %ctx, %ct_593, %extracted_162 : (!context, !ciphertext, !plaintext) -> !ciphertext
    %ct_631 = cheddar.add %ctx, %ct_619, %ct_620 : (!context, !ciphertext, !ciphertext) -> !ciphertext
    %ct_632 = cheddar.add %ctx, %ct_631, %ct_621 : (!context, !ciphertext, !ciphertext) -> !ciphertext
    %ct_633 = cheddar.add %ctx, %ct_622, %ct_623 : (!context, !ciphertext, !ciphertext) -> !ciphertext
    %ct_634 = cheddar.add %ctx, %ct_633, %ct_624 : (!context, !ciphertext, !ciphertext) -> !ciphertext
    %ct_635 = cheddar.add %ctx, %ct_632, %ct_634 : (!context, !ciphertext, !ciphertext) -> !ciphertext
    %ct_636 = cheddar.add %ctx, %ct_625, %ct_626 : (!context, !ciphertext, !ciphertext) -> !ciphertext
    %ct_637 = cheddar.add %ctx, %ct_636, %ct_627 : (!context, !ciphertext, !ciphertext) -> !ciphertext
    %ct_638 = cheddar.add %ctx, %ct_628, %ct_629 : (!context, !ciphertext, !ciphertext) -> !ciphertext
    %ct_639 = cheddar.add %ctx, %ct_638, %ct_630 : (!context, !ciphertext, !ciphertext) -> !ciphertext
    %ct_640 = cheddar.add %ctx, %ct_637, %ct_639 : (!context, !ciphertext, !ciphertext) -> !ciphertext
    %ct_641 = cheddar.add %ctx, %ct_635, %ct_640 : (!context, !ciphertext, !ciphertext) -> !ciphertext
    %ct_642 = cheddar.hrot %ctx, %ct_641, %c24 : (!context, !ciphertext, index) -> !ciphertext
    %ct_643 = cheddar.mult_plain %ctx, %ct_560, %extracted_163 : (!context, !ciphertext, !plaintext) -> !ciphertext
    %ct_644 = cheddar.mult_plain %ctx, %ct_563, %extracted_164 : (!context, !ciphertext, !plaintext) -> !ciphertext
    %ct_645 = cheddar.mult_plain %ctx, %ct_566, %extracted_165 : (!context, !ciphertext, !plaintext) -> !ciphertext
    %ct_646 = cheddar.mult_plain %ctx, %ct_569, %extracted_166 : (!context, !ciphertext, !plaintext) -> !ciphertext
    %ct_647 = cheddar.mult_plain %ctx, %ct_572, %extracted_167 : (!context, !ciphertext, !plaintext) -> !ciphertext
    %ct_648 = cheddar.mult_plain %ctx, %ct_575, %extracted_168 : (!context, !ciphertext, !plaintext) -> !ciphertext
    %ct_649 = cheddar.mult_plain %ctx, %ct_578, %extracted_169 : (!context, !ciphertext, !plaintext) -> !ciphertext
    %ct_650 = cheddar.mult_plain %ctx, %ct_581, %extracted_170 : (!context, !ciphertext, !plaintext) -> !ciphertext
    %ct_651 = cheddar.mult_plain %ctx, %ct_584, %extracted_171 : (!context, !ciphertext, !plaintext) -> !ciphertext
    %ct_652 = cheddar.mult_plain %ctx, %ct_587, %extracted_172 : (!context, !ciphertext, !plaintext) -> !ciphertext
    %ct_653 = cheddar.mult_plain %ctx, %ct_590, %extracted_173 : (!context, !ciphertext, !plaintext) -> !ciphertext
    %ct_654 = cheddar.mult_plain %ctx, %ct_593, %extracted_174 : (!context, !ciphertext, !plaintext) -> !ciphertext
    %ct_655 = cheddar.add %ctx, %ct_643, %ct_644 : (!context, !ciphertext, !ciphertext) -> !ciphertext
    %ct_656 = cheddar.add %ctx, %ct_655, %ct_645 : (!context, !ciphertext, !ciphertext) -> !ciphertext
    %ct_657 = cheddar.add %ctx, %ct_646, %ct_647 : (!context, !ciphertext, !ciphertext) -> !ciphertext
    %ct_658 = cheddar.add %ctx, %ct_657, %ct_648 : (!context, !ciphertext, !ciphertext) -> !ciphertext
    %ct_659 = cheddar.add %ctx, %ct_656, %ct_658 : (!context, !ciphertext, !ciphertext) -> !ciphertext
    %ct_660 = cheddar.add %ctx, %ct_649, %ct_650 : (!context, !ciphertext, !ciphertext) -> !ciphertext
    %ct_661 = cheddar.add %ctx, %ct_660, %ct_651 : (!context, !ciphertext, !ciphertext) -> !ciphertext
    %ct_662 = cheddar.add %ctx, %ct_652, %ct_653 : (!context, !ciphertext, !ciphertext) -> !ciphertext
    %ct_663 = cheddar.add %ctx, %ct_662, %ct_654 : (!context, !ciphertext, !ciphertext) -> !ciphertext
    %ct_664 = cheddar.add %ctx, %ct_661, %ct_663 : (!context, !ciphertext, !ciphertext) -> !ciphertext
    %ct_665 = cheddar.add %ctx, %ct_659, %ct_664 : (!context, !ciphertext, !ciphertext) -> !ciphertext
    %ct_666 = cheddar.hrot %ctx, %ct_665, %c36 : (!context, !ciphertext, index) -> !ciphertext
    %ct_667 = cheddar.mult_plain %ctx, %ct_560, %extracted_175 : (!context, !ciphertext, !plaintext) -> !ciphertext
    %ct_668 = cheddar.mult_plain %ctx, %ct_563, %extracted_176 : (!context, !ciphertext, !plaintext) -> !ciphertext
    %ct_669 = cheddar.mult_plain %ctx, %ct_566, %extracted_177 : (!context, !ciphertext, !plaintext) -> !ciphertext
    %ct_670 = cheddar.mult_plain %ctx, %ct_569, %extracted_178 : (!context, !ciphertext, !plaintext) -> !ciphertext
    %ct_671 = cheddar.mult_plain %ctx, %ct_572, %extracted_179 : (!context, !ciphertext, !plaintext) -> !ciphertext
    %ct_672 = cheddar.mult_plain %ctx, %ct_575, %extracted_180 : (!context, !ciphertext, !plaintext) -> !ciphertext
    %ct_673 = cheddar.mult_plain %ctx, %ct_578, %extracted_181 : (!context, !ciphertext, !plaintext) -> !ciphertext
    %ct_674 = cheddar.mult_plain %ctx, %ct_581, %extracted_182 : (!context, !ciphertext, !plaintext) -> !ciphertext
    %ct_675 = cheddar.mult_plain %ctx, %ct_584, %extracted_183 : (!context, !ciphertext, !plaintext) -> !ciphertext
    %ct_676 = cheddar.mult_plain %ctx, %ct_587, %extracted_184 : (!context, !ciphertext, !plaintext) -> !ciphertext
    %ct_677 = cheddar.mult_plain %ctx, %ct_590, %extracted_185 : (!context, !ciphertext, !plaintext) -> !ciphertext
    %ct_678 = cheddar.mult_plain %ctx, %ct_593, %extracted_186 : (!context, !ciphertext, !plaintext) -> !ciphertext
    %ct_679 = cheddar.add %ctx, %ct_667, %ct_668 : (!context, !ciphertext, !ciphertext) -> !ciphertext
    %ct_680 = cheddar.add %ctx, %ct_679, %ct_669 : (!context, !ciphertext, !ciphertext) -> !ciphertext
    %ct_681 = cheddar.add %ctx, %ct_670, %ct_671 : (!context, !ciphertext, !ciphertext) -> !ciphertext
    %ct_682 = cheddar.add %ctx, %ct_681, %ct_672 : (!context, !ciphertext, !ciphertext) -> !ciphertext
    %ct_683 = cheddar.add %ctx, %ct_680, %ct_682 : (!context, !ciphertext, !ciphertext) -> !ciphertext
    %ct_684 = cheddar.add %ctx, %ct_673, %ct_674 : (!context, !ciphertext, !ciphertext) -> !ciphertext
    %ct_685 = cheddar.add %ctx, %ct_684, %ct_675 : (!context, !ciphertext, !ciphertext) -> !ciphertext
    %ct_686 = cheddar.add %ctx, %ct_676, %ct_677 : (!context, !ciphertext, !ciphertext) -> !ciphertext
    %ct_687 = cheddar.add %ctx, %ct_686, %ct_678 : (!context, !ciphertext, !ciphertext) -> !ciphertext
    %ct_688 = cheddar.add %ctx, %ct_685, %ct_687 : (!context, !ciphertext, !ciphertext) -> !ciphertext
    %ct_689 = cheddar.add %ctx, %ct_683, %ct_688 : (!context, !ciphertext, !ciphertext) -> !ciphertext
    %ct_690 = cheddar.hrot %ctx, %ct_689, %c48 : (!context, !ciphertext, index) -> !ciphertext
    %ct_691 = cheddar.mult_plain %ctx, %ct_560, %extracted_187 : (!context, !ciphertext, !plaintext) -> !ciphertext
    %ct_692 = cheddar.mult_plain %ctx, %ct_563, %extracted_188 : (!context, !ciphertext, !plaintext) -> !ciphertext
    %ct_693 = cheddar.mult_plain %ctx, %ct_566, %extracted_189 : (!context, !ciphertext, !plaintext) -> !ciphertext
    %ct_694 = cheddar.mult_plain %ctx, %ct_569, %extracted_190 : (!context, !ciphertext, !plaintext) -> !ciphertext
    %ct_695 = cheddar.mult_plain %ctx, %ct_572, %extracted_191 : (!context, !ciphertext, !plaintext) -> !ciphertext
    %ct_696 = cheddar.mult_plain %ctx, %ct_575, %extracted_192 : (!context, !ciphertext, !plaintext) -> !ciphertext
    %ct_697 = cheddar.mult_plain %ctx, %ct_578, %extracted_193 : (!context, !ciphertext, !plaintext) -> !ciphertext
    %ct_698 = cheddar.mult_plain %ctx, %ct_581, %extracted_194 : (!context, !ciphertext, !plaintext) -> !ciphertext
    %ct_699 = cheddar.mult_plain %ctx, %ct_584, %extracted_195 : (!context, !ciphertext, !plaintext) -> !ciphertext
    %ct_700 = cheddar.mult_plain %ctx, %ct_587, %extracted_196 : (!context, !ciphertext, !plaintext) -> !ciphertext
    %ct_701 = cheddar.mult_plain %ctx, %ct_590, %extracted_197 : (!context, !ciphertext, !plaintext) -> !ciphertext
    %ct_702 = cheddar.mult_plain %ctx, %ct_593, %extracted_198 : (!context, !ciphertext, !plaintext) -> !ciphertext
    %ct_703 = cheddar.add %ctx, %ct_691, %ct_692 : (!context, !ciphertext, !ciphertext) -> !ciphertext
    %ct_704 = cheddar.add %ctx, %ct_703, %ct_693 : (!context, !ciphertext, !ciphertext) -> !ciphertext
    %ct_705 = cheddar.add %ctx, %ct_694, %ct_695 : (!context, !ciphertext, !ciphertext) -> !ciphertext
    %ct_706 = cheddar.add %ctx, %ct_705, %ct_696 : (!context, !ciphertext, !ciphertext) -> !ciphertext
    %ct_707 = cheddar.add %ctx, %ct_704, %ct_706 : (!context, !ciphertext, !ciphertext) -> !ciphertext
    %ct_708 = cheddar.add %ctx, %ct_697, %ct_698 : (!context, !ciphertext, !ciphertext) -> !ciphertext
    %ct_709 = cheddar.add %ctx, %ct_708, %ct_699 : (!context, !ciphertext, !ciphertext) -> !ciphertext
    %ct_710 = cheddar.add %ctx, %ct_700, %ct_701 : (!context, !ciphertext, !ciphertext) -> !ciphertext
    %ct_711 = cheddar.add %ctx, %ct_710, %ct_702 : (!context, !ciphertext, !ciphertext) -> !ciphertext
    %ct_712 = cheddar.add %ctx, %ct_709, %ct_711 : (!context, !ciphertext, !ciphertext) -> !ciphertext
    %ct_713 = cheddar.add %ctx, %ct_707, %ct_712 : (!context, !ciphertext, !ciphertext) -> !ciphertext
    %ct_714 = cheddar.hrot %ctx, %ct_713, %c60 : (!context, !ciphertext, index) -> !ciphertext
    %ct_715 = cheddar.mult_plain %ctx, %ct_560, %extracted_199 : (!context, !ciphertext, !plaintext) -> !ciphertext
    %ct_716 = cheddar.mult_plain %ctx, %ct_563, %extracted_200 : (!context, !ciphertext, !plaintext) -> !ciphertext
    %ct_717 = cheddar.mult_plain %ctx, %ct_566, %extracted_201 : (!context, !ciphertext, !plaintext) -> !ciphertext
    %ct_718 = cheddar.mult_plain %ctx, %ct_569, %extracted_202 : (!context, !ciphertext, !plaintext) -> !ciphertext
    %ct_719 = cheddar.mult_plain %ctx, %ct_572, %extracted_203 : (!context, !ciphertext, !plaintext) -> !ciphertext
    %ct_720 = cheddar.mult_plain %ctx, %ct_575, %extracted_204 : (!context, !ciphertext, !plaintext) -> !ciphertext
    %ct_721 = cheddar.mult_plain %ctx, %ct_578, %extracted_205 : (!context, !ciphertext, !plaintext) -> !ciphertext
    %ct_722 = cheddar.mult_plain %ctx, %ct_581, %extracted_206 : (!context, !ciphertext, !plaintext) -> !ciphertext
    %ct_723 = cheddar.mult_plain %ctx, %ct_584, %extracted_207 : (!context, !ciphertext, !plaintext) -> !ciphertext
    %ct_724 = cheddar.mult_plain %ctx, %ct_587, %extracted_208 : (!context, !ciphertext, !plaintext) -> !ciphertext
    %ct_725 = cheddar.mult_plain %ctx, %ct_590, %extracted_209 : (!context, !ciphertext, !plaintext) -> !ciphertext
    %ct_726 = cheddar.mult_plain %ctx, %ct_593, %extracted_210 : (!context, !ciphertext, !plaintext) -> !ciphertext
    %ct_727 = cheddar.add %ctx, %ct_715, %ct_716 : (!context, !ciphertext, !ciphertext) -> !ciphertext
    %ct_728 = cheddar.add %ctx, %ct_727, %ct_717 : (!context, !ciphertext, !ciphertext) -> !ciphertext
    %ct_729 = cheddar.add %ctx, %ct_718, %ct_719 : (!context, !ciphertext, !ciphertext) -> !ciphertext
    %ct_730 = cheddar.add %ctx, %ct_729, %ct_720 : (!context, !ciphertext, !ciphertext) -> !ciphertext
    %ct_731 = cheddar.add %ctx, %ct_728, %ct_730 : (!context, !ciphertext, !ciphertext) -> !ciphertext
    %ct_732 = cheddar.add %ctx, %ct_721, %ct_722 : (!context, !ciphertext, !ciphertext) -> !ciphertext
    %ct_733 = cheddar.add %ctx, %ct_732, %ct_723 : (!context, !ciphertext, !ciphertext) -> !ciphertext
    %ct_734 = cheddar.add %ctx, %ct_724, %ct_725 : (!context, !ciphertext, !ciphertext) -> !ciphertext
    %ct_735 = cheddar.add %ctx, %ct_734, %ct_726 : (!context, !ciphertext, !ciphertext) -> !ciphertext
    %ct_736 = cheddar.add %ctx, %ct_733, %ct_735 : (!context, !ciphertext, !ciphertext) -> !ciphertext
    %ct_737 = cheddar.add %ctx, %ct_731, %ct_736 : (!context, !ciphertext, !ciphertext) -> !ciphertext
    %ct_738 = cheddar.hrot %ctx, %ct_737, %c72 : (!context, !ciphertext, index) -> !ciphertext
    %ct_739 = cheddar.mult_plain %ctx, %ct_560, %extracted_211 : (!context, !ciphertext, !plaintext) -> !ciphertext
    %ct_740 = cheddar.mult_plain %ctx, %ct_563, %extracted_212 : (!context, !ciphertext, !plaintext) -> !ciphertext
    %ct_741 = cheddar.mult_plain %ctx, %ct_566, %extracted_213 : (!context, !ciphertext, !plaintext) -> !ciphertext
    %ct_742 = cheddar.mult_plain %ctx, %ct_569, %extracted_214 : (!context, !ciphertext, !plaintext) -> !ciphertext
    %ct_743 = cheddar.mult_plain %ctx, %ct_572, %extracted_215 : (!context, !ciphertext, !plaintext) -> !ciphertext
    %ct_744 = cheddar.mult_plain %ctx, %ct_575, %extracted_216 : (!context, !ciphertext, !plaintext) -> !ciphertext
    %ct_745 = cheddar.mult_plain %ctx, %ct_578, %extracted_217 : (!context, !ciphertext, !plaintext) -> !ciphertext
    %ct_746 = cheddar.mult_plain %ctx, %ct_581, %extracted_218 : (!context, !ciphertext, !plaintext) -> !ciphertext
    %ct_747 = cheddar.mult_plain %ctx, %ct_584, %extracted_219 : (!context, !ciphertext, !plaintext) -> !ciphertext
    %ct_748 = cheddar.mult_plain %ctx, %ct_587, %extracted_220 : (!context, !ciphertext, !plaintext) -> !ciphertext
    %ct_749 = cheddar.mult_plain %ctx, %ct_590, %extracted_221 : (!context, !ciphertext, !plaintext) -> !ciphertext
    %ct_750 = cheddar.mult_plain %ctx, %ct_593, %extracted_222 : (!context, !ciphertext, !plaintext) -> !ciphertext
    %ct_751 = cheddar.add %ctx, %ct_739, %ct_740 : (!context, !ciphertext, !ciphertext) -> !ciphertext
    %ct_752 = cheddar.add %ctx, %ct_751, %ct_741 : (!context, !ciphertext, !ciphertext) -> !ciphertext
    %ct_753 = cheddar.add %ctx, %ct_742, %ct_743 : (!context, !ciphertext, !ciphertext) -> !ciphertext
    %ct_754 = cheddar.add %ctx, %ct_753, %ct_744 : (!context, !ciphertext, !ciphertext) -> !ciphertext
    %ct_755 = cheddar.add %ctx, %ct_752, %ct_754 : (!context, !ciphertext, !ciphertext) -> !ciphertext
    %ct_756 = cheddar.add %ctx, %ct_745, %ct_746 : (!context, !ciphertext, !ciphertext) -> !ciphertext
    %ct_757 = cheddar.add %ctx, %ct_756, %ct_747 : (!context, !ciphertext, !ciphertext) -> !ciphertext
    %ct_758 = cheddar.add %ctx, %ct_748, %ct_749 : (!context, !ciphertext, !ciphertext) -> !ciphertext
    %ct_759 = cheddar.add %ctx, %ct_758, %ct_750 : (!context, !ciphertext, !ciphertext) -> !ciphertext
    %ct_760 = cheddar.add %ctx, %ct_757, %ct_759 : (!context, !ciphertext, !ciphertext) -> !ciphertext
    %ct_761 = cheddar.add %ctx, %ct_755, %ct_760 : (!context, !ciphertext, !ciphertext) -> !ciphertext
    %ct_762 = cheddar.hrot %ctx, %ct_761, %c84 : (!context, !ciphertext, index) -> !ciphertext
    %ct_763 = cheddar.mult_plain %ctx, %ct_560, %extracted_223 : (!context, !ciphertext, !plaintext) -> !ciphertext
    %ct_764 = cheddar.mult_plain %ctx, %ct_563, %extracted_224 : (!context, !ciphertext, !plaintext) -> !ciphertext
    %ct_765 = cheddar.mult_plain %ctx, %ct_566, %extracted_225 : (!context, !ciphertext, !plaintext) -> !ciphertext
    %ct_766 = cheddar.mult_plain %ctx, %ct_569, %extracted_226 : (!context, !ciphertext, !plaintext) -> !ciphertext
    %ct_767 = cheddar.mult_plain %ctx, %ct_572, %extracted_227 : (!context, !ciphertext, !plaintext) -> !ciphertext
    %ct_768 = cheddar.mult_plain %ctx, %ct_575, %extracted_228 : (!context, !ciphertext, !plaintext) -> !ciphertext
    %ct_769 = cheddar.mult_plain %ctx, %ct_578, %extracted_229 : (!context, !ciphertext, !plaintext) -> !ciphertext
    %ct_770 = cheddar.mult_plain %ctx, %ct_581, %extracted_230 : (!context, !ciphertext, !plaintext) -> !ciphertext
    %ct_771 = cheddar.mult_plain %ctx, %ct_584, %extracted_231 : (!context, !ciphertext, !plaintext) -> !ciphertext
    %ct_772 = cheddar.mult_plain %ctx, %ct_587, %extracted_232 : (!context, !ciphertext, !plaintext) -> !ciphertext
    %ct_773 = cheddar.mult_plain %ctx, %ct_590, %extracted_233 : (!context, !ciphertext, !plaintext) -> !ciphertext
    %ct_774 = cheddar.mult_plain %ctx, %ct_593, %extracted_234 : (!context, !ciphertext, !plaintext) -> !ciphertext
    %ct_775 = cheddar.add %ctx, %ct_763, %ct_764 : (!context, !ciphertext, !ciphertext) -> !ciphertext
    %ct_776 = cheddar.add %ctx, %ct_775, %ct_765 : (!context, !ciphertext, !ciphertext) -> !ciphertext
    %ct_777 = cheddar.add %ctx, %ct_766, %ct_767 : (!context, !ciphertext, !ciphertext) -> !ciphertext
    %ct_778 = cheddar.add %ctx, %ct_777, %ct_768 : (!context, !ciphertext, !ciphertext) -> !ciphertext
    %ct_779 = cheddar.add %ctx, %ct_776, %ct_778 : (!context, !ciphertext, !ciphertext) -> !ciphertext
    %ct_780 = cheddar.add %ctx, %ct_769, %ct_770 : (!context, !ciphertext, !ciphertext) -> !ciphertext
    %ct_781 = cheddar.add %ctx, %ct_780, %ct_771 : (!context, !ciphertext, !ciphertext) -> !ciphertext
    %ct_782 = cheddar.add %ctx, %ct_772, %ct_773 : (!context, !ciphertext, !ciphertext) -> !ciphertext
    %ct_783 = cheddar.add %ctx, %ct_782, %ct_774 : (!context, !ciphertext, !ciphertext) -> !ciphertext
    %ct_784 = cheddar.add %ctx, %ct_781, %ct_783 : (!context, !ciphertext, !ciphertext) -> !ciphertext
    %ct_785 = cheddar.add %ctx, %ct_779, %ct_784 : (!context, !ciphertext, !ciphertext) -> !ciphertext
    %ct_786 = cheddar.hrot %ctx, %ct_785, %c96 : (!context, !ciphertext, index) -> !ciphertext
    %ct_787 = cheddar.mult_plain %ctx, %ct_560, %extracted_235 : (!context, !ciphertext, !plaintext) -> !ciphertext
    %ct_788 = cheddar.mult_plain %ctx, %ct_563, %extracted_236 : (!context, !ciphertext, !plaintext) -> !ciphertext
    %ct_789 = cheddar.mult_plain %ctx, %ct_566, %extracted_237 : (!context, !ciphertext, !plaintext) -> !ciphertext
    %ct_790 = cheddar.mult_plain %ctx, %ct_569, %extracted_238 : (!context, !ciphertext, !plaintext) -> !ciphertext
    %ct_791 = cheddar.mult_plain %ctx, %ct_572, %extracted_239 : (!context, !ciphertext, !plaintext) -> !ciphertext
    %ct_792 = cheddar.mult_plain %ctx, %ct_575, %extracted_240 : (!context, !ciphertext, !plaintext) -> !ciphertext
    %ct_793 = cheddar.mult_plain %ctx, %ct_578, %extracted_241 : (!context, !ciphertext, !plaintext) -> !ciphertext
    %ct_794 = cheddar.mult_plain %ctx, %ct_581, %extracted_242 : (!context, !ciphertext, !plaintext) -> !ciphertext
    %ct_795 = cheddar.mult_plain %ctx, %ct_584, %extracted_243 : (!context, !ciphertext, !plaintext) -> !ciphertext
    %ct_796 = cheddar.mult_plain %ctx, %ct_587, %extracted_244 : (!context, !ciphertext, !plaintext) -> !ciphertext
    %ct_797 = cheddar.mult_plain %ctx, %ct_590, %extracted_245 : (!context, !ciphertext, !plaintext) -> !ciphertext
    %ct_798 = cheddar.mult_plain %ctx, %ct_593, %extracted_246 : (!context, !ciphertext, !plaintext) -> !ciphertext
    %ct_799 = cheddar.add %ctx, %ct_787, %ct_788 : (!context, !ciphertext, !ciphertext) -> !ciphertext
    %ct_800 = cheddar.add %ctx, %ct_799, %ct_789 : (!context, !ciphertext, !ciphertext) -> !ciphertext
    %ct_801 = cheddar.add %ctx, %ct_790, %ct_791 : (!context, !ciphertext, !ciphertext) -> !ciphertext
    %ct_802 = cheddar.add %ctx, %ct_801, %ct_792 : (!context, !ciphertext, !ciphertext) -> !ciphertext
    %ct_803 = cheddar.add %ctx, %ct_800, %ct_802 : (!context, !ciphertext, !ciphertext) -> !ciphertext
    %ct_804 = cheddar.add %ctx, %ct_793, %ct_794 : (!context, !ciphertext, !ciphertext) -> !ciphertext
    %ct_805 = cheddar.add %ctx, %ct_804, %ct_795 : (!context, !ciphertext, !ciphertext) -> !ciphertext
    %ct_806 = cheddar.add %ctx, %ct_796, %ct_797 : (!context, !ciphertext, !ciphertext) -> !ciphertext
    %ct_807 = cheddar.add %ctx, %ct_806, %ct_798 : (!context, !ciphertext, !ciphertext) -> !ciphertext
    %ct_808 = cheddar.add %ctx, %ct_805, %ct_807 : (!context, !ciphertext, !ciphertext) -> !ciphertext
    %ct_809 = cheddar.add %ctx, %ct_803, %ct_808 : (!context, !ciphertext, !ciphertext) -> !ciphertext
    %ct_810 = cheddar.hrot %ctx, %ct_809, %c108 : (!context, !ciphertext, index) -> !ciphertext
    %ct_811 = cheddar.mult_plain %ctx, %ct_560, %extracted_247 : (!context, !ciphertext, !plaintext) -> !ciphertext
    %ct_812 = cheddar.mult_plain %ctx, %ct_563, %extracted_248 : (!context, !ciphertext, !plaintext) -> !ciphertext
    %ct_813 = cheddar.mult_plain %ctx, %ct_566, %extracted_249 : (!context, !ciphertext, !plaintext) -> !ciphertext
    %ct_814 = cheddar.mult_plain %ctx, %ct_569, %extracted_250 : (!context, !ciphertext, !plaintext) -> !ciphertext
    %ct_815 = cheddar.mult_plain %ctx, %ct_572, %extracted_251 : (!context, !ciphertext, !plaintext) -> !ciphertext
    %ct_816 = cheddar.mult_plain %ctx, %ct_575, %extracted_252 : (!context, !ciphertext, !plaintext) -> !ciphertext
    %ct_817 = cheddar.mult_plain %ctx, %ct_578, %extracted_253 : (!context, !ciphertext, !plaintext) -> !ciphertext
    %ct_818 = cheddar.mult_plain %ctx, %ct_581, %extracted_254 : (!context, !ciphertext, !plaintext) -> !ciphertext
    %ct_819 = cheddar.add %ctx, %ct_811, %ct_812 : (!context, !ciphertext, !ciphertext) -> !ciphertext
    %ct_820 = cheddar.add %ctx, %ct_813, %ct_814 : (!context, !ciphertext, !ciphertext) -> !ciphertext
    %ct_821 = cheddar.add %ctx, %ct_819, %ct_820 : (!context, !ciphertext, !ciphertext) -> !ciphertext
    %ct_822 = cheddar.add %ctx, %ct_815, %ct_816 : (!context, !ciphertext, !ciphertext) -> !ciphertext
    %ct_823 = cheddar.add %ctx, %ct_817, %ct_818 : (!context, !ciphertext, !ciphertext) -> !ciphertext
    %ct_824 = cheddar.add %ctx, %ct_822, %ct_823 : (!context, !ciphertext, !ciphertext) -> !ciphertext
    %ct_825 = cheddar.add %ctx, %ct_821, %ct_824 : (!context, !ciphertext, !ciphertext) -> !ciphertext
    %ct_826 = cheddar.hrot %ctx, %ct_825, %c120 : (!context, !ciphertext, index) -> !ciphertext
    %ct_827 = cheddar.add_plain %ctx, %ct_561, %extracted_272 : (!context, !ciphertext, !plaintext) -> !ciphertext
    %ct_828 = cheddar.add %ctx, %ct_564, %ct_567 : (!context, !ciphertext, !ciphertext) -> !ciphertext
    %ct_829 = cheddar.add %ctx, %ct_828, %ct_570 : (!context, !ciphertext, !ciphertext) -> !ciphertext
    %ct_830 = cheddar.add %ctx, %ct_827, %ct_829 : (!context, !ciphertext, !ciphertext) -> !ciphertext
    %ct_831 = cheddar.add %ctx, %ct_573, %ct_576 : (!context, !ciphertext, !ciphertext) -> !ciphertext
    %ct_832 = cheddar.add %ctx, %ct_831, %ct_579 : (!context, !ciphertext, !ciphertext) -> !ciphertext
    %ct_833 = cheddar.add %ctx, %ct_582, %ct_585 : (!context, !ciphertext, !ciphertext) -> !ciphertext
    %ct_834 = cheddar.add %ctx, %ct_833, %ct_588 : (!context, !ciphertext, !ciphertext) -> !ciphertext
    %ct_835 = cheddar.add %ctx, %ct_832, %ct_834 : (!context, !ciphertext, !ciphertext) -> !ciphertext
    %ct_836 = cheddar.add %ctx, %ct_830, %ct_835 : (!context, !ciphertext, !ciphertext) -> !ciphertext
    %ct_837 = cheddar.add %ctx, %ct_591, %ct_594 : (!context, !ciphertext, !ciphertext) -> !ciphertext
    %ct_838 = cheddar.add %ctx, %ct_837, %ct_618 : (!context, !ciphertext, !ciphertext) -> !ciphertext
    %ct_839 = cheddar.add %ctx, %ct_642, %ct_666 : (!context, !ciphertext, !ciphertext) -> !ciphertext
    %ct_840 = cheddar.add %ctx, %ct_839, %ct_690 : (!context, !ciphertext, !ciphertext) -> !ciphertext
    %ct_841 = cheddar.add %ctx, %ct_838, %ct_840 : (!context, !ciphertext, !ciphertext) -> !ciphertext
    %ct_842 = cheddar.add %ctx, %ct_714, %ct_738 : (!context, !ciphertext, !ciphertext) -> !ciphertext
    %ct_843 = cheddar.add %ctx, %ct_842, %ct_762 : (!context, !ciphertext, !ciphertext) -> !ciphertext
    %ct_844 = cheddar.add %ctx, %ct_786, %ct_810 : (!context, !ciphertext, !ciphertext) -> !ciphertext
    %ct_845 = cheddar.add %ctx, %ct_844, %ct_826 : (!context, !ciphertext, !ciphertext) -> !ciphertext
    %ct_846 = cheddar.add %ctx, %ct_843, %ct_845 : (!context, !ciphertext, !ciphertext) -> !ciphertext
    %ct_847 = cheddar.add %ctx, %ct_841, %ct_846 : (!context, !ciphertext, !ciphertext) -> !ciphertext
    %ct_848 = cheddar.add %ctx, %ct_836, %ct_847 : (!context, !ciphertext, !ciphertext) -> !ciphertext
    %ct_849 = cheddar.rescale %ctx, %ct_848 : (!context, !ciphertext) -> !ciphertext
    %ct_850 = cheddar.mult %ctx, %ct_849, %ct_849 : (!context, !ciphertext, !ciphertext) -> !ciphertext
    %ct_851 = cheddar.relinearize %ctx, %ct_850, %evk : (!context, !ciphertext, !eval_key) -> !ciphertext
    %ct_852 = cheddar.rescale %ctx, %ct_851 : (!context, !ciphertext) -> !ciphertext
    %ct_853 = cheddar.mult_plain %ctx, %ct_852, %extracted_255 : (!context, !ciphertext, !plaintext) -> !ciphertext
    %ct_854 = cheddar.hrot %ctx, %ct_851, %c1 : (!context, !ciphertext, index) -> !ciphertext
    %ct_855 = cheddar.rescale %ctx, %ct_854 : (!context, !ciphertext) -> !ciphertext
    %ct_856 = cheddar.mult_plain %ctx, %ct_855, %extracted_256 : (!context, !ciphertext, !plaintext) -> !ciphertext
    %ct_857 = cheddar.hrot %ctx, %ct_851, %c2 : (!context, !ciphertext, index) -> !ciphertext
    %ct_858 = cheddar.rescale %ctx, %ct_857 : (!context, !ciphertext) -> !ciphertext
    %ct_859 = cheddar.mult_plain %ctx, %ct_858, %extracted_257 : (!context, !ciphertext, !plaintext) -> !ciphertext
    %ct_860 = cheddar.hrot %ctx, %ct_851, %c3 : (!context, !ciphertext, index) -> !ciphertext
    %ct_861 = cheddar.rescale %ctx, %ct_860 : (!context, !ciphertext) -> !ciphertext
    %ct_862 = cheddar.mult_plain %ctx, %ct_861, %extracted_258 : (!context, !ciphertext, !plaintext) -> !ciphertext
    %ct_863 = cheddar.mult_plain %ctx, %ct_852, %extracted_259 : (!context, !ciphertext, !plaintext) -> !ciphertext
    %ct_864 = cheddar.mult_plain %ctx, %ct_855, %extracted_260 : (!context, !ciphertext, !plaintext) -> !ciphertext
    %ct_865 = cheddar.mult_plain %ctx, %ct_858, %extracted_261 : (!context, !ciphertext, !plaintext) -> !ciphertext
    %ct_866 = cheddar.mult_plain %ctx, %ct_861, %extracted_262 : (!context, !ciphertext, !plaintext) -> !ciphertext
    %ct_867 = cheddar.add %ctx, %ct_863, %ct_864 : (!context, !ciphertext, !ciphertext) -> !ciphertext
    %ct_868 = cheddar.add %ctx, %ct_865, %ct_866 : (!context, !ciphertext, !ciphertext) -> !ciphertext
    %ct_869 = cheddar.add %ctx, %ct_867, %ct_868 : (!context, !ciphertext, !ciphertext) -> !ciphertext
    %ct_870 = cheddar.hrot %ctx, %ct_869, %c4 : (!context, !ciphertext, index) -> !ciphertext
    %ct_871 = cheddar.mult_plain %ctx, %ct_852, %extracted_263 : (!context, !ciphertext, !plaintext) -> !ciphertext
    %ct_872 = cheddar.mult_plain %ctx, %ct_855, %extracted_264 : (!context, !ciphertext, !plaintext) -> !ciphertext
    %ct_873 = cheddar.mult_plain %ctx, %ct_858, %extracted_265 : (!context, !ciphertext, !plaintext) -> !ciphertext
    %ct_874 = cheddar.mult_plain %ctx, %ct_861, %extracted_266 : (!context, !ciphertext, !plaintext) -> !ciphertext
    %ct_875 = cheddar.add %ctx, %ct_871, %ct_872 : (!context, !ciphertext, !ciphertext) -> !ciphertext
    %ct_876 = cheddar.add %ctx, %ct_873, %ct_874 : (!context, !ciphertext, !ciphertext) -> !ciphertext
    %ct_877 = cheddar.add %ctx, %ct_875, %ct_876 : (!context, !ciphertext, !ciphertext) -> !ciphertext
    %ct_878 = cheddar.hrot %ctx, %ct_877, %c8 : (!context, !ciphertext, index) -> !ciphertext
    %ct_879 = cheddar.mult_plain %ctx, %ct_852, %extracted_267 : (!context, !ciphertext, !plaintext) -> !ciphertext
    %ct_880 = cheddar.mult_plain %ctx, %ct_855, %extracted_268 : (!context, !ciphertext, !plaintext) -> !ciphertext
    %ct_881 = cheddar.mult_plain %ctx, %ct_858, %extracted_269 : (!context, !ciphertext, !plaintext) -> !ciphertext
    %ct_882 = cheddar.mult_plain %ctx, %ct_861, %extracted_270 : (!context, !ciphertext, !plaintext) -> !ciphertext
    %ct_883 = cheddar.add %ctx, %ct_879, %ct_880 : (!context, !ciphertext, !ciphertext) -> !ciphertext
    %ct_884 = cheddar.add %ctx, %ct_881, %ct_882 : (!context, !ciphertext, !ciphertext) -> !ciphertext
    %ct_885 = cheddar.add %ctx, %ct_883, %ct_884 : (!context, !ciphertext, !ciphertext) -> !ciphertext
    %ct_886 = cheddar.hrot %ctx, %ct_885, %c12 : (!context, !ciphertext, index) -> !ciphertext
    %ct_887 = cheddar.add %ctx, %ct_853, %ct_856 : (!context, !ciphertext, !ciphertext) -> !ciphertext
    %ct_888 = cheddar.add %ctx, %ct_887, %ct_859 : (!context, !ciphertext, !ciphertext) -> !ciphertext
    %ct_889 = cheddar.add %ctx, %ct_862, %ct_870 : (!context, !ciphertext, !ciphertext) -> !ciphertext
    %ct_890 = cheddar.add %ctx, %ct_878, %ct_886 : (!context, !ciphertext, !ciphertext) -> !ciphertext
    %ct_891 = cheddar.add %ctx, %ct_889, %ct_890 : (!context, !ciphertext, !ciphertext) -> !ciphertext
    %ct_892 = cheddar.add %ctx, %ct_888, %ct_891 : (!context, !ciphertext, !ciphertext) -> !ciphertext
    %ct_893 = cheddar.hrot %ctx, %ct_892, %c64 : (!context, !ciphertext, index) -> !ciphertext
    %ct_894 = cheddar.add %ctx, %ct_892, %ct_893 : (!context, !ciphertext, !ciphertext) -> !ciphertext
    %ct_895 = cheddar.hrot %ctx, %ct_894, %c32 : (!context, !ciphertext, index) -> !ciphertext
    %ct_896 = cheddar.add %ctx, %ct_894, %ct_895 : (!context, !ciphertext, !ciphertext) -> !ciphertext
    %ct_897 = cheddar.hrot %ctx, %ct_896, %c16 : (!context, !ciphertext, index) -> !ciphertext
    %ct_898 = cheddar.add_plain %ctx, %ct_896, %extracted_273 : (!context, !ciphertext, !plaintext) -> !ciphertext
    %ct_899 = cheddar.add %ctx, %ct_898, %ct_897 : (!context, !ciphertext, !ciphertext) -> !ciphertext
    %0 = tensor.empty() : tensor<1x!ciphertext>
    %ct_900 = cheddar.rescale %ctx, %ct_899 : (!context, !ciphertext) -> !ciphertext
    %inserted = tensor.insert %ct_900 into %0[%c0] : tensor<1x!ciphertext>
    return %inserted : tensor<1x!ciphertext>
  }
  func.func public @orion_mlp(%ctx: !context, %encoder: !encoder, %ui: !user_interface, %evk: !eval_key, %arg0: tensor<1x!ciphertext> {tensor_ext.original_type = #tensor_ext.original_type<originalType = tensor<1x784xf32>, layout = #tensor_ext.layout<"{ [i0, i1] -> [ct, slot] : i0 = 0 and ct = 0 and (-i1 + slot) mod 1024 = 0 and 0 <= i1 <= 783 and 0 <= slot <= 1023 }">>}, %arg1: tensor<128x784xf32>, %arg2: tensor<128xf32>, %arg3: tensor<128x128xf32>, %arg4: tensor<128xf32>, %arg5: tensor<10x128xf32>, %arg6: tensor<10xf32>) -> (tensor<1x!ciphertext> {tensor_ext.original_type = #original_type}) {
    %0:16 = call @orion_mlp__preprocessing(%ctx, %encoder, %arg1, %arg2, %arg3, %arg4, %arg5, %arg6) : (!context, !encoder, tensor<128x784xf32>, tensor<128xf32>, tensor<128x128xf32>, tensor<128xf32>, tensor<10x128xf32>, tensor<10xf32>) -> (tensor<19x!plaintext>, tensor<19x!plaintext>, tensor<19x!plaintext>, tensor<19x!plaintext>, tensor<19x!plaintext>, tensor<19x!plaintext>, tensor<19x!plaintext>, tensor<19x!plaintext>, tensor<19x!plaintext>, tensor<19x!plaintext>, tensor<19x!plaintext>, tensor<19x!plaintext>, tensor<19x!plaintext>, tensor<19x!plaintext>, tensor<6x!plaintext>, tensor<3x!plaintext>)
    %1 = call @orion_mlp__preprocessed(%ctx, %encoder, %ui, %evk, %arg0, %0#0, %0#1, %0#2, %0#3, %0#4, %0#5, %0#6, %0#7, %0#8, %0#9, %0#10, %0#11, %0#12, %0#13, %0#14, %0#15) : (!context, !encoder, !user_interface, !eval_key, tensor<1x!ciphertext>, tensor<19x!plaintext>, tensor<19x!plaintext>, tensor<19x!plaintext>, tensor<19x!plaintext>, tensor<19x!plaintext>, tensor<19x!plaintext>, tensor<19x!plaintext>, tensor<19x!plaintext>, tensor<19x!plaintext>, tensor<19x!plaintext>, tensor<19x!plaintext>, tensor<19x!plaintext>, tensor<19x!plaintext>, tensor<19x!plaintext>, tensor<6x!plaintext>, tensor<3x!plaintext>) -> tensor<1x!ciphertext>
    return %1 : tensor<1x!ciphertext>
  }
  func.func @orion_mlp__encrypt__arg0(%ctx: !context, %encoder: !encoder, %ui: !user_interface, %evk: !eval_key, %arg0: tensor<1x784xf32>, %ui_0: !user_interface) -> tensor<1x!ciphertext> attributes {client.enc_func = {func_name = "orion_mlp", index = 0 : i64}} {
    %c0 = arith.constant 0 : index
    %cst = arith.constant dense<0.000000e+00> : tensor<1x1024xf32>
    %c0_i32 = arith.constant 0 : i32
    %c1_i32 = arith.constant 1 : i32
    %c784_i32 = arith.constant 784 : i32
    %0 = scf.for %arg1 = %c0_i32 to %c784_i32 step %c1_i32 iter_args(%arg2 = %cst) -> (tensor<1x1024xf32>)  : i32 {
      %1 = arith.index_cast %arg1 : i32 to index
      %extracted = tensor.extract %arg0[%c0, %1] : tensor<1x784xf32>
      %inserted = tensor.insert %extracted into %arg2[%c0, %1] : tensor<1x1024xf32>
      scf.yield %inserted : tensor<1x1024xf32>
    }
    %extracted_slice = tensor.extract_slice %0[0, 0] [1, 1024] [1, 1] : tensor<1x1024xf32> to tensor<1024xf32>
    %pt = cheddar.encode %encoder, %extracted_slice {level = 5 : i64, scale = 0x42BFFFFFFD3800F7 : f64} : (!encoder, tensor<1024xf32>) -> !plaintext
    %ct = cheddar.encrypt %ui, %pt : (!user_interface, !plaintext) -> !ciphertext
    %from_elements = tensor.from_elements %ct : tensor<1x!ciphertext>
    return %from_elements : tensor<1x!ciphertext>
  }
  func.func @orion_mlp__decrypt__result0(%ctx: !context, %encoder: !encoder, %ui: !user_interface, %evk: !eval_key, %arg0: tensor<1x!ciphertext>, %ui_0: !user_interface) -> tensor<1x10xf32> attributes {client.dec_func = {func_name = "orion_mlp", index = 0 : i64}} {
    %c0 = arith.constant 0 : index
    %c1024_i32 = arith.constant 1024 : i32
    %c16_i32 = arith.constant 16 : i32
    %c6_i32 = arith.constant 6 : i32
    %c1_i32 = arith.constant 1 : i32
    %c0_i32 = arith.constant 0 : i32
    %cst = arith.constant dense<0.000000e+00> : tensor<1x10xf32>
    %extracted = tensor.extract %arg0[%c0] : tensor<1x!ciphertext>
    %pt = cheddar.decrypt %ui, %extracted : (!user_interface, !ciphertext) -> !plaintext
    %0 = tensor.empty() : tensor<1x1024xf32>
    %1 = cheddar.decode %encoder, %pt, %0 : (!encoder, !plaintext, tensor<1x1024xf32>) -> tensor<1x1024xf32>
    %2 = scf.for %arg1 = %c0_i32 to %c1024_i32 step %c1_i32 iter_args(%arg2 = %cst) -> (tensor<1x10xf32>)  : i32 {
      %3 = arith.addi %arg1, %c6_i32 : i32
      %4 = arith.remsi %3, %c16_i32 : i32
      %5 = arith.cmpi sge, %4, %c6_i32 : i32
      %6 = scf.if %5 -> (tensor<1x10xf32>) {
        %7 = arith.remsi %arg1, %c16_i32 : i32
        %8 = arith.index_cast %arg1 : i32 to index
        %extracted_1 = tensor.extract %1[%c0, %8] : tensor<1x1024xf32>
        %9 = arith.index_cast %7 : i32 to index
        %inserted = tensor.insert %extracted_1 into %arg2[%c0, %9] : tensor<1x10xf32>
        scf.yield %inserted : tensor<1x10xf32>
      } else {
        scf.yield %arg2 : tensor<1x10xf32>
      }
      scf.yield %6 : tensor<1x10xf32>
    }
    return %2 : tensor<1x10xf32>
  }
}
