// Auto-generated, UNMODIFIED reference: the pristine full-module
// --scheme-to-cheddar output that mnist.mlir is derived from (which adds the
// scale bake + the relu scale-align hand-edits; see HACKS.md #5). Kept for
// diffing. Generated on tests/Examples/common/mnist/mnist.mlir with:
//   heir-opt --annotate-module='backend=lattigo scheme=ckks' \
//            --torch-linalg-to-ckks=ciphertext-degree=1024 --scheme-to-cheddar
!ciphertext = !cheddar.ciphertext
!context = !cheddar.context
!encoder = !cheddar.encoder
!eval_key = !cheddar.eval_key
!plaintext = !cheddar.plaintext
!user_interface = !cheddar.user_interface
#layout = #tensor_ext.layout<"{ [i0, i1] -> [ct, slot] : i0 = 0 and ct = 0 and (-i1 + slot) mod 16 = 0 and 0 <= i1 <= 9 and 0 <= slot <= 1023 }">
#original_type = #tensor_ext.original_type<originalType = tensor<1x10xf32>, layout = #layout>
module @jit_func attributes {backend.lattigo, cheddar.P = array<i64: 1152921504608747521, 1152921504614055937, 1152921504615628801>, cheddar.Q = array<i64: 36028797017456641, 35184366911489, 35184376545281, 35184367828993, 35184373989377, 35184368025601, 35184373006337, 35184368877569, 35184372744193>, cheddar.logDefaultScale = 45 : i64, cheddar.logN = 15 : i64, jax.uses_shape_polymorphism = false, mhlo.num_partitions = 1 : i32, mhlo.num_replicas = 1 : i32, scheme.actual_slot_count = 16384 : i64, scheme.requested_slot_count = 1024 : i64} {
  func.func private @_assign_layout_5588569554497981456(%arg0: tensor<1x10xf32>) -> tensor<1x1024xf32> attributes {client.pack_func = {func_name = "mnist"}} {
    %c0 = arith.constant 0 : index
    %c16_i32 = arith.constant 16 : i32
    %c6_i32 = arith.constant 6 : i32
    %cst = arith.constant dense<0.000000e+00> : tensor<1x1024xf32>
    %c0_i32 = arith.constant 0 : i32
    %c1_i32 = arith.constant 1 : i32
    %c1024_i32 = arith.constant 1024 : i32
    %0 = scf.for %arg1 = %c0_i32 to %c1024_i32 step %c1_i32 iter_args(%arg2 = %cst) -> (tensor<1x1024xf32>)  : i32 {
      %1 = arith.addi %arg1, %c6_i32 : i32
      %2 = arith.remsi %1, %c16_i32 : i32
      %3 = arith.cmpi sge, %2, %c6_i32 : i32
      %4 = scf.if %3 -> (tensor<1x1024xf32>) {
        %5 = arith.remsi %arg1, %c16_i32 : i32
        %6 = arith.index_cast %5 : i32 to index
        %extracted = tensor.extract %arg0[%c0, %6] : tensor<1x10xf32>
        %7 = arith.index_cast %arg1 : i32 to index
        %inserted = tensor.insert %extracted into %arg2[%c0, %7] : tensor<1x1024xf32>
        scf.yield %inserted : tensor<1x1024xf32>
      } else {
        scf.yield %arg2 : tensor<1x1024xf32>
      }
      scf.yield %4 : tensor<1x1024xf32>
    }
    return %0 : tensor<1x1024xf32>
  }
  func.func private @_assign_layout_340166353695990778(%arg0: tensor<10x512xf32>) -> tensor<16x1024xf32> attributes {client.pack_func = {func_name = "mnist"}} {
    %c511_i32 = arith.constant 511 : i32
    %c1018_i32 = arith.constant 1018 : i32
    %c512_i32 = arith.constant 512 : i32
    %c1535_i32 = arith.constant 1535 : i32
    %c6_i32 = arith.constant 6 : i32
    %c9_i32 = arith.constant 9 : i32
    %c16_i32 = arith.constant 16 : i32
    %cst = arith.constant dense<0.000000e+00> : tensor<16x1024xf32>
    %c0_i32 = arith.constant 0 : i32
    %c1_i32 = arith.constant 1 : i32
    %0 = scf.for %arg1 = %c0_i32 to %c16_i32 step %c1_i32 iter_args(%arg2 = %cst) -> (tensor<16x1024xf32>)  : i32 {
      %1 = scf.for %arg3 = %c0_i32 to %c1018_i32 step %c1_i32 iter_args(%arg4 = %arg2) -> (tensor<16x1024xf32>)  : i32 {
        %2 = arith.remsi %arg3, %c16_i32 : i32
        %3 = arith.cmpi sle, %2, %c9_i32 : i32
        %4 = scf.if %3 -> (tensor<16x1024xf32>) {
          %5 = arith.addi %arg3, %c6_i32 : i32
          %6 = arith.remsi %5, %c16_i32 : i32
          %7 = arith.subi %6, %c6_i32 : i32
          %8 = arith.subi %c0_i32, %arg1 : i32
          %9 = arith.subi %8, %arg3 : i32
          %10 = arith.addi %9, %c1535_i32 : i32
          %11 = arith.remsi %10, %c512_i32 : i32
          %12 = arith.subi %c511_i32, %11 : i32
          %13 = arith.index_cast %7 : i32 to index
          %14 = arith.index_cast %12 : i32 to index
          %extracted = tensor.extract %arg0[%13, %14] : tensor<10x512xf32>
          %15 = arith.index_cast %arg1 : i32 to index
          %16 = arith.index_cast %arg3 : i32 to index
          %inserted = tensor.insert %extracted into %arg4[%15, %16] : tensor<16x1024xf32>
          scf.yield %inserted : tensor<16x1024xf32>
        } else {
          scf.yield %arg4 : tensor<16x1024xf32>
        }
        scf.yield %4 : tensor<16x1024xf32>
      }
      scf.yield %1 : tensor<16x1024xf32>
    }
    return %0 : tensor<16x1024xf32>
  }
  func.func private @_assign_layout_2897759174078591051(%arg0: tensor<1x512xf32>) -> tensor<1x1024xf32> attributes {client.pack_func = {func_name = "mnist"}} {
    %c0 = arith.constant 0 : index
    %c512_i32 = arith.constant 512 : i32
    %cst = arith.constant dense<0.000000e+00> : tensor<1x1024xf32>
    %c0_i32 = arith.constant 0 : i32
    %c1_i32 = arith.constant 1 : i32
    %c1024_i32 = arith.constant 1024 : i32
    %0 = scf.for %arg1 = %c0_i32 to %c1024_i32 step %c1_i32 iter_args(%arg2 = %cst) -> (tensor<1x1024xf32>)  : i32 {
      %1 = arith.remsi %arg1, %c512_i32 : i32
      %2 = arith.index_cast %1 : i32 to index
      %extracted = tensor.extract %arg0[%c0, %2] : tensor<1x512xf32>
      %3 = arith.index_cast %arg1 : i32 to index
      %inserted = tensor.insert %extracted into %arg2[%c0, %3] : tensor<1x1024xf32>
      scf.yield %inserted : tensor<1x1024xf32>
    }
    return %0 : tensor<1x1024xf32>
  }
  func.func private @_assign_layout_8935388560824459143(%arg0: tensor<512x784xf32>) -> tensor<512x1024xf32> attributes {client.pack_func = {func_name = "mnist"}} {
    %c783_i32 = arith.constant 783 : i32
    %c1807_i32 = arith.constant 1807 : i32
    %c512_i32 = arith.constant 512 : i32
    %c1024_i32 = arith.constant 1024 : i32
    %c240_i32 = arith.constant 240 : i32
    %cst = arith.constant dense<0.000000e+00> : tensor<512x1024xf32>
    %c0_i32 = arith.constant 0 : i32
    %c1_i32 = arith.constant 1 : i32
    %0 = scf.for %arg1 = %c0_i32 to %c512_i32 step %c1_i32 iter_args(%arg2 = %cst) -> (tensor<512x1024xf32>)  : i32 {
      %1 = scf.for %arg3 = %c0_i32 to %c1024_i32 step %c1_i32 iter_args(%arg4 = %arg2) -> (tensor<512x1024xf32>)  : i32 {
        %2 = arith.addi %arg1, %arg3 : i32
        %3 = arith.addi %2, %c240_i32 : i32
        %4 = arith.remsi %3, %c1024_i32 : i32
        %5 = arith.cmpi sge, %4, %c240_i32 : i32
        %6 = scf.if %5 -> (tensor<512x1024xf32>) {
          %7 = arith.remsi %arg3, %c512_i32 : i32
          %8 = arith.subi %c0_i32, %arg1 : i32
          %9 = arith.subi %8, %arg3 : i32
          %10 = arith.addi %9, %c1807_i32 : i32
          %11 = arith.remsi %10, %c1024_i32 : i32
          %12 = arith.subi %c783_i32, %11 : i32
          %13 = arith.index_cast %7 : i32 to index
          %14 = arith.index_cast %12 : i32 to index
          %extracted = tensor.extract %arg0[%13, %14] : tensor<512x784xf32>
          %15 = arith.index_cast %arg1 : i32 to index
          %16 = arith.index_cast %arg3 : i32 to index
          %inserted = tensor.insert %extracted into %arg4[%15, %16] : tensor<512x1024xf32>
          scf.yield %inserted : tensor<512x1024xf32>
        } else {
          scf.yield %arg4 : tensor<512x1024xf32>
        }
        scf.yield %6 : tensor<512x1024xf32>
      }
      scf.yield %1 : tensor<512x1024xf32>
    }
    return %0 : tensor<512x1024xf32>
  }
  func.func @mnist__preprocessing(%ctx: !context, %encoder: !encoder, %arg0: tensor<512x784xf32>, %arg1: tensor<512xf32>, %arg2: tensor<10x512xf32>, %arg3: tensor<10xf32>) -> (tensor<5x!plaintext>, tensor<36x!plaintext>, tensor<36x!plaintext>, tensor<36x!plaintext>, tensor<36x!plaintext>, tensor<36x!plaintext>, tensor<36x!plaintext>, tensor<36x!plaintext>, tensor<36x!plaintext>, tensor<36x!plaintext>, tensor<36x!plaintext>, tensor<36x!plaintext>, tensor<36x!plaintext>, tensor<36x!plaintext>, tensor<36x!plaintext>, tensor<31x!plaintext>) attributes {client.pack_func = {func_name = "mnist"}} {
    %cst = arith.constant dense<-1.26569366> : tensor<1x512xf32>
    %cst_0 = arith.constant dense<2.000000e+00> : tensor<1x512xf32>
    %cst_1 = arith.constant dense<4.30750513> : tensor<1x512xf32>
    %cst_2 = arith.constant dense<1.000000e+01> : tensor<1x512xf32>
    %cst_3 = arith.constant dense<1.000000e+00> : tensor<1x512xf32>
    %cst_4 = arith.constant dense<6.33939934> : tensor<1x512xf32>
    %cst_5 = arith.constant dense<5.000000e-02> : tensor<1x512xf32>
    %cst_6 = arith.constant dense<1.000000e+00> : tensor<1024xf32>
    %expanded = tensor.expand_shape %arg1 [[0, 1]] output_shape [1, 512] : tensor<512xf32> into tensor<1x512xf32>
    %expanded_7 = tensor.expand_shape %arg3 [[0, 1]] output_shape [1, 10] : tensor<10xf32> into tensor<1x10xf32>
    %0 = call @_assign_layout_8935388560824459143(%arg0) : (tensor<512x784xf32>) -> tensor<512x1024xf32>
    %1 = call @_assign_layout_2897759174078591051(%expanded) : (tensor<1x512xf32>) -> tensor<1x1024xf32>
    %2 = call @_assign_layout_2897759174078591051(%cst_5) : (tensor<1x512xf32>) -> tensor<1x1024xf32>
    %3 = call @_assign_layout_2897759174078591051(%cst_2) : (tensor<1x512xf32>) -> tensor<1x1024xf32>
    %4 = call @_assign_layout_2897759174078591051(%cst_4) : (tensor<1x512xf32>) -> tensor<1x1024xf32>
    %5 = call @_assign_layout_2897759174078591051(%cst_0) : (tensor<1x512xf32>) -> tensor<1x1024xf32>
    %6 = call @_assign_layout_2897759174078591051(%cst_3) : (tensor<1x512xf32>) -> tensor<1x1024xf32>
    %7 = call @_assign_layout_2897759174078591051(%cst_1) : (tensor<1x512xf32>) -> tensor<1x1024xf32>
    %8 = call @_assign_layout_2897759174078591051(%cst) : (tensor<1x512xf32>) -> tensor<1x1024xf32>
    %9 = call @_assign_layout_340166353695990778(%arg2) : (tensor<10x512xf32>) -> tensor<16x1024xf32>
    %10 = call @_assign_layout_5588569554497981456(%expanded_7) : (tensor<1x10xf32>) -> tensor<1x1024xf32>
    %extracted_slice = tensor.extract_slice %9[4, 0] [1, 1020] [1, 1] : tensor<16x1024xf32> to tensor<1x1020xf32>
    %extracted_slice_8 = tensor.extract_slice %9[4, 1020] [1, 4] [1, 1] : tensor<16x1024xf32> to tensor<1x4xf32>
    %11 = tensor.empty() : tensor<1x1024xf32>
    %inserted_slice = tensor.insert_slice %extracted_slice into %11[0, 4] [1, 1020] [1, 1] : tensor<1x1020xf32> into tensor<1x1024xf32>
    %inserted_slice_9 = tensor.insert_slice %extracted_slice_8 into %inserted_slice[0, 0] [1, 4] [1, 1] : tensor<1x4xf32> into tensor<1x1024xf32>
    %extracted_slice_10 = tensor.extract_slice %9[5, 0] [1, 1020] [1, 1] : tensor<16x1024xf32> to tensor<1x1020xf32>
    %extracted_slice_11 = tensor.extract_slice %9[5, 1020] [1, 4] [1, 1] : tensor<16x1024xf32> to tensor<1x4xf32>
    %inserted_slice_12 = tensor.insert_slice %extracted_slice_10 into %11[0, 4] [1, 1020] [1, 1] : tensor<1x1020xf32> into tensor<1x1024xf32>
    %inserted_slice_13 = tensor.insert_slice %extracted_slice_11 into %inserted_slice_12[0, 0] [1, 4] [1, 1] : tensor<1x4xf32> into tensor<1x1024xf32>
    %extracted_slice_14 = tensor.extract_slice %9[6, 0] [1, 1020] [1, 1] : tensor<16x1024xf32> to tensor<1x1020xf32>
    %extracted_slice_15 = tensor.extract_slice %9[6, 1020] [1, 4] [1, 1] : tensor<16x1024xf32> to tensor<1x4xf32>
    %inserted_slice_16 = tensor.insert_slice %extracted_slice_14 into %11[0, 4] [1, 1020] [1, 1] : tensor<1x1020xf32> into tensor<1x1024xf32>
    %inserted_slice_17 = tensor.insert_slice %extracted_slice_15 into %inserted_slice_16[0, 0] [1, 4] [1, 1] : tensor<1x4xf32> into tensor<1x1024xf32>
    %extracted_slice_18 = tensor.extract_slice %9[7, 0] [1, 1020] [1, 1] : tensor<16x1024xf32> to tensor<1x1020xf32>
    %extracted_slice_19 = tensor.extract_slice %9[7, 1020] [1, 4] [1, 1] : tensor<16x1024xf32> to tensor<1x4xf32>
    %inserted_slice_20 = tensor.insert_slice %extracted_slice_18 into %11[0, 4] [1, 1020] [1, 1] : tensor<1x1020xf32> into tensor<1x1024xf32>
    %inserted_slice_21 = tensor.insert_slice %extracted_slice_19 into %inserted_slice_20[0, 0] [1, 4] [1, 1] : tensor<1x4xf32> into tensor<1x1024xf32>
    %extracted_slice_22 = tensor.extract_slice %9[8, 0] [1, 1016] [1, 1] : tensor<16x1024xf32> to tensor<1x1016xf32>
    %extracted_slice_23 = tensor.extract_slice %9[8, 1016] [1, 8] [1, 1] : tensor<16x1024xf32> to tensor<1x8xf32>
    %inserted_slice_24 = tensor.insert_slice %extracted_slice_22 into %11[0, 8] [1, 1016] [1, 1] : tensor<1x1016xf32> into tensor<1x1024xf32>
    %inserted_slice_25 = tensor.insert_slice %extracted_slice_23 into %inserted_slice_24[0, 0] [1, 8] [1, 1] : tensor<1x8xf32> into tensor<1x1024xf32>
    %extracted_slice_26 = tensor.extract_slice %9[9, 0] [1, 1016] [1, 1] : tensor<16x1024xf32> to tensor<1x1016xf32>
    %extracted_slice_27 = tensor.extract_slice %9[9, 1016] [1, 8] [1, 1] : tensor<16x1024xf32> to tensor<1x8xf32>
    %inserted_slice_28 = tensor.insert_slice %extracted_slice_26 into %11[0, 8] [1, 1016] [1, 1] : tensor<1x1016xf32> into tensor<1x1024xf32>
    %inserted_slice_29 = tensor.insert_slice %extracted_slice_27 into %inserted_slice_28[0, 0] [1, 8] [1, 1] : tensor<1x8xf32> into tensor<1x1024xf32>
    %extracted_slice_30 = tensor.extract_slice %9[10, 0] [1, 1016] [1, 1] : tensor<16x1024xf32> to tensor<1x1016xf32>
    %extracted_slice_31 = tensor.extract_slice %9[10, 1016] [1, 8] [1, 1] : tensor<16x1024xf32> to tensor<1x8xf32>
    %inserted_slice_32 = tensor.insert_slice %extracted_slice_30 into %11[0, 8] [1, 1016] [1, 1] : tensor<1x1016xf32> into tensor<1x1024xf32>
    %inserted_slice_33 = tensor.insert_slice %extracted_slice_31 into %inserted_slice_32[0, 0] [1, 8] [1, 1] : tensor<1x8xf32> into tensor<1x1024xf32>
    %extracted_slice_34 = tensor.extract_slice %9[11, 0] [1, 1016] [1, 1] : tensor<16x1024xf32> to tensor<1x1016xf32>
    %extracted_slice_35 = tensor.extract_slice %9[11, 1016] [1, 8] [1, 1] : tensor<16x1024xf32> to tensor<1x8xf32>
    %inserted_slice_36 = tensor.insert_slice %extracted_slice_34 into %11[0, 8] [1, 1016] [1, 1] : tensor<1x1016xf32> into tensor<1x1024xf32>
    %inserted_slice_37 = tensor.insert_slice %extracted_slice_35 into %inserted_slice_36[0, 0] [1, 8] [1, 1] : tensor<1x8xf32> into tensor<1x1024xf32>
    %extracted_slice_38 = tensor.extract_slice %9[12, 0] [1, 1012] [1, 1] : tensor<16x1024xf32> to tensor<1x1012xf32>
    %extracted_slice_39 = tensor.extract_slice %9[12, 1012] [1, 12] [1, 1] : tensor<16x1024xf32> to tensor<1x12xf32>
    %inserted_slice_40 = tensor.insert_slice %extracted_slice_38 into %11[0, 12] [1, 1012] [1, 1] : tensor<1x1012xf32> into tensor<1x1024xf32>
    %inserted_slice_41 = tensor.insert_slice %extracted_slice_39 into %inserted_slice_40[0, 0] [1, 12] [1, 1] : tensor<1x12xf32> into tensor<1x1024xf32>
    %extracted_slice_42 = tensor.extract_slice %9[13, 0] [1, 1012] [1, 1] : tensor<16x1024xf32> to tensor<1x1012xf32>
    %extracted_slice_43 = tensor.extract_slice %9[13, 1012] [1, 12] [1, 1] : tensor<16x1024xf32> to tensor<1x12xf32>
    %inserted_slice_44 = tensor.insert_slice %extracted_slice_42 into %11[0, 12] [1, 1012] [1, 1] : tensor<1x1012xf32> into tensor<1x1024xf32>
    %inserted_slice_45 = tensor.insert_slice %extracted_slice_43 into %inserted_slice_44[0, 0] [1, 12] [1, 1] : tensor<1x12xf32> into tensor<1x1024xf32>
    %extracted_slice_46 = tensor.extract_slice %9[14, 0] [1, 1012] [1, 1] : tensor<16x1024xf32> to tensor<1x1012xf32>
    %extracted_slice_47 = tensor.extract_slice %9[14, 1012] [1, 12] [1, 1] : tensor<16x1024xf32> to tensor<1x12xf32>
    %inserted_slice_48 = tensor.insert_slice %extracted_slice_46 into %11[0, 12] [1, 1012] [1, 1] : tensor<1x1012xf32> into tensor<1x1024xf32>
    %inserted_slice_49 = tensor.insert_slice %extracted_slice_47 into %inserted_slice_48[0, 0] [1, 12] [1, 1] : tensor<1x12xf32> into tensor<1x1024xf32>
    %extracted_slice_50 = tensor.extract_slice %9[15, 0] [1, 1012] [1, 1] : tensor<16x1024xf32> to tensor<1x1012xf32>
    %extracted_slice_51 = tensor.extract_slice %9[15, 1012] [1, 12] [1, 1] : tensor<16x1024xf32> to tensor<1x12xf32>
    %inserted_slice_52 = tensor.insert_slice %extracted_slice_50 into %11[0, 12] [1, 1012] [1, 1] : tensor<1x1012xf32> into tensor<1x1024xf32>
    %inserted_slice_53 = tensor.insert_slice %extracted_slice_51 into %inserted_slice_52[0, 0] [1, 12] [1, 1] : tensor<1x12xf32> into tensor<1x1024xf32>
    %extracted_slice_54 = tensor.extract_slice %0[23, 0] [1, 1001] [1, 1] : tensor<512x1024xf32> to tensor<1x1001xf32>
    %extracted_slice_55 = tensor.extract_slice %0[23, 1001] [1, 23] [1, 1] : tensor<512x1024xf32> to tensor<1x23xf32>
    %inserted_slice_56 = tensor.insert_slice %extracted_slice_54 into %11[0, 23] [1, 1001] [1, 1] : tensor<1x1001xf32> into tensor<1x1024xf32>
    %inserted_slice_57 = tensor.insert_slice %extracted_slice_55 into %inserted_slice_56[0, 0] [1, 23] [1, 1] : tensor<1x23xf32> into tensor<1x1024xf32>
    %extracted_slice_58 = tensor.extract_slice %0[24, 0] [1, 1001] [1, 1] : tensor<512x1024xf32> to tensor<1x1001xf32>
    %extracted_slice_59 = tensor.extract_slice %0[24, 1001] [1, 23] [1, 1] : tensor<512x1024xf32> to tensor<1x23xf32>
    %inserted_slice_60 = tensor.insert_slice %extracted_slice_58 into %11[0, 23] [1, 1001] [1, 1] : tensor<1x1001xf32> into tensor<1x1024xf32>
    %inserted_slice_61 = tensor.insert_slice %extracted_slice_59 into %inserted_slice_60[0, 0] [1, 23] [1, 1] : tensor<1x23xf32> into tensor<1x1024xf32>
    %extracted_slice_62 = tensor.extract_slice %0[25, 0] [1, 1001] [1, 1] : tensor<512x1024xf32> to tensor<1x1001xf32>
    %extracted_slice_63 = tensor.extract_slice %0[25, 1001] [1, 23] [1, 1] : tensor<512x1024xf32> to tensor<1x23xf32>
    %inserted_slice_64 = tensor.insert_slice %extracted_slice_62 into %11[0, 23] [1, 1001] [1, 1] : tensor<1x1001xf32> into tensor<1x1024xf32>
    %inserted_slice_65 = tensor.insert_slice %extracted_slice_63 into %inserted_slice_64[0, 0] [1, 23] [1, 1] : tensor<1x23xf32> into tensor<1x1024xf32>
    %extracted_slice_66 = tensor.extract_slice %0[26, 0] [1, 1001] [1, 1] : tensor<512x1024xf32> to tensor<1x1001xf32>
    %extracted_slice_67 = tensor.extract_slice %0[26, 1001] [1, 23] [1, 1] : tensor<512x1024xf32> to tensor<1x23xf32>
    %inserted_slice_68 = tensor.insert_slice %extracted_slice_66 into %11[0, 23] [1, 1001] [1, 1] : tensor<1x1001xf32> into tensor<1x1024xf32>
    %inserted_slice_69 = tensor.insert_slice %extracted_slice_67 into %inserted_slice_68[0, 0] [1, 23] [1, 1] : tensor<1x23xf32> into tensor<1x1024xf32>
    %extracted_slice_70 = tensor.extract_slice %0[27, 0] [1, 1001] [1, 1] : tensor<512x1024xf32> to tensor<1x1001xf32>
    %extracted_slice_71 = tensor.extract_slice %0[27, 1001] [1, 23] [1, 1] : tensor<512x1024xf32> to tensor<1x23xf32>
    %inserted_slice_72 = tensor.insert_slice %extracted_slice_70 into %11[0, 23] [1, 1001] [1, 1] : tensor<1x1001xf32> into tensor<1x1024xf32>
    %inserted_slice_73 = tensor.insert_slice %extracted_slice_71 into %inserted_slice_72[0, 0] [1, 23] [1, 1] : tensor<1x23xf32> into tensor<1x1024xf32>
    %extracted_slice_74 = tensor.extract_slice %0[28, 0] [1, 1001] [1, 1] : tensor<512x1024xf32> to tensor<1x1001xf32>
    %extracted_slice_75 = tensor.extract_slice %0[28, 1001] [1, 23] [1, 1] : tensor<512x1024xf32> to tensor<1x23xf32>
    %inserted_slice_76 = tensor.insert_slice %extracted_slice_74 into %11[0, 23] [1, 1001] [1, 1] : tensor<1x1001xf32> into tensor<1x1024xf32>
    %inserted_slice_77 = tensor.insert_slice %extracted_slice_75 into %inserted_slice_76[0, 0] [1, 23] [1, 1] : tensor<1x23xf32> into tensor<1x1024xf32>
    %extracted_slice_78 = tensor.extract_slice %0[29, 0] [1, 1001] [1, 1] : tensor<512x1024xf32> to tensor<1x1001xf32>
    %extracted_slice_79 = tensor.extract_slice %0[29, 1001] [1, 23] [1, 1] : tensor<512x1024xf32> to tensor<1x23xf32>
    %inserted_slice_80 = tensor.insert_slice %extracted_slice_78 into %11[0, 23] [1, 1001] [1, 1] : tensor<1x1001xf32> into tensor<1x1024xf32>
    %inserted_slice_81 = tensor.insert_slice %extracted_slice_79 into %inserted_slice_80[0, 0] [1, 23] [1, 1] : tensor<1x23xf32> into tensor<1x1024xf32>
    %extracted_slice_82 = tensor.extract_slice %0[30, 0] [1, 1001] [1, 1] : tensor<512x1024xf32> to tensor<1x1001xf32>
    %extracted_slice_83 = tensor.extract_slice %0[30, 1001] [1, 23] [1, 1] : tensor<512x1024xf32> to tensor<1x23xf32>
    %inserted_slice_84 = tensor.insert_slice %extracted_slice_82 into %11[0, 23] [1, 1001] [1, 1] : tensor<1x1001xf32> into tensor<1x1024xf32>
    %inserted_slice_85 = tensor.insert_slice %extracted_slice_83 into %inserted_slice_84[0, 0] [1, 23] [1, 1] : tensor<1x23xf32> into tensor<1x1024xf32>
    %extracted_slice_86 = tensor.extract_slice %0[31, 0] [1, 1001] [1, 1] : tensor<512x1024xf32> to tensor<1x1001xf32>
    %extracted_slice_87 = tensor.extract_slice %0[31, 1001] [1, 23] [1, 1] : tensor<512x1024xf32> to tensor<1x23xf32>
    %inserted_slice_88 = tensor.insert_slice %extracted_slice_86 into %11[0, 23] [1, 1001] [1, 1] : tensor<1x1001xf32> into tensor<1x1024xf32>
    %inserted_slice_89 = tensor.insert_slice %extracted_slice_87 into %inserted_slice_88[0, 0] [1, 23] [1, 1] : tensor<1x23xf32> into tensor<1x1024xf32>
    %extracted_slice_90 = tensor.extract_slice %0[32, 0] [1, 1001] [1, 1] : tensor<512x1024xf32> to tensor<1x1001xf32>
    %extracted_slice_91 = tensor.extract_slice %0[32, 1001] [1, 23] [1, 1] : tensor<512x1024xf32> to tensor<1x23xf32>
    %inserted_slice_92 = tensor.insert_slice %extracted_slice_90 into %11[0, 23] [1, 1001] [1, 1] : tensor<1x1001xf32> into tensor<1x1024xf32>
    %inserted_slice_93 = tensor.insert_slice %extracted_slice_91 into %inserted_slice_92[0, 0] [1, 23] [1, 1] : tensor<1x23xf32> into tensor<1x1024xf32>
    %extracted_slice_94 = tensor.extract_slice %0[33, 0] [1, 1001] [1, 1] : tensor<512x1024xf32> to tensor<1x1001xf32>
    %extracted_slice_95 = tensor.extract_slice %0[33, 1001] [1, 23] [1, 1] : tensor<512x1024xf32> to tensor<1x23xf32>
    %inserted_slice_96 = tensor.insert_slice %extracted_slice_94 into %11[0, 23] [1, 1001] [1, 1] : tensor<1x1001xf32> into tensor<1x1024xf32>
    %inserted_slice_97 = tensor.insert_slice %extracted_slice_95 into %inserted_slice_96[0, 0] [1, 23] [1, 1] : tensor<1x23xf32> into tensor<1x1024xf32>
    %extracted_slice_98 = tensor.extract_slice %0[34, 0] [1, 1001] [1, 1] : tensor<512x1024xf32> to tensor<1x1001xf32>
    %extracted_slice_99 = tensor.extract_slice %0[34, 1001] [1, 23] [1, 1] : tensor<512x1024xf32> to tensor<1x23xf32>
    %inserted_slice_100 = tensor.insert_slice %extracted_slice_98 into %11[0, 23] [1, 1001] [1, 1] : tensor<1x1001xf32> into tensor<1x1024xf32>
    %inserted_slice_101 = tensor.insert_slice %extracted_slice_99 into %inserted_slice_100[0, 0] [1, 23] [1, 1] : tensor<1x23xf32> into tensor<1x1024xf32>
    %extracted_slice_102 = tensor.extract_slice %0[35, 0] [1, 1001] [1, 1] : tensor<512x1024xf32> to tensor<1x1001xf32>
    %extracted_slice_103 = tensor.extract_slice %0[35, 1001] [1, 23] [1, 1] : tensor<512x1024xf32> to tensor<1x23xf32>
    %inserted_slice_104 = tensor.insert_slice %extracted_slice_102 into %11[0, 23] [1, 1001] [1, 1] : tensor<1x1001xf32> into tensor<1x1024xf32>
    %inserted_slice_105 = tensor.insert_slice %extracted_slice_103 into %inserted_slice_104[0, 0] [1, 23] [1, 1] : tensor<1x23xf32> into tensor<1x1024xf32>
    %extracted_slice_106 = tensor.extract_slice %0[36, 0] [1, 1001] [1, 1] : tensor<512x1024xf32> to tensor<1x1001xf32>
    %extracted_slice_107 = tensor.extract_slice %0[36, 1001] [1, 23] [1, 1] : tensor<512x1024xf32> to tensor<1x23xf32>
    %inserted_slice_108 = tensor.insert_slice %extracted_slice_106 into %11[0, 23] [1, 1001] [1, 1] : tensor<1x1001xf32> into tensor<1x1024xf32>
    %inserted_slice_109 = tensor.insert_slice %extracted_slice_107 into %inserted_slice_108[0, 0] [1, 23] [1, 1] : tensor<1x23xf32> into tensor<1x1024xf32>
    %extracted_slice_110 = tensor.extract_slice %0[37, 0] [1, 1001] [1, 1] : tensor<512x1024xf32> to tensor<1x1001xf32>
    %extracted_slice_111 = tensor.extract_slice %0[37, 1001] [1, 23] [1, 1] : tensor<512x1024xf32> to tensor<1x23xf32>
    %inserted_slice_112 = tensor.insert_slice %extracted_slice_110 into %11[0, 23] [1, 1001] [1, 1] : tensor<1x1001xf32> into tensor<1x1024xf32>
    %inserted_slice_113 = tensor.insert_slice %extracted_slice_111 into %inserted_slice_112[0, 0] [1, 23] [1, 1] : tensor<1x23xf32> into tensor<1x1024xf32>
    %extracted_slice_114 = tensor.extract_slice %0[38, 0] [1, 1001] [1, 1] : tensor<512x1024xf32> to tensor<1x1001xf32>
    %extracted_slice_115 = tensor.extract_slice %0[38, 1001] [1, 23] [1, 1] : tensor<512x1024xf32> to tensor<1x23xf32>
    %inserted_slice_116 = tensor.insert_slice %extracted_slice_114 into %11[0, 23] [1, 1001] [1, 1] : tensor<1x1001xf32> into tensor<1x1024xf32>
    %inserted_slice_117 = tensor.insert_slice %extracted_slice_115 into %inserted_slice_116[0, 0] [1, 23] [1, 1] : tensor<1x23xf32> into tensor<1x1024xf32>
    %extracted_slice_118 = tensor.extract_slice %0[39, 0] [1, 1001] [1, 1] : tensor<512x1024xf32> to tensor<1x1001xf32>
    %extracted_slice_119 = tensor.extract_slice %0[39, 1001] [1, 23] [1, 1] : tensor<512x1024xf32> to tensor<1x23xf32>
    %inserted_slice_120 = tensor.insert_slice %extracted_slice_118 into %11[0, 23] [1, 1001] [1, 1] : tensor<1x1001xf32> into tensor<1x1024xf32>
    %inserted_slice_121 = tensor.insert_slice %extracted_slice_119 into %inserted_slice_120[0, 0] [1, 23] [1, 1] : tensor<1x23xf32> into tensor<1x1024xf32>
    %extracted_slice_122 = tensor.extract_slice %0[40, 0] [1, 1001] [1, 1] : tensor<512x1024xf32> to tensor<1x1001xf32>
    %extracted_slice_123 = tensor.extract_slice %0[40, 1001] [1, 23] [1, 1] : tensor<512x1024xf32> to tensor<1x23xf32>
    %inserted_slice_124 = tensor.insert_slice %extracted_slice_122 into %11[0, 23] [1, 1001] [1, 1] : tensor<1x1001xf32> into tensor<1x1024xf32>
    %inserted_slice_125 = tensor.insert_slice %extracted_slice_123 into %inserted_slice_124[0, 0] [1, 23] [1, 1] : tensor<1x23xf32> into tensor<1x1024xf32>
    %extracted_slice_126 = tensor.extract_slice %0[41, 0] [1, 1001] [1, 1] : tensor<512x1024xf32> to tensor<1x1001xf32>
    %extracted_slice_127 = tensor.extract_slice %0[41, 1001] [1, 23] [1, 1] : tensor<512x1024xf32> to tensor<1x23xf32>
    %inserted_slice_128 = tensor.insert_slice %extracted_slice_126 into %11[0, 23] [1, 1001] [1, 1] : tensor<1x1001xf32> into tensor<1x1024xf32>
    %inserted_slice_129 = tensor.insert_slice %extracted_slice_127 into %inserted_slice_128[0, 0] [1, 23] [1, 1] : tensor<1x23xf32> into tensor<1x1024xf32>
    %extracted_slice_130 = tensor.extract_slice %0[42, 0] [1, 1001] [1, 1] : tensor<512x1024xf32> to tensor<1x1001xf32>
    %extracted_slice_131 = tensor.extract_slice %0[42, 1001] [1, 23] [1, 1] : tensor<512x1024xf32> to tensor<1x23xf32>
    %inserted_slice_132 = tensor.insert_slice %extracted_slice_130 into %11[0, 23] [1, 1001] [1, 1] : tensor<1x1001xf32> into tensor<1x1024xf32>
    %inserted_slice_133 = tensor.insert_slice %extracted_slice_131 into %inserted_slice_132[0, 0] [1, 23] [1, 1] : tensor<1x23xf32> into tensor<1x1024xf32>
    %extracted_slice_134 = tensor.extract_slice %0[43, 0] [1, 1001] [1, 1] : tensor<512x1024xf32> to tensor<1x1001xf32>
    %extracted_slice_135 = tensor.extract_slice %0[43, 1001] [1, 23] [1, 1] : tensor<512x1024xf32> to tensor<1x23xf32>
    %inserted_slice_136 = tensor.insert_slice %extracted_slice_134 into %11[0, 23] [1, 1001] [1, 1] : tensor<1x1001xf32> into tensor<1x1024xf32>
    %inserted_slice_137 = tensor.insert_slice %extracted_slice_135 into %inserted_slice_136[0, 0] [1, 23] [1, 1] : tensor<1x23xf32> into tensor<1x1024xf32>
    %extracted_slice_138 = tensor.extract_slice %0[44, 0] [1, 1001] [1, 1] : tensor<512x1024xf32> to tensor<1x1001xf32>
    %extracted_slice_139 = tensor.extract_slice %0[44, 1001] [1, 23] [1, 1] : tensor<512x1024xf32> to tensor<1x23xf32>
    %inserted_slice_140 = tensor.insert_slice %extracted_slice_138 into %11[0, 23] [1, 1001] [1, 1] : tensor<1x1001xf32> into tensor<1x1024xf32>
    %inserted_slice_141 = tensor.insert_slice %extracted_slice_139 into %inserted_slice_140[0, 0] [1, 23] [1, 1] : tensor<1x23xf32> into tensor<1x1024xf32>
    %extracted_slice_142 = tensor.extract_slice %0[45, 0] [1, 1001] [1, 1] : tensor<512x1024xf32> to tensor<1x1001xf32>
    %extracted_slice_143 = tensor.extract_slice %0[45, 1001] [1, 23] [1, 1] : tensor<512x1024xf32> to tensor<1x23xf32>
    %inserted_slice_144 = tensor.insert_slice %extracted_slice_142 into %11[0, 23] [1, 1001] [1, 1] : tensor<1x1001xf32> into tensor<1x1024xf32>
    %inserted_slice_145 = tensor.insert_slice %extracted_slice_143 into %inserted_slice_144[0, 0] [1, 23] [1, 1] : tensor<1x23xf32> into tensor<1x1024xf32>
    %extracted_slice_146 = tensor.extract_slice %0[46, 0] [1, 978] [1, 1] : tensor<512x1024xf32> to tensor<1x978xf32>
    %extracted_slice_147 = tensor.extract_slice %0[46, 978] [1, 46] [1, 1] : tensor<512x1024xf32> to tensor<1x46xf32>
    %inserted_slice_148 = tensor.insert_slice %extracted_slice_146 into %11[0, 46] [1, 978] [1, 1] : tensor<1x978xf32> into tensor<1x1024xf32>
    %inserted_slice_149 = tensor.insert_slice %extracted_slice_147 into %inserted_slice_148[0, 0] [1, 46] [1, 1] : tensor<1x46xf32> into tensor<1x1024xf32>
    %extracted_slice_150 = tensor.extract_slice %0[47, 0] [1, 978] [1, 1] : tensor<512x1024xf32> to tensor<1x978xf32>
    %extracted_slice_151 = tensor.extract_slice %0[47, 978] [1, 46] [1, 1] : tensor<512x1024xf32> to tensor<1x46xf32>
    %inserted_slice_152 = tensor.insert_slice %extracted_slice_150 into %11[0, 46] [1, 978] [1, 1] : tensor<1x978xf32> into tensor<1x1024xf32>
    %inserted_slice_153 = tensor.insert_slice %extracted_slice_151 into %inserted_slice_152[0, 0] [1, 46] [1, 1] : tensor<1x46xf32> into tensor<1x1024xf32>
    %extracted_slice_154 = tensor.extract_slice %0[48, 0] [1, 978] [1, 1] : tensor<512x1024xf32> to tensor<1x978xf32>
    %extracted_slice_155 = tensor.extract_slice %0[48, 978] [1, 46] [1, 1] : tensor<512x1024xf32> to tensor<1x46xf32>
    %inserted_slice_156 = tensor.insert_slice %extracted_slice_154 into %11[0, 46] [1, 978] [1, 1] : tensor<1x978xf32> into tensor<1x1024xf32>
    %inserted_slice_157 = tensor.insert_slice %extracted_slice_155 into %inserted_slice_156[0, 0] [1, 46] [1, 1] : tensor<1x46xf32> into tensor<1x1024xf32>
    %extracted_slice_158 = tensor.extract_slice %0[49, 0] [1, 978] [1, 1] : tensor<512x1024xf32> to tensor<1x978xf32>
    %extracted_slice_159 = tensor.extract_slice %0[49, 978] [1, 46] [1, 1] : tensor<512x1024xf32> to tensor<1x46xf32>
    %inserted_slice_160 = tensor.insert_slice %extracted_slice_158 into %11[0, 46] [1, 978] [1, 1] : tensor<1x978xf32> into tensor<1x1024xf32>
    %inserted_slice_161 = tensor.insert_slice %extracted_slice_159 into %inserted_slice_160[0, 0] [1, 46] [1, 1] : tensor<1x46xf32> into tensor<1x1024xf32>
    %extracted_slice_162 = tensor.extract_slice %0[50, 0] [1, 978] [1, 1] : tensor<512x1024xf32> to tensor<1x978xf32>
    %extracted_slice_163 = tensor.extract_slice %0[50, 978] [1, 46] [1, 1] : tensor<512x1024xf32> to tensor<1x46xf32>
    %inserted_slice_164 = tensor.insert_slice %extracted_slice_162 into %11[0, 46] [1, 978] [1, 1] : tensor<1x978xf32> into tensor<1x1024xf32>
    %inserted_slice_165 = tensor.insert_slice %extracted_slice_163 into %inserted_slice_164[0, 0] [1, 46] [1, 1] : tensor<1x46xf32> into tensor<1x1024xf32>
    %extracted_slice_166 = tensor.extract_slice %0[51, 0] [1, 978] [1, 1] : tensor<512x1024xf32> to tensor<1x978xf32>
    %extracted_slice_167 = tensor.extract_slice %0[51, 978] [1, 46] [1, 1] : tensor<512x1024xf32> to tensor<1x46xf32>
    %inserted_slice_168 = tensor.insert_slice %extracted_slice_166 into %11[0, 46] [1, 978] [1, 1] : tensor<1x978xf32> into tensor<1x1024xf32>
    %inserted_slice_169 = tensor.insert_slice %extracted_slice_167 into %inserted_slice_168[0, 0] [1, 46] [1, 1] : tensor<1x46xf32> into tensor<1x1024xf32>
    %extracted_slice_170 = tensor.extract_slice %0[52, 0] [1, 978] [1, 1] : tensor<512x1024xf32> to tensor<1x978xf32>
    %extracted_slice_171 = tensor.extract_slice %0[52, 978] [1, 46] [1, 1] : tensor<512x1024xf32> to tensor<1x46xf32>
    %inserted_slice_172 = tensor.insert_slice %extracted_slice_170 into %11[0, 46] [1, 978] [1, 1] : tensor<1x978xf32> into tensor<1x1024xf32>
    %inserted_slice_173 = tensor.insert_slice %extracted_slice_171 into %inserted_slice_172[0, 0] [1, 46] [1, 1] : tensor<1x46xf32> into tensor<1x1024xf32>
    %extracted_slice_174 = tensor.extract_slice %0[53, 0] [1, 978] [1, 1] : tensor<512x1024xf32> to tensor<1x978xf32>
    %extracted_slice_175 = tensor.extract_slice %0[53, 978] [1, 46] [1, 1] : tensor<512x1024xf32> to tensor<1x46xf32>
    %inserted_slice_176 = tensor.insert_slice %extracted_slice_174 into %11[0, 46] [1, 978] [1, 1] : tensor<1x978xf32> into tensor<1x1024xf32>
    %inserted_slice_177 = tensor.insert_slice %extracted_slice_175 into %inserted_slice_176[0, 0] [1, 46] [1, 1] : tensor<1x46xf32> into tensor<1x1024xf32>
    %extracted_slice_178 = tensor.extract_slice %0[54, 0] [1, 978] [1, 1] : tensor<512x1024xf32> to tensor<1x978xf32>
    %extracted_slice_179 = tensor.extract_slice %0[54, 978] [1, 46] [1, 1] : tensor<512x1024xf32> to tensor<1x46xf32>
    %inserted_slice_180 = tensor.insert_slice %extracted_slice_178 into %11[0, 46] [1, 978] [1, 1] : tensor<1x978xf32> into tensor<1x1024xf32>
    %inserted_slice_181 = tensor.insert_slice %extracted_slice_179 into %inserted_slice_180[0, 0] [1, 46] [1, 1] : tensor<1x46xf32> into tensor<1x1024xf32>
    %extracted_slice_182 = tensor.extract_slice %0[55, 0] [1, 978] [1, 1] : tensor<512x1024xf32> to tensor<1x978xf32>
    %extracted_slice_183 = tensor.extract_slice %0[55, 978] [1, 46] [1, 1] : tensor<512x1024xf32> to tensor<1x46xf32>
    %inserted_slice_184 = tensor.insert_slice %extracted_slice_182 into %11[0, 46] [1, 978] [1, 1] : tensor<1x978xf32> into tensor<1x1024xf32>
    %inserted_slice_185 = tensor.insert_slice %extracted_slice_183 into %inserted_slice_184[0, 0] [1, 46] [1, 1] : tensor<1x46xf32> into tensor<1x1024xf32>
    %extracted_slice_186 = tensor.extract_slice %0[56, 0] [1, 978] [1, 1] : tensor<512x1024xf32> to tensor<1x978xf32>
    %extracted_slice_187 = tensor.extract_slice %0[56, 978] [1, 46] [1, 1] : tensor<512x1024xf32> to tensor<1x46xf32>
    %inserted_slice_188 = tensor.insert_slice %extracted_slice_186 into %11[0, 46] [1, 978] [1, 1] : tensor<1x978xf32> into tensor<1x1024xf32>
    %inserted_slice_189 = tensor.insert_slice %extracted_slice_187 into %inserted_slice_188[0, 0] [1, 46] [1, 1] : tensor<1x46xf32> into tensor<1x1024xf32>
    %extracted_slice_190 = tensor.extract_slice %0[57, 0] [1, 978] [1, 1] : tensor<512x1024xf32> to tensor<1x978xf32>
    %extracted_slice_191 = tensor.extract_slice %0[57, 978] [1, 46] [1, 1] : tensor<512x1024xf32> to tensor<1x46xf32>
    %inserted_slice_192 = tensor.insert_slice %extracted_slice_190 into %11[0, 46] [1, 978] [1, 1] : tensor<1x978xf32> into tensor<1x1024xf32>
    %inserted_slice_193 = tensor.insert_slice %extracted_slice_191 into %inserted_slice_192[0, 0] [1, 46] [1, 1] : tensor<1x46xf32> into tensor<1x1024xf32>
    %extracted_slice_194 = tensor.extract_slice %0[58, 0] [1, 978] [1, 1] : tensor<512x1024xf32> to tensor<1x978xf32>
    %extracted_slice_195 = tensor.extract_slice %0[58, 978] [1, 46] [1, 1] : tensor<512x1024xf32> to tensor<1x46xf32>
    %inserted_slice_196 = tensor.insert_slice %extracted_slice_194 into %11[0, 46] [1, 978] [1, 1] : tensor<1x978xf32> into tensor<1x1024xf32>
    %inserted_slice_197 = tensor.insert_slice %extracted_slice_195 into %inserted_slice_196[0, 0] [1, 46] [1, 1] : tensor<1x46xf32> into tensor<1x1024xf32>
    %extracted_slice_198 = tensor.extract_slice %0[59, 0] [1, 978] [1, 1] : tensor<512x1024xf32> to tensor<1x978xf32>
    %extracted_slice_199 = tensor.extract_slice %0[59, 978] [1, 46] [1, 1] : tensor<512x1024xf32> to tensor<1x46xf32>
    %inserted_slice_200 = tensor.insert_slice %extracted_slice_198 into %11[0, 46] [1, 978] [1, 1] : tensor<1x978xf32> into tensor<1x1024xf32>
    %inserted_slice_201 = tensor.insert_slice %extracted_slice_199 into %inserted_slice_200[0, 0] [1, 46] [1, 1] : tensor<1x46xf32> into tensor<1x1024xf32>
    %extracted_slice_202 = tensor.extract_slice %0[60, 0] [1, 978] [1, 1] : tensor<512x1024xf32> to tensor<1x978xf32>
    %extracted_slice_203 = tensor.extract_slice %0[60, 978] [1, 46] [1, 1] : tensor<512x1024xf32> to tensor<1x46xf32>
    %inserted_slice_204 = tensor.insert_slice %extracted_slice_202 into %11[0, 46] [1, 978] [1, 1] : tensor<1x978xf32> into tensor<1x1024xf32>
    %inserted_slice_205 = tensor.insert_slice %extracted_slice_203 into %inserted_slice_204[0, 0] [1, 46] [1, 1] : tensor<1x46xf32> into tensor<1x1024xf32>
    %extracted_slice_206 = tensor.extract_slice %0[61, 0] [1, 978] [1, 1] : tensor<512x1024xf32> to tensor<1x978xf32>
    %extracted_slice_207 = tensor.extract_slice %0[61, 978] [1, 46] [1, 1] : tensor<512x1024xf32> to tensor<1x46xf32>
    %inserted_slice_208 = tensor.insert_slice %extracted_slice_206 into %11[0, 46] [1, 978] [1, 1] : tensor<1x978xf32> into tensor<1x1024xf32>
    %inserted_slice_209 = tensor.insert_slice %extracted_slice_207 into %inserted_slice_208[0, 0] [1, 46] [1, 1] : tensor<1x46xf32> into tensor<1x1024xf32>
    %extracted_slice_210 = tensor.extract_slice %0[62, 0] [1, 978] [1, 1] : tensor<512x1024xf32> to tensor<1x978xf32>
    %extracted_slice_211 = tensor.extract_slice %0[62, 978] [1, 46] [1, 1] : tensor<512x1024xf32> to tensor<1x46xf32>
    %inserted_slice_212 = tensor.insert_slice %extracted_slice_210 into %11[0, 46] [1, 978] [1, 1] : tensor<1x978xf32> into tensor<1x1024xf32>
    %inserted_slice_213 = tensor.insert_slice %extracted_slice_211 into %inserted_slice_212[0, 0] [1, 46] [1, 1] : tensor<1x46xf32> into tensor<1x1024xf32>
    %extracted_slice_214 = tensor.extract_slice %0[63, 0] [1, 978] [1, 1] : tensor<512x1024xf32> to tensor<1x978xf32>
    %extracted_slice_215 = tensor.extract_slice %0[63, 978] [1, 46] [1, 1] : tensor<512x1024xf32> to tensor<1x46xf32>
    %inserted_slice_216 = tensor.insert_slice %extracted_slice_214 into %11[0, 46] [1, 978] [1, 1] : tensor<1x978xf32> into tensor<1x1024xf32>
    %inserted_slice_217 = tensor.insert_slice %extracted_slice_215 into %inserted_slice_216[0, 0] [1, 46] [1, 1] : tensor<1x46xf32> into tensor<1x1024xf32>
    %extracted_slice_218 = tensor.extract_slice %0[64, 0] [1, 978] [1, 1] : tensor<512x1024xf32> to tensor<1x978xf32>
    %extracted_slice_219 = tensor.extract_slice %0[64, 978] [1, 46] [1, 1] : tensor<512x1024xf32> to tensor<1x46xf32>
    %inserted_slice_220 = tensor.insert_slice %extracted_slice_218 into %11[0, 46] [1, 978] [1, 1] : tensor<1x978xf32> into tensor<1x1024xf32>
    %inserted_slice_221 = tensor.insert_slice %extracted_slice_219 into %inserted_slice_220[0, 0] [1, 46] [1, 1] : tensor<1x46xf32> into tensor<1x1024xf32>
    %extracted_slice_222 = tensor.extract_slice %0[65, 0] [1, 978] [1, 1] : tensor<512x1024xf32> to tensor<1x978xf32>
    %extracted_slice_223 = tensor.extract_slice %0[65, 978] [1, 46] [1, 1] : tensor<512x1024xf32> to tensor<1x46xf32>
    %inserted_slice_224 = tensor.insert_slice %extracted_slice_222 into %11[0, 46] [1, 978] [1, 1] : tensor<1x978xf32> into tensor<1x1024xf32>
    %inserted_slice_225 = tensor.insert_slice %extracted_slice_223 into %inserted_slice_224[0, 0] [1, 46] [1, 1] : tensor<1x46xf32> into tensor<1x1024xf32>
    %extracted_slice_226 = tensor.extract_slice %0[66, 0] [1, 978] [1, 1] : tensor<512x1024xf32> to tensor<1x978xf32>
    %extracted_slice_227 = tensor.extract_slice %0[66, 978] [1, 46] [1, 1] : tensor<512x1024xf32> to tensor<1x46xf32>
    %inserted_slice_228 = tensor.insert_slice %extracted_slice_226 into %11[0, 46] [1, 978] [1, 1] : tensor<1x978xf32> into tensor<1x1024xf32>
    %inserted_slice_229 = tensor.insert_slice %extracted_slice_227 into %inserted_slice_228[0, 0] [1, 46] [1, 1] : tensor<1x46xf32> into tensor<1x1024xf32>
    %extracted_slice_230 = tensor.extract_slice %0[67, 0] [1, 978] [1, 1] : tensor<512x1024xf32> to tensor<1x978xf32>
    %extracted_slice_231 = tensor.extract_slice %0[67, 978] [1, 46] [1, 1] : tensor<512x1024xf32> to tensor<1x46xf32>
    %inserted_slice_232 = tensor.insert_slice %extracted_slice_230 into %11[0, 46] [1, 978] [1, 1] : tensor<1x978xf32> into tensor<1x1024xf32>
    %inserted_slice_233 = tensor.insert_slice %extracted_slice_231 into %inserted_slice_232[0, 0] [1, 46] [1, 1] : tensor<1x46xf32> into tensor<1x1024xf32>
    %extracted_slice_234 = tensor.extract_slice %0[68, 0] [1, 978] [1, 1] : tensor<512x1024xf32> to tensor<1x978xf32>
    %extracted_slice_235 = tensor.extract_slice %0[68, 978] [1, 46] [1, 1] : tensor<512x1024xf32> to tensor<1x46xf32>
    %inserted_slice_236 = tensor.insert_slice %extracted_slice_234 into %11[0, 46] [1, 978] [1, 1] : tensor<1x978xf32> into tensor<1x1024xf32>
    %inserted_slice_237 = tensor.insert_slice %extracted_slice_235 into %inserted_slice_236[0, 0] [1, 46] [1, 1] : tensor<1x46xf32> into tensor<1x1024xf32>
    %extracted_slice_238 = tensor.extract_slice %0[69, 0] [1, 955] [1, 1] : tensor<512x1024xf32> to tensor<1x955xf32>
    %extracted_slice_239 = tensor.extract_slice %0[69, 955] [1, 69] [1, 1] : tensor<512x1024xf32> to tensor<1x69xf32>
    %inserted_slice_240 = tensor.insert_slice %extracted_slice_238 into %11[0, 69] [1, 955] [1, 1] : tensor<1x955xf32> into tensor<1x1024xf32>
    %inserted_slice_241 = tensor.insert_slice %extracted_slice_239 into %inserted_slice_240[0, 0] [1, 69] [1, 1] : tensor<1x69xf32> into tensor<1x1024xf32>
    %extracted_slice_242 = tensor.extract_slice %0[70, 0] [1, 955] [1, 1] : tensor<512x1024xf32> to tensor<1x955xf32>
    %extracted_slice_243 = tensor.extract_slice %0[70, 955] [1, 69] [1, 1] : tensor<512x1024xf32> to tensor<1x69xf32>
    %inserted_slice_244 = tensor.insert_slice %extracted_slice_242 into %11[0, 69] [1, 955] [1, 1] : tensor<1x955xf32> into tensor<1x1024xf32>
    %inserted_slice_245 = tensor.insert_slice %extracted_slice_243 into %inserted_slice_244[0, 0] [1, 69] [1, 1] : tensor<1x69xf32> into tensor<1x1024xf32>
    %extracted_slice_246 = tensor.extract_slice %0[71, 0] [1, 955] [1, 1] : tensor<512x1024xf32> to tensor<1x955xf32>
    %extracted_slice_247 = tensor.extract_slice %0[71, 955] [1, 69] [1, 1] : tensor<512x1024xf32> to tensor<1x69xf32>
    %inserted_slice_248 = tensor.insert_slice %extracted_slice_246 into %11[0, 69] [1, 955] [1, 1] : tensor<1x955xf32> into tensor<1x1024xf32>
    %inserted_slice_249 = tensor.insert_slice %extracted_slice_247 into %inserted_slice_248[0, 0] [1, 69] [1, 1] : tensor<1x69xf32> into tensor<1x1024xf32>
    %extracted_slice_250 = tensor.extract_slice %0[72, 0] [1, 955] [1, 1] : tensor<512x1024xf32> to tensor<1x955xf32>
    %extracted_slice_251 = tensor.extract_slice %0[72, 955] [1, 69] [1, 1] : tensor<512x1024xf32> to tensor<1x69xf32>
    %inserted_slice_252 = tensor.insert_slice %extracted_slice_250 into %11[0, 69] [1, 955] [1, 1] : tensor<1x955xf32> into tensor<1x1024xf32>
    %inserted_slice_253 = tensor.insert_slice %extracted_slice_251 into %inserted_slice_252[0, 0] [1, 69] [1, 1] : tensor<1x69xf32> into tensor<1x1024xf32>
    %extracted_slice_254 = tensor.extract_slice %0[73, 0] [1, 955] [1, 1] : tensor<512x1024xf32> to tensor<1x955xf32>
    %extracted_slice_255 = tensor.extract_slice %0[73, 955] [1, 69] [1, 1] : tensor<512x1024xf32> to tensor<1x69xf32>
    %inserted_slice_256 = tensor.insert_slice %extracted_slice_254 into %11[0, 69] [1, 955] [1, 1] : tensor<1x955xf32> into tensor<1x1024xf32>
    %inserted_slice_257 = tensor.insert_slice %extracted_slice_255 into %inserted_slice_256[0, 0] [1, 69] [1, 1] : tensor<1x69xf32> into tensor<1x1024xf32>
    %extracted_slice_258 = tensor.extract_slice %0[74, 0] [1, 955] [1, 1] : tensor<512x1024xf32> to tensor<1x955xf32>
    %extracted_slice_259 = tensor.extract_slice %0[74, 955] [1, 69] [1, 1] : tensor<512x1024xf32> to tensor<1x69xf32>
    %inserted_slice_260 = tensor.insert_slice %extracted_slice_258 into %11[0, 69] [1, 955] [1, 1] : tensor<1x955xf32> into tensor<1x1024xf32>
    %inserted_slice_261 = tensor.insert_slice %extracted_slice_259 into %inserted_slice_260[0, 0] [1, 69] [1, 1] : tensor<1x69xf32> into tensor<1x1024xf32>
    %extracted_slice_262 = tensor.extract_slice %0[75, 0] [1, 955] [1, 1] : tensor<512x1024xf32> to tensor<1x955xf32>
    %extracted_slice_263 = tensor.extract_slice %0[75, 955] [1, 69] [1, 1] : tensor<512x1024xf32> to tensor<1x69xf32>
    %inserted_slice_264 = tensor.insert_slice %extracted_slice_262 into %11[0, 69] [1, 955] [1, 1] : tensor<1x955xf32> into tensor<1x1024xf32>
    %inserted_slice_265 = tensor.insert_slice %extracted_slice_263 into %inserted_slice_264[0, 0] [1, 69] [1, 1] : tensor<1x69xf32> into tensor<1x1024xf32>
    %extracted_slice_266 = tensor.extract_slice %0[76, 0] [1, 955] [1, 1] : tensor<512x1024xf32> to tensor<1x955xf32>
    %extracted_slice_267 = tensor.extract_slice %0[76, 955] [1, 69] [1, 1] : tensor<512x1024xf32> to tensor<1x69xf32>
    %inserted_slice_268 = tensor.insert_slice %extracted_slice_266 into %11[0, 69] [1, 955] [1, 1] : tensor<1x955xf32> into tensor<1x1024xf32>
    %inserted_slice_269 = tensor.insert_slice %extracted_slice_267 into %inserted_slice_268[0, 0] [1, 69] [1, 1] : tensor<1x69xf32> into tensor<1x1024xf32>
    %extracted_slice_270 = tensor.extract_slice %0[77, 0] [1, 955] [1, 1] : tensor<512x1024xf32> to tensor<1x955xf32>
    %extracted_slice_271 = tensor.extract_slice %0[77, 955] [1, 69] [1, 1] : tensor<512x1024xf32> to tensor<1x69xf32>
    %inserted_slice_272 = tensor.insert_slice %extracted_slice_270 into %11[0, 69] [1, 955] [1, 1] : tensor<1x955xf32> into tensor<1x1024xf32>
    %inserted_slice_273 = tensor.insert_slice %extracted_slice_271 into %inserted_slice_272[0, 0] [1, 69] [1, 1] : tensor<1x69xf32> into tensor<1x1024xf32>
    %extracted_slice_274 = tensor.extract_slice %0[78, 0] [1, 955] [1, 1] : tensor<512x1024xf32> to tensor<1x955xf32>
    %extracted_slice_275 = tensor.extract_slice %0[78, 955] [1, 69] [1, 1] : tensor<512x1024xf32> to tensor<1x69xf32>
    %inserted_slice_276 = tensor.insert_slice %extracted_slice_274 into %11[0, 69] [1, 955] [1, 1] : tensor<1x955xf32> into tensor<1x1024xf32>
    %inserted_slice_277 = tensor.insert_slice %extracted_slice_275 into %inserted_slice_276[0, 0] [1, 69] [1, 1] : tensor<1x69xf32> into tensor<1x1024xf32>
    %extracted_slice_278 = tensor.extract_slice %0[79, 0] [1, 955] [1, 1] : tensor<512x1024xf32> to tensor<1x955xf32>
    %extracted_slice_279 = tensor.extract_slice %0[79, 955] [1, 69] [1, 1] : tensor<512x1024xf32> to tensor<1x69xf32>
    %inserted_slice_280 = tensor.insert_slice %extracted_slice_278 into %11[0, 69] [1, 955] [1, 1] : tensor<1x955xf32> into tensor<1x1024xf32>
    %inserted_slice_281 = tensor.insert_slice %extracted_slice_279 into %inserted_slice_280[0, 0] [1, 69] [1, 1] : tensor<1x69xf32> into tensor<1x1024xf32>
    %extracted_slice_282 = tensor.extract_slice %0[80, 0] [1, 955] [1, 1] : tensor<512x1024xf32> to tensor<1x955xf32>
    %extracted_slice_283 = tensor.extract_slice %0[80, 955] [1, 69] [1, 1] : tensor<512x1024xf32> to tensor<1x69xf32>
    %inserted_slice_284 = tensor.insert_slice %extracted_slice_282 into %11[0, 69] [1, 955] [1, 1] : tensor<1x955xf32> into tensor<1x1024xf32>
    %inserted_slice_285 = tensor.insert_slice %extracted_slice_283 into %inserted_slice_284[0, 0] [1, 69] [1, 1] : tensor<1x69xf32> into tensor<1x1024xf32>
    %extracted_slice_286 = tensor.extract_slice %0[81, 0] [1, 955] [1, 1] : tensor<512x1024xf32> to tensor<1x955xf32>
    %extracted_slice_287 = tensor.extract_slice %0[81, 955] [1, 69] [1, 1] : tensor<512x1024xf32> to tensor<1x69xf32>
    %inserted_slice_288 = tensor.insert_slice %extracted_slice_286 into %11[0, 69] [1, 955] [1, 1] : tensor<1x955xf32> into tensor<1x1024xf32>
    %inserted_slice_289 = tensor.insert_slice %extracted_slice_287 into %inserted_slice_288[0, 0] [1, 69] [1, 1] : tensor<1x69xf32> into tensor<1x1024xf32>
    %extracted_slice_290 = tensor.extract_slice %0[82, 0] [1, 955] [1, 1] : tensor<512x1024xf32> to tensor<1x955xf32>
    %extracted_slice_291 = tensor.extract_slice %0[82, 955] [1, 69] [1, 1] : tensor<512x1024xf32> to tensor<1x69xf32>
    %inserted_slice_292 = tensor.insert_slice %extracted_slice_290 into %11[0, 69] [1, 955] [1, 1] : tensor<1x955xf32> into tensor<1x1024xf32>
    %inserted_slice_293 = tensor.insert_slice %extracted_slice_291 into %inserted_slice_292[0, 0] [1, 69] [1, 1] : tensor<1x69xf32> into tensor<1x1024xf32>
    %extracted_slice_294 = tensor.extract_slice %0[83, 0] [1, 955] [1, 1] : tensor<512x1024xf32> to tensor<1x955xf32>
    %extracted_slice_295 = tensor.extract_slice %0[83, 955] [1, 69] [1, 1] : tensor<512x1024xf32> to tensor<1x69xf32>
    %inserted_slice_296 = tensor.insert_slice %extracted_slice_294 into %11[0, 69] [1, 955] [1, 1] : tensor<1x955xf32> into tensor<1x1024xf32>
    %inserted_slice_297 = tensor.insert_slice %extracted_slice_295 into %inserted_slice_296[0, 0] [1, 69] [1, 1] : tensor<1x69xf32> into tensor<1x1024xf32>
    %extracted_slice_298 = tensor.extract_slice %0[84, 0] [1, 955] [1, 1] : tensor<512x1024xf32> to tensor<1x955xf32>
    %extracted_slice_299 = tensor.extract_slice %0[84, 955] [1, 69] [1, 1] : tensor<512x1024xf32> to tensor<1x69xf32>
    %inserted_slice_300 = tensor.insert_slice %extracted_slice_298 into %11[0, 69] [1, 955] [1, 1] : tensor<1x955xf32> into tensor<1x1024xf32>
    %inserted_slice_301 = tensor.insert_slice %extracted_slice_299 into %inserted_slice_300[0, 0] [1, 69] [1, 1] : tensor<1x69xf32> into tensor<1x1024xf32>
    %extracted_slice_302 = tensor.extract_slice %0[85, 0] [1, 955] [1, 1] : tensor<512x1024xf32> to tensor<1x955xf32>
    %extracted_slice_303 = tensor.extract_slice %0[85, 955] [1, 69] [1, 1] : tensor<512x1024xf32> to tensor<1x69xf32>
    %inserted_slice_304 = tensor.insert_slice %extracted_slice_302 into %11[0, 69] [1, 955] [1, 1] : tensor<1x955xf32> into tensor<1x1024xf32>
    %inserted_slice_305 = tensor.insert_slice %extracted_slice_303 into %inserted_slice_304[0, 0] [1, 69] [1, 1] : tensor<1x69xf32> into tensor<1x1024xf32>
    %extracted_slice_306 = tensor.extract_slice %0[86, 0] [1, 955] [1, 1] : tensor<512x1024xf32> to tensor<1x955xf32>
    %extracted_slice_307 = tensor.extract_slice %0[86, 955] [1, 69] [1, 1] : tensor<512x1024xf32> to tensor<1x69xf32>
    %inserted_slice_308 = tensor.insert_slice %extracted_slice_306 into %11[0, 69] [1, 955] [1, 1] : tensor<1x955xf32> into tensor<1x1024xf32>
    %inserted_slice_309 = tensor.insert_slice %extracted_slice_307 into %inserted_slice_308[0, 0] [1, 69] [1, 1] : tensor<1x69xf32> into tensor<1x1024xf32>
    %extracted_slice_310 = tensor.extract_slice %0[87, 0] [1, 955] [1, 1] : tensor<512x1024xf32> to tensor<1x955xf32>
    %extracted_slice_311 = tensor.extract_slice %0[87, 955] [1, 69] [1, 1] : tensor<512x1024xf32> to tensor<1x69xf32>
    %inserted_slice_312 = tensor.insert_slice %extracted_slice_310 into %11[0, 69] [1, 955] [1, 1] : tensor<1x955xf32> into tensor<1x1024xf32>
    %inserted_slice_313 = tensor.insert_slice %extracted_slice_311 into %inserted_slice_312[0, 0] [1, 69] [1, 1] : tensor<1x69xf32> into tensor<1x1024xf32>
    %extracted_slice_314 = tensor.extract_slice %0[88, 0] [1, 955] [1, 1] : tensor<512x1024xf32> to tensor<1x955xf32>
    %extracted_slice_315 = tensor.extract_slice %0[88, 955] [1, 69] [1, 1] : tensor<512x1024xf32> to tensor<1x69xf32>
    %inserted_slice_316 = tensor.insert_slice %extracted_slice_314 into %11[0, 69] [1, 955] [1, 1] : tensor<1x955xf32> into tensor<1x1024xf32>
    %inserted_slice_317 = tensor.insert_slice %extracted_slice_315 into %inserted_slice_316[0, 0] [1, 69] [1, 1] : tensor<1x69xf32> into tensor<1x1024xf32>
    %extracted_slice_318 = tensor.extract_slice %0[89, 0] [1, 955] [1, 1] : tensor<512x1024xf32> to tensor<1x955xf32>
    %extracted_slice_319 = tensor.extract_slice %0[89, 955] [1, 69] [1, 1] : tensor<512x1024xf32> to tensor<1x69xf32>
    %inserted_slice_320 = tensor.insert_slice %extracted_slice_318 into %11[0, 69] [1, 955] [1, 1] : tensor<1x955xf32> into tensor<1x1024xf32>
    %inserted_slice_321 = tensor.insert_slice %extracted_slice_319 into %inserted_slice_320[0, 0] [1, 69] [1, 1] : tensor<1x69xf32> into tensor<1x1024xf32>
    %extracted_slice_322 = tensor.extract_slice %0[90, 0] [1, 955] [1, 1] : tensor<512x1024xf32> to tensor<1x955xf32>
    %extracted_slice_323 = tensor.extract_slice %0[90, 955] [1, 69] [1, 1] : tensor<512x1024xf32> to tensor<1x69xf32>
    %inserted_slice_324 = tensor.insert_slice %extracted_slice_322 into %11[0, 69] [1, 955] [1, 1] : tensor<1x955xf32> into tensor<1x1024xf32>
    %inserted_slice_325 = tensor.insert_slice %extracted_slice_323 into %inserted_slice_324[0, 0] [1, 69] [1, 1] : tensor<1x69xf32> into tensor<1x1024xf32>
    %extracted_slice_326 = tensor.extract_slice %0[91, 0] [1, 955] [1, 1] : tensor<512x1024xf32> to tensor<1x955xf32>
    %extracted_slice_327 = tensor.extract_slice %0[91, 955] [1, 69] [1, 1] : tensor<512x1024xf32> to tensor<1x69xf32>
    %inserted_slice_328 = tensor.insert_slice %extracted_slice_326 into %11[0, 69] [1, 955] [1, 1] : tensor<1x955xf32> into tensor<1x1024xf32>
    %inserted_slice_329 = tensor.insert_slice %extracted_slice_327 into %inserted_slice_328[0, 0] [1, 69] [1, 1] : tensor<1x69xf32> into tensor<1x1024xf32>
    %extracted_slice_330 = tensor.extract_slice %0[92, 0] [1, 932] [1, 1] : tensor<512x1024xf32> to tensor<1x932xf32>
    %extracted_slice_331 = tensor.extract_slice %0[92, 932] [1, 92] [1, 1] : tensor<512x1024xf32> to tensor<1x92xf32>
    %inserted_slice_332 = tensor.insert_slice %extracted_slice_330 into %11[0, 92] [1, 932] [1, 1] : tensor<1x932xf32> into tensor<1x1024xf32>
    %inserted_slice_333 = tensor.insert_slice %extracted_slice_331 into %inserted_slice_332[0, 0] [1, 92] [1, 1] : tensor<1x92xf32> into tensor<1x1024xf32>
    %extracted_slice_334 = tensor.extract_slice %0[93, 0] [1, 932] [1, 1] : tensor<512x1024xf32> to tensor<1x932xf32>
    %extracted_slice_335 = tensor.extract_slice %0[93, 932] [1, 92] [1, 1] : tensor<512x1024xf32> to tensor<1x92xf32>
    %inserted_slice_336 = tensor.insert_slice %extracted_slice_334 into %11[0, 92] [1, 932] [1, 1] : tensor<1x932xf32> into tensor<1x1024xf32>
    %inserted_slice_337 = tensor.insert_slice %extracted_slice_335 into %inserted_slice_336[0, 0] [1, 92] [1, 1] : tensor<1x92xf32> into tensor<1x1024xf32>
    %extracted_slice_338 = tensor.extract_slice %0[94, 0] [1, 932] [1, 1] : tensor<512x1024xf32> to tensor<1x932xf32>
    %extracted_slice_339 = tensor.extract_slice %0[94, 932] [1, 92] [1, 1] : tensor<512x1024xf32> to tensor<1x92xf32>
    %inserted_slice_340 = tensor.insert_slice %extracted_slice_338 into %11[0, 92] [1, 932] [1, 1] : tensor<1x932xf32> into tensor<1x1024xf32>
    %inserted_slice_341 = tensor.insert_slice %extracted_slice_339 into %inserted_slice_340[0, 0] [1, 92] [1, 1] : tensor<1x92xf32> into tensor<1x1024xf32>
    %extracted_slice_342 = tensor.extract_slice %0[95, 0] [1, 932] [1, 1] : tensor<512x1024xf32> to tensor<1x932xf32>
    %extracted_slice_343 = tensor.extract_slice %0[95, 932] [1, 92] [1, 1] : tensor<512x1024xf32> to tensor<1x92xf32>
    %inserted_slice_344 = tensor.insert_slice %extracted_slice_342 into %11[0, 92] [1, 932] [1, 1] : tensor<1x932xf32> into tensor<1x1024xf32>
    %inserted_slice_345 = tensor.insert_slice %extracted_slice_343 into %inserted_slice_344[0, 0] [1, 92] [1, 1] : tensor<1x92xf32> into tensor<1x1024xf32>
    %extracted_slice_346 = tensor.extract_slice %0[96, 0] [1, 932] [1, 1] : tensor<512x1024xf32> to tensor<1x932xf32>
    %extracted_slice_347 = tensor.extract_slice %0[96, 932] [1, 92] [1, 1] : tensor<512x1024xf32> to tensor<1x92xf32>
    %inserted_slice_348 = tensor.insert_slice %extracted_slice_346 into %11[0, 92] [1, 932] [1, 1] : tensor<1x932xf32> into tensor<1x1024xf32>
    %inserted_slice_349 = tensor.insert_slice %extracted_slice_347 into %inserted_slice_348[0, 0] [1, 92] [1, 1] : tensor<1x92xf32> into tensor<1x1024xf32>
    %extracted_slice_350 = tensor.extract_slice %0[97, 0] [1, 932] [1, 1] : tensor<512x1024xf32> to tensor<1x932xf32>
    %extracted_slice_351 = tensor.extract_slice %0[97, 932] [1, 92] [1, 1] : tensor<512x1024xf32> to tensor<1x92xf32>
    %inserted_slice_352 = tensor.insert_slice %extracted_slice_350 into %11[0, 92] [1, 932] [1, 1] : tensor<1x932xf32> into tensor<1x1024xf32>
    %inserted_slice_353 = tensor.insert_slice %extracted_slice_351 into %inserted_slice_352[0, 0] [1, 92] [1, 1] : tensor<1x92xf32> into tensor<1x1024xf32>
    %extracted_slice_354 = tensor.extract_slice %0[98, 0] [1, 932] [1, 1] : tensor<512x1024xf32> to tensor<1x932xf32>
    %extracted_slice_355 = tensor.extract_slice %0[98, 932] [1, 92] [1, 1] : tensor<512x1024xf32> to tensor<1x92xf32>
    %inserted_slice_356 = tensor.insert_slice %extracted_slice_354 into %11[0, 92] [1, 932] [1, 1] : tensor<1x932xf32> into tensor<1x1024xf32>
    %inserted_slice_357 = tensor.insert_slice %extracted_slice_355 into %inserted_slice_356[0, 0] [1, 92] [1, 1] : tensor<1x92xf32> into tensor<1x1024xf32>
    %extracted_slice_358 = tensor.extract_slice %0[99, 0] [1, 932] [1, 1] : tensor<512x1024xf32> to tensor<1x932xf32>
    %extracted_slice_359 = tensor.extract_slice %0[99, 932] [1, 92] [1, 1] : tensor<512x1024xf32> to tensor<1x92xf32>
    %inserted_slice_360 = tensor.insert_slice %extracted_slice_358 into %11[0, 92] [1, 932] [1, 1] : tensor<1x932xf32> into tensor<1x1024xf32>
    %inserted_slice_361 = tensor.insert_slice %extracted_slice_359 into %inserted_slice_360[0, 0] [1, 92] [1, 1] : tensor<1x92xf32> into tensor<1x1024xf32>
    %extracted_slice_362 = tensor.extract_slice %0[100, 0] [1, 932] [1, 1] : tensor<512x1024xf32> to tensor<1x932xf32>
    %extracted_slice_363 = tensor.extract_slice %0[100, 932] [1, 92] [1, 1] : tensor<512x1024xf32> to tensor<1x92xf32>
    %inserted_slice_364 = tensor.insert_slice %extracted_slice_362 into %11[0, 92] [1, 932] [1, 1] : tensor<1x932xf32> into tensor<1x1024xf32>
    %inserted_slice_365 = tensor.insert_slice %extracted_slice_363 into %inserted_slice_364[0, 0] [1, 92] [1, 1] : tensor<1x92xf32> into tensor<1x1024xf32>
    %extracted_slice_366 = tensor.extract_slice %0[101, 0] [1, 932] [1, 1] : tensor<512x1024xf32> to tensor<1x932xf32>
    %extracted_slice_367 = tensor.extract_slice %0[101, 932] [1, 92] [1, 1] : tensor<512x1024xf32> to tensor<1x92xf32>
    %inserted_slice_368 = tensor.insert_slice %extracted_slice_366 into %11[0, 92] [1, 932] [1, 1] : tensor<1x932xf32> into tensor<1x1024xf32>
    %inserted_slice_369 = tensor.insert_slice %extracted_slice_367 into %inserted_slice_368[0, 0] [1, 92] [1, 1] : tensor<1x92xf32> into tensor<1x1024xf32>
    %extracted_slice_370 = tensor.extract_slice %0[102, 0] [1, 932] [1, 1] : tensor<512x1024xf32> to tensor<1x932xf32>
    %extracted_slice_371 = tensor.extract_slice %0[102, 932] [1, 92] [1, 1] : tensor<512x1024xf32> to tensor<1x92xf32>
    %inserted_slice_372 = tensor.insert_slice %extracted_slice_370 into %11[0, 92] [1, 932] [1, 1] : tensor<1x932xf32> into tensor<1x1024xf32>
    %inserted_slice_373 = tensor.insert_slice %extracted_slice_371 into %inserted_slice_372[0, 0] [1, 92] [1, 1] : tensor<1x92xf32> into tensor<1x1024xf32>
    %extracted_slice_374 = tensor.extract_slice %0[103, 0] [1, 932] [1, 1] : tensor<512x1024xf32> to tensor<1x932xf32>
    %extracted_slice_375 = tensor.extract_slice %0[103, 932] [1, 92] [1, 1] : tensor<512x1024xf32> to tensor<1x92xf32>
    %inserted_slice_376 = tensor.insert_slice %extracted_slice_374 into %11[0, 92] [1, 932] [1, 1] : tensor<1x932xf32> into tensor<1x1024xf32>
    %inserted_slice_377 = tensor.insert_slice %extracted_slice_375 into %inserted_slice_376[0, 0] [1, 92] [1, 1] : tensor<1x92xf32> into tensor<1x1024xf32>
    %extracted_slice_378 = tensor.extract_slice %0[104, 0] [1, 932] [1, 1] : tensor<512x1024xf32> to tensor<1x932xf32>
    %extracted_slice_379 = tensor.extract_slice %0[104, 932] [1, 92] [1, 1] : tensor<512x1024xf32> to tensor<1x92xf32>
    %inserted_slice_380 = tensor.insert_slice %extracted_slice_378 into %11[0, 92] [1, 932] [1, 1] : tensor<1x932xf32> into tensor<1x1024xf32>
    %inserted_slice_381 = tensor.insert_slice %extracted_slice_379 into %inserted_slice_380[0, 0] [1, 92] [1, 1] : tensor<1x92xf32> into tensor<1x1024xf32>
    %extracted_slice_382 = tensor.extract_slice %0[105, 0] [1, 932] [1, 1] : tensor<512x1024xf32> to tensor<1x932xf32>
    %extracted_slice_383 = tensor.extract_slice %0[105, 932] [1, 92] [1, 1] : tensor<512x1024xf32> to tensor<1x92xf32>
    %inserted_slice_384 = tensor.insert_slice %extracted_slice_382 into %11[0, 92] [1, 932] [1, 1] : tensor<1x932xf32> into tensor<1x1024xf32>
    %inserted_slice_385 = tensor.insert_slice %extracted_slice_383 into %inserted_slice_384[0, 0] [1, 92] [1, 1] : tensor<1x92xf32> into tensor<1x1024xf32>
    %extracted_slice_386 = tensor.extract_slice %0[106, 0] [1, 932] [1, 1] : tensor<512x1024xf32> to tensor<1x932xf32>
    %extracted_slice_387 = tensor.extract_slice %0[106, 932] [1, 92] [1, 1] : tensor<512x1024xf32> to tensor<1x92xf32>
    %inserted_slice_388 = tensor.insert_slice %extracted_slice_386 into %11[0, 92] [1, 932] [1, 1] : tensor<1x932xf32> into tensor<1x1024xf32>
    %inserted_slice_389 = tensor.insert_slice %extracted_slice_387 into %inserted_slice_388[0, 0] [1, 92] [1, 1] : tensor<1x92xf32> into tensor<1x1024xf32>
    %extracted_slice_390 = tensor.extract_slice %0[107, 0] [1, 932] [1, 1] : tensor<512x1024xf32> to tensor<1x932xf32>
    %extracted_slice_391 = tensor.extract_slice %0[107, 932] [1, 92] [1, 1] : tensor<512x1024xf32> to tensor<1x92xf32>
    %inserted_slice_392 = tensor.insert_slice %extracted_slice_390 into %11[0, 92] [1, 932] [1, 1] : tensor<1x932xf32> into tensor<1x1024xf32>
    %inserted_slice_393 = tensor.insert_slice %extracted_slice_391 into %inserted_slice_392[0, 0] [1, 92] [1, 1] : tensor<1x92xf32> into tensor<1x1024xf32>
    %extracted_slice_394 = tensor.extract_slice %0[108, 0] [1, 932] [1, 1] : tensor<512x1024xf32> to tensor<1x932xf32>
    %extracted_slice_395 = tensor.extract_slice %0[108, 932] [1, 92] [1, 1] : tensor<512x1024xf32> to tensor<1x92xf32>
    %inserted_slice_396 = tensor.insert_slice %extracted_slice_394 into %11[0, 92] [1, 932] [1, 1] : tensor<1x932xf32> into tensor<1x1024xf32>
    %inserted_slice_397 = tensor.insert_slice %extracted_slice_395 into %inserted_slice_396[0, 0] [1, 92] [1, 1] : tensor<1x92xf32> into tensor<1x1024xf32>
    %extracted_slice_398 = tensor.extract_slice %0[109, 0] [1, 932] [1, 1] : tensor<512x1024xf32> to tensor<1x932xf32>
    %extracted_slice_399 = tensor.extract_slice %0[109, 932] [1, 92] [1, 1] : tensor<512x1024xf32> to tensor<1x92xf32>
    %inserted_slice_400 = tensor.insert_slice %extracted_slice_398 into %11[0, 92] [1, 932] [1, 1] : tensor<1x932xf32> into tensor<1x1024xf32>
    %inserted_slice_401 = tensor.insert_slice %extracted_slice_399 into %inserted_slice_400[0, 0] [1, 92] [1, 1] : tensor<1x92xf32> into tensor<1x1024xf32>
    %extracted_slice_402 = tensor.extract_slice %0[110, 0] [1, 932] [1, 1] : tensor<512x1024xf32> to tensor<1x932xf32>
    %extracted_slice_403 = tensor.extract_slice %0[110, 932] [1, 92] [1, 1] : tensor<512x1024xf32> to tensor<1x92xf32>
    %inserted_slice_404 = tensor.insert_slice %extracted_slice_402 into %11[0, 92] [1, 932] [1, 1] : tensor<1x932xf32> into tensor<1x1024xf32>
    %inserted_slice_405 = tensor.insert_slice %extracted_slice_403 into %inserted_slice_404[0, 0] [1, 92] [1, 1] : tensor<1x92xf32> into tensor<1x1024xf32>
    %extracted_slice_406 = tensor.extract_slice %0[111, 0] [1, 932] [1, 1] : tensor<512x1024xf32> to tensor<1x932xf32>
    %extracted_slice_407 = tensor.extract_slice %0[111, 932] [1, 92] [1, 1] : tensor<512x1024xf32> to tensor<1x92xf32>
    %inserted_slice_408 = tensor.insert_slice %extracted_slice_406 into %11[0, 92] [1, 932] [1, 1] : tensor<1x932xf32> into tensor<1x1024xf32>
    %inserted_slice_409 = tensor.insert_slice %extracted_slice_407 into %inserted_slice_408[0, 0] [1, 92] [1, 1] : tensor<1x92xf32> into tensor<1x1024xf32>
    %extracted_slice_410 = tensor.extract_slice %0[112, 0] [1, 932] [1, 1] : tensor<512x1024xf32> to tensor<1x932xf32>
    %extracted_slice_411 = tensor.extract_slice %0[112, 932] [1, 92] [1, 1] : tensor<512x1024xf32> to tensor<1x92xf32>
    %inserted_slice_412 = tensor.insert_slice %extracted_slice_410 into %11[0, 92] [1, 932] [1, 1] : tensor<1x932xf32> into tensor<1x1024xf32>
    %inserted_slice_413 = tensor.insert_slice %extracted_slice_411 into %inserted_slice_412[0, 0] [1, 92] [1, 1] : tensor<1x92xf32> into tensor<1x1024xf32>
    %extracted_slice_414 = tensor.extract_slice %0[113, 0] [1, 932] [1, 1] : tensor<512x1024xf32> to tensor<1x932xf32>
    %extracted_slice_415 = tensor.extract_slice %0[113, 932] [1, 92] [1, 1] : tensor<512x1024xf32> to tensor<1x92xf32>
    %inserted_slice_416 = tensor.insert_slice %extracted_slice_414 into %11[0, 92] [1, 932] [1, 1] : tensor<1x932xf32> into tensor<1x1024xf32>
    %inserted_slice_417 = tensor.insert_slice %extracted_slice_415 into %inserted_slice_416[0, 0] [1, 92] [1, 1] : tensor<1x92xf32> into tensor<1x1024xf32>
    %extracted_slice_418 = tensor.extract_slice %0[114, 0] [1, 932] [1, 1] : tensor<512x1024xf32> to tensor<1x932xf32>
    %extracted_slice_419 = tensor.extract_slice %0[114, 932] [1, 92] [1, 1] : tensor<512x1024xf32> to tensor<1x92xf32>
    %inserted_slice_420 = tensor.insert_slice %extracted_slice_418 into %11[0, 92] [1, 932] [1, 1] : tensor<1x932xf32> into tensor<1x1024xf32>
    %inserted_slice_421 = tensor.insert_slice %extracted_slice_419 into %inserted_slice_420[0, 0] [1, 92] [1, 1] : tensor<1x92xf32> into tensor<1x1024xf32>
    %extracted_slice_422 = tensor.extract_slice %0[115, 0] [1, 909] [1, 1] : tensor<512x1024xf32> to tensor<1x909xf32>
    %extracted_slice_423 = tensor.extract_slice %0[115, 909] [1, 115] [1, 1] : tensor<512x1024xf32> to tensor<1x115xf32>
    %inserted_slice_424 = tensor.insert_slice %extracted_slice_422 into %11[0, 115] [1, 909] [1, 1] : tensor<1x909xf32> into tensor<1x1024xf32>
    %inserted_slice_425 = tensor.insert_slice %extracted_slice_423 into %inserted_slice_424[0, 0] [1, 115] [1, 1] : tensor<1x115xf32> into tensor<1x1024xf32>
    %extracted_slice_426 = tensor.extract_slice %0[116, 0] [1, 909] [1, 1] : tensor<512x1024xf32> to tensor<1x909xf32>
    %extracted_slice_427 = tensor.extract_slice %0[116, 909] [1, 115] [1, 1] : tensor<512x1024xf32> to tensor<1x115xf32>
    %inserted_slice_428 = tensor.insert_slice %extracted_slice_426 into %11[0, 115] [1, 909] [1, 1] : tensor<1x909xf32> into tensor<1x1024xf32>
    %inserted_slice_429 = tensor.insert_slice %extracted_slice_427 into %inserted_slice_428[0, 0] [1, 115] [1, 1] : tensor<1x115xf32> into tensor<1x1024xf32>
    %extracted_slice_430 = tensor.extract_slice %0[117, 0] [1, 909] [1, 1] : tensor<512x1024xf32> to tensor<1x909xf32>
    %extracted_slice_431 = tensor.extract_slice %0[117, 909] [1, 115] [1, 1] : tensor<512x1024xf32> to tensor<1x115xf32>
    %inserted_slice_432 = tensor.insert_slice %extracted_slice_430 into %11[0, 115] [1, 909] [1, 1] : tensor<1x909xf32> into tensor<1x1024xf32>
    %inserted_slice_433 = tensor.insert_slice %extracted_slice_431 into %inserted_slice_432[0, 0] [1, 115] [1, 1] : tensor<1x115xf32> into tensor<1x1024xf32>
    %extracted_slice_434 = tensor.extract_slice %0[118, 0] [1, 909] [1, 1] : tensor<512x1024xf32> to tensor<1x909xf32>
    %extracted_slice_435 = tensor.extract_slice %0[118, 909] [1, 115] [1, 1] : tensor<512x1024xf32> to tensor<1x115xf32>
    %inserted_slice_436 = tensor.insert_slice %extracted_slice_434 into %11[0, 115] [1, 909] [1, 1] : tensor<1x909xf32> into tensor<1x1024xf32>
    %inserted_slice_437 = tensor.insert_slice %extracted_slice_435 into %inserted_slice_436[0, 0] [1, 115] [1, 1] : tensor<1x115xf32> into tensor<1x1024xf32>
    %extracted_slice_438 = tensor.extract_slice %0[119, 0] [1, 909] [1, 1] : tensor<512x1024xf32> to tensor<1x909xf32>
    %extracted_slice_439 = tensor.extract_slice %0[119, 909] [1, 115] [1, 1] : tensor<512x1024xf32> to tensor<1x115xf32>
    %inserted_slice_440 = tensor.insert_slice %extracted_slice_438 into %11[0, 115] [1, 909] [1, 1] : tensor<1x909xf32> into tensor<1x1024xf32>
    %inserted_slice_441 = tensor.insert_slice %extracted_slice_439 into %inserted_slice_440[0, 0] [1, 115] [1, 1] : tensor<1x115xf32> into tensor<1x1024xf32>
    %extracted_slice_442 = tensor.extract_slice %0[120, 0] [1, 909] [1, 1] : tensor<512x1024xf32> to tensor<1x909xf32>
    %extracted_slice_443 = tensor.extract_slice %0[120, 909] [1, 115] [1, 1] : tensor<512x1024xf32> to tensor<1x115xf32>
    %inserted_slice_444 = tensor.insert_slice %extracted_slice_442 into %11[0, 115] [1, 909] [1, 1] : tensor<1x909xf32> into tensor<1x1024xf32>
    %inserted_slice_445 = tensor.insert_slice %extracted_slice_443 into %inserted_slice_444[0, 0] [1, 115] [1, 1] : tensor<1x115xf32> into tensor<1x1024xf32>
    %extracted_slice_446 = tensor.extract_slice %0[121, 0] [1, 909] [1, 1] : tensor<512x1024xf32> to tensor<1x909xf32>
    %extracted_slice_447 = tensor.extract_slice %0[121, 909] [1, 115] [1, 1] : tensor<512x1024xf32> to tensor<1x115xf32>
    %inserted_slice_448 = tensor.insert_slice %extracted_slice_446 into %11[0, 115] [1, 909] [1, 1] : tensor<1x909xf32> into tensor<1x1024xf32>
    %inserted_slice_449 = tensor.insert_slice %extracted_slice_447 into %inserted_slice_448[0, 0] [1, 115] [1, 1] : tensor<1x115xf32> into tensor<1x1024xf32>
    %extracted_slice_450 = tensor.extract_slice %0[122, 0] [1, 909] [1, 1] : tensor<512x1024xf32> to tensor<1x909xf32>
    %extracted_slice_451 = tensor.extract_slice %0[122, 909] [1, 115] [1, 1] : tensor<512x1024xf32> to tensor<1x115xf32>
    %inserted_slice_452 = tensor.insert_slice %extracted_slice_450 into %11[0, 115] [1, 909] [1, 1] : tensor<1x909xf32> into tensor<1x1024xf32>
    %inserted_slice_453 = tensor.insert_slice %extracted_slice_451 into %inserted_slice_452[0, 0] [1, 115] [1, 1] : tensor<1x115xf32> into tensor<1x1024xf32>
    %extracted_slice_454 = tensor.extract_slice %0[123, 0] [1, 909] [1, 1] : tensor<512x1024xf32> to tensor<1x909xf32>
    %extracted_slice_455 = tensor.extract_slice %0[123, 909] [1, 115] [1, 1] : tensor<512x1024xf32> to tensor<1x115xf32>
    %inserted_slice_456 = tensor.insert_slice %extracted_slice_454 into %11[0, 115] [1, 909] [1, 1] : tensor<1x909xf32> into tensor<1x1024xf32>
    %inserted_slice_457 = tensor.insert_slice %extracted_slice_455 into %inserted_slice_456[0, 0] [1, 115] [1, 1] : tensor<1x115xf32> into tensor<1x1024xf32>
    %extracted_slice_458 = tensor.extract_slice %0[124, 0] [1, 909] [1, 1] : tensor<512x1024xf32> to tensor<1x909xf32>
    %extracted_slice_459 = tensor.extract_slice %0[124, 909] [1, 115] [1, 1] : tensor<512x1024xf32> to tensor<1x115xf32>
    %inserted_slice_460 = tensor.insert_slice %extracted_slice_458 into %11[0, 115] [1, 909] [1, 1] : tensor<1x909xf32> into tensor<1x1024xf32>
    %inserted_slice_461 = tensor.insert_slice %extracted_slice_459 into %inserted_slice_460[0, 0] [1, 115] [1, 1] : tensor<1x115xf32> into tensor<1x1024xf32>
    %extracted_slice_462 = tensor.extract_slice %0[125, 0] [1, 909] [1, 1] : tensor<512x1024xf32> to tensor<1x909xf32>
    %extracted_slice_463 = tensor.extract_slice %0[125, 909] [1, 115] [1, 1] : tensor<512x1024xf32> to tensor<1x115xf32>
    %inserted_slice_464 = tensor.insert_slice %extracted_slice_462 into %11[0, 115] [1, 909] [1, 1] : tensor<1x909xf32> into tensor<1x1024xf32>
    %inserted_slice_465 = tensor.insert_slice %extracted_slice_463 into %inserted_slice_464[0, 0] [1, 115] [1, 1] : tensor<1x115xf32> into tensor<1x1024xf32>
    %extracted_slice_466 = tensor.extract_slice %0[126, 0] [1, 909] [1, 1] : tensor<512x1024xf32> to tensor<1x909xf32>
    %extracted_slice_467 = tensor.extract_slice %0[126, 909] [1, 115] [1, 1] : tensor<512x1024xf32> to tensor<1x115xf32>
    %inserted_slice_468 = tensor.insert_slice %extracted_slice_466 into %11[0, 115] [1, 909] [1, 1] : tensor<1x909xf32> into tensor<1x1024xf32>
    %inserted_slice_469 = tensor.insert_slice %extracted_slice_467 into %inserted_slice_468[0, 0] [1, 115] [1, 1] : tensor<1x115xf32> into tensor<1x1024xf32>
    %extracted_slice_470 = tensor.extract_slice %0[127, 0] [1, 909] [1, 1] : tensor<512x1024xf32> to tensor<1x909xf32>
    %extracted_slice_471 = tensor.extract_slice %0[127, 909] [1, 115] [1, 1] : tensor<512x1024xf32> to tensor<1x115xf32>
    %inserted_slice_472 = tensor.insert_slice %extracted_slice_470 into %11[0, 115] [1, 909] [1, 1] : tensor<1x909xf32> into tensor<1x1024xf32>
    %inserted_slice_473 = tensor.insert_slice %extracted_slice_471 into %inserted_slice_472[0, 0] [1, 115] [1, 1] : tensor<1x115xf32> into tensor<1x1024xf32>
    %extracted_slice_474 = tensor.extract_slice %0[128, 0] [1, 909] [1, 1] : tensor<512x1024xf32> to tensor<1x909xf32>
    %extracted_slice_475 = tensor.extract_slice %0[128, 909] [1, 115] [1, 1] : tensor<512x1024xf32> to tensor<1x115xf32>
    %inserted_slice_476 = tensor.insert_slice %extracted_slice_474 into %11[0, 115] [1, 909] [1, 1] : tensor<1x909xf32> into tensor<1x1024xf32>
    %inserted_slice_477 = tensor.insert_slice %extracted_slice_475 into %inserted_slice_476[0, 0] [1, 115] [1, 1] : tensor<1x115xf32> into tensor<1x1024xf32>
    %extracted_slice_478 = tensor.extract_slice %0[129, 0] [1, 909] [1, 1] : tensor<512x1024xf32> to tensor<1x909xf32>
    %extracted_slice_479 = tensor.extract_slice %0[129, 909] [1, 115] [1, 1] : tensor<512x1024xf32> to tensor<1x115xf32>
    %inserted_slice_480 = tensor.insert_slice %extracted_slice_478 into %11[0, 115] [1, 909] [1, 1] : tensor<1x909xf32> into tensor<1x1024xf32>
    %inserted_slice_481 = tensor.insert_slice %extracted_slice_479 into %inserted_slice_480[0, 0] [1, 115] [1, 1] : tensor<1x115xf32> into tensor<1x1024xf32>
    %extracted_slice_482 = tensor.extract_slice %0[130, 0] [1, 909] [1, 1] : tensor<512x1024xf32> to tensor<1x909xf32>
    %extracted_slice_483 = tensor.extract_slice %0[130, 909] [1, 115] [1, 1] : tensor<512x1024xf32> to tensor<1x115xf32>
    %inserted_slice_484 = tensor.insert_slice %extracted_slice_482 into %11[0, 115] [1, 909] [1, 1] : tensor<1x909xf32> into tensor<1x1024xf32>
    %inserted_slice_485 = tensor.insert_slice %extracted_slice_483 into %inserted_slice_484[0, 0] [1, 115] [1, 1] : tensor<1x115xf32> into tensor<1x1024xf32>
    %extracted_slice_486 = tensor.extract_slice %0[131, 0] [1, 909] [1, 1] : tensor<512x1024xf32> to tensor<1x909xf32>
    %extracted_slice_487 = tensor.extract_slice %0[131, 909] [1, 115] [1, 1] : tensor<512x1024xf32> to tensor<1x115xf32>
    %inserted_slice_488 = tensor.insert_slice %extracted_slice_486 into %11[0, 115] [1, 909] [1, 1] : tensor<1x909xf32> into tensor<1x1024xf32>
    %inserted_slice_489 = tensor.insert_slice %extracted_slice_487 into %inserted_slice_488[0, 0] [1, 115] [1, 1] : tensor<1x115xf32> into tensor<1x1024xf32>
    %extracted_slice_490 = tensor.extract_slice %0[132, 0] [1, 909] [1, 1] : tensor<512x1024xf32> to tensor<1x909xf32>
    %extracted_slice_491 = tensor.extract_slice %0[132, 909] [1, 115] [1, 1] : tensor<512x1024xf32> to tensor<1x115xf32>
    %inserted_slice_492 = tensor.insert_slice %extracted_slice_490 into %11[0, 115] [1, 909] [1, 1] : tensor<1x909xf32> into tensor<1x1024xf32>
    %inserted_slice_493 = tensor.insert_slice %extracted_slice_491 into %inserted_slice_492[0, 0] [1, 115] [1, 1] : tensor<1x115xf32> into tensor<1x1024xf32>
    %extracted_slice_494 = tensor.extract_slice %0[133, 0] [1, 909] [1, 1] : tensor<512x1024xf32> to tensor<1x909xf32>
    %extracted_slice_495 = tensor.extract_slice %0[133, 909] [1, 115] [1, 1] : tensor<512x1024xf32> to tensor<1x115xf32>
    %inserted_slice_496 = tensor.insert_slice %extracted_slice_494 into %11[0, 115] [1, 909] [1, 1] : tensor<1x909xf32> into tensor<1x1024xf32>
    %inserted_slice_497 = tensor.insert_slice %extracted_slice_495 into %inserted_slice_496[0, 0] [1, 115] [1, 1] : tensor<1x115xf32> into tensor<1x1024xf32>
    %extracted_slice_498 = tensor.extract_slice %0[134, 0] [1, 909] [1, 1] : tensor<512x1024xf32> to tensor<1x909xf32>
    %extracted_slice_499 = tensor.extract_slice %0[134, 909] [1, 115] [1, 1] : tensor<512x1024xf32> to tensor<1x115xf32>
    %inserted_slice_500 = tensor.insert_slice %extracted_slice_498 into %11[0, 115] [1, 909] [1, 1] : tensor<1x909xf32> into tensor<1x1024xf32>
    %inserted_slice_501 = tensor.insert_slice %extracted_slice_499 into %inserted_slice_500[0, 0] [1, 115] [1, 1] : tensor<1x115xf32> into tensor<1x1024xf32>
    %extracted_slice_502 = tensor.extract_slice %0[135, 0] [1, 909] [1, 1] : tensor<512x1024xf32> to tensor<1x909xf32>
    %extracted_slice_503 = tensor.extract_slice %0[135, 909] [1, 115] [1, 1] : tensor<512x1024xf32> to tensor<1x115xf32>
    %inserted_slice_504 = tensor.insert_slice %extracted_slice_502 into %11[0, 115] [1, 909] [1, 1] : tensor<1x909xf32> into tensor<1x1024xf32>
    %inserted_slice_505 = tensor.insert_slice %extracted_slice_503 into %inserted_slice_504[0, 0] [1, 115] [1, 1] : tensor<1x115xf32> into tensor<1x1024xf32>
    %extracted_slice_506 = tensor.extract_slice %0[136, 0] [1, 909] [1, 1] : tensor<512x1024xf32> to tensor<1x909xf32>
    %extracted_slice_507 = tensor.extract_slice %0[136, 909] [1, 115] [1, 1] : tensor<512x1024xf32> to tensor<1x115xf32>
    %inserted_slice_508 = tensor.insert_slice %extracted_slice_506 into %11[0, 115] [1, 909] [1, 1] : tensor<1x909xf32> into tensor<1x1024xf32>
    %inserted_slice_509 = tensor.insert_slice %extracted_slice_507 into %inserted_slice_508[0, 0] [1, 115] [1, 1] : tensor<1x115xf32> into tensor<1x1024xf32>
    %extracted_slice_510 = tensor.extract_slice %0[137, 0] [1, 909] [1, 1] : tensor<512x1024xf32> to tensor<1x909xf32>
    %extracted_slice_511 = tensor.extract_slice %0[137, 909] [1, 115] [1, 1] : tensor<512x1024xf32> to tensor<1x115xf32>
    %inserted_slice_512 = tensor.insert_slice %extracted_slice_510 into %11[0, 115] [1, 909] [1, 1] : tensor<1x909xf32> into tensor<1x1024xf32>
    %inserted_slice_513 = tensor.insert_slice %extracted_slice_511 into %inserted_slice_512[0, 0] [1, 115] [1, 1] : tensor<1x115xf32> into tensor<1x1024xf32>
    %extracted_slice_514 = tensor.extract_slice %0[138, 0] [1, 886] [1, 1] : tensor<512x1024xf32> to tensor<1x886xf32>
    %extracted_slice_515 = tensor.extract_slice %0[138, 886] [1, 138] [1, 1] : tensor<512x1024xf32> to tensor<1x138xf32>
    %inserted_slice_516 = tensor.insert_slice %extracted_slice_514 into %11[0, 138] [1, 886] [1, 1] : tensor<1x886xf32> into tensor<1x1024xf32>
    %inserted_slice_517 = tensor.insert_slice %extracted_slice_515 into %inserted_slice_516[0, 0] [1, 138] [1, 1] : tensor<1x138xf32> into tensor<1x1024xf32>
    %extracted_slice_518 = tensor.extract_slice %0[139, 0] [1, 886] [1, 1] : tensor<512x1024xf32> to tensor<1x886xf32>
    %extracted_slice_519 = tensor.extract_slice %0[139, 886] [1, 138] [1, 1] : tensor<512x1024xf32> to tensor<1x138xf32>
    %inserted_slice_520 = tensor.insert_slice %extracted_slice_518 into %11[0, 138] [1, 886] [1, 1] : tensor<1x886xf32> into tensor<1x1024xf32>
    %inserted_slice_521 = tensor.insert_slice %extracted_slice_519 into %inserted_slice_520[0, 0] [1, 138] [1, 1] : tensor<1x138xf32> into tensor<1x1024xf32>
    %extracted_slice_522 = tensor.extract_slice %0[140, 0] [1, 886] [1, 1] : tensor<512x1024xf32> to tensor<1x886xf32>
    %extracted_slice_523 = tensor.extract_slice %0[140, 886] [1, 138] [1, 1] : tensor<512x1024xf32> to tensor<1x138xf32>
    %inserted_slice_524 = tensor.insert_slice %extracted_slice_522 into %11[0, 138] [1, 886] [1, 1] : tensor<1x886xf32> into tensor<1x1024xf32>
    %inserted_slice_525 = tensor.insert_slice %extracted_slice_523 into %inserted_slice_524[0, 0] [1, 138] [1, 1] : tensor<1x138xf32> into tensor<1x1024xf32>
    %extracted_slice_526 = tensor.extract_slice %0[141, 0] [1, 886] [1, 1] : tensor<512x1024xf32> to tensor<1x886xf32>
    %extracted_slice_527 = tensor.extract_slice %0[141, 886] [1, 138] [1, 1] : tensor<512x1024xf32> to tensor<1x138xf32>
    %inserted_slice_528 = tensor.insert_slice %extracted_slice_526 into %11[0, 138] [1, 886] [1, 1] : tensor<1x886xf32> into tensor<1x1024xf32>
    %inserted_slice_529 = tensor.insert_slice %extracted_slice_527 into %inserted_slice_528[0, 0] [1, 138] [1, 1] : tensor<1x138xf32> into tensor<1x1024xf32>
    %extracted_slice_530 = tensor.extract_slice %0[142, 0] [1, 886] [1, 1] : tensor<512x1024xf32> to tensor<1x886xf32>
    %extracted_slice_531 = tensor.extract_slice %0[142, 886] [1, 138] [1, 1] : tensor<512x1024xf32> to tensor<1x138xf32>
    %inserted_slice_532 = tensor.insert_slice %extracted_slice_530 into %11[0, 138] [1, 886] [1, 1] : tensor<1x886xf32> into tensor<1x1024xf32>
    %inserted_slice_533 = tensor.insert_slice %extracted_slice_531 into %inserted_slice_532[0, 0] [1, 138] [1, 1] : tensor<1x138xf32> into tensor<1x1024xf32>
    %extracted_slice_534 = tensor.extract_slice %0[143, 0] [1, 886] [1, 1] : tensor<512x1024xf32> to tensor<1x886xf32>
    %extracted_slice_535 = tensor.extract_slice %0[143, 886] [1, 138] [1, 1] : tensor<512x1024xf32> to tensor<1x138xf32>
    %inserted_slice_536 = tensor.insert_slice %extracted_slice_534 into %11[0, 138] [1, 886] [1, 1] : tensor<1x886xf32> into tensor<1x1024xf32>
    %inserted_slice_537 = tensor.insert_slice %extracted_slice_535 into %inserted_slice_536[0, 0] [1, 138] [1, 1] : tensor<1x138xf32> into tensor<1x1024xf32>
    %extracted_slice_538 = tensor.extract_slice %0[144, 0] [1, 886] [1, 1] : tensor<512x1024xf32> to tensor<1x886xf32>
    %extracted_slice_539 = tensor.extract_slice %0[144, 886] [1, 138] [1, 1] : tensor<512x1024xf32> to tensor<1x138xf32>
    %inserted_slice_540 = tensor.insert_slice %extracted_slice_538 into %11[0, 138] [1, 886] [1, 1] : tensor<1x886xf32> into tensor<1x1024xf32>
    %inserted_slice_541 = tensor.insert_slice %extracted_slice_539 into %inserted_slice_540[0, 0] [1, 138] [1, 1] : tensor<1x138xf32> into tensor<1x1024xf32>
    %extracted_slice_542 = tensor.extract_slice %0[145, 0] [1, 886] [1, 1] : tensor<512x1024xf32> to tensor<1x886xf32>
    %extracted_slice_543 = tensor.extract_slice %0[145, 886] [1, 138] [1, 1] : tensor<512x1024xf32> to tensor<1x138xf32>
    %inserted_slice_544 = tensor.insert_slice %extracted_slice_542 into %11[0, 138] [1, 886] [1, 1] : tensor<1x886xf32> into tensor<1x1024xf32>
    %inserted_slice_545 = tensor.insert_slice %extracted_slice_543 into %inserted_slice_544[0, 0] [1, 138] [1, 1] : tensor<1x138xf32> into tensor<1x1024xf32>
    %extracted_slice_546 = tensor.extract_slice %0[146, 0] [1, 886] [1, 1] : tensor<512x1024xf32> to tensor<1x886xf32>
    %extracted_slice_547 = tensor.extract_slice %0[146, 886] [1, 138] [1, 1] : tensor<512x1024xf32> to tensor<1x138xf32>
    %inserted_slice_548 = tensor.insert_slice %extracted_slice_546 into %11[0, 138] [1, 886] [1, 1] : tensor<1x886xf32> into tensor<1x1024xf32>
    %inserted_slice_549 = tensor.insert_slice %extracted_slice_547 into %inserted_slice_548[0, 0] [1, 138] [1, 1] : tensor<1x138xf32> into tensor<1x1024xf32>
    %extracted_slice_550 = tensor.extract_slice %0[147, 0] [1, 886] [1, 1] : tensor<512x1024xf32> to tensor<1x886xf32>
    %extracted_slice_551 = tensor.extract_slice %0[147, 886] [1, 138] [1, 1] : tensor<512x1024xf32> to tensor<1x138xf32>
    %inserted_slice_552 = tensor.insert_slice %extracted_slice_550 into %11[0, 138] [1, 886] [1, 1] : tensor<1x886xf32> into tensor<1x1024xf32>
    %inserted_slice_553 = tensor.insert_slice %extracted_slice_551 into %inserted_slice_552[0, 0] [1, 138] [1, 1] : tensor<1x138xf32> into tensor<1x1024xf32>
    %extracted_slice_554 = tensor.extract_slice %0[148, 0] [1, 886] [1, 1] : tensor<512x1024xf32> to tensor<1x886xf32>
    %extracted_slice_555 = tensor.extract_slice %0[148, 886] [1, 138] [1, 1] : tensor<512x1024xf32> to tensor<1x138xf32>
    %inserted_slice_556 = tensor.insert_slice %extracted_slice_554 into %11[0, 138] [1, 886] [1, 1] : tensor<1x886xf32> into tensor<1x1024xf32>
    %inserted_slice_557 = tensor.insert_slice %extracted_slice_555 into %inserted_slice_556[0, 0] [1, 138] [1, 1] : tensor<1x138xf32> into tensor<1x1024xf32>
    %extracted_slice_558 = tensor.extract_slice %0[149, 0] [1, 886] [1, 1] : tensor<512x1024xf32> to tensor<1x886xf32>
    %extracted_slice_559 = tensor.extract_slice %0[149, 886] [1, 138] [1, 1] : tensor<512x1024xf32> to tensor<1x138xf32>
    %inserted_slice_560 = tensor.insert_slice %extracted_slice_558 into %11[0, 138] [1, 886] [1, 1] : tensor<1x886xf32> into tensor<1x1024xf32>
    %inserted_slice_561 = tensor.insert_slice %extracted_slice_559 into %inserted_slice_560[0, 0] [1, 138] [1, 1] : tensor<1x138xf32> into tensor<1x1024xf32>
    %extracted_slice_562 = tensor.extract_slice %0[150, 0] [1, 886] [1, 1] : tensor<512x1024xf32> to tensor<1x886xf32>
    %extracted_slice_563 = tensor.extract_slice %0[150, 886] [1, 138] [1, 1] : tensor<512x1024xf32> to tensor<1x138xf32>
    %inserted_slice_564 = tensor.insert_slice %extracted_slice_562 into %11[0, 138] [1, 886] [1, 1] : tensor<1x886xf32> into tensor<1x1024xf32>
    %inserted_slice_565 = tensor.insert_slice %extracted_slice_563 into %inserted_slice_564[0, 0] [1, 138] [1, 1] : tensor<1x138xf32> into tensor<1x1024xf32>
    %extracted_slice_566 = tensor.extract_slice %0[151, 0] [1, 886] [1, 1] : tensor<512x1024xf32> to tensor<1x886xf32>
    %extracted_slice_567 = tensor.extract_slice %0[151, 886] [1, 138] [1, 1] : tensor<512x1024xf32> to tensor<1x138xf32>
    %inserted_slice_568 = tensor.insert_slice %extracted_slice_566 into %11[0, 138] [1, 886] [1, 1] : tensor<1x886xf32> into tensor<1x1024xf32>
    %inserted_slice_569 = tensor.insert_slice %extracted_slice_567 into %inserted_slice_568[0, 0] [1, 138] [1, 1] : tensor<1x138xf32> into tensor<1x1024xf32>
    %extracted_slice_570 = tensor.extract_slice %0[152, 0] [1, 886] [1, 1] : tensor<512x1024xf32> to tensor<1x886xf32>
    %extracted_slice_571 = tensor.extract_slice %0[152, 886] [1, 138] [1, 1] : tensor<512x1024xf32> to tensor<1x138xf32>
    %inserted_slice_572 = tensor.insert_slice %extracted_slice_570 into %11[0, 138] [1, 886] [1, 1] : tensor<1x886xf32> into tensor<1x1024xf32>
    %inserted_slice_573 = tensor.insert_slice %extracted_slice_571 into %inserted_slice_572[0, 0] [1, 138] [1, 1] : tensor<1x138xf32> into tensor<1x1024xf32>
    %extracted_slice_574 = tensor.extract_slice %0[153, 0] [1, 886] [1, 1] : tensor<512x1024xf32> to tensor<1x886xf32>
    %extracted_slice_575 = tensor.extract_slice %0[153, 886] [1, 138] [1, 1] : tensor<512x1024xf32> to tensor<1x138xf32>
    %inserted_slice_576 = tensor.insert_slice %extracted_slice_574 into %11[0, 138] [1, 886] [1, 1] : tensor<1x886xf32> into tensor<1x1024xf32>
    %inserted_slice_577 = tensor.insert_slice %extracted_slice_575 into %inserted_slice_576[0, 0] [1, 138] [1, 1] : tensor<1x138xf32> into tensor<1x1024xf32>
    %extracted_slice_578 = tensor.extract_slice %0[154, 0] [1, 886] [1, 1] : tensor<512x1024xf32> to tensor<1x886xf32>
    %extracted_slice_579 = tensor.extract_slice %0[154, 886] [1, 138] [1, 1] : tensor<512x1024xf32> to tensor<1x138xf32>
    %inserted_slice_580 = tensor.insert_slice %extracted_slice_578 into %11[0, 138] [1, 886] [1, 1] : tensor<1x886xf32> into tensor<1x1024xf32>
    %inserted_slice_581 = tensor.insert_slice %extracted_slice_579 into %inserted_slice_580[0, 0] [1, 138] [1, 1] : tensor<1x138xf32> into tensor<1x1024xf32>
    %extracted_slice_582 = tensor.extract_slice %0[155, 0] [1, 886] [1, 1] : tensor<512x1024xf32> to tensor<1x886xf32>
    %extracted_slice_583 = tensor.extract_slice %0[155, 886] [1, 138] [1, 1] : tensor<512x1024xf32> to tensor<1x138xf32>
    %inserted_slice_584 = tensor.insert_slice %extracted_slice_582 into %11[0, 138] [1, 886] [1, 1] : tensor<1x886xf32> into tensor<1x1024xf32>
    %inserted_slice_585 = tensor.insert_slice %extracted_slice_583 into %inserted_slice_584[0, 0] [1, 138] [1, 1] : tensor<1x138xf32> into tensor<1x1024xf32>
    %extracted_slice_586 = tensor.extract_slice %0[156, 0] [1, 886] [1, 1] : tensor<512x1024xf32> to tensor<1x886xf32>
    %extracted_slice_587 = tensor.extract_slice %0[156, 886] [1, 138] [1, 1] : tensor<512x1024xf32> to tensor<1x138xf32>
    %inserted_slice_588 = tensor.insert_slice %extracted_slice_586 into %11[0, 138] [1, 886] [1, 1] : tensor<1x886xf32> into tensor<1x1024xf32>
    %inserted_slice_589 = tensor.insert_slice %extracted_slice_587 into %inserted_slice_588[0, 0] [1, 138] [1, 1] : tensor<1x138xf32> into tensor<1x1024xf32>
    %extracted_slice_590 = tensor.extract_slice %0[157, 0] [1, 886] [1, 1] : tensor<512x1024xf32> to tensor<1x886xf32>
    %extracted_slice_591 = tensor.extract_slice %0[157, 886] [1, 138] [1, 1] : tensor<512x1024xf32> to tensor<1x138xf32>
    %inserted_slice_592 = tensor.insert_slice %extracted_slice_590 into %11[0, 138] [1, 886] [1, 1] : tensor<1x886xf32> into tensor<1x1024xf32>
    %inserted_slice_593 = tensor.insert_slice %extracted_slice_591 into %inserted_slice_592[0, 0] [1, 138] [1, 1] : tensor<1x138xf32> into tensor<1x1024xf32>
    %extracted_slice_594 = tensor.extract_slice %0[158, 0] [1, 886] [1, 1] : tensor<512x1024xf32> to tensor<1x886xf32>
    %extracted_slice_595 = tensor.extract_slice %0[158, 886] [1, 138] [1, 1] : tensor<512x1024xf32> to tensor<1x138xf32>
    %inserted_slice_596 = tensor.insert_slice %extracted_slice_594 into %11[0, 138] [1, 886] [1, 1] : tensor<1x886xf32> into tensor<1x1024xf32>
    %inserted_slice_597 = tensor.insert_slice %extracted_slice_595 into %inserted_slice_596[0, 0] [1, 138] [1, 1] : tensor<1x138xf32> into tensor<1x1024xf32>
    %extracted_slice_598 = tensor.extract_slice %0[159, 0] [1, 886] [1, 1] : tensor<512x1024xf32> to tensor<1x886xf32>
    %extracted_slice_599 = tensor.extract_slice %0[159, 886] [1, 138] [1, 1] : tensor<512x1024xf32> to tensor<1x138xf32>
    %inserted_slice_600 = tensor.insert_slice %extracted_slice_598 into %11[0, 138] [1, 886] [1, 1] : tensor<1x886xf32> into tensor<1x1024xf32>
    %inserted_slice_601 = tensor.insert_slice %extracted_slice_599 into %inserted_slice_600[0, 0] [1, 138] [1, 1] : tensor<1x138xf32> into tensor<1x1024xf32>
    %extracted_slice_602 = tensor.extract_slice %0[160, 0] [1, 886] [1, 1] : tensor<512x1024xf32> to tensor<1x886xf32>
    %extracted_slice_603 = tensor.extract_slice %0[160, 886] [1, 138] [1, 1] : tensor<512x1024xf32> to tensor<1x138xf32>
    %inserted_slice_604 = tensor.insert_slice %extracted_slice_602 into %11[0, 138] [1, 886] [1, 1] : tensor<1x886xf32> into tensor<1x1024xf32>
    %inserted_slice_605 = tensor.insert_slice %extracted_slice_603 into %inserted_slice_604[0, 0] [1, 138] [1, 1] : tensor<1x138xf32> into tensor<1x1024xf32>
    %extracted_slice_606 = tensor.extract_slice %0[161, 0] [1, 863] [1, 1] : tensor<512x1024xf32> to tensor<1x863xf32>
    %extracted_slice_607 = tensor.extract_slice %0[161, 863] [1, 161] [1, 1] : tensor<512x1024xf32> to tensor<1x161xf32>
    %inserted_slice_608 = tensor.insert_slice %extracted_slice_606 into %11[0, 161] [1, 863] [1, 1] : tensor<1x863xf32> into tensor<1x1024xf32>
    %inserted_slice_609 = tensor.insert_slice %extracted_slice_607 into %inserted_slice_608[0, 0] [1, 161] [1, 1] : tensor<1x161xf32> into tensor<1x1024xf32>
    %extracted_slice_610 = tensor.extract_slice %0[162, 0] [1, 863] [1, 1] : tensor<512x1024xf32> to tensor<1x863xf32>
    %extracted_slice_611 = tensor.extract_slice %0[162, 863] [1, 161] [1, 1] : tensor<512x1024xf32> to tensor<1x161xf32>
    %inserted_slice_612 = tensor.insert_slice %extracted_slice_610 into %11[0, 161] [1, 863] [1, 1] : tensor<1x863xf32> into tensor<1x1024xf32>
    %inserted_slice_613 = tensor.insert_slice %extracted_slice_611 into %inserted_slice_612[0, 0] [1, 161] [1, 1] : tensor<1x161xf32> into tensor<1x1024xf32>
    %extracted_slice_614 = tensor.extract_slice %0[163, 0] [1, 863] [1, 1] : tensor<512x1024xf32> to tensor<1x863xf32>
    %extracted_slice_615 = tensor.extract_slice %0[163, 863] [1, 161] [1, 1] : tensor<512x1024xf32> to tensor<1x161xf32>
    %inserted_slice_616 = tensor.insert_slice %extracted_slice_614 into %11[0, 161] [1, 863] [1, 1] : tensor<1x863xf32> into tensor<1x1024xf32>
    %inserted_slice_617 = tensor.insert_slice %extracted_slice_615 into %inserted_slice_616[0, 0] [1, 161] [1, 1] : tensor<1x161xf32> into tensor<1x1024xf32>
    %extracted_slice_618 = tensor.extract_slice %0[164, 0] [1, 863] [1, 1] : tensor<512x1024xf32> to tensor<1x863xf32>
    %extracted_slice_619 = tensor.extract_slice %0[164, 863] [1, 161] [1, 1] : tensor<512x1024xf32> to tensor<1x161xf32>
    %inserted_slice_620 = tensor.insert_slice %extracted_slice_618 into %11[0, 161] [1, 863] [1, 1] : tensor<1x863xf32> into tensor<1x1024xf32>
    %inserted_slice_621 = tensor.insert_slice %extracted_slice_619 into %inserted_slice_620[0, 0] [1, 161] [1, 1] : tensor<1x161xf32> into tensor<1x1024xf32>
    %extracted_slice_622 = tensor.extract_slice %0[165, 0] [1, 863] [1, 1] : tensor<512x1024xf32> to tensor<1x863xf32>
    %extracted_slice_623 = tensor.extract_slice %0[165, 863] [1, 161] [1, 1] : tensor<512x1024xf32> to tensor<1x161xf32>
    %inserted_slice_624 = tensor.insert_slice %extracted_slice_622 into %11[0, 161] [1, 863] [1, 1] : tensor<1x863xf32> into tensor<1x1024xf32>
    %inserted_slice_625 = tensor.insert_slice %extracted_slice_623 into %inserted_slice_624[0, 0] [1, 161] [1, 1] : tensor<1x161xf32> into tensor<1x1024xf32>
    %extracted_slice_626 = tensor.extract_slice %0[166, 0] [1, 863] [1, 1] : tensor<512x1024xf32> to tensor<1x863xf32>
    %extracted_slice_627 = tensor.extract_slice %0[166, 863] [1, 161] [1, 1] : tensor<512x1024xf32> to tensor<1x161xf32>
    %inserted_slice_628 = tensor.insert_slice %extracted_slice_626 into %11[0, 161] [1, 863] [1, 1] : tensor<1x863xf32> into tensor<1x1024xf32>
    %inserted_slice_629 = tensor.insert_slice %extracted_slice_627 into %inserted_slice_628[0, 0] [1, 161] [1, 1] : tensor<1x161xf32> into tensor<1x1024xf32>
    %extracted_slice_630 = tensor.extract_slice %0[167, 0] [1, 863] [1, 1] : tensor<512x1024xf32> to tensor<1x863xf32>
    %extracted_slice_631 = tensor.extract_slice %0[167, 863] [1, 161] [1, 1] : tensor<512x1024xf32> to tensor<1x161xf32>
    %inserted_slice_632 = tensor.insert_slice %extracted_slice_630 into %11[0, 161] [1, 863] [1, 1] : tensor<1x863xf32> into tensor<1x1024xf32>
    %inserted_slice_633 = tensor.insert_slice %extracted_slice_631 into %inserted_slice_632[0, 0] [1, 161] [1, 1] : tensor<1x161xf32> into tensor<1x1024xf32>
    %extracted_slice_634 = tensor.extract_slice %0[168, 0] [1, 863] [1, 1] : tensor<512x1024xf32> to tensor<1x863xf32>
    %extracted_slice_635 = tensor.extract_slice %0[168, 863] [1, 161] [1, 1] : tensor<512x1024xf32> to tensor<1x161xf32>
    %inserted_slice_636 = tensor.insert_slice %extracted_slice_634 into %11[0, 161] [1, 863] [1, 1] : tensor<1x863xf32> into tensor<1x1024xf32>
    %inserted_slice_637 = tensor.insert_slice %extracted_slice_635 into %inserted_slice_636[0, 0] [1, 161] [1, 1] : tensor<1x161xf32> into tensor<1x1024xf32>
    %extracted_slice_638 = tensor.extract_slice %0[169, 0] [1, 863] [1, 1] : tensor<512x1024xf32> to tensor<1x863xf32>
    %extracted_slice_639 = tensor.extract_slice %0[169, 863] [1, 161] [1, 1] : tensor<512x1024xf32> to tensor<1x161xf32>
    %inserted_slice_640 = tensor.insert_slice %extracted_slice_638 into %11[0, 161] [1, 863] [1, 1] : tensor<1x863xf32> into tensor<1x1024xf32>
    %inserted_slice_641 = tensor.insert_slice %extracted_slice_639 into %inserted_slice_640[0, 0] [1, 161] [1, 1] : tensor<1x161xf32> into tensor<1x1024xf32>
    %extracted_slice_642 = tensor.extract_slice %0[170, 0] [1, 863] [1, 1] : tensor<512x1024xf32> to tensor<1x863xf32>
    %extracted_slice_643 = tensor.extract_slice %0[170, 863] [1, 161] [1, 1] : tensor<512x1024xf32> to tensor<1x161xf32>
    %inserted_slice_644 = tensor.insert_slice %extracted_slice_642 into %11[0, 161] [1, 863] [1, 1] : tensor<1x863xf32> into tensor<1x1024xf32>
    %inserted_slice_645 = tensor.insert_slice %extracted_slice_643 into %inserted_slice_644[0, 0] [1, 161] [1, 1] : tensor<1x161xf32> into tensor<1x1024xf32>
    %extracted_slice_646 = tensor.extract_slice %0[171, 0] [1, 863] [1, 1] : tensor<512x1024xf32> to tensor<1x863xf32>
    %extracted_slice_647 = tensor.extract_slice %0[171, 863] [1, 161] [1, 1] : tensor<512x1024xf32> to tensor<1x161xf32>
    %inserted_slice_648 = tensor.insert_slice %extracted_slice_646 into %11[0, 161] [1, 863] [1, 1] : tensor<1x863xf32> into tensor<1x1024xf32>
    %inserted_slice_649 = tensor.insert_slice %extracted_slice_647 into %inserted_slice_648[0, 0] [1, 161] [1, 1] : tensor<1x161xf32> into tensor<1x1024xf32>
    %extracted_slice_650 = tensor.extract_slice %0[172, 0] [1, 863] [1, 1] : tensor<512x1024xf32> to tensor<1x863xf32>
    %extracted_slice_651 = tensor.extract_slice %0[172, 863] [1, 161] [1, 1] : tensor<512x1024xf32> to tensor<1x161xf32>
    %inserted_slice_652 = tensor.insert_slice %extracted_slice_650 into %11[0, 161] [1, 863] [1, 1] : tensor<1x863xf32> into tensor<1x1024xf32>
    %inserted_slice_653 = tensor.insert_slice %extracted_slice_651 into %inserted_slice_652[0, 0] [1, 161] [1, 1] : tensor<1x161xf32> into tensor<1x1024xf32>
    %extracted_slice_654 = tensor.extract_slice %0[173, 0] [1, 863] [1, 1] : tensor<512x1024xf32> to tensor<1x863xf32>
    %extracted_slice_655 = tensor.extract_slice %0[173, 863] [1, 161] [1, 1] : tensor<512x1024xf32> to tensor<1x161xf32>
    %inserted_slice_656 = tensor.insert_slice %extracted_slice_654 into %11[0, 161] [1, 863] [1, 1] : tensor<1x863xf32> into tensor<1x1024xf32>
    %inserted_slice_657 = tensor.insert_slice %extracted_slice_655 into %inserted_slice_656[0, 0] [1, 161] [1, 1] : tensor<1x161xf32> into tensor<1x1024xf32>
    %extracted_slice_658 = tensor.extract_slice %0[174, 0] [1, 863] [1, 1] : tensor<512x1024xf32> to tensor<1x863xf32>
    %extracted_slice_659 = tensor.extract_slice %0[174, 863] [1, 161] [1, 1] : tensor<512x1024xf32> to tensor<1x161xf32>
    %inserted_slice_660 = tensor.insert_slice %extracted_slice_658 into %11[0, 161] [1, 863] [1, 1] : tensor<1x863xf32> into tensor<1x1024xf32>
    %inserted_slice_661 = tensor.insert_slice %extracted_slice_659 into %inserted_slice_660[0, 0] [1, 161] [1, 1] : tensor<1x161xf32> into tensor<1x1024xf32>
    %extracted_slice_662 = tensor.extract_slice %0[175, 0] [1, 863] [1, 1] : tensor<512x1024xf32> to tensor<1x863xf32>
    %extracted_slice_663 = tensor.extract_slice %0[175, 863] [1, 161] [1, 1] : tensor<512x1024xf32> to tensor<1x161xf32>
    %inserted_slice_664 = tensor.insert_slice %extracted_slice_662 into %11[0, 161] [1, 863] [1, 1] : tensor<1x863xf32> into tensor<1x1024xf32>
    %inserted_slice_665 = tensor.insert_slice %extracted_slice_663 into %inserted_slice_664[0, 0] [1, 161] [1, 1] : tensor<1x161xf32> into tensor<1x1024xf32>
    %extracted_slice_666 = tensor.extract_slice %0[176, 0] [1, 863] [1, 1] : tensor<512x1024xf32> to tensor<1x863xf32>
    %extracted_slice_667 = tensor.extract_slice %0[176, 863] [1, 161] [1, 1] : tensor<512x1024xf32> to tensor<1x161xf32>
    %inserted_slice_668 = tensor.insert_slice %extracted_slice_666 into %11[0, 161] [1, 863] [1, 1] : tensor<1x863xf32> into tensor<1x1024xf32>
    %inserted_slice_669 = tensor.insert_slice %extracted_slice_667 into %inserted_slice_668[0, 0] [1, 161] [1, 1] : tensor<1x161xf32> into tensor<1x1024xf32>
    %extracted_slice_670 = tensor.extract_slice %0[177, 0] [1, 863] [1, 1] : tensor<512x1024xf32> to tensor<1x863xf32>
    %extracted_slice_671 = tensor.extract_slice %0[177, 863] [1, 161] [1, 1] : tensor<512x1024xf32> to tensor<1x161xf32>
    %inserted_slice_672 = tensor.insert_slice %extracted_slice_670 into %11[0, 161] [1, 863] [1, 1] : tensor<1x863xf32> into tensor<1x1024xf32>
    %inserted_slice_673 = tensor.insert_slice %extracted_slice_671 into %inserted_slice_672[0, 0] [1, 161] [1, 1] : tensor<1x161xf32> into tensor<1x1024xf32>
    %extracted_slice_674 = tensor.extract_slice %0[178, 0] [1, 863] [1, 1] : tensor<512x1024xf32> to tensor<1x863xf32>
    %extracted_slice_675 = tensor.extract_slice %0[178, 863] [1, 161] [1, 1] : tensor<512x1024xf32> to tensor<1x161xf32>
    %inserted_slice_676 = tensor.insert_slice %extracted_slice_674 into %11[0, 161] [1, 863] [1, 1] : tensor<1x863xf32> into tensor<1x1024xf32>
    %inserted_slice_677 = tensor.insert_slice %extracted_slice_675 into %inserted_slice_676[0, 0] [1, 161] [1, 1] : tensor<1x161xf32> into tensor<1x1024xf32>
    %extracted_slice_678 = tensor.extract_slice %0[179, 0] [1, 863] [1, 1] : tensor<512x1024xf32> to tensor<1x863xf32>
    %extracted_slice_679 = tensor.extract_slice %0[179, 863] [1, 161] [1, 1] : tensor<512x1024xf32> to tensor<1x161xf32>
    %inserted_slice_680 = tensor.insert_slice %extracted_slice_678 into %11[0, 161] [1, 863] [1, 1] : tensor<1x863xf32> into tensor<1x1024xf32>
    %inserted_slice_681 = tensor.insert_slice %extracted_slice_679 into %inserted_slice_680[0, 0] [1, 161] [1, 1] : tensor<1x161xf32> into tensor<1x1024xf32>
    %extracted_slice_682 = tensor.extract_slice %0[180, 0] [1, 863] [1, 1] : tensor<512x1024xf32> to tensor<1x863xf32>
    %extracted_slice_683 = tensor.extract_slice %0[180, 863] [1, 161] [1, 1] : tensor<512x1024xf32> to tensor<1x161xf32>
    %inserted_slice_684 = tensor.insert_slice %extracted_slice_682 into %11[0, 161] [1, 863] [1, 1] : tensor<1x863xf32> into tensor<1x1024xf32>
    %inserted_slice_685 = tensor.insert_slice %extracted_slice_683 into %inserted_slice_684[0, 0] [1, 161] [1, 1] : tensor<1x161xf32> into tensor<1x1024xf32>
    %extracted_slice_686 = tensor.extract_slice %0[181, 0] [1, 863] [1, 1] : tensor<512x1024xf32> to tensor<1x863xf32>
    %extracted_slice_687 = tensor.extract_slice %0[181, 863] [1, 161] [1, 1] : tensor<512x1024xf32> to tensor<1x161xf32>
    %inserted_slice_688 = tensor.insert_slice %extracted_slice_686 into %11[0, 161] [1, 863] [1, 1] : tensor<1x863xf32> into tensor<1x1024xf32>
    %inserted_slice_689 = tensor.insert_slice %extracted_slice_687 into %inserted_slice_688[0, 0] [1, 161] [1, 1] : tensor<1x161xf32> into tensor<1x1024xf32>
    %extracted_slice_690 = tensor.extract_slice %0[182, 0] [1, 863] [1, 1] : tensor<512x1024xf32> to tensor<1x863xf32>
    %extracted_slice_691 = tensor.extract_slice %0[182, 863] [1, 161] [1, 1] : tensor<512x1024xf32> to tensor<1x161xf32>
    %inserted_slice_692 = tensor.insert_slice %extracted_slice_690 into %11[0, 161] [1, 863] [1, 1] : tensor<1x863xf32> into tensor<1x1024xf32>
    %inserted_slice_693 = tensor.insert_slice %extracted_slice_691 into %inserted_slice_692[0, 0] [1, 161] [1, 1] : tensor<1x161xf32> into tensor<1x1024xf32>
    %extracted_slice_694 = tensor.extract_slice %0[183, 0] [1, 863] [1, 1] : tensor<512x1024xf32> to tensor<1x863xf32>
    %extracted_slice_695 = tensor.extract_slice %0[183, 863] [1, 161] [1, 1] : tensor<512x1024xf32> to tensor<1x161xf32>
    %inserted_slice_696 = tensor.insert_slice %extracted_slice_694 into %11[0, 161] [1, 863] [1, 1] : tensor<1x863xf32> into tensor<1x1024xf32>
    %inserted_slice_697 = tensor.insert_slice %extracted_slice_695 into %inserted_slice_696[0, 0] [1, 161] [1, 1] : tensor<1x161xf32> into tensor<1x1024xf32>
    %extracted_slice_698 = tensor.extract_slice %0[184, 0] [1, 840] [1, 1] : tensor<512x1024xf32> to tensor<1x840xf32>
    %extracted_slice_699 = tensor.extract_slice %0[184, 840] [1, 184] [1, 1] : tensor<512x1024xf32> to tensor<1x184xf32>
    %inserted_slice_700 = tensor.insert_slice %extracted_slice_698 into %11[0, 184] [1, 840] [1, 1] : tensor<1x840xf32> into tensor<1x1024xf32>
    %inserted_slice_701 = tensor.insert_slice %extracted_slice_699 into %inserted_slice_700[0, 0] [1, 184] [1, 1] : tensor<1x184xf32> into tensor<1x1024xf32>
    %extracted_slice_702 = tensor.extract_slice %0[185, 0] [1, 840] [1, 1] : tensor<512x1024xf32> to tensor<1x840xf32>
    %extracted_slice_703 = tensor.extract_slice %0[185, 840] [1, 184] [1, 1] : tensor<512x1024xf32> to tensor<1x184xf32>
    %inserted_slice_704 = tensor.insert_slice %extracted_slice_702 into %11[0, 184] [1, 840] [1, 1] : tensor<1x840xf32> into tensor<1x1024xf32>
    %inserted_slice_705 = tensor.insert_slice %extracted_slice_703 into %inserted_slice_704[0, 0] [1, 184] [1, 1] : tensor<1x184xf32> into tensor<1x1024xf32>
    %extracted_slice_706 = tensor.extract_slice %0[186, 0] [1, 840] [1, 1] : tensor<512x1024xf32> to tensor<1x840xf32>
    %extracted_slice_707 = tensor.extract_slice %0[186, 840] [1, 184] [1, 1] : tensor<512x1024xf32> to tensor<1x184xf32>
    %inserted_slice_708 = tensor.insert_slice %extracted_slice_706 into %11[0, 184] [1, 840] [1, 1] : tensor<1x840xf32> into tensor<1x1024xf32>
    %inserted_slice_709 = tensor.insert_slice %extracted_slice_707 into %inserted_slice_708[0, 0] [1, 184] [1, 1] : tensor<1x184xf32> into tensor<1x1024xf32>
    %extracted_slice_710 = tensor.extract_slice %0[187, 0] [1, 840] [1, 1] : tensor<512x1024xf32> to tensor<1x840xf32>
    %extracted_slice_711 = tensor.extract_slice %0[187, 840] [1, 184] [1, 1] : tensor<512x1024xf32> to tensor<1x184xf32>
    %inserted_slice_712 = tensor.insert_slice %extracted_slice_710 into %11[0, 184] [1, 840] [1, 1] : tensor<1x840xf32> into tensor<1x1024xf32>
    %inserted_slice_713 = tensor.insert_slice %extracted_slice_711 into %inserted_slice_712[0, 0] [1, 184] [1, 1] : tensor<1x184xf32> into tensor<1x1024xf32>
    %extracted_slice_714 = tensor.extract_slice %0[188, 0] [1, 840] [1, 1] : tensor<512x1024xf32> to tensor<1x840xf32>
    %extracted_slice_715 = tensor.extract_slice %0[188, 840] [1, 184] [1, 1] : tensor<512x1024xf32> to tensor<1x184xf32>
    %inserted_slice_716 = tensor.insert_slice %extracted_slice_714 into %11[0, 184] [1, 840] [1, 1] : tensor<1x840xf32> into tensor<1x1024xf32>
    %inserted_slice_717 = tensor.insert_slice %extracted_slice_715 into %inserted_slice_716[0, 0] [1, 184] [1, 1] : tensor<1x184xf32> into tensor<1x1024xf32>
    %extracted_slice_718 = tensor.extract_slice %0[189, 0] [1, 840] [1, 1] : tensor<512x1024xf32> to tensor<1x840xf32>
    %extracted_slice_719 = tensor.extract_slice %0[189, 840] [1, 184] [1, 1] : tensor<512x1024xf32> to tensor<1x184xf32>
    %inserted_slice_720 = tensor.insert_slice %extracted_slice_718 into %11[0, 184] [1, 840] [1, 1] : tensor<1x840xf32> into tensor<1x1024xf32>
    %inserted_slice_721 = tensor.insert_slice %extracted_slice_719 into %inserted_slice_720[0, 0] [1, 184] [1, 1] : tensor<1x184xf32> into tensor<1x1024xf32>
    %extracted_slice_722 = tensor.extract_slice %0[190, 0] [1, 840] [1, 1] : tensor<512x1024xf32> to tensor<1x840xf32>
    %extracted_slice_723 = tensor.extract_slice %0[190, 840] [1, 184] [1, 1] : tensor<512x1024xf32> to tensor<1x184xf32>
    %inserted_slice_724 = tensor.insert_slice %extracted_slice_722 into %11[0, 184] [1, 840] [1, 1] : tensor<1x840xf32> into tensor<1x1024xf32>
    %inserted_slice_725 = tensor.insert_slice %extracted_slice_723 into %inserted_slice_724[0, 0] [1, 184] [1, 1] : tensor<1x184xf32> into tensor<1x1024xf32>
    %extracted_slice_726 = tensor.extract_slice %0[191, 0] [1, 840] [1, 1] : tensor<512x1024xf32> to tensor<1x840xf32>
    %extracted_slice_727 = tensor.extract_slice %0[191, 840] [1, 184] [1, 1] : tensor<512x1024xf32> to tensor<1x184xf32>
    %inserted_slice_728 = tensor.insert_slice %extracted_slice_726 into %11[0, 184] [1, 840] [1, 1] : tensor<1x840xf32> into tensor<1x1024xf32>
    %inserted_slice_729 = tensor.insert_slice %extracted_slice_727 into %inserted_slice_728[0, 0] [1, 184] [1, 1] : tensor<1x184xf32> into tensor<1x1024xf32>
    %extracted_slice_730 = tensor.extract_slice %0[192, 0] [1, 840] [1, 1] : tensor<512x1024xf32> to tensor<1x840xf32>
    %extracted_slice_731 = tensor.extract_slice %0[192, 840] [1, 184] [1, 1] : tensor<512x1024xf32> to tensor<1x184xf32>
    %inserted_slice_732 = tensor.insert_slice %extracted_slice_730 into %11[0, 184] [1, 840] [1, 1] : tensor<1x840xf32> into tensor<1x1024xf32>
    %inserted_slice_733 = tensor.insert_slice %extracted_slice_731 into %inserted_slice_732[0, 0] [1, 184] [1, 1] : tensor<1x184xf32> into tensor<1x1024xf32>
    %extracted_slice_734 = tensor.extract_slice %0[193, 0] [1, 840] [1, 1] : tensor<512x1024xf32> to tensor<1x840xf32>
    %extracted_slice_735 = tensor.extract_slice %0[193, 840] [1, 184] [1, 1] : tensor<512x1024xf32> to tensor<1x184xf32>
    %inserted_slice_736 = tensor.insert_slice %extracted_slice_734 into %11[0, 184] [1, 840] [1, 1] : tensor<1x840xf32> into tensor<1x1024xf32>
    %inserted_slice_737 = tensor.insert_slice %extracted_slice_735 into %inserted_slice_736[0, 0] [1, 184] [1, 1] : tensor<1x184xf32> into tensor<1x1024xf32>
    %extracted_slice_738 = tensor.extract_slice %0[194, 0] [1, 840] [1, 1] : tensor<512x1024xf32> to tensor<1x840xf32>
    %extracted_slice_739 = tensor.extract_slice %0[194, 840] [1, 184] [1, 1] : tensor<512x1024xf32> to tensor<1x184xf32>
    %inserted_slice_740 = tensor.insert_slice %extracted_slice_738 into %11[0, 184] [1, 840] [1, 1] : tensor<1x840xf32> into tensor<1x1024xf32>
    %inserted_slice_741 = tensor.insert_slice %extracted_slice_739 into %inserted_slice_740[0, 0] [1, 184] [1, 1] : tensor<1x184xf32> into tensor<1x1024xf32>
    %extracted_slice_742 = tensor.extract_slice %0[195, 0] [1, 840] [1, 1] : tensor<512x1024xf32> to tensor<1x840xf32>
    %extracted_slice_743 = tensor.extract_slice %0[195, 840] [1, 184] [1, 1] : tensor<512x1024xf32> to tensor<1x184xf32>
    %inserted_slice_744 = tensor.insert_slice %extracted_slice_742 into %11[0, 184] [1, 840] [1, 1] : tensor<1x840xf32> into tensor<1x1024xf32>
    %inserted_slice_745 = tensor.insert_slice %extracted_slice_743 into %inserted_slice_744[0, 0] [1, 184] [1, 1] : tensor<1x184xf32> into tensor<1x1024xf32>
    %extracted_slice_746 = tensor.extract_slice %0[196, 0] [1, 840] [1, 1] : tensor<512x1024xf32> to tensor<1x840xf32>
    %extracted_slice_747 = tensor.extract_slice %0[196, 840] [1, 184] [1, 1] : tensor<512x1024xf32> to tensor<1x184xf32>
    %inserted_slice_748 = tensor.insert_slice %extracted_slice_746 into %11[0, 184] [1, 840] [1, 1] : tensor<1x840xf32> into tensor<1x1024xf32>
    %inserted_slice_749 = tensor.insert_slice %extracted_slice_747 into %inserted_slice_748[0, 0] [1, 184] [1, 1] : tensor<1x184xf32> into tensor<1x1024xf32>
    %extracted_slice_750 = tensor.extract_slice %0[197, 0] [1, 840] [1, 1] : tensor<512x1024xf32> to tensor<1x840xf32>
    %extracted_slice_751 = tensor.extract_slice %0[197, 840] [1, 184] [1, 1] : tensor<512x1024xf32> to tensor<1x184xf32>
    %inserted_slice_752 = tensor.insert_slice %extracted_slice_750 into %11[0, 184] [1, 840] [1, 1] : tensor<1x840xf32> into tensor<1x1024xf32>
    %inserted_slice_753 = tensor.insert_slice %extracted_slice_751 into %inserted_slice_752[0, 0] [1, 184] [1, 1] : tensor<1x184xf32> into tensor<1x1024xf32>
    %extracted_slice_754 = tensor.extract_slice %0[198, 0] [1, 840] [1, 1] : tensor<512x1024xf32> to tensor<1x840xf32>
    %extracted_slice_755 = tensor.extract_slice %0[198, 840] [1, 184] [1, 1] : tensor<512x1024xf32> to tensor<1x184xf32>
    %inserted_slice_756 = tensor.insert_slice %extracted_slice_754 into %11[0, 184] [1, 840] [1, 1] : tensor<1x840xf32> into tensor<1x1024xf32>
    %inserted_slice_757 = tensor.insert_slice %extracted_slice_755 into %inserted_slice_756[0, 0] [1, 184] [1, 1] : tensor<1x184xf32> into tensor<1x1024xf32>
    %extracted_slice_758 = tensor.extract_slice %0[199, 0] [1, 840] [1, 1] : tensor<512x1024xf32> to tensor<1x840xf32>
    %extracted_slice_759 = tensor.extract_slice %0[199, 840] [1, 184] [1, 1] : tensor<512x1024xf32> to tensor<1x184xf32>
    %inserted_slice_760 = tensor.insert_slice %extracted_slice_758 into %11[0, 184] [1, 840] [1, 1] : tensor<1x840xf32> into tensor<1x1024xf32>
    %inserted_slice_761 = tensor.insert_slice %extracted_slice_759 into %inserted_slice_760[0, 0] [1, 184] [1, 1] : tensor<1x184xf32> into tensor<1x1024xf32>
    %extracted_slice_762 = tensor.extract_slice %0[200, 0] [1, 840] [1, 1] : tensor<512x1024xf32> to tensor<1x840xf32>
    %extracted_slice_763 = tensor.extract_slice %0[200, 840] [1, 184] [1, 1] : tensor<512x1024xf32> to tensor<1x184xf32>
    %inserted_slice_764 = tensor.insert_slice %extracted_slice_762 into %11[0, 184] [1, 840] [1, 1] : tensor<1x840xf32> into tensor<1x1024xf32>
    %inserted_slice_765 = tensor.insert_slice %extracted_slice_763 into %inserted_slice_764[0, 0] [1, 184] [1, 1] : tensor<1x184xf32> into tensor<1x1024xf32>
    %extracted_slice_766 = tensor.extract_slice %0[201, 0] [1, 840] [1, 1] : tensor<512x1024xf32> to tensor<1x840xf32>
    %extracted_slice_767 = tensor.extract_slice %0[201, 840] [1, 184] [1, 1] : tensor<512x1024xf32> to tensor<1x184xf32>
    %inserted_slice_768 = tensor.insert_slice %extracted_slice_766 into %11[0, 184] [1, 840] [1, 1] : tensor<1x840xf32> into tensor<1x1024xf32>
    %inserted_slice_769 = tensor.insert_slice %extracted_slice_767 into %inserted_slice_768[0, 0] [1, 184] [1, 1] : tensor<1x184xf32> into tensor<1x1024xf32>
    %extracted_slice_770 = tensor.extract_slice %0[202, 0] [1, 840] [1, 1] : tensor<512x1024xf32> to tensor<1x840xf32>
    %extracted_slice_771 = tensor.extract_slice %0[202, 840] [1, 184] [1, 1] : tensor<512x1024xf32> to tensor<1x184xf32>
    %inserted_slice_772 = tensor.insert_slice %extracted_slice_770 into %11[0, 184] [1, 840] [1, 1] : tensor<1x840xf32> into tensor<1x1024xf32>
    %inserted_slice_773 = tensor.insert_slice %extracted_slice_771 into %inserted_slice_772[0, 0] [1, 184] [1, 1] : tensor<1x184xf32> into tensor<1x1024xf32>
    %extracted_slice_774 = tensor.extract_slice %0[203, 0] [1, 840] [1, 1] : tensor<512x1024xf32> to tensor<1x840xf32>
    %extracted_slice_775 = tensor.extract_slice %0[203, 840] [1, 184] [1, 1] : tensor<512x1024xf32> to tensor<1x184xf32>
    %inserted_slice_776 = tensor.insert_slice %extracted_slice_774 into %11[0, 184] [1, 840] [1, 1] : tensor<1x840xf32> into tensor<1x1024xf32>
    %inserted_slice_777 = tensor.insert_slice %extracted_slice_775 into %inserted_slice_776[0, 0] [1, 184] [1, 1] : tensor<1x184xf32> into tensor<1x1024xf32>
    %extracted_slice_778 = tensor.extract_slice %0[204, 0] [1, 840] [1, 1] : tensor<512x1024xf32> to tensor<1x840xf32>
    %extracted_slice_779 = tensor.extract_slice %0[204, 840] [1, 184] [1, 1] : tensor<512x1024xf32> to tensor<1x184xf32>
    %inserted_slice_780 = tensor.insert_slice %extracted_slice_778 into %11[0, 184] [1, 840] [1, 1] : tensor<1x840xf32> into tensor<1x1024xf32>
    %inserted_slice_781 = tensor.insert_slice %extracted_slice_779 into %inserted_slice_780[0, 0] [1, 184] [1, 1] : tensor<1x184xf32> into tensor<1x1024xf32>
    %extracted_slice_782 = tensor.extract_slice %0[205, 0] [1, 840] [1, 1] : tensor<512x1024xf32> to tensor<1x840xf32>
    %extracted_slice_783 = tensor.extract_slice %0[205, 840] [1, 184] [1, 1] : tensor<512x1024xf32> to tensor<1x184xf32>
    %inserted_slice_784 = tensor.insert_slice %extracted_slice_782 into %11[0, 184] [1, 840] [1, 1] : tensor<1x840xf32> into tensor<1x1024xf32>
    %inserted_slice_785 = tensor.insert_slice %extracted_slice_783 into %inserted_slice_784[0, 0] [1, 184] [1, 1] : tensor<1x184xf32> into tensor<1x1024xf32>
    %extracted_slice_786 = tensor.extract_slice %0[206, 0] [1, 840] [1, 1] : tensor<512x1024xf32> to tensor<1x840xf32>
    %extracted_slice_787 = tensor.extract_slice %0[206, 840] [1, 184] [1, 1] : tensor<512x1024xf32> to tensor<1x184xf32>
    %inserted_slice_788 = tensor.insert_slice %extracted_slice_786 into %11[0, 184] [1, 840] [1, 1] : tensor<1x840xf32> into tensor<1x1024xf32>
    %inserted_slice_789 = tensor.insert_slice %extracted_slice_787 into %inserted_slice_788[0, 0] [1, 184] [1, 1] : tensor<1x184xf32> into tensor<1x1024xf32>
    %extracted_slice_790 = tensor.extract_slice %0[207, 0] [1, 817] [1, 1] : tensor<512x1024xf32> to tensor<1x817xf32>
    %extracted_slice_791 = tensor.extract_slice %0[207, 817] [1, 207] [1, 1] : tensor<512x1024xf32> to tensor<1x207xf32>
    %inserted_slice_792 = tensor.insert_slice %extracted_slice_790 into %11[0, 207] [1, 817] [1, 1] : tensor<1x817xf32> into tensor<1x1024xf32>
    %inserted_slice_793 = tensor.insert_slice %extracted_slice_791 into %inserted_slice_792[0, 0] [1, 207] [1, 1] : tensor<1x207xf32> into tensor<1x1024xf32>
    %extracted_slice_794 = tensor.extract_slice %0[208, 0] [1, 817] [1, 1] : tensor<512x1024xf32> to tensor<1x817xf32>
    %extracted_slice_795 = tensor.extract_slice %0[208, 817] [1, 207] [1, 1] : tensor<512x1024xf32> to tensor<1x207xf32>
    %inserted_slice_796 = tensor.insert_slice %extracted_slice_794 into %11[0, 207] [1, 817] [1, 1] : tensor<1x817xf32> into tensor<1x1024xf32>
    %inserted_slice_797 = tensor.insert_slice %extracted_slice_795 into %inserted_slice_796[0, 0] [1, 207] [1, 1] : tensor<1x207xf32> into tensor<1x1024xf32>
    %extracted_slice_798 = tensor.extract_slice %0[209, 0] [1, 817] [1, 1] : tensor<512x1024xf32> to tensor<1x817xf32>
    %extracted_slice_799 = tensor.extract_slice %0[209, 817] [1, 207] [1, 1] : tensor<512x1024xf32> to tensor<1x207xf32>
    %inserted_slice_800 = tensor.insert_slice %extracted_slice_798 into %11[0, 207] [1, 817] [1, 1] : tensor<1x817xf32> into tensor<1x1024xf32>
    %inserted_slice_801 = tensor.insert_slice %extracted_slice_799 into %inserted_slice_800[0, 0] [1, 207] [1, 1] : tensor<1x207xf32> into tensor<1x1024xf32>
    %extracted_slice_802 = tensor.extract_slice %0[210, 0] [1, 817] [1, 1] : tensor<512x1024xf32> to tensor<1x817xf32>
    %extracted_slice_803 = tensor.extract_slice %0[210, 817] [1, 207] [1, 1] : tensor<512x1024xf32> to tensor<1x207xf32>
    %inserted_slice_804 = tensor.insert_slice %extracted_slice_802 into %11[0, 207] [1, 817] [1, 1] : tensor<1x817xf32> into tensor<1x1024xf32>
    %inserted_slice_805 = tensor.insert_slice %extracted_slice_803 into %inserted_slice_804[0, 0] [1, 207] [1, 1] : tensor<1x207xf32> into tensor<1x1024xf32>
    %extracted_slice_806 = tensor.extract_slice %0[211, 0] [1, 817] [1, 1] : tensor<512x1024xf32> to tensor<1x817xf32>
    %extracted_slice_807 = tensor.extract_slice %0[211, 817] [1, 207] [1, 1] : tensor<512x1024xf32> to tensor<1x207xf32>
    %inserted_slice_808 = tensor.insert_slice %extracted_slice_806 into %11[0, 207] [1, 817] [1, 1] : tensor<1x817xf32> into tensor<1x1024xf32>
    %inserted_slice_809 = tensor.insert_slice %extracted_slice_807 into %inserted_slice_808[0, 0] [1, 207] [1, 1] : tensor<1x207xf32> into tensor<1x1024xf32>
    %extracted_slice_810 = tensor.extract_slice %0[212, 0] [1, 817] [1, 1] : tensor<512x1024xf32> to tensor<1x817xf32>
    %extracted_slice_811 = tensor.extract_slice %0[212, 817] [1, 207] [1, 1] : tensor<512x1024xf32> to tensor<1x207xf32>
    %inserted_slice_812 = tensor.insert_slice %extracted_slice_810 into %11[0, 207] [1, 817] [1, 1] : tensor<1x817xf32> into tensor<1x1024xf32>
    %inserted_slice_813 = tensor.insert_slice %extracted_slice_811 into %inserted_slice_812[0, 0] [1, 207] [1, 1] : tensor<1x207xf32> into tensor<1x1024xf32>
    %extracted_slice_814 = tensor.extract_slice %0[213, 0] [1, 817] [1, 1] : tensor<512x1024xf32> to tensor<1x817xf32>
    %extracted_slice_815 = tensor.extract_slice %0[213, 817] [1, 207] [1, 1] : tensor<512x1024xf32> to tensor<1x207xf32>
    %inserted_slice_816 = tensor.insert_slice %extracted_slice_814 into %11[0, 207] [1, 817] [1, 1] : tensor<1x817xf32> into tensor<1x1024xf32>
    %inserted_slice_817 = tensor.insert_slice %extracted_slice_815 into %inserted_slice_816[0, 0] [1, 207] [1, 1] : tensor<1x207xf32> into tensor<1x1024xf32>
    %extracted_slice_818 = tensor.extract_slice %0[214, 0] [1, 817] [1, 1] : tensor<512x1024xf32> to tensor<1x817xf32>
    %extracted_slice_819 = tensor.extract_slice %0[214, 817] [1, 207] [1, 1] : tensor<512x1024xf32> to tensor<1x207xf32>
    %inserted_slice_820 = tensor.insert_slice %extracted_slice_818 into %11[0, 207] [1, 817] [1, 1] : tensor<1x817xf32> into tensor<1x1024xf32>
    %inserted_slice_821 = tensor.insert_slice %extracted_slice_819 into %inserted_slice_820[0, 0] [1, 207] [1, 1] : tensor<1x207xf32> into tensor<1x1024xf32>
    %extracted_slice_822 = tensor.extract_slice %0[215, 0] [1, 817] [1, 1] : tensor<512x1024xf32> to tensor<1x817xf32>
    %extracted_slice_823 = tensor.extract_slice %0[215, 817] [1, 207] [1, 1] : tensor<512x1024xf32> to tensor<1x207xf32>
    %inserted_slice_824 = tensor.insert_slice %extracted_slice_822 into %11[0, 207] [1, 817] [1, 1] : tensor<1x817xf32> into tensor<1x1024xf32>
    %inserted_slice_825 = tensor.insert_slice %extracted_slice_823 into %inserted_slice_824[0, 0] [1, 207] [1, 1] : tensor<1x207xf32> into tensor<1x1024xf32>
    %extracted_slice_826 = tensor.extract_slice %0[216, 0] [1, 817] [1, 1] : tensor<512x1024xf32> to tensor<1x817xf32>
    %extracted_slice_827 = tensor.extract_slice %0[216, 817] [1, 207] [1, 1] : tensor<512x1024xf32> to tensor<1x207xf32>
    %inserted_slice_828 = tensor.insert_slice %extracted_slice_826 into %11[0, 207] [1, 817] [1, 1] : tensor<1x817xf32> into tensor<1x1024xf32>
    %inserted_slice_829 = tensor.insert_slice %extracted_slice_827 into %inserted_slice_828[0, 0] [1, 207] [1, 1] : tensor<1x207xf32> into tensor<1x1024xf32>
    %extracted_slice_830 = tensor.extract_slice %0[217, 0] [1, 817] [1, 1] : tensor<512x1024xf32> to tensor<1x817xf32>
    %extracted_slice_831 = tensor.extract_slice %0[217, 817] [1, 207] [1, 1] : tensor<512x1024xf32> to tensor<1x207xf32>
    %inserted_slice_832 = tensor.insert_slice %extracted_slice_830 into %11[0, 207] [1, 817] [1, 1] : tensor<1x817xf32> into tensor<1x1024xf32>
    %inserted_slice_833 = tensor.insert_slice %extracted_slice_831 into %inserted_slice_832[0, 0] [1, 207] [1, 1] : tensor<1x207xf32> into tensor<1x1024xf32>
    %extracted_slice_834 = tensor.extract_slice %0[218, 0] [1, 817] [1, 1] : tensor<512x1024xf32> to tensor<1x817xf32>
    %extracted_slice_835 = tensor.extract_slice %0[218, 817] [1, 207] [1, 1] : tensor<512x1024xf32> to tensor<1x207xf32>
    %inserted_slice_836 = tensor.insert_slice %extracted_slice_834 into %11[0, 207] [1, 817] [1, 1] : tensor<1x817xf32> into tensor<1x1024xf32>
    %inserted_slice_837 = tensor.insert_slice %extracted_slice_835 into %inserted_slice_836[0, 0] [1, 207] [1, 1] : tensor<1x207xf32> into tensor<1x1024xf32>
    %extracted_slice_838 = tensor.extract_slice %0[219, 0] [1, 817] [1, 1] : tensor<512x1024xf32> to tensor<1x817xf32>
    %extracted_slice_839 = tensor.extract_slice %0[219, 817] [1, 207] [1, 1] : tensor<512x1024xf32> to tensor<1x207xf32>
    %inserted_slice_840 = tensor.insert_slice %extracted_slice_838 into %11[0, 207] [1, 817] [1, 1] : tensor<1x817xf32> into tensor<1x1024xf32>
    %inserted_slice_841 = tensor.insert_slice %extracted_slice_839 into %inserted_slice_840[0, 0] [1, 207] [1, 1] : tensor<1x207xf32> into tensor<1x1024xf32>
    %extracted_slice_842 = tensor.extract_slice %0[220, 0] [1, 817] [1, 1] : tensor<512x1024xf32> to tensor<1x817xf32>
    %extracted_slice_843 = tensor.extract_slice %0[220, 817] [1, 207] [1, 1] : tensor<512x1024xf32> to tensor<1x207xf32>
    %inserted_slice_844 = tensor.insert_slice %extracted_slice_842 into %11[0, 207] [1, 817] [1, 1] : tensor<1x817xf32> into tensor<1x1024xf32>
    %inserted_slice_845 = tensor.insert_slice %extracted_slice_843 into %inserted_slice_844[0, 0] [1, 207] [1, 1] : tensor<1x207xf32> into tensor<1x1024xf32>
    %extracted_slice_846 = tensor.extract_slice %0[221, 0] [1, 817] [1, 1] : tensor<512x1024xf32> to tensor<1x817xf32>
    %extracted_slice_847 = tensor.extract_slice %0[221, 817] [1, 207] [1, 1] : tensor<512x1024xf32> to tensor<1x207xf32>
    %inserted_slice_848 = tensor.insert_slice %extracted_slice_846 into %11[0, 207] [1, 817] [1, 1] : tensor<1x817xf32> into tensor<1x1024xf32>
    %inserted_slice_849 = tensor.insert_slice %extracted_slice_847 into %inserted_slice_848[0, 0] [1, 207] [1, 1] : tensor<1x207xf32> into tensor<1x1024xf32>
    %extracted_slice_850 = tensor.extract_slice %0[222, 0] [1, 817] [1, 1] : tensor<512x1024xf32> to tensor<1x817xf32>
    %extracted_slice_851 = tensor.extract_slice %0[222, 817] [1, 207] [1, 1] : tensor<512x1024xf32> to tensor<1x207xf32>
    %inserted_slice_852 = tensor.insert_slice %extracted_slice_850 into %11[0, 207] [1, 817] [1, 1] : tensor<1x817xf32> into tensor<1x1024xf32>
    %inserted_slice_853 = tensor.insert_slice %extracted_slice_851 into %inserted_slice_852[0, 0] [1, 207] [1, 1] : tensor<1x207xf32> into tensor<1x1024xf32>
    %extracted_slice_854 = tensor.extract_slice %0[223, 0] [1, 817] [1, 1] : tensor<512x1024xf32> to tensor<1x817xf32>
    %extracted_slice_855 = tensor.extract_slice %0[223, 817] [1, 207] [1, 1] : tensor<512x1024xf32> to tensor<1x207xf32>
    %inserted_slice_856 = tensor.insert_slice %extracted_slice_854 into %11[0, 207] [1, 817] [1, 1] : tensor<1x817xf32> into tensor<1x1024xf32>
    %inserted_slice_857 = tensor.insert_slice %extracted_slice_855 into %inserted_slice_856[0, 0] [1, 207] [1, 1] : tensor<1x207xf32> into tensor<1x1024xf32>
    %extracted_slice_858 = tensor.extract_slice %0[224, 0] [1, 817] [1, 1] : tensor<512x1024xf32> to tensor<1x817xf32>
    %extracted_slice_859 = tensor.extract_slice %0[224, 817] [1, 207] [1, 1] : tensor<512x1024xf32> to tensor<1x207xf32>
    %inserted_slice_860 = tensor.insert_slice %extracted_slice_858 into %11[0, 207] [1, 817] [1, 1] : tensor<1x817xf32> into tensor<1x1024xf32>
    %inserted_slice_861 = tensor.insert_slice %extracted_slice_859 into %inserted_slice_860[0, 0] [1, 207] [1, 1] : tensor<1x207xf32> into tensor<1x1024xf32>
    %extracted_slice_862 = tensor.extract_slice %0[225, 0] [1, 817] [1, 1] : tensor<512x1024xf32> to tensor<1x817xf32>
    %extracted_slice_863 = tensor.extract_slice %0[225, 817] [1, 207] [1, 1] : tensor<512x1024xf32> to tensor<1x207xf32>
    %inserted_slice_864 = tensor.insert_slice %extracted_slice_862 into %11[0, 207] [1, 817] [1, 1] : tensor<1x817xf32> into tensor<1x1024xf32>
    %inserted_slice_865 = tensor.insert_slice %extracted_slice_863 into %inserted_slice_864[0, 0] [1, 207] [1, 1] : tensor<1x207xf32> into tensor<1x1024xf32>
    %extracted_slice_866 = tensor.extract_slice %0[226, 0] [1, 817] [1, 1] : tensor<512x1024xf32> to tensor<1x817xf32>
    %extracted_slice_867 = tensor.extract_slice %0[226, 817] [1, 207] [1, 1] : tensor<512x1024xf32> to tensor<1x207xf32>
    %inserted_slice_868 = tensor.insert_slice %extracted_slice_866 into %11[0, 207] [1, 817] [1, 1] : tensor<1x817xf32> into tensor<1x1024xf32>
    %inserted_slice_869 = tensor.insert_slice %extracted_slice_867 into %inserted_slice_868[0, 0] [1, 207] [1, 1] : tensor<1x207xf32> into tensor<1x1024xf32>
    %extracted_slice_870 = tensor.extract_slice %0[227, 0] [1, 817] [1, 1] : tensor<512x1024xf32> to tensor<1x817xf32>
    %extracted_slice_871 = tensor.extract_slice %0[227, 817] [1, 207] [1, 1] : tensor<512x1024xf32> to tensor<1x207xf32>
    %inserted_slice_872 = tensor.insert_slice %extracted_slice_870 into %11[0, 207] [1, 817] [1, 1] : tensor<1x817xf32> into tensor<1x1024xf32>
    %inserted_slice_873 = tensor.insert_slice %extracted_slice_871 into %inserted_slice_872[0, 0] [1, 207] [1, 1] : tensor<1x207xf32> into tensor<1x1024xf32>
    %extracted_slice_874 = tensor.extract_slice %0[228, 0] [1, 817] [1, 1] : tensor<512x1024xf32> to tensor<1x817xf32>
    %extracted_slice_875 = tensor.extract_slice %0[228, 817] [1, 207] [1, 1] : tensor<512x1024xf32> to tensor<1x207xf32>
    %inserted_slice_876 = tensor.insert_slice %extracted_slice_874 into %11[0, 207] [1, 817] [1, 1] : tensor<1x817xf32> into tensor<1x1024xf32>
    %inserted_slice_877 = tensor.insert_slice %extracted_slice_875 into %inserted_slice_876[0, 0] [1, 207] [1, 1] : tensor<1x207xf32> into tensor<1x1024xf32>
    %extracted_slice_878 = tensor.extract_slice %0[229, 0] [1, 817] [1, 1] : tensor<512x1024xf32> to tensor<1x817xf32>
    %extracted_slice_879 = tensor.extract_slice %0[229, 817] [1, 207] [1, 1] : tensor<512x1024xf32> to tensor<1x207xf32>
    %inserted_slice_880 = tensor.insert_slice %extracted_slice_878 into %11[0, 207] [1, 817] [1, 1] : tensor<1x817xf32> into tensor<1x1024xf32>
    %inserted_slice_881 = tensor.insert_slice %extracted_slice_879 into %inserted_slice_880[0, 0] [1, 207] [1, 1] : tensor<1x207xf32> into tensor<1x1024xf32>
    %extracted_slice_882 = tensor.extract_slice %0[230, 0] [1, 794] [1, 1] : tensor<512x1024xf32> to tensor<1x794xf32>
    %extracted_slice_883 = tensor.extract_slice %0[230, 794] [1, 230] [1, 1] : tensor<512x1024xf32> to tensor<1x230xf32>
    %inserted_slice_884 = tensor.insert_slice %extracted_slice_882 into %11[0, 230] [1, 794] [1, 1] : tensor<1x794xf32> into tensor<1x1024xf32>
    %inserted_slice_885 = tensor.insert_slice %extracted_slice_883 into %inserted_slice_884[0, 0] [1, 230] [1, 1] : tensor<1x230xf32> into tensor<1x1024xf32>
    %extracted_slice_886 = tensor.extract_slice %0[231, 0] [1, 794] [1, 1] : tensor<512x1024xf32> to tensor<1x794xf32>
    %extracted_slice_887 = tensor.extract_slice %0[231, 794] [1, 230] [1, 1] : tensor<512x1024xf32> to tensor<1x230xf32>
    %inserted_slice_888 = tensor.insert_slice %extracted_slice_886 into %11[0, 230] [1, 794] [1, 1] : tensor<1x794xf32> into tensor<1x1024xf32>
    %inserted_slice_889 = tensor.insert_slice %extracted_slice_887 into %inserted_slice_888[0, 0] [1, 230] [1, 1] : tensor<1x230xf32> into tensor<1x1024xf32>
    %extracted_slice_890 = tensor.extract_slice %0[232, 0] [1, 794] [1, 1] : tensor<512x1024xf32> to tensor<1x794xf32>
    %extracted_slice_891 = tensor.extract_slice %0[232, 794] [1, 230] [1, 1] : tensor<512x1024xf32> to tensor<1x230xf32>
    %inserted_slice_892 = tensor.insert_slice %extracted_slice_890 into %11[0, 230] [1, 794] [1, 1] : tensor<1x794xf32> into tensor<1x1024xf32>
    %inserted_slice_893 = tensor.insert_slice %extracted_slice_891 into %inserted_slice_892[0, 0] [1, 230] [1, 1] : tensor<1x230xf32> into tensor<1x1024xf32>
    %extracted_slice_894 = tensor.extract_slice %0[233, 0] [1, 794] [1, 1] : tensor<512x1024xf32> to tensor<1x794xf32>
    %extracted_slice_895 = tensor.extract_slice %0[233, 794] [1, 230] [1, 1] : tensor<512x1024xf32> to tensor<1x230xf32>
    %inserted_slice_896 = tensor.insert_slice %extracted_slice_894 into %11[0, 230] [1, 794] [1, 1] : tensor<1x794xf32> into tensor<1x1024xf32>
    %inserted_slice_897 = tensor.insert_slice %extracted_slice_895 into %inserted_slice_896[0, 0] [1, 230] [1, 1] : tensor<1x230xf32> into tensor<1x1024xf32>
    %extracted_slice_898 = tensor.extract_slice %0[234, 0] [1, 794] [1, 1] : tensor<512x1024xf32> to tensor<1x794xf32>
    %extracted_slice_899 = tensor.extract_slice %0[234, 794] [1, 230] [1, 1] : tensor<512x1024xf32> to tensor<1x230xf32>
    %inserted_slice_900 = tensor.insert_slice %extracted_slice_898 into %11[0, 230] [1, 794] [1, 1] : tensor<1x794xf32> into tensor<1x1024xf32>
    %inserted_slice_901 = tensor.insert_slice %extracted_slice_899 into %inserted_slice_900[0, 0] [1, 230] [1, 1] : tensor<1x230xf32> into tensor<1x1024xf32>
    %extracted_slice_902 = tensor.extract_slice %0[235, 0] [1, 794] [1, 1] : tensor<512x1024xf32> to tensor<1x794xf32>
    %extracted_slice_903 = tensor.extract_slice %0[235, 794] [1, 230] [1, 1] : tensor<512x1024xf32> to tensor<1x230xf32>
    %inserted_slice_904 = tensor.insert_slice %extracted_slice_902 into %11[0, 230] [1, 794] [1, 1] : tensor<1x794xf32> into tensor<1x1024xf32>
    %inserted_slice_905 = tensor.insert_slice %extracted_slice_903 into %inserted_slice_904[0, 0] [1, 230] [1, 1] : tensor<1x230xf32> into tensor<1x1024xf32>
    %extracted_slice_906 = tensor.extract_slice %0[236, 0] [1, 794] [1, 1] : tensor<512x1024xf32> to tensor<1x794xf32>
    %extracted_slice_907 = tensor.extract_slice %0[236, 794] [1, 230] [1, 1] : tensor<512x1024xf32> to tensor<1x230xf32>
    %inserted_slice_908 = tensor.insert_slice %extracted_slice_906 into %11[0, 230] [1, 794] [1, 1] : tensor<1x794xf32> into tensor<1x1024xf32>
    %inserted_slice_909 = tensor.insert_slice %extracted_slice_907 into %inserted_slice_908[0, 0] [1, 230] [1, 1] : tensor<1x230xf32> into tensor<1x1024xf32>
    %extracted_slice_910 = tensor.extract_slice %0[237, 0] [1, 794] [1, 1] : tensor<512x1024xf32> to tensor<1x794xf32>
    %extracted_slice_911 = tensor.extract_slice %0[237, 794] [1, 230] [1, 1] : tensor<512x1024xf32> to tensor<1x230xf32>
    %inserted_slice_912 = tensor.insert_slice %extracted_slice_910 into %11[0, 230] [1, 794] [1, 1] : tensor<1x794xf32> into tensor<1x1024xf32>
    %inserted_slice_913 = tensor.insert_slice %extracted_slice_911 into %inserted_slice_912[0, 0] [1, 230] [1, 1] : tensor<1x230xf32> into tensor<1x1024xf32>
    %extracted_slice_914 = tensor.extract_slice %0[238, 0] [1, 794] [1, 1] : tensor<512x1024xf32> to tensor<1x794xf32>
    %extracted_slice_915 = tensor.extract_slice %0[238, 794] [1, 230] [1, 1] : tensor<512x1024xf32> to tensor<1x230xf32>
    %inserted_slice_916 = tensor.insert_slice %extracted_slice_914 into %11[0, 230] [1, 794] [1, 1] : tensor<1x794xf32> into tensor<1x1024xf32>
    %inserted_slice_917 = tensor.insert_slice %extracted_slice_915 into %inserted_slice_916[0, 0] [1, 230] [1, 1] : tensor<1x230xf32> into tensor<1x1024xf32>
    %extracted_slice_918 = tensor.extract_slice %0[239, 0] [1, 794] [1, 1] : tensor<512x1024xf32> to tensor<1x794xf32>
    %extracted_slice_919 = tensor.extract_slice %0[239, 794] [1, 230] [1, 1] : tensor<512x1024xf32> to tensor<1x230xf32>
    %inserted_slice_920 = tensor.insert_slice %extracted_slice_918 into %11[0, 230] [1, 794] [1, 1] : tensor<1x794xf32> into tensor<1x1024xf32>
    %inserted_slice_921 = tensor.insert_slice %extracted_slice_919 into %inserted_slice_920[0, 0] [1, 230] [1, 1] : tensor<1x230xf32> into tensor<1x1024xf32>
    %extracted_slice_922 = tensor.extract_slice %0[240, 0] [1, 794] [1, 1] : tensor<512x1024xf32> to tensor<1x794xf32>
    %extracted_slice_923 = tensor.extract_slice %0[240, 794] [1, 230] [1, 1] : tensor<512x1024xf32> to tensor<1x230xf32>
    %inserted_slice_924 = tensor.insert_slice %extracted_slice_922 into %11[0, 230] [1, 794] [1, 1] : tensor<1x794xf32> into tensor<1x1024xf32>
    %inserted_slice_925 = tensor.insert_slice %extracted_slice_923 into %inserted_slice_924[0, 0] [1, 230] [1, 1] : tensor<1x230xf32> into tensor<1x1024xf32>
    %extracted_slice_926 = tensor.extract_slice %0[241, 0] [1, 794] [1, 1] : tensor<512x1024xf32> to tensor<1x794xf32>
    %extracted_slice_927 = tensor.extract_slice %0[241, 794] [1, 230] [1, 1] : tensor<512x1024xf32> to tensor<1x230xf32>
    %inserted_slice_928 = tensor.insert_slice %extracted_slice_926 into %11[0, 230] [1, 794] [1, 1] : tensor<1x794xf32> into tensor<1x1024xf32>
    %inserted_slice_929 = tensor.insert_slice %extracted_slice_927 into %inserted_slice_928[0, 0] [1, 230] [1, 1] : tensor<1x230xf32> into tensor<1x1024xf32>
    %extracted_slice_930 = tensor.extract_slice %0[242, 0] [1, 794] [1, 1] : tensor<512x1024xf32> to tensor<1x794xf32>
    %extracted_slice_931 = tensor.extract_slice %0[242, 794] [1, 230] [1, 1] : tensor<512x1024xf32> to tensor<1x230xf32>
    %inserted_slice_932 = tensor.insert_slice %extracted_slice_930 into %11[0, 230] [1, 794] [1, 1] : tensor<1x794xf32> into tensor<1x1024xf32>
    %inserted_slice_933 = tensor.insert_slice %extracted_slice_931 into %inserted_slice_932[0, 0] [1, 230] [1, 1] : tensor<1x230xf32> into tensor<1x1024xf32>
    %extracted_slice_934 = tensor.extract_slice %0[243, 0] [1, 794] [1, 1] : tensor<512x1024xf32> to tensor<1x794xf32>
    %extracted_slice_935 = tensor.extract_slice %0[243, 794] [1, 230] [1, 1] : tensor<512x1024xf32> to tensor<1x230xf32>
    %inserted_slice_936 = tensor.insert_slice %extracted_slice_934 into %11[0, 230] [1, 794] [1, 1] : tensor<1x794xf32> into tensor<1x1024xf32>
    %inserted_slice_937 = tensor.insert_slice %extracted_slice_935 into %inserted_slice_936[0, 0] [1, 230] [1, 1] : tensor<1x230xf32> into tensor<1x1024xf32>
    %extracted_slice_938 = tensor.extract_slice %0[244, 0] [1, 794] [1, 1] : tensor<512x1024xf32> to tensor<1x794xf32>
    %extracted_slice_939 = tensor.extract_slice %0[244, 794] [1, 230] [1, 1] : tensor<512x1024xf32> to tensor<1x230xf32>
    %inserted_slice_940 = tensor.insert_slice %extracted_slice_938 into %11[0, 230] [1, 794] [1, 1] : tensor<1x794xf32> into tensor<1x1024xf32>
    %inserted_slice_941 = tensor.insert_slice %extracted_slice_939 into %inserted_slice_940[0, 0] [1, 230] [1, 1] : tensor<1x230xf32> into tensor<1x1024xf32>
    %extracted_slice_942 = tensor.extract_slice %0[245, 0] [1, 794] [1, 1] : tensor<512x1024xf32> to tensor<1x794xf32>
    %extracted_slice_943 = tensor.extract_slice %0[245, 794] [1, 230] [1, 1] : tensor<512x1024xf32> to tensor<1x230xf32>
    %inserted_slice_944 = tensor.insert_slice %extracted_slice_942 into %11[0, 230] [1, 794] [1, 1] : tensor<1x794xf32> into tensor<1x1024xf32>
    %inserted_slice_945 = tensor.insert_slice %extracted_slice_943 into %inserted_slice_944[0, 0] [1, 230] [1, 1] : tensor<1x230xf32> into tensor<1x1024xf32>
    %extracted_slice_946 = tensor.extract_slice %0[246, 0] [1, 794] [1, 1] : tensor<512x1024xf32> to tensor<1x794xf32>
    %extracted_slice_947 = tensor.extract_slice %0[246, 794] [1, 230] [1, 1] : tensor<512x1024xf32> to tensor<1x230xf32>
    %inserted_slice_948 = tensor.insert_slice %extracted_slice_946 into %11[0, 230] [1, 794] [1, 1] : tensor<1x794xf32> into tensor<1x1024xf32>
    %inserted_slice_949 = tensor.insert_slice %extracted_slice_947 into %inserted_slice_948[0, 0] [1, 230] [1, 1] : tensor<1x230xf32> into tensor<1x1024xf32>
    %extracted_slice_950 = tensor.extract_slice %0[247, 0] [1, 794] [1, 1] : tensor<512x1024xf32> to tensor<1x794xf32>
    %extracted_slice_951 = tensor.extract_slice %0[247, 794] [1, 230] [1, 1] : tensor<512x1024xf32> to tensor<1x230xf32>
    %inserted_slice_952 = tensor.insert_slice %extracted_slice_950 into %11[0, 230] [1, 794] [1, 1] : tensor<1x794xf32> into tensor<1x1024xf32>
    %inserted_slice_953 = tensor.insert_slice %extracted_slice_951 into %inserted_slice_952[0, 0] [1, 230] [1, 1] : tensor<1x230xf32> into tensor<1x1024xf32>
    %extracted_slice_954 = tensor.extract_slice %0[248, 0] [1, 794] [1, 1] : tensor<512x1024xf32> to tensor<1x794xf32>
    %extracted_slice_955 = tensor.extract_slice %0[248, 794] [1, 230] [1, 1] : tensor<512x1024xf32> to tensor<1x230xf32>
    %inserted_slice_956 = tensor.insert_slice %extracted_slice_954 into %11[0, 230] [1, 794] [1, 1] : tensor<1x794xf32> into tensor<1x1024xf32>
    %inserted_slice_957 = tensor.insert_slice %extracted_slice_955 into %inserted_slice_956[0, 0] [1, 230] [1, 1] : tensor<1x230xf32> into tensor<1x1024xf32>
    %extracted_slice_958 = tensor.extract_slice %0[249, 0] [1, 794] [1, 1] : tensor<512x1024xf32> to tensor<1x794xf32>
    %extracted_slice_959 = tensor.extract_slice %0[249, 794] [1, 230] [1, 1] : tensor<512x1024xf32> to tensor<1x230xf32>
    %inserted_slice_960 = tensor.insert_slice %extracted_slice_958 into %11[0, 230] [1, 794] [1, 1] : tensor<1x794xf32> into tensor<1x1024xf32>
    %inserted_slice_961 = tensor.insert_slice %extracted_slice_959 into %inserted_slice_960[0, 0] [1, 230] [1, 1] : tensor<1x230xf32> into tensor<1x1024xf32>
    %extracted_slice_962 = tensor.extract_slice %0[250, 0] [1, 794] [1, 1] : tensor<512x1024xf32> to tensor<1x794xf32>
    %extracted_slice_963 = tensor.extract_slice %0[250, 794] [1, 230] [1, 1] : tensor<512x1024xf32> to tensor<1x230xf32>
    %inserted_slice_964 = tensor.insert_slice %extracted_slice_962 into %11[0, 230] [1, 794] [1, 1] : tensor<1x794xf32> into tensor<1x1024xf32>
    %inserted_slice_965 = tensor.insert_slice %extracted_slice_963 into %inserted_slice_964[0, 0] [1, 230] [1, 1] : tensor<1x230xf32> into tensor<1x1024xf32>
    %extracted_slice_966 = tensor.extract_slice %0[251, 0] [1, 794] [1, 1] : tensor<512x1024xf32> to tensor<1x794xf32>
    %extracted_slice_967 = tensor.extract_slice %0[251, 794] [1, 230] [1, 1] : tensor<512x1024xf32> to tensor<1x230xf32>
    %inserted_slice_968 = tensor.insert_slice %extracted_slice_966 into %11[0, 230] [1, 794] [1, 1] : tensor<1x794xf32> into tensor<1x1024xf32>
    %inserted_slice_969 = tensor.insert_slice %extracted_slice_967 into %inserted_slice_968[0, 0] [1, 230] [1, 1] : tensor<1x230xf32> into tensor<1x1024xf32>
    %extracted_slice_970 = tensor.extract_slice %0[252, 0] [1, 794] [1, 1] : tensor<512x1024xf32> to tensor<1x794xf32>
    %extracted_slice_971 = tensor.extract_slice %0[252, 794] [1, 230] [1, 1] : tensor<512x1024xf32> to tensor<1x230xf32>
    %inserted_slice_972 = tensor.insert_slice %extracted_slice_970 into %11[0, 230] [1, 794] [1, 1] : tensor<1x794xf32> into tensor<1x1024xf32>
    %inserted_slice_973 = tensor.insert_slice %extracted_slice_971 into %inserted_slice_972[0, 0] [1, 230] [1, 1] : tensor<1x230xf32> into tensor<1x1024xf32>
    %extracted_slice_974 = tensor.extract_slice %0[253, 0] [1, 771] [1, 1] : tensor<512x1024xf32> to tensor<1x771xf32>
    %extracted_slice_975 = tensor.extract_slice %0[253, 771] [1, 253] [1, 1] : tensor<512x1024xf32> to tensor<1x253xf32>
    %inserted_slice_976 = tensor.insert_slice %extracted_slice_974 into %11[0, 253] [1, 771] [1, 1] : tensor<1x771xf32> into tensor<1x1024xf32>
    %inserted_slice_977 = tensor.insert_slice %extracted_slice_975 into %inserted_slice_976[0, 0] [1, 253] [1, 1] : tensor<1x253xf32> into tensor<1x1024xf32>
    %extracted_slice_978 = tensor.extract_slice %0[254, 0] [1, 771] [1, 1] : tensor<512x1024xf32> to tensor<1x771xf32>
    %extracted_slice_979 = tensor.extract_slice %0[254, 771] [1, 253] [1, 1] : tensor<512x1024xf32> to tensor<1x253xf32>
    %inserted_slice_980 = tensor.insert_slice %extracted_slice_978 into %11[0, 253] [1, 771] [1, 1] : tensor<1x771xf32> into tensor<1x1024xf32>
    %inserted_slice_981 = tensor.insert_slice %extracted_slice_979 into %inserted_slice_980[0, 0] [1, 253] [1, 1] : tensor<1x253xf32> into tensor<1x1024xf32>
    %extracted_slice_982 = tensor.extract_slice %0[255, 0] [1, 771] [1, 1] : tensor<512x1024xf32> to tensor<1x771xf32>
    %extracted_slice_983 = tensor.extract_slice %0[255, 771] [1, 253] [1, 1] : tensor<512x1024xf32> to tensor<1x253xf32>
    %inserted_slice_984 = tensor.insert_slice %extracted_slice_982 into %11[0, 253] [1, 771] [1, 1] : tensor<1x771xf32> into tensor<1x1024xf32>
    %inserted_slice_985 = tensor.insert_slice %extracted_slice_983 into %inserted_slice_984[0, 0] [1, 253] [1, 1] : tensor<1x253xf32> into tensor<1x1024xf32>
    %extracted_slice_986 = tensor.extract_slice %0[256, 0] [1, 771] [1, 1] : tensor<512x1024xf32> to tensor<1x771xf32>
    %extracted_slice_987 = tensor.extract_slice %0[256, 771] [1, 253] [1, 1] : tensor<512x1024xf32> to tensor<1x253xf32>
    %inserted_slice_988 = tensor.insert_slice %extracted_slice_986 into %11[0, 253] [1, 771] [1, 1] : tensor<1x771xf32> into tensor<1x1024xf32>
    %inserted_slice_989 = tensor.insert_slice %extracted_slice_987 into %inserted_slice_988[0, 0] [1, 253] [1, 1] : tensor<1x253xf32> into tensor<1x1024xf32>
    %extracted_slice_990 = tensor.extract_slice %0[257, 0] [1, 771] [1, 1] : tensor<512x1024xf32> to tensor<1x771xf32>
    %extracted_slice_991 = tensor.extract_slice %0[257, 771] [1, 253] [1, 1] : tensor<512x1024xf32> to tensor<1x253xf32>
    %inserted_slice_992 = tensor.insert_slice %extracted_slice_990 into %11[0, 253] [1, 771] [1, 1] : tensor<1x771xf32> into tensor<1x1024xf32>
    %inserted_slice_993 = tensor.insert_slice %extracted_slice_991 into %inserted_slice_992[0, 0] [1, 253] [1, 1] : tensor<1x253xf32> into tensor<1x1024xf32>
    %extracted_slice_994 = tensor.extract_slice %0[258, 0] [1, 771] [1, 1] : tensor<512x1024xf32> to tensor<1x771xf32>
    %extracted_slice_995 = tensor.extract_slice %0[258, 771] [1, 253] [1, 1] : tensor<512x1024xf32> to tensor<1x253xf32>
    %inserted_slice_996 = tensor.insert_slice %extracted_slice_994 into %11[0, 253] [1, 771] [1, 1] : tensor<1x771xf32> into tensor<1x1024xf32>
    %inserted_slice_997 = tensor.insert_slice %extracted_slice_995 into %inserted_slice_996[0, 0] [1, 253] [1, 1] : tensor<1x253xf32> into tensor<1x1024xf32>
    %extracted_slice_998 = tensor.extract_slice %0[259, 0] [1, 771] [1, 1] : tensor<512x1024xf32> to tensor<1x771xf32>
    %extracted_slice_999 = tensor.extract_slice %0[259, 771] [1, 253] [1, 1] : tensor<512x1024xf32> to tensor<1x253xf32>
    %inserted_slice_1000 = tensor.insert_slice %extracted_slice_998 into %11[0, 253] [1, 771] [1, 1] : tensor<1x771xf32> into tensor<1x1024xf32>
    %inserted_slice_1001 = tensor.insert_slice %extracted_slice_999 into %inserted_slice_1000[0, 0] [1, 253] [1, 1] : tensor<1x253xf32> into tensor<1x1024xf32>
    %extracted_slice_1002 = tensor.extract_slice %0[260, 0] [1, 771] [1, 1] : tensor<512x1024xf32> to tensor<1x771xf32>
    %extracted_slice_1003 = tensor.extract_slice %0[260, 771] [1, 253] [1, 1] : tensor<512x1024xf32> to tensor<1x253xf32>
    %inserted_slice_1004 = tensor.insert_slice %extracted_slice_1002 into %11[0, 253] [1, 771] [1, 1] : tensor<1x771xf32> into tensor<1x1024xf32>
    %inserted_slice_1005 = tensor.insert_slice %extracted_slice_1003 into %inserted_slice_1004[0, 0] [1, 253] [1, 1] : tensor<1x253xf32> into tensor<1x1024xf32>
    %extracted_slice_1006 = tensor.extract_slice %0[261, 0] [1, 771] [1, 1] : tensor<512x1024xf32> to tensor<1x771xf32>
    %extracted_slice_1007 = tensor.extract_slice %0[261, 771] [1, 253] [1, 1] : tensor<512x1024xf32> to tensor<1x253xf32>
    %inserted_slice_1008 = tensor.insert_slice %extracted_slice_1006 into %11[0, 253] [1, 771] [1, 1] : tensor<1x771xf32> into tensor<1x1024xf32>
    %inserted_slice_1009 = tensor.insert_slice %extracted_slice_1007 into %inserted_slice_1008[0, 0] [1, 253] [1, 1] : tensor<1x253xf32> into tensor<1x1024xf32>
    %extracted_slice_1010 = tensor.extract_slice %0[262, 0] [1, 771] [1, 1] : tensor<512x1024xf32> to tensor<1x771xf32>
    %extracted_slice_1011 = tensor.extract_slice %0[262, 771] [1, 253] [1, 1] : tensor<512x1024xf32> to tensor<1x253xf32>
    %inserted_slice_1012 = tensor.insert_slice %extracted_slice_1010 into %11[0, 253] [1, 771] [1, 1] : tensor<1x771xf32> into tensor<1x1024xf32>
    %inserted_slice_1013 = tensor.insert_slice %extracted_slice_1011 into %inserted_slice_1012[0, 0] [1, 253] [1, 1] : tensor<1x253xf32> into tensor<1x1024xf32>
    %extracted_slice_1014 = tensor.extract_slice %0[263, 0] [1, 771] [1, 1] : tensor<512x1024xf32> to tensor<1x771xf32>
    %extracted_slice_1015 = tensor.extract_slice %0[263, 771] [1, 253] [1, 1] : tensor<512x1024xf32> to tensor<1x253xf32>
    %inserted_slice_1016 = tensor.insert_slice %extracted_slice_1014 into %11[0, 253] [1, 771] [1, 1] : tensor<1x771xf32> into tensor<1x1024xf32>
    %inserted_slice_1017 = tensor.insert_slice %extracted_slice_1015 into %inserted_slice_1016[0, 0] [1, 253] [1, 1] : tensor<1x253xf32> into tensor<1x1024xf32>
    %extracted_slice_1018 = tensor.extract_slice %0[264, 0] [1, 771] [1, 1] : tensor<512x1024xf32> to tensor<1x771xf32>
    %extracted_slice_1019 = tensor.extract_slice %0[264, 771] [1, 253] [1, 1] : tensor<512x1024xf32> to tensor<1x253xf32>
    %inserted_slice_1020 = tensor.insert_slice %extracted_slice_1018 into %11[0, 253] [1, 771] [1, 1] : tensor<1x771xf32> into tensor<1x1024xf32>
    %inserted_slice_1021 = tensor.insert_slice %extracted_slice_1019 into %inserted_slice_1020[0, 0] [1, 253] [1, 1] : tensor<1x253xf32> into tensor<1x1024xf32>
    %extracted_slice_1022 = tensor.extract_slice %0[265, 0] [1, 771] [1, 1] : tensor<512x1024xf32> to tensor<1x771xf32>
    %extracted_slice_1023 = tensor.extract_slice %0[265, 771] [1, 253] [1, 1] : tensor<512x1024xf32> to tensor<1x253xf32>
    %inserted_slice_1024 = tensor.insert_slice %extracted_slice_1022 into %11[0, 253] [1, 771] [1, 1] : tensor<1x771xf32> into tensor<1x1024xf32>
    %inserted_slice_1025 = tensor.insert_slice %extracted_slice_1023 into %inserted_slice_1024[0, 0] [1, 253] [1, 1] : tensor<1x253xf32> into tensor<1x1024xf32>
    %extracted_slice_1026 = tensor.extract_slice %0[266, 0] [1, 771] [1, 1] : tensor<512x1024xf32> to tensor<1x771xf32>
    %extracted_slice_1027 = tensor.extract_slice %0[266, 771] [1, 253] [1, 1] : tensor<512x1024xf32> to tensor<1x253xf32>
    %inserted_slice_1028 = tensor.insert_slice %extracted_slice_1026 into %11[0, 253] [1, 771] [1, 1] : tensor<1x771xf32> into tensor<1x1024xf32>
    %inserted_slice_1029 = tensor.insert_slice %extracted_slice_1027 into %inserted_slice_1028[0, 0] [1, 253] [1, 1] : tensor<1x253xf32> into tensor<1x1024xf32>
    %extracted_slice_1030 = tensor.extract_slice %0[267, 0] [1, 771] [1, 1] : tensor<512x1024xf32> to tensor<1x771xf32>
    %extracted_slice_1031 = tensor.extract_slice %0[267, 771] [1, 253] [1, 1] : tensor<512x1024xf32> to tensor<1x253xf32>
    %inserted_slice_1032 = tensor.insert_slice %extracted_slice_1030 into %11[0, 253] [1, 771] [1, 1] : tensor<1x771xf32> into tensor<1x1024xf32>
    %inserted_slice_1033 = tensor.insert_slice %extracted_slice_1031 into %inserted_slice_1032[0, 0] [1, 253] [1, 1] : tensor<1x253xf32> into tensor<1x1024xf32>
    %extracted_slice_1034 = tensor.extract_slice %0[268, 0] [1, 771] [1, 1] : tensor<512x1024xf32> to tensor<1x771xf32>
    %extracted_slice_1035 = tensor.extract_slice %0[268, 771] [1, 253] [1, 1] : tensor<512x1024xf32> to tensor<1x253xf32>
    %inserted_slice_1036 = tensor.insert_slice %extracted_slice_1034 into %11[0, 253] [1, 771] [1, 1] : tensor<1x771xf32> into tensor<1x1024xf32>
    %inserted_slice_1037 = tensor.insert_slice %extracted_slice_1035 into %inserted_slice_1036[0, 0] [1, 253] [1, 1] : tensor<1x253xf32> into tensor<1x1024xf32>
    %extracted_slice_1038 = tensor.extract_slice %0[269, 0] [1, 771] [1, 1] : tensor<512x1024xf32> to tensor<1x771xf32>
    %extracted_slice_1039 = tensor.extract_slice %0[269, 771] [1, 253] [1, 1] : tensor<512x1024xf32> to tensor<1x253xf32>
    %inserted_slice_1040 = tensor.insert_slice %extracted_slice_1038 into %11[0, 253] [1, 771] [1, 1] : tensor<1x771xf32> into tensor<1x1024xf32>
    %inserted_slice_1041 = tensor.insert_slice %extracted_slice_1039 into %inserted_slice_1040[0, 0] [1, 253] [1, 1] : tensor<1x253xf32> into tensor<1x1024xf32>
    %extracted_slice_1042 = tensor.extract_slice %0[270, 0] [1, 771] [1, 1] : tensor<512x1024xf32> to tensor<1x771xf32>
    %extracted_slice_1043 = tensor.extract_slice %0[270, 771] [1, 253] [1, 1] : tensor<512x1024xf32> to tensor<1x253xf32>
…
    %ct_1282 = cheddar.mult_plain %ctx, %ct_554, %extracted_380 : (!context, !ciphertext, !plaintext) -> !ciphertext
    %ct_1283 = cheddar.mult_plain %ctx, %ct_556, %extracted_381 : (!context, !ciphertext, !plaintext) -> !ciphertext
    %ct_1284 = cheddar.mult_plain %ctx, %ct_558, %extracted_382 : (!context, !ciphertext, !plaintext) -> !ciphertext
    %ct_1285 = cheddar.mult_plain %ctx, %ct_560, %extracted_383 : (!context, !ciphertext, !plaintext) -> !ciphertext
    %ct_1286 = cheddar.mult_plain %ctx, %ct_562, %extracted_384 : (!context, !ciphertext, !plaintext) -> !ciphertext
    %ct_1287 = cheddar.mult_plain %ctx, %ct_564, %extracted_385 : (!context, !ciphertext, !plaintext) -> !ciphertext
    %ct_1288 = cheddar.mult_plain %ctx, %ct_566, %extracted_386 : (!context, !ciphertext, !plaintext) -> !ciphertext
    %ct_1289 = cheddar.mult_plain %ctx, %ct_568, %extracted_387 : (!context, !ciphertext, !plaintext) -> !ciphertext
    %ct_1290 = cheddar.mult_plain %ctx, %ct_570, %extracted_388 : (!context, !ciphertext, !plaintext) -> !ciphertext
    %ct_1291 = cheddar.mult_plain %ctx, %ct_572, %extracted_389 : (!context, !ciphertext, !plaintext) -> !ciphertext
    %ct_1292 = cheddar.mult_plain %ctx, %ct_574, %extracted_390 : (!context, !ciphertext, !plaintext) -> !ciphertext
    %ct_1293 = cheddar.mult_plain %ctx, %ct_576, %extracted_391 : (!context, !ciphertext, !plaintext) -> !ciphertext
    %ct_1294 = cheddar.mult_plain %ctx, %ct_578, %extracted_392 : (!context, !ciphertext, !plaintext) -> !ciphertext
    %ct_1295 = cheddar.mult_plain %ctx, %ct_580, %extracted_393 : (!context, !ciphertext, !plaintext) -> !ciphertext
    %ct_1296 = cheddar.mult_plain %ctx, %ct_582, %extracted_394 : (!context, !ciphertext, !plaintext) -> !ciphertext
    %ct_1297 = cheddar.add %ctx, %ct_1274, %ct_1275 : (!context, !ciphertext, !ciphertext) -> !ciphertext
    %ct_1298 = cheddar.add %ctx, %ct_1276, %ct_1277 : (!context, !ciphertext, !ciphertext) -> !ciphertext
    %ct_1299 = cheddar.add %ctx, %ct_1298, %ct_1278 : (!context, !ciphertext, !ciphertext) -> !ciphertext
    %ct_1300 = cheddar.add %ctx, %ct_1297, %ct_1299 : (!context, !ciphertext, !ciphertext) -> !ciphertext
    %ct_1301 = cheddar.add %ctx, %ct_1279, %ct_1280 : (!context, !ciphertext, !ciphertext) -> !ciphertext
    %ct_1302 = cheddar.add %ctx, %ct_1301, %ct_1281 : (!context, !ciphertext, !ciphertext) -> !ciphertext
    %ct_1303 = cheddar.add %ctx, %ct_1282, %ct_1283 : (!context, !ciphertext, !ciphertext) -> !ciphertext
    %ct_1304 = cheddar.add %ctx, %ct_1303, %ct_1284 : (!context, !ciphertext, !ciphertext) -> !ciphertext
    %ct_1305 = cheddar.add %ctx, %ct_1302, %ct_1304 : (!context, !ciphertext, !ciphertext) -> !ciphertext
    %ct_1306 = cheddar.add %ctx, %ct_1300, %ct_1305 : (!context, !ciphertext, !ciphertext) -> !ciphertext
    %ct_1307 = cheddar.add %ctx, %ct_1285, %ct_1286 : (!context, !ciphertext, !ciphertext) -> !ciphertext
    %ct_1308 = cheddar.add %ctx, %ct_1307, %ct_1287 : (!context, !ciphertext, !ciphertext) -> !ciphertext
    %ct_1309 = cheddar.add %ctx, %ct_1288, %ct_1289 : (!context, !ciphertext, !ciphertext) -> !ciphertext
    %ct_1310 = cheddar.add %ctx, %ct_1309, %ct_1290 : (!context, !ciphertext, !ciphertext) -> !ciphertext
    %ct_1311 = cheddar.add %ctx, %ct_1308, %ct_1310 : (!context, !ciphertext, !ciphertext) -> !ciphertext
    %ct_1312 = cheddar.add %ctx, %ct_1291, %ct_1292 : (!context, !ciphertext, !ciphertext) -> !ciphertext
    %ct_1313 = cheddar.add %ctx, %ct_1312, %ct_1293 : (!context, !ciphertext, !ciphertext) -> !ciphertext
    %ct_1314 = cheddar.add %ctx, %ct_1294, %ct_1295 : (!context, !ciphertext, !ciphertext) -> !ciphertext
    %ct_1315 = cheddar.add %ctx, %ct_1314, %ct_1296 : (!context, !ciphertext, !ciphertext) -> !ciphertext
    %ct_1316 = cheddar.add %ctx, %ct_1313, %ct_1315 : (!context, !ciphertext, !ciphertext) -> !ciphertext
    %ct_1317 = cheddar.add %ctx, %ct_1311, %ct_1316 : (!context, !ciphertext, !ciphertext) -> !ciphertext
    %ct_1318 = cheddar.add %ctx, %ct_1306, %ct_1317 : (!context, !ciphertext, !ciphertext) -> !ciphertext
    %ct_1319 = cheddar.hrot %ctx, %ct_1318, %c368 : (!context, !ciphertext, index) -> !ciphertext
    %ct_1320 = cheddar.mult_plain %ctx, %extracted_539, %extracted_395 : (!context, !ciphertext, !plaintext) -> !ciphertext
    %ct_1321 = cheddar.mult_plain %ctx, %ct_540, %extracted_396 : (!context, !ciphertext, !plaintext) -> !ciphertext
    %ct_1322 = cheddar.mult_plain %ctx, %ct_542, %extracted_397 : (!context, !ciphertext, !plaintext) -> !ciphertext
    %ct_1323 = cheddar.mult_plain %ctx, %ct_544, %extracted_398 : (!context, !ciphertext, !plaintext) -> !ciphertext
    %ct_1324 = cheddar.mult_plain %ctx, %ct_546, %extracted_399 : (!context, !ciphertext, !plaintext) -> !ciphertext
    %ct_1325 = cheddar.mult_plain %ctx, %ct_548, %extracted_400 : (!context, !ciphertext, !plaintext) -> !ciphertext
    %ct_1326 = cheddar.mult_plain %ctx, %ct_550, %extracted_401 : (!context, !ciphertext, !plaintext) -> !ciphertext
    %ct_1327 = cheddar.mult_plain %ctx, %ct_552, %extracted_402 : (!context, !ciphertext, !plaintext) -> !ciphertext
    %ct_1328 = cheddar.mult_plain %ctx, %ct_554, %extracted_403 : (!context, !ciphertext, !plaintext) -> !ciphertext
    %ct_1329 = cheddar.mult_plain %ctx, %ct_556, %extracted_404 : (!context, !ciphertext, !plaintext) -> !ciphertext
    %ct_1330 = cheddar.mult_plain %ctx, %ct_558, %extracted_405 : (!context, !ciphertext, !plaintext) -> !ciphertext
    %ct_1331 = cheddar.mult_plain %ctx, %ct_560, %extracted_406 : (!context, !ciphertext, !plaintext) -> !ciphertext
    %ct_1332 = cheddar.mult_plain %ctx, %ct_562, %extracted_407 : (!context, !ciphertext, !plaintext) -> !ciphertext
    %ct_1333 = cheddar.mult_plain %ctx, %ct_564, %extracted_408 : (!context, !ciphertext, !plaintext) -> !ciphertext
    %ct_1334 = cheddar.mult_plain %ctx, %ct_566, %extracted_409 : (!context, !ciphertext, !plaintext) -> !ciphertext
    %ct_1335 = cheddar.mult_plain %ctx, %ct_568, %extracted_410 : (!context, !ciphertext, !plaintext) -> !ciphertext
    %ct_1336 = cheddar.mult_plain %ctx, %ct_570, %extracted_411 : (!context, !ciphertext, !plaintext) -> !ciphertext
    %ct_1337 = cheddar.mult_plain %ctx, %ct_572, %extracted_412 : (!context, !ciphertext, !plaintext) -> !ciphertext
    %ct_1338 = cheddar.mult_plain %ctx, %ct_574, %extracted_413 : (!context, !ciphertext, !plaintext) -> !ciphertext
    %ct_1339 = cheddar.mult_plain %ctx, %ct_576, %extracted_414 : (!context, !ciphertext, !plaintext) -> !ciphertext
    %ct_1340 = cheddar.mult_plain %ctx, %ct_578, %extracted_415 : (!context, !ciphertext, !plaintext) -> !ciphertext
    %ct_1341 = cheddar.mult_plain %ctx, %ct_580, %extracted_416 : (!context, !ciphertext, !plaintext) -> !ciphertext
    %ct_1342 = cheddar.mult_plain %ctx, %ct_582, %extracted_417 : (!context, !ciphertext, !plaintext) -> !ciphertext
    %ct_1343 = cheddar.add %ctx, %ct_1320, %ct_1321 : (!context, !ciphertext, !ciphertext) -> !ciphertext
    %ct_1344 = cheddar.add %ctx, %ct_1322, %ct_1323 : (!context, !ciphertext, !ciphertext) -> !ciphertext
    %ct_1345 = cheddar.add %ctx, %ct_1344, %ct_1324 : (!context, !ciphertext, !ciphertext) -> !ciphertext
    %ct_1346 = cheddar.add %ctx, %ct_1343, %ct_1345 : (!context, !ciphertext, !ciphertext) -> !ciphertext
    %ct_1347 = cheddar.add %ctx, %ct_1325, %ct_1326 : (!context, !ciphertext, !ciphertext) -> !ciphertext
    %ct_1348 = cheddar.add %ctx, %ct_1347, %ct_1327 : (!context, !ciphertext, !ciphertext) -> !ciphertext
    %ct_1349 = cheddar.add %ctx, %ct_1328, %ct_1329 : (!context, !ciphertext, !ciphertext) -> !ciphertext
    %ct_1350 = cheddar.add %ctx, %ct_1349, %ct_1330 : (!context, !ciphertext, !ciphertext) -> !ciphertext
    %ct_1351 = cheddar.add %ctx, %ct_1348, %ct_1350 : (!context, !ciphertext, !ciphertext) -> !ciphertext
    %ct_1352 = cheddar.add %ctx, %ct_1346, %ct_1351 : (!context, !ciphertext, !ciphertext) -> !ciphertext
    %ct_1353 = cheddar.add %ctx, %ct_1331, %ct_1332 : (!context, !ciphertext, !ciphertext) -> !ciphertext
    %ct_1354 = cheddar.add %ctx, %ct_1353, %ct_1333 : (!context, !ciphertext, !ciphertext) -> !ciphertext
    %ct_1355 = cheddar.add %ctx, %ct_1334, %ct_1335 : (!context, !ciphertext, !ciphertext) -> !ciphertext
    %ct_1356 = cheddar.add %ctx, %ct_1355, %ct_1336 : (!context, !ciphertext, !ciphertext) -> !ciphertext
    %ct_1357 = cheddar.add %ctx, %ct_1354, %ct_1356 : (!context, !ciphertext, !ciphertext) -> !ciphertext
    %ct_1358 = cheddar.add %ctx, %ct_1337, %ct_1338 : (!context, !ciphertext, !ciphertext) -> !ciphertext
    %ct_1359 = cheddar.add %ctx, %ct_1358, %ct_1339 : (!context, !ciphertext, !ciphertext) -> !ciphertext
    %ct_1360 = cheddar.add %ctx, %ct_1340, %ct_1341 : (!context, !ciphertext, !ciphertext) -> !ciphertext
    %ct_1361 = cheddar.add %ctx, %ct_1360, %ct_1342 : (!context, !ciphertext, !ciphertext) -> !ciphertext
    %ct_1362 = cheddar.add %ctx, %ct_1359, %ct_1361 : (!context, !ciphertext, !ciphertext) -> !ciphertext
    %ct_1363 = cheddar.add %ctx, %ct_1357, %ct_1362 : (!context, !ciphertext, !ciphertext) -> !ciphertext
    %ct_1364 = cheddar.add %ctx, %ct_1352, %ct_1363 : (!context, !ciphertext, !ciphertext) -> !ciphertext
    %ct_1365 = cheddar.hrot %ctx, %ct_1364, %c391 : (!context, !ciphertext, index) -> !ciphertext
    %ct_1366 = cheddar.mult_plain %ctx, %extracted_539, %extracted_418 : (!context, !ciphertext, !plaintext) -> !ciphertext
    %ct_1367 = cheddar.mult_plain %ctx, %ct_540, %extracted_419 : (!context, !ciphertext, !plaintext) -> !ciphertext
    %ct_1368 = cheddar.mult_plain %ctx, %ct_542, %extracted_420 : (!context, !ciphertext, !plaintext) -> !ciphertext
    %ct_1369 = cheddar.mult_plain %ctx, %ct_544, %extracted_421 : (!context, !ciphertext, !plaintext) -> !ciphertext
    %ct_1370 = cheddar.mult_plain %ctx, %ct_546, %extracted_422 : (!context, !ciphertext, !plaintext) -> !ciphertext
    %ct_1371 = cheddar.mult_plain %ctx, %ct_548, %extracted_423 : (!context, !ciphertext, !plaintext) -> !ciphertext
    %ct_1372 = cheddar.mult_plain %ctx, %ct_550, %extracted_424 : (!context, !ciphertext, !plaintext) -> !ciphertext
    %ct_1373 = cheddar.mult_plain %ctx, %ct_552, %extracted_425 : (!context, !ciphertext, !plaintext) -> !ciphertext
    %ct_1374 = cheddar.mult_plain %ctx, %ct_554, %extracted_426 : (!context, !ciphertext, !plaintext) -> !ciphertext
    %ct_1375 = cheddar.mult_plain %ctx, %ct_556, %extracted_427 : (!context, !ciphertext, !plaintext) -> !ciphertext
    %ct_1376 = cheddar.mult_plain %ctx, %ct_558, %extracted_428 : (!context, !ciphertext, !plaintext) -> !ciphertext
    %ct_1377 = cheddar.mult_plain %ctx, %ct_560, %extracted_429 : (!context, !ciphertext, !plaintext) -> !ciphertext
    %ct_1378 = cheddar.mult_plain %ctx, %ct_562, %extracted_430 : (!context, !ciphertext, !plaintext) -> !ciphertext
    %ct_1379 = cheddar.mult_plain %ctx, %ct_564, %extracted_431 : (!context, !ciphertext, !plaintext) -> !ciphertext
    %ct_1380 = cheddar.mult_plain %ctx, %ct_566, %extracted_432 : (!context, !ciphertext, !plaintext) -> !ciphertext
    %ct_1381 = cheddar.mult_plain %ctx, %ct_568, %extracted_433 : (!context, !ciphertext, !plaintext) -> !ciphertext
    %ct_1382 = cheddar.mult_plain %ctx, %ct_570, %extracted_434 : (!context, !ciphertext, !plaintext) -> !ciphertext
    %ct_1383 = cheddar.mult_plain %ctx, %ct_572, %extracted_435 : (!context, !ciphertext, !plaintext) -> !ciphertext
    %ct_1384 = cheddar.mult_plain %ctx, %ct_574, %extracted_436 : (!context, !ciphertext, !plaintext) -> !ciphertext
    %ct_1385 = cheddar.mult_plain %ctx, %ct_576, %extracted_437 : (!context, !ciphertext, !plaintext) -> !ciphertext
    %ct_1386 = cheddar.mult_plain %ctx, %ct_578, %extracted_438 : (!context, !ciphertext, !plaintext) -> !ciphertext
    %ct_1387 = cheddar.mult_plain %ctx, %ct_580, %extracted_439 : (!context, !ciphertext, !plaintext) -> !ciphertext
    %ct_1388 = cheddar.mult_plain %ctx, %ct_582, %extracted_440 : (!context, !ciphertext, !plaintext) -> !ciphertext
    %ct_1389 = cheddar.add %ctx, %ct_1366, %ct_1367 : (!context, !ciphertext, !ciphertext) -> !ciphertext
    %ct_1390 = cheddar.add %ctx, %ct_1368, %ct_1369 : (!context, !ciphertext, !ciphertext) -> !ciphertext
    %ct_1391 = cheddar.add %ctx, %ct_1390, %ct_1370 : (!context, !ciphertext, !ciphertext) -> !ciphertext
    %ct_1392 = cheddar.add %ctx, %ct_1389, %ct_1391 : (!context, !ciphertext, !ciphertext) -> !ciphertext
    %ct_1393 = cheddar.add %ctx, %ct_1371, %ct_1372 : (!context, !ciphertext, !ciphertext) -> !ciphertext
    %ct_1394 = cheddar.add %ctx, %ct_1393, %ct_1373 : (!context, !ciphertext, !ciphertext) -> !ciphertext
    %ct_1395 = cheddar.add %ctx, %ct_1374, %ct_1375 : (!context, !ciphertext, !ciphertext) -> !ciphertext
    %ct_1396 = cheddar.add %ctx, %ct_1395, %ct_1376 : (!context, !ciphertext, !ciphertext) -> !ciphertext
    %ct_1397 = cheddar.add %ctx, %ct_1394, %ct_1396 : (!context, !ciphertext, !ciphertext) -> !ciphertext
    %ct_1398 = cheddar.add %ctx, %ct_1392, %ct_1397 : (!context, !ciphertext, !ciphertext) -> !ciphertext
    %ct_1399 = cheddar.add %ctx, %ct_1377, %ct_1378 : (!context, !ciphertext, !ciphertext) -> !ciphertext
    %ct_1400 = cheddar.add %ctx, %ct_1399, %ct_1379 : (!context, !ciphertext, !ciphertext) -> !ciphertext
    %ct_1401 = cheddar.add %ctx, %ct_1380, %ct_1381 : (!context, !ciphertext, !ciphertext) -> !ciphertext
    %ct_1402 = cheddar.add %ctx, %ct_1401, %ct_1382 : (!context, !ciphertext, !ciphertext) -> !ciphertext
    %ct_1403 = cheddar.add %ctx, %ct_1400, %ct_1402 : (!context, !ciphertext, !ciphertext) -> !ciphertext
    %ct_1404 = cheddar.add %ctx, %ct_1383, %ct_1384 : (!context, !ciphertext, !ciphertext) -> !ciphertext
    %ct_1405 = cheddar.add %ctx, %ct_1404, %ct_1385 : (!context, !ciphertext, !ciphertext) -> !ciphertext
    %ct_1406 = cheddar.add %ctx, %ct_1386, %ct_1387 : (!context, !ciphertext, !ciphertext) -> !ciphertext
    %ct_1407 = cheddar.add %ctx, %ct_1406, %ct_1388 : (!context, !ciphertext, !ciphertext) -> !ciphertext
    %ct_1408 = cheddar.add %ctx, %ct_1405, %ct_1407 : (!context, !ciphertext, !ciphertext) -> !ciphertext
    %ct_1409 = cheddar.add %ctx, %ct_1403, %ct_1408 : (!context, !ciphertext, !ciphertext) -> !ciphertext
    %ct_1410 = cheddar.add %ctx, %ct_1398, %ct_1409 : (!context, !ciphertext, !ciphertext) -> !ciphertext
    %ct_1411 = cheddar.hrot %ctx, %ct_1410, %c414 : (!context, !ciphertext, index) -> !ciphertext
    %ct_1412 = cheddar.mult_plain %ctx, %extracted_539, %extracted_441 : (!context, !ciphertext, !plaintext) -> !ciphertext
    %ct_1413 = cheddar.mult_plain %ctx, %ct_540, %extracted_442 : (!context, !ciphertext, !plaintext) -> !ciphertext
    %ct_1414 = cheddar.mult_plain %ctx, %ct_542, %extracted_443 : (!context, !ciphertext, !plaintext) -> !ciphertext
    %ct_1415 = cheddar.mult_plain %ctx, %ct_544, %extracted_444 : (!context, !ciphertext, !plaintext) -> !ciphertext
    %ct_1416 = cheddar.mult_plain %ctx, %ct_546, %extracted_445 : (!context, !ciphertext, !plaintext) -> !ciphertext
    %ct_1417 = cheddar.mult_plain %ctx, %ct_548, %extracted_446 : (!context, !ciphertext, !plaintext) -> !ciphertext
    %ct_1418 = cheddar.mult_plain %ctx, %ct_550, %extracted_447 : (!context, !ciphertext, !plaintext) -> !ciphertext
    %ct_1419 = cheddar.mult_plain %ctx, %ct_552, %extracted_448 : (!context, !ciphertext, !plaintext) -> !ciphertext
    %ct_1420 = cheddar.mult_plain %ctx, %ct_554, %extracted_449 : (!context, !ciphertext, !plaintext) -> !ciphertext
    %ct_1421 = cheddar.mult_plain %ctx, %ct_556, %extracted_450 : (!context, !ciphertext, !plaintext) -> !ciphertext
    %ct_1422 = cheddar.mult_plain %ctx, %ct_558, %extracted_451 : (!context, !ciphertext, !plaintext) -> !ciphertext
    %ct_1423 = cheddar.mult_plain %ctx, %ct_560, %extracted_452 : (!context, !ciphertext, !plaintext) -> !ciphertext
    %ct_1424 = cheddar.mult_plain %ctx, %ct_562, %extracted_453 : (!context, !ciphertext, !plaintext) -> !ciphertext
    %ct_1425 = cheddar.mult_plain %ctx, %ct_564, %extracted_454 : (!context, !ciphertext, !plaintext) -> !ciphertext
    %ct_1426 = cheddar.mult_plain %ctx, %ct_566, %extracted_455 : (!context, !ciphertext, !plaintext) -> !ciphertext
    %ct_1427 = cheddar.mult_plain %ctx, %ct_568, %extracted_456 : (!context, !ciphertext, !plaintext) -> !ciphertext
    %ct_1428 = cheddar.mult_plain %ctx, %ct_570, %extracted_457 : (!context, !ciphertext, !plaintext) -> !ciphertext
    %ct_1429 = cheddar.mult_plain %ctx, %ct_572, %extracted_458 : (!context, !ciphertext, !plaintext) -> !ciphertext
    %ct_1430 = cheddar.mult_plain %ctx, %ct_574, %extracted_459 : (!context, !ciphertext, !plaintext) -> !ciphertext
    %ct_1431 = cheddar.mult_plain %ctx, %ct_576, %extracted_460 : (!context, !ciphertext, !plaintext) -> !ciphertext
    %ct_1432 = cheddar.mult_plain %ctx, %ct_578, %extracted_461 : (!context, !ciphertext, !plaintext) -> !ciphertext
    %ct_1433 = cheddar.mult_plain %ctx, %ct_580, %extracted_462 : (!context, !ciphertext, !plaintext) -> !ciphertext
    %ct_1434 = cheddar.mult_plain %ctx, %ct_582, %extracted_463 : (!context, !ciphertext, !plaintext) -> !ciphertext
    %ct_1435 = cheddar.add %ctx, %ct_1412, %ct_1413 : (!context, !ciphertext, !ciphertext) -> !ciphertext
    %ct_1436 = cheddar.add %ctx, %ct_1414, %ct_1415 : (!context, !ciphertext, !ciphertext) -> !ciphertext
    %ct_1437 = cheddar.add %ctx, %ct_1436, %ct_1416 : (!context, !ciphertext, !ciphertext) -> !ciphertext
    %ct_1438 = cheddar.add %ctx, %ct_1435, %ct_1437 : (!context, !ciphertext, !ciphertext) -> !ciphertext
    %ct_1439 = cheddar.add %ctx, %ct_1417, %ct_1418 : (!context, !ciphertext, !ciphertext) -> !ciphertext
    %ct_1440 = cheddar.add %ctx, %ct_1439, %ct_1419 : (!context, !ciphertext, !ciphertext) -> !ciphertext
    %ct_1441 = cheddar.add %ctx, %ct_1420, %ct_1421 : (!context, !ciphertext, !ciphertext) -> !ciphertext
    %ct_1442 = cheddar.add %ctx, %ct_1441, %ct_1422 : (!context, !ciphertext, !ciphertext) -> !ciphertext
    %ct_1443 = cheddar.add %ctx, %ct_1440, %ct_1442 : (!context, !ciphertext, !ciphertext) -> !ciphertext
    %ct_1444 = cheddar.add %ctx, %ct_1438, %ct_1443 : (!context, !ciphertext, !ciphertext) -> !ciphertext
    %ct_1445 = cheddar.add %ctx, %ct_1423, %ct_1424 : (!context, !ciphertext, !ciphertext) -> !ciphertext
    %ct_1446 = cheddar.add %ctx, %ct_1445, %ct_1425 : (!context, !ciphertext, !ciphertext) -> !ciphertext
    %ct_1447 = cheddar.add %ctx, %ct_1426, %ct_1427 : (!context, !ciphertext, !ciphertext) -> !ciphertext
    %ct_1448 = cheddar.add %ctx, %ct_1447, %ct_1428 : (!context, !ciphertext, !ciphertext) -> !ciphertext
    %ct_1449 = cheddar.add %ctx, %ct_1446, %ct_1448 : (!context, !ciphertext, !ciphertext) -> !ciphertext
    %ct_1450 = cheddar.add %ctx, %ct_1429, %ct_1430 : (!context, !ciphertext, !ciphertext) -> !ciphertext
    %ct_1451 = cheddar.add %ctx, %ct_1450, %ct_1431 : (!context, !ciphertext, !ciphertext) -> !ciphertext
    %ct_1452 = cheddar.add %ctx, %ct_1432, %ct_1433 : (!context, !ciphertext, !ciphertext) -> !ciphertext
    %ct_1453 = cheddar.add %ctx, %ct_1452, %ct_1434 : (!context, !ciphertext, !ciphertext) -> !ciphertext
    %ct_1454 = cheddar.add %ctx, %ct_1451, %ct_1453 : (!context, !ciphertext, !ciphertext) -> !ciphertext
    %ct_1455 = cheddar.add %ctx, %ct_1449, %ct_1454 : (!context, !ciphertext, !ciphertext) -> !ciphertext
    %ct_1456 = cheddar.add %ctx, %ct_1444, %ct_1455 : (!context, !ciphertext, !ciphertext) -> !ciphertext
    %ct_1457 = cheddar.hrot %ctx, %ct_1456, %c437 : (!context, !ciphertext, index) -> !ciphertext
    %ct_1458 = cheddar.mult_plain %ctx, %extracted_539, %extracted_464 : (!context, !ciphertext, !plaintext) -> !ciphertext
    %ct_1459 = cheddar.mult_plain %ctx, %ct_540, %extracted_465 : (!context, !ciphertext, !plaintext) -> !ciphertext
    %ct_1460 = cheddar.mult_plain %ctx, %ct_542, %extracted_466 : (!context, !ciphertext, !plaintext) -> !ciphertext
    %ct_1461 = cheddar.mult_plain %ctx, %ct_544, %extracted_467 : (!context, !ciphertext, !plaintext) -> !ciphertext
    %ct_1462 = cheddar.mult_plain %ctx, %ct_546, %extracted_468 : (!context, !ciphertext, !plaintext) -> !ciphertext
    %ct_1463 = cheddar.mult_plain %ctx, %ct_548, %extracted_469 : (!context, !ciphertext, !plaintext) -> !ciphertext
    %ct_1464 = cheddar.mult_plain %ctx, %ct_550, %extracted_470 : (!context, !ciphertext, !plaintext) -> !ciphertext
    %ct_1465 = cheddar.mult_plain %ctx, %ct_552, %extracted_471 : (!context, !ciphertext, !plaintext) -> !ciphertext
    %ct_1466 = cheddar.mult_plain %ctx, %ct_554, %extracted_472 : (!context, !ciphertext, !plaintext) -> !ciphertext
    %ct_1467 = cheddar.mult_plain %ctx, %ct_556, %extracted_473 : (!context, !ciphertext, !plaintext) -> !ciphertext
    %ct_1468 = cheddar.mult_plain %ctx, %ct_558, %extracted_474 : (!context, !ciphertext, !plaintext) -> !ciphertext
    %ct_1469 = cheddar.mult_plain %ctx, %ct_560, %extracted_475 : (!context, !ciphertext, !plaintext) -> !ciphertext
    %ct_1470 = cheddar.mult_plain %ctx, %ct_562, %extracted_476 : (!context, !ciphertext, !plaintext) -> !ciphertext
    %ct_1471 = cheddar.mult_plain %ctx, %ct_564, %extracted_477 : (!context, !ciphertext, !plaintext) -> !ciphertext
    %ct_1472 = cheddar.mult_plain %ctx, %ct_566, %extracted_478 : (!context, !ciphertext, !plaintext) -> !ciphertext
    %ct_1473 = cheddar.mult_plain %ctx, %ct_568, %extracted_479 : (!context, !ciphertext, !plaintext) -> !ciphertext
    %ct_1474 = cheddar.mult_plain %ctx, %ct_570, %extracted_480 : (!context, !ciphertext, !plaintext) -> !ciphertext
    %ct_1475 = cheddar.mult_plain %ctx, %ct_572, %extracted_481 : (!context, !ciphertext, !plaintext) -> !ciphertext
    %ct_1476 = cheddar.mult_plain %ctx, %ct_574, %extracted_482 : (!context, !ciphertext, !plaintext) -> !ciphertext
    %ct_1477 = cheddar.mult_plain %ctx, %ct_576, %extracted_483 : (!context, !ciphertext, !plaintext) -> !ciphertext
    %ct_1478 = cheddar.mult_plain %ctx, %ct_578, %extracted_484 : (!context, !ciphertext, !plaintext) -> !ciphertext
    %ct_1479 = cheddar.mult_plain %ctx, %ct_580, %extracted_485 : (!context, !ciphertext, !plaintext) -> !ciphertext
    %ct_1480 = cheddar.mult_plain %ctx, %ct_582, %extracted_486 : (!context, !ciphertext, !plaintext) -> !ciphertext
    %ct_1481 = cheddar.add %ctx, %ct_1458, %ct_1459 : (!context, !ciphertext, !ciphertext) -> !ciphertext
    %ct_1482 = cheddar.add %ctx, %ct_1460, %ct_1461 : (!context, !ciphertext, !ciphertext) -> !ciphertext
    %ct_1483 = cheddar.add %ctx, %ct_1482, %ct_1462 : (!context, !ciphertext, !ciphertext) -> !ciphertext
    %ct_1484 = cheddar.add %ctx, %ct_1481, %ct_1483 : (!context, !ciphertext, !ciphertext) -> !ciphertext
    %ct_1485 = cheddar.add %ctx, %ct_1463, %ct_1464 : (!context, !ciphertext, !ciphertext) -> !ciphertext
    %ct_1486 = cheddar.add %ctx, %ct_1485, %ct_1465 : (!context, !ciphertext, !ciphertext) -> !ciphertext
    %ct_1487 = cheddar.add %ctx, %ct_1466, %ct_1467 : (!context, !ciphertext, !ciphertext) -> !ciphertext
    %ct_1488 = cheddar.add %ctx, %ct_1487, %ct_1468 : (!context, !ciphertext, !ciphertext) -> !ciphertext
    %ct_1489 = cheddar.add %ctx, %ct_1486, %ct_1488 : (!context, !ciphertext, !ciphertext) -> !ciphertext
    %ct_1490 = cheddar.add %ctx, %ct_1484, %ct_1489 : (!context, !ciphertext, !ciphertext) -> !ciphertext
    %ct_1491 = cheddar.add %ctx, %ct_1469, %ct_1470 : (!context, !ciphertext, !ciphertext) -> !ciphertext
    %ct_1492 = cheddar.add %ctx, %ct_1491, %ct_1471 : (!context, !ciphertext, !ciphertext) -> !ciphertext
    %ct_1493 = cheddar.add %ctx, %ct_1472, %ct_1473 : (!context, !ciphertext, !ciphertext) -> !ciphertext
    %ct_1494 = cheddar.add %ctx, %ct_1493, %ct_1474 : (!context, !ciphertext, !ciphertext) -> !ciphertext
    %ct_1495 = cheddar.add %ctx, %ct_1492, %ct_1494 : (!context, !ciphertext, !ciphertext) -> !ciphertext
    %ct_1496 = cheddar.add %ctx, %ct_1475, %ct_1476 : (!context, !ciphertext, !ciphertext) -> !ciphertext
    %ct_1497 = cheddar.add %ctx, %ct_1496, %ct_1477 : (!context, !ciphertext, !ciphertext) -> !ciphertext
    %ct_1498 = cheddar.add %ctx, %ct_1478, %ct_1479 : (!context, !ciphertext, !ciphertext) -> !ciphertext
    %ct_1499 = cheddar.add %ctx, %ct_1498, %ct_1480 : (!context, !ciphertext, !ciphertext) -> !ciphertext
    %ct_1500 = cheddar.add %ctx, %ct_1497, %ct_1499 : (!context, !ciphertext, !ciphertext) -> !ciphertext
    %ct_1501 = cheddar.add %ctx, %ct_1495, %ct_1500 : (!context, !ciphertext, !ciphertext) -> !ciphertext
    %ct_1502 = cheddar.add %ctx, %ct_1490, %ct_1501 : (!context, !ciphertext, !ciphertext) -> !ciphertext
    %ct_1503 = cheddar.hrot %ctx, %ct_1502, %c460 : (!context, !ciphertext, index) -> !ciphertext
    %ct_1504 = cheddar.mult_plain %ctx, %extracted_539, %extracted_487 : (!context, !ciphertext, !plaintext) -> !ciphertext
    %ct_1505 = cheddar.mult_plain %ctx, %ct_540, %extracted_488 : (!context, !ciphertext, !plaintext) -> !ciphertext
    %ct_1506 = cheddar.mult_plain %ctx, %ct_542, %extracted_489 : (!context, !ciphertext, !plaintext) -> !ciphertext
    %ct_1507 = cheddar.mult_plain %ctx, %ct_544, %extracted_490 : (!context, !ciphertext, !plaintext) -> !ciphertext
    %ct_1508 = cheddar.mult_plain %ctx, %ct_546, %extracted_491 : (!context, !ciphertext, !plaintext) -> !ciphertext
    %ct_1509 = cheddar.mult_plain %ctx, %ct_548, %extracted_492 : (!context, !ciphertext, !plaintext) -> !ciphertext
    %ct_1510 = cheddar.mult_plain %ctx, %ct_550, %extracted_493 : (!context, !ciphertext, !plaintext) -> !ciphertext
    %ct_1511 = cheddar.mult_plain %ctx, %ct_552, %extracted_494 : (!context, !ciphertext, !plaintext) -> !ciphertext
    %ct_1512 = cheddar.mult_plain %ctx, %ct_554, %extracted_495 : (!context, !ciphertext, !plaintext) -> !ciphertext
    %ct_1513 = cheddar.mult_plain %ctx, %ct_556, %extracted_496 : (!context, !ciphertext, !plaintext) -> !ciphertext
    %ct_1514 = cheddar.mult_plain %ctx, %ct_558, %extracted_497 : (!context, !ciphertext, !plaintext) -> !ciphertext
    %ct_1515 = cheddar.mult_plain %ctx, %ct_560, %extracted_498 : (!context, !ciphertext, !plaintext) -> !ciphertext
    %ct_1516 = cheddar.mult_plain %ctx, %ct_562, %extracted_499 : (!context, !ciphertext, !plaintext) -> !ciphertext
    %ct_1517 = cheddar.mult_plain %ctx, %ct_564, %extracted_500 : (!context, !ciphertext, !plaintext) -> !ciphertext
    %ct_1518 = cheddar.mult_plain %ctx, %ct_566, %extracted_501 : (!context, !ciphertext, !plaintext) -> !ciphertext
    %ct_1519 = cheddar.mult_plain %ctx, %ct_568, %extracted_502 : (!context, !ciphertext, !plaintext) -> !ciphertext
    %ct_1520 = cheddar.mult_plain %ctx, %ct_570, %extracted_503 : (!context, !ciphertext, !plaintext) -> !ciphertext
    %ct_1521 = cheddar.mult_plain %ctx, %ct_572, %extracted_504 : (!context, !ciphertext, !plaintext) -> !ciphertext
    %ct_1522 = cheddar.mult_plain %ctx, %ct_574, %extracted_505 : (!context, !ciphertext, !plaintext) -> !ciphertext
    %ct_1523 = cheddar.mult_plain %ctx, %ct_576, %extracted_506 : (!context, !ciphertext, !plaintext) -> !ciphertext
    %ct_1524 = cheddar.mult_plain %ctx, %ct_578, %extracted_507 : (!context, !ciphertext, !plaintext) -> !ciphertext
    %ct_1525 = cheddar.mult_plain %ctx, %ct_580, %extracted_508 : (!context, !ciphertext, !plaintext) -> !ciphertext
    %ct_1526 = cheddar.mult_plain %ctx, %ct_582, %extracted_509 : (!context, !ciphertext, !plaintext) -> !ciphertext
    %ct_1527 = cheddar.add %ctx, %ct_1504, %ct_1505 : (!context, !ciphertext, !ciphertext) -> !ciphertext
    %ct_1528 = cheddar.add %ctx, %ct_1506, %ct_1507 : (!context, !ciphertext, !ciphertext) -> !ciphertext
    %ct_1529 = cheddar.add %ctx, %ct_1528, %ct_1508 : (!context, !ciphertext, !ciphertext) -> !ciphertext
    %ct_1530 = cheddar.add %ctx, %ct_1527, %ct_1529 : (!context, !ciphertext, !ciphertext) -> !ciphertext
    %ct_1531 = cheddar.add %ctx, %ct_1509, %ct_1510 : (!context, !ciphertext, !ciphertext) -> !ciphertext
    %ct_1532 = cheddar.add %ctx, %ct_1531, %ct_1511 : (!context, !ciphertext, !ciphertext) -> !ciphertext
    %ct_1533 = cheddar.add %ctx, %ct_1512, %ct_1513 : (!context, !ciphertext, !ciphertext) -> !ciphertext
    %ct_1534 = cheddar.add %ctx, %ct_1533, %ct_1514 : (!context, !ciphertext, !ciphertext) -> !ciphertext
    %ct_1535 = cheddar.add %ctx, %ct_1532, %ct_1534 : (!context, !ciphertext, !ciphertext) -> !ciphertext
    %ct_1536 = cheddar.add %ctx, %ct_1530, %ct_1535 : (!context, !ciphertext, !ciphertext) -> !ciphertext
    %ct_1537 = cheddar.add %ctx, %ct_1515, %ct_1516 : (!context, !ciphertext, !ciphertext) -> !ciphertext
    %ct_1538 = cheddar.add %ctx, %ct_1537, %ct_1517 : (!context, !ciphertext, !ciphertext) -> !ciphertext
    %ct_1539 = cheddar.add %ctx, %ct_1518, %ct_1519 : (!context, !ciphertext, !ciphertext) -> !ciphertext
    %ct_1540 = cheddar.add %ctx, %ct_1539, %ct_1520 : (!context, !ciphertext, !ciphertext) -> !ciphertext
    %ct_1541 = cheddar.add %ctx, %ct_1538, %ct_1540 : (!context, !ciphertext, !ciphertext) -> !ciphertext
    %ct_1542 = cheddar.add %ctx, %ct_1521, %ct_1522 : (!context, !ciphertext, !ciphertext) -> !ciphertext
    %ct_1543 = cheddar.add %ctx, %ct_1542, %ct_1523 : (!context, !ciphertext, !ciphertext) -> !ciphertext
    %ct_1544 = cheddar.add %ctx, %ct_1524, %ct_1525 : (!context, !ciphertext, !ciphertext) -> !ciphertext
    %ct_1545 = cheddar.add %ctx, %ct_1544, %ct_1526 : (!context, !ciphertext, !ciphertext) -> !ciphertext
    %ct_1546 = cheddar.add %ctx, %ct_1543, %ct_1545 : (!context, !ciphertext, !ciphertext) -> !ciphertext
    %ct_1547 = cheddar.add %ctx, %ct_1541, %ct_1546 : (!context, !ciphertext, !ciphertext) -> !ciphertext
    %ct_1548 = cheddar.add %ctx, %ct_1536, %ct_1547 : (!context, !ciphertext, !ciphertext) -> !ciphertext
    %ct_1549 = cheddar.hrot %ctx, %ct_1548, %c483 : (!context, !ciphertext, index) -> !ciphertext
    %ct_1550 = cheddar.mult_plain %ctx, %extracted_539, %extracted_510 : (!context, !ciphertext, !plaintext) -> !ciphertext
    %ct_1551 = cheddar.mult_plain %ctx, %ct_540, %extracted_511 : (!context, !ciphertext, !plaintext) -> !ciphertext
    %ct_1552 = cheddar.mult_plain %ctx, %ct_542, %extracted_512 : (!context, !ciphertext, !plaintext) -> !ciphertext
    %ct_1553 = cheddar.mult_plain %ctx, %ct_544, %extracted_513 : (!context, !ciphertext, !plaintext) -> !ciphertext
    %ct_1554 = cheddar.mult_plain %ctx, %ct_546, %extracted_514 : (!context, !ciphertext, !plaintext) -> !ciphertext
    %ct_1555 = cheddar.mult_plain %ctx, %ct_548, %extracted_515 : (!context, !ciphertext, !plaintext) -> !ciphertext
    %ct_1556 = cheddar.add %ctx, %ct_1550, %ct_1551 : (!context, !ciphertext, !ciphertext) -> !ciphertext
    %ct_1557 = cheddar.add %ctx, %ct_1556, %ct_1552 : (!context, !ciphertext, !ciphertext) -> !ciphertext
    %ct_1558 = cheddar.add %ctx, %ct_1553, %ct_1554 : (!context, !ciphertext, !ciphertext) -> !ciphertext
    %ct_1559 = cheddar.add %ctx, %ct_1558, %ct_1555 : (!context, !ciphertext, !ciphertext) -> !ciphertext
    %ct_1560 = cheddar.add %ctx, %ct_1557, %ct_1559 : (!context, !ciphertext, !ciphertext) -> !ciphertext
    %ct_1561 = cheddar.hrot %ctx, %ct_1560, %c506 : (!context, !ciphertext, index) -> !ciphertext
    %ct_1562 = cheddar.add %ctx, %ct, %ct_541 : (!context, !ciphertext, !ciphertext) -> !ciphertext
    %ct_1563 = cheddar.add %ctx, %ct_543, %ct_545 : (!context, !ciphertext, !ciphertext) -> !ciphertext
    %ct_1564 = cheddar.add %ctx, %ct_1563, %ct_547 : (!context, !ciphertext, !ciphertext) -> !ciphertext
    %ct_1565 = cheddar.add %ctx, %ct_1562, %ct_1564 : (!context, !ciphertext, !ciphertext) -> !ciphertext
    %ct_1566 = cheddar.add %ctx, %ct_549, %ct_551 : (!context, !ciphertext, !ciphertext) -> !ciphertext
    %ct_1567 = cheddar.add %ctx, %ct_1566, %ct_553 : (!context, !ciphertext, !ciphertext) -> !ciphertext
    %ct_1568 = cheddar.add %ctx, %ct_555, %ct_557 : (!context, !ciphertext, !ciphertext) -> !ciphertext
    %ct_1569 = cheddar.add %ctx, %ct_1568, %ct_559 : (!context, !ciphertext, !ciphertext) -> !ciphertext
    %ct_1570 = cheddar.add %ctx, %ct_1567, %ct_1569 : (!context, !ciphertext, !ciphertext) -> !ciphertext
    %ct_1571 = cheddar.add %ctx, %ct_1565, %ct_1570 : (!context, !ciphertext, !ciphertext) -> !ciphertext
    %ct_1572 = cheddar.add %ctx, %ct_561, %ct_563 : (!context, !ciphertext, !ciphertext) -> !ciphertext
    %ct_1573 = cheddar.add %ctx, %ct_565, %ct_567 : (!context, !ciphertext, !ciphertext) -> !ciphertext
    %ct_1574 = cheddar.add %ctx, %ct_1573, %ct_569 : (!context, !ciphertext, !ciphertext) -> !ciphertext
    %ct_1575 = cheddar.add %ctx, %ct_1572, %ct_1574 : (!context, !ciphertext, !ciphertext) -> !ciphertext
    %ct_1576 = cheddar.add %ctx, %ct_571, %ct_573 : (!context, !ciphertext, !ciphertext) -> !ciphertext
    %ct_1577 = cheddar.add %ctx, %ct_1576, %ct_575 : (!context, !ciphertext, !ciphertext) -> !ciphertext
    %ct_1578 = cheddar.add %ctx, %ct_577, %ct_579 : (!context, !ciphertext, !ciphertext) -> !ciphertext
    %ct_1579 = cheddar.add %ctx, %ct_1578, %ct_581 : (!context, !ciphertext, !ciphertext) -> !ciphertext
    %ct_1580 = cheddar.add %ctx, %ct_1577, %ct_1579 : (!context, !ciphertext, !ciphertext) -> !ciphertext
    %ct_1581 = cheddar.add %ctx, %ct_1575, %ct_1580 : (!context, !ciphertext, !ciphertext) -> !ciphertext
    %ct_1582 = cheddar.add %ctx, %ct_1571, %ct_1581 : (!context, !ciphertext, !ciphertext) -> !ciphertext
    %ct_1583 = cheddar.add %ctx, %ct_583, %ct_629 : (!context, !ciphertext, !ciphertext) -> !ciphertext
    %ct_1584 = cheddar.add %ctx, %ct_675, %ct_721 : (!context, !ciphertext, !ciphertext) -> !ciphertext
    %ct_1585 = cheddar.add %ctx, %ct_1584, %ct_767 : (!context, !ciphertext, !ciphertext) -> !ciphertext
    %ct_1586 = cheddar.add %ctx, %ct_1583, %ct_1585 : (!context, !ciphertext, !ciphertext) -> !ciphertext
    %ct_1587 = cheddar.add %ctx, %ct_813, %ct_859 : (!context, !ciphertext, !ciphertext) -> !ciphertext
    %ct_1588 = cheddar.add %ctx, %ct_1587, %ct_905 : (!context, !ciphertext, !ciphertext) -> !ciphertext
    %ct_1589 = cheddar.add %ctx, %ct_951, %ct_997 : (!context, !ciphertext, !ciphertext) -> !ciphertext
    %ct_1590 = cheddar.add %ctx, %ct_1589, %ct_1043 : (!context, !ciphertext, !ciphertext) -> !ciphertext
    %ct_1591 = cheddar.add %ctx, %ct_1588, %ct_1590 : (!context, !ciphertext, !ciphertext) -> !ciphertext
    %ct_1592 = cheddar.add %ctx, %ct_1586, %ct_1591 : (!context, !ciphertext, !ciphertext) -> !ciphertext
    %ct_1593 = cheddar.add %ctx, %ct_1089, %ct_1135 : (!context, !ciphertext, !ciphertext) -> !ciphertext
    %ct_1594 = cheddar.add %ctx, %ct_1593, %ct_1181 : (!context, !ciphertext, !ciphertext) -> !ciphertext
    %ct_1595 = cheddar.add %ctx, %ct_1227, %ct_1273 : (!context, !ciphertext, !ciphertext) -> !ciphertext
    %ct_1596 = cheddar.add %ctx, %ct_1595, %ct_1319 : (!context, !ciphertext, !ciphertext) -> !ciphertext
    %ct_1597 = cheddar.add %ctx, %ct_1594, %ct_1596 : (!context, !ciphertext, !ciphertext) -> !ciphertext
    %ct_1598 = cheddar.add %ctx, %ct_1365, %ct_1411 : (!context, !ciphertext, !ciphertext) -> !ciphertext
    %ct_1599 = cheddar.add %ctx, %ct_1598, %ct_1457 : (!context, !ciphertext, !ciphertext) -> !ciphertext
    %ct_1600 = cheddar.add %ctx, %ct_1503, %ct_1549 : (!context, !ciphertext, !ciphertext) -> !ciphertext
    %ct_1601 = cheddar.add %ctx, %ct_1600, %ct_1561 : (!context, !ciphertext, !ciphertext) -> !ciphertext
    %ct_1602 = cheddar.add %ctx, %ct_1599, %ct_1601 : (!context, !ciphertext, !ciphertext) -> !ciphertext
    %ct_1603 = cheddar.add %ctx, %ct_1597, %ct_1602 : (!context, !ciphertext, !ciphertext) -> !ciphertext
    %ct_1604 = cheddar.add %ctx, %ct_1592, %ct_1603 : (!context, !ciphertext, !ciphertext) -> !ciphertext
    %ct_1605 = cheddar.add %ctx, %ct_1582, %ct_1604 : (!context, !ciphertext, !ciphertext) -> !ciphertext
    %ct_1606 = cheddar.hrot %ctx, %ct_1605, %c512 : (!context, !ciphertext, index) -> !ciphertext
    %ct_1607 = cheddar.add_plain %ctx, %ct_1605, %extracted : (!context, !ciphertext, !plaintext) -> !ciphertext
    %ct_1608 = cheddar.add %ctx, %ct_1607, %ct_1606 : (!context, !ciphertext, !ciphertext) -> !ciphertext
    %ct_1609 = cheddar.rescale %ctx, %ct_1608 : (!context, !ciphertext) -> !ciphertext
    %ct_1610 = cheddar.mult_plain %ctx, %ct_1609, %extracted_516 : (!context, !ciphertext, !plaintext) -> !ciphertext
    %ct_1611 = cheddar.rescale %ctx, %ct_1610 : (!context, !ciphertext) -> !ciphertext
    %ct_1612 = cheddar.mult_plain %ctx, %ct_1611, %extracted_517 : (!context, !ciphertext, !plaintext) -> !ciphertext
    %ct_1613 = cheddar.mult_plain %ctx, %ct_1611, %extracted_518 : (!context, !ciphertext, !plaintext) -> !ciphertext
    %ct_1614 = cheddar.rescale %ctx, %ct_1613 : (!context, !ciphertext) -> !ciphertext
    %ct_1615 = cheddar.level_down %ctx, %ct_1610 {targetLevel = 6 : i64} : (!context, !ciphertext) -> !ciphertext
    %ct_1616 = cheddar.rescale %ctx, %ct_1615 : (!context, !ciphertext) -> !ciphertext
    %ct_1617 = cheddar.mult %ctx, %ct_1614, %ct_1616 : (!context, !ciphertext, !ciphertext) -> !ciphertext
    %ct_1618 = cheddar.sub_plain %ctx, %ct_1617, %extracted_0 : (!context, !ciphertext, !plaintext) -> !ciphertext
    %ct_1619 = cheddar.relinearize %ctx, %ct_1618, %evk : (!context, !ciphertext, !eval_key) -> !ciphertext
    %ct_1620 = cheddar.rescale %ctx, %ct_1619 : (!context, !ciphertext) -> !ciphertext
    %ct_1621 = cheddar.mult_plain %ctx, %ct_1620, %extracted_519 : (!context, !ciphertext, !plaintext) -> !ciphertext
    %ct_1622 = cheddar.mult_plain %ctx, %ct_1620, %extracted_520 : (!context, !ciphertext, !plaintext) -> !ciphertext
    %ct_1623 = cheddar.rescale %ctx, %ct_1622 : (!context, !ciphertext) -> !ciphertext
    %ct_1624 = cheddar.level_down %ctx, %ct_1619 {targetLevel = 4 : i64} : (!context, !ciphertext) -> !ciphertext
    %ct_1625 = cheddar.rescale %ctx, %ct_1624 : (!context, !ciphertext) -> !ciphertext
    %ct_1626 = cheddar.mult %ctx, %ct_1623, %ct_1625 : (!context, !ciphertext, !ciphertext) -> !ciphertext
    %ct_1627 = cheddar.sub_plain %ctx, %ct_1626, %extracted_1 : (!context, !ciphertext, !plaintext) -> !ciphertext
    %ct_1628 = cheddar.relinearize %ctx, %ct_1627, %evk : (!context, !ciphertext, !eval_key) -> !ciphertext
    %ct_1629 = cheddar.rescale %ctx, %ct_1628 : (!context, !ciphertext) -> !ciphertext
    %ct_1630 = cheddar.mult_plain %ctx, %ct_1629, %extracted_521 : (!context, !ciphertext, !plaintext) -> !ciphertext
    %ct_1631 = cheddar.add_plain %ctx, %ct_1612, %extracted_2 : (!context, !ciphertext, !plaintext) -> !ciphertext
    %ct_1632 = cheddar.level_down %ctx, %ct_1621 {targetLevel = 3 : i64} : (!context, !ciphertext) -> !ciphertext
    %ct_1633 = cheddar.mult_plain %ctx, %ct_1632, %extracted_522 : (!context, !ciphertext, !plaintext) -> !ciphertext
    %ct_1634 = cheddar.rescale %ctx, %ct_1633 : (!context, !ciphertext) -> !ciphertext
    %ct_1635 = cheddar.add %ctx, %ct_1634, %ct_1630 : (!context, !ciphertext, !ciphertext) -> !ciphertext
    %ct_1636 = cheddar.level_down %ctx, %ct_1631 {targetLevel = 3 : i64} : (!context, !ciphertext) -> !ciphertext
    %ct_1637 = cheddar.mult_plain %ctx, %ct_1636, %extracted_522 : (!context, !ciphertext, !plaintext) -> !ciphertext
    %ct_1638 = cheddar.rescale %ctx, %ct_1637 : (!context, !ciphertext) -> !ciphertext
    %ct_1639 = cheddar.add %ctx, %ct_1638, %ct_1635 : (!context, !ciphertext, !ciphertext) -> !ciphertext
    %ct_1640 = cheddar.rescale %ctx, %ct_1639 : (!context, !ciphertext) -> !ciphertext
    %ct_1641 = cheddar.mult_plain %ctx, %ct_1640, %extracted_523 : (!context, !ciphertext, !plaintext) -> !ciphertext
    %ct_1642 = cheddar.hrot %ctx, %ct_1639, %c1 : (!context, !ciphertext, index) -> !ciphertext
    %ct_1643 = cheddar.rescale %ctx, %ct_1642 : (!context, !ciphertext) -> !ciphertext
    %ct_1644 = cheddar.mult_plain %ctx, %ct_1643, %extracted_524 : (!context, !ciphertext, !plaintext) -> !ciphertext
    %ct_1645 = cheddar.hrot %ctx, %ct_1639, %c2 : (!context, !ciphertext, index) -> !ciphertext
    %ct_1646 = cheddar.rescale %ctx, %ct_1645 : (!context, !ciphertext) -> !ciphertext
    %ct_1647 = cheddar.mult_plain %ctx, %ct_1646, %extracted_525 : (!context, !ciphertext, !plaintext) -> !ciphertext
    %ct_1648 = cheddar.hrot %ctx, %ct_1639, %c3 : (!context, !ciphertext, index) -> !ciphertext
    %ct_1649 = cheddar.rescale %ctx, %ct_1648 : (!context, !ciphertext) -> !ciphertext
    %ct_1650 = cheddar.mult_plain %ctx, %ct_1649, %extracted_526 : (!context, !ciphertext, !plaintext) -> !ciphertext
    %ct_1651 = cheddar.mult_plain %ctx, %ct_1640, %extracted_527 : (!context, !ciphertext, !plaintext) -> !ciphertext
    %ct_1652 = cheddar.mult_plain %ctx, %ct_1643, %extracted_528 : (!context, !ciphertext, !plaintext) -> !ciphertext
    %ct_1653 = cheddar.mult_plain %ctx, %ct_1646, %extracted_529 : (!context, !ciphertext, !plaintext) -> !ciphertext
    %ct_1654 = cheddar.mult_plain %ctx, %ct_1649, %extracted_530 : (!context, !ciphertext, !plaintext) -> !ciphertext
    %ct_1655 = cheddar.add %ctx, %ct_1651, %ct_1652 : (!context, !ciphertext, !ciphertext) -> !ciphertext
    %ct_1656 = cheddar.add %ctx, %ct_1653, %ct_1654 : (!context, !ciphertext, !ciphertext) -> !ciphertext
    %ct_1657 = cheddar.add %ctx, %ct_1655, %ct_1656 : (!context, !ciphertext, !ciphertext) -> !ciphertext
    %ct_1658 = cheddar.hrot %ctx, %ct_1657, %c4 : (!context, !ciphertext, index) -> !ciphertext
    %ct_1659 = cheddar.mult_plain %ctx, %ct_1640, %extracted_531 : (!context, !ciphertext, !plaintext) -> !ciphertext
    %ct_1660 = cheddar.mult_plain %ctx, %ct_1643, %extracted_532 : (!context, !ciphertext, !plaintext) -> !ciphertext
    %ct_1661 = cheddar.mult_plain %ctx, %ct_1646, %extracted_533 : (!context, !ciphertext, !plaintext) -> !ciphertext
    %ct_1662 = cheddar.mult_plain %ctx, %ct_1649, %extracted_534 : (!context, !ciphertext, !plaintext) -> !ciphertext
    %ct_1663 = cheddar.add %ctx, %ct_1659, %ct_1660 : (!context, !ciphertext, !ciphertext) -> !ciphertext
    %ct_1664 = cheddar.add %ctx, %ct_1661, %ct_1662 : (!context, !ciphertext, !ciphertext) -> !ciphertext
    %ct_1665 = cheddar.add %ctx, %ct_1663, %ct_1664 : (!context, !ciphertext, !ciphertext) -> !ciphertext
    %ct_1666 = cheddar.hrot %ctx, %ct_1665, %c8 : (!context, !ciphertext, index) -> !ciphertext
    %ct_1667 = cheddar.mult_plain %ctx, %ct_1640, %extracted_535 : (!context, !ciphertext, !plaintext) -> !ciphertext
    %ct_1668 = cheddar.mult_plain %ctx, %ct_1643, %extracted_536 : (!context, !ciphertext, !plaintext) -> !ciphertext
    %ct_1669 = cheddar.mult_plain %ctx, %ct_1646, %extracted_537 : (!context, !ciphertext, !plaintext) -> !ciphertext
    %ct_1670 = cheddar.mult_plain %ctx, %ct_1649, %extracted_538 : (!context, !ciphertext, !plaintext) -> !ciphertext
    %ct_1671 = cheddar.add %ctx, %ct_1667, %ct_1668 : (!context, !ciphertext, !ciphertext) -> !ciphertext
    %ct_1672 = cheddar.add %ctx, %ct_1669, %ct_1670 : (!context, !ciphertext, !ciphertext) -> !ciphertext
    %ct_1673 = cheddar.add %ctx, %ct_1671, %ct_1672 : (!context, !ciphertext, !ciphertext) -> !ciphertext
    %ct_1674 = cheddar.hrot %ctx, %ct_1673, %c12 : (!context, !ciphertext, index) -> !ciphertext
    %ct_1675 = cheddar.add %ctx, %ct_1641, %ct_1644 : (!context, !ciphertext, !ciphertext) -> !ciphertext
    %ct_1676 = cheddar.add %ctx, %ct_1675, %ct_1647 : (!context, !ciphertext, !ciphertext) -> !ciphertext
    %ct_1677 = cheddar.add %ctx, %ct_1650, %ct_1658 : (!context, !ciphertext, !ciphertext) -> !ciphertext
    %ct_1678 = cheddar.add %ctx, %ct_1666, %ct_1674 : (!context, !ciphertext, !ciphertext) -> !ciphertext
    %ct_1679 = cheddar.add %ctx, %ct_1677, %ct_1678 : (!context, !ciphertext, !ciphertext) -> !ciphertext
    %ct_1680 = cheddar.add %ctx, %ct_1676, %ct_1679 : (!context, !ciphertext, !ciphertext) -> !ciphertext
    %ct_1681 = cheddar.hrot %ctx, %ct_1680, %c256 : (!context, !ciphertext, index) -> !ciphertext
    %ct_1682 = cheddar.add %ctx, %ct_1680, %ct_1681 : (!context, !ciphertext, !ciphertext) -> !ciphertext
    %ct_1683 = cheddar.hrot %ctx, %ct_1682, %c128 : (!context, !ciphertext, index) -> !ciphertext
    %ct_1684 = cheddar.add %ctx, %ct_1682, %ct_1683 : (!context, !ciphertext, !ciphertext) -> !ciphertext
    %ct_1685 = cheddar.hrot %ctx, %ct_1684, %c64 : (!context, !ciphertext, index) -> !ciphertext
    %ct_1686 = cheddar.add %ctx, %ct_1684, %ct_1685 : (!context, !ciphertext, !ciphertext) -> !ciphertext
    %ct_1687 = cheddar.hrot %ctx, %ct_1686, %c32 : (!context, !ciphertext, index) -> !ciphertext
    %ct_1688 = cheddar.add %ctx, %ct_1686, %ct_1687 : (!context, !ciphertext, !ciphertext) -> !ciphertext
    %ct_1689 = cheddar.hrot %ctx, %ct_1688, %c16 : (!context, !ciphertext, index) -> !ciphertext
    %ct_1690 = cheddar.add_plain %ctx, %ct_1688, %extracted_3 : (!context, !ciphertext, !plaintext) -> !ciphertext
    %ct_1691 = cheddar.add %ctx, %ct_1690, %ct_1689 : (!context, !ciphertext, !ciphertext) -> !ciphertext
    %0 = tensor.empty() : tensor<1x!ciphertext>
    %ct_1692 = cheddar.rescale %ctx, %ct_1691 : (!context, !ciphertext) -> !ciphertext
    %inserted = tensor.insert %ct_1692 into %0[%c0] : tensor<1x!ciphertext>
    return %inserted : tensor<1x!ciphertext>
  }
  func.func public @mnist(%ctx: !context, %encoder: !encoder, %ui: !user_interface, %evk: !eval_key, %arg0: tensor<512x784xf32> {mhlo.sharding = "{replicated}"}, %arg1: tensor<512xf32> {mhlo.sharding = "{replicated}"}, %arg2: tensor<10x512xf32> {mhlo.sharding = "{replicated}"}, %arg3: tensor<10xf32> {mhlo.sharding = "{replicated}"}, %arg4: tensor<1x!ciphertext> {tensor_ext.original_type = #tensor_ext.original_type<originalType = tensor<1x784xf32>, layout = #tensor_ext.layout<"{ [i0, i1] -> [ct, slot] : i0 = 0 and ct = 0 and (-i1 + slot) mod 1024 = 0 and 0 <= i1 <= 783 and 0 <= slot <= 1023 }">>}) -> (tensor<1x!ciphertext> {jax.result_info = "result[0]", tensor_ext.original_type = #original_type}) {
    %0:16 = call @mnist__preprocessing(%ctx, %encoder, %arg0, %arg1, %arg2, %arg3) : (!context, !encoder, tensor<512x784xf32>, tensor<512xf32>, tensor<10x512xf32>, tensor<10xf32>) -> (tensor<5x!plaintext>, tensor<36x!plaintext>, tensor<36x!plaintext>, tensor<36x!plaintext>, tensor<36x!plaintext>, tensor<36x!plaintext>, tensor<36x!plaintext>, tensor<36x!plaintext>, tensor<36x!plaintext>, tensor<36x!plaintext>, tensor<36x!plaintext>, tensor<36x!plaintext>, tensor<36x!plaintext>, tensor<36x!plaintext>, tensor<36x!plaintext>, tensor<31x!plaintext>)
    %1 = call @mnist__preprocessed(%ctx, %encoder, %ui, %evk, %arg4, %0#0, %0#1, %0#2, %0#3, %0#4, %0#5, %0#6, %0#7, %0#8, %0#9, %0#10, %0#11, %0#12, %0#13, %0#14, %0#15) : (!context, !encoder, !user_interface, !eval_key, tensor<1x!ciphertext>, tensor<5x!plaintext>, tensor<36x!plaintext>, tensor<36x!plaintext>, tensor<36x!plaintext>, tensor<36x!plaintext>, tensor<36x!plaintext>, tensor<36x!plaintext>, tensor<36x!plaintext>, tensor<36x!plaintext>, tensor<36x!plaintext>, tensor<36x!plaintext>, tensor<36x!plaintext>, tensor<36x!plaintext>, tensor<36x!plaintext>, tensor<36x!plaintext>, tensor<31x!plaintext>) -> tensor<1x!ciphertext>
    return %1 : tensor<1x!ciphertext>
  }
  func.func @mnist__encrypt__arg4(%ctx: !context, %encoder: !encoder, %ui: !user_interface, %evk: !eval_key, %arg0: tensor<1x784xf32>, %ui_0: !user_interface) -> tensor<1x!ciphertext> attributes {client.enc_func = {func_name = "mnist", index = 4 : i64}} {
    %c0 = arith.constant 0 : index
    %cst = arith.constant dense<0.000000e+00> : tensor<1x1024xf32>
    %c0_i32 = arith.constant 0 : i32
    %c1_i32 = arith.constant 1 : i32
    %c784_i32 = arith.constant 784 : i32
    %0 = scf.for %arg1 = %c0_i32 to %c784_i32 step %c1_i32 iter_args(%arg2 = %cst) -> (tensor<1x1024xf32>)  : i32 {
      %1 = arith.index_cast %arg1 : i32 to index
      %extracted = tensor.extract %arg0[%c0, %1] : tensor<1x784xf32>
      %inserted = tensor.insert %extracted into %arg2[%c0, %1] : tensor<1x1024xf32>
      scf.yield %inserted : tensor<1x1024xf32>
    }
    %extracted_slice = tensor.extract_slice %0[0, 0] [1, 1024] [1, 1] : tensor<1x1024xf32> to tensor<1024xf32>
    %pt = cheddar.encode %encoder, %extracted_slice {level = 8 : i64, scale = 0x42C0000000000000 : f64} : (!encoder, tensor<1024xf32>) -> !plaintext
    %ct = cheddar.encrypt %ui, %pt : (!user_interface, !plaintext) -> !ciphertext
    %from_elements = tensor.from_elements %ct : tensor<1x!ciphertext>
    return %from_elements : tensor<1x!ciphertext>
  }
  func.func @mnist__decrypt__result0(%ctx: !context, %encoder: !encoder, %ui: !user_interface, %evk: !eval_key, %arg0: tensor<1x!ciphertext>, %ui_0: !user_interface) -> tensor<1x10xf32> attributes {client.dec_func = {func_name = "mnist", index = 0 : i64}} {
    %c0 = arith.constant 0 : index
    %c1024_i32 = arith.constant 1024 : i32
    %c16_i32 = arith.constant 16 : i32
    %c6_i32 = arith.constant 6 : i32
    %c1_i32 = arith.constant 1 : i32
    %c0_i32 = arith.constant 0 : i32
    %cst = arith.constant dense<0.000000e+00> : tensor<1x10xf32>
    %extracted = tensor.extract %arg0[%c0] : tensor<1x!ciphertext>
    %pt = cheddar.decrypt %ui, %extracted : (!user_interface, !ciphertext) -> !plaintext
    %0 = tensor.empty() : tensor<1x1024xf32>
    %1 = cheddar.decode %encoder, %pt, %0 : (!encoder, !plaintext, tensor<1x1024xf32>) -> tensor<1x1024xf32>
    %2 = scf.for %arg1 = %c0_i32 to %c1024_i32 step %c1_i32 iter_args(%arg2 = %cst) -> (tensor<1x10xf32>)  : i32 {
      %3 = arith.addi %arg1, %c6_i32 : i32
      %4 = arith.remsi %3, %c16_i32 : i32
      %5 = arith.cmpi sge, %4, %c6_i32 : i32
      %6 = scf.if %5 -> (tensor<1x10xf32>) {
        %7 = arith.remsi %arg1, %c16_i32 : i32
        %8 = arith.index_cast %arg1 : i32 to index
        %extracted_1 = tensor.extract %1[%c0, %8] : tensor<1x1024xf32>
        %9 = arith.index_cast %7 : i32 to index
        %inserted = tensor.insert %extracted_1 into %arg2[%c0, %9] : tensor<1x10xf32>
        scf.yield %inserted : tensor<1x10xf32>
      } else {
        scf.yield %arg2 : tensor<1x10xf32>
      }
      scf.yield %6 : tensor<1x10xf32>
    }
    return %2 : tensor<1x10xf32>
  }
}
