!ciphertext = !cheddar.ciphertext
!context = !cheddar.context
!encoder = !cheddar.encoder
!eval_key = !cheddar.eval_key
!plaintext = !cheddar.plaintext
!user_interface = !cheddar.user_interface
#layout = #tensor_ext.layout<"{ [i0, i1] -> [ct, slot] : i0 = 0 and ct = 0 and (-i1 + slot) mod 16 = 0 and 0 <= i1 <= 9 and 0 <= slot <= 1023 }">
#original_type = #tensor_ext.original_type<originalType = tensor<1x10xf32>, layout = #layout>
module @jit_func attributes {backend.cheddar, cheddar.P = array<i64: 1152921504608747521, 1152921504614055937, 1152921504615628801>, cheddar.Q = array<i64: 36028797017456641, 35184366911489, 35184376545281, 35184367828993, 35184373989377, 35184368025601, 35184373006337, 35184368877569, 35184372744193>, cheddar.logDefaultScale = 45 : i64, cheddar.logN = 15 : i64, jax.uses_shape_polymorphism = false, mhlo.num_partitions = 1 : i32, mhlo.num_replicas = 1 : i32, scheme.actual_slot_count = 16384 : i64, scheme.requested_slot_count = 1024 : i64} {
  func.func private @_assign_layout_18165590534372993729(%arg0: tensor<1x10xf32>) -> tensor<1x1024xf32> attributes {client.pack_func = {func_name = "mnist"}} {
    %c0 = arith.constant 0 : index
    %c16_i32 = arith.constant 16 : i32
    %c6_i32 = arith.constant 6 : i32
    %cst = arith.constant dense<0.000000e+00> : tensor<1x1024xf32>
    %c0_i32 = arith.constant 0 : i32
    %c1_i32 = arith.constant 1 : i32
    %c1024_i32 = arith.constant 1024 : i32
    %0 = scf.for %arg1 = %c0_i32 to %c1024_i32 step %c1_i32 iter_args(%arg2 = %cst) -> (tensor<1x1024xf32>)  : i32 {
      %1 = arith.addi %arg1, %c6_i32 : i32
      %2 = arith.remsi %1, %c16_i32 : i32
      %3 = arith.cmpi sge, %2, %c6_i32 : i32
      %4 = scf.if %3 -> (tensor<1x1024xf32>) {
        %5 = arith.remsi %arg1, %c16_i32 : i32
        %6 = arith.index_cast %5 : i32 to index
        %extracted = tensor.extract %arg0[%c0, %6] : tensor<1x10xf32>
        %7 = arith.index_cast %arg1 : i32 to index
        %inserted = tensor.insert %extracted into %arg2[%c0, %7] : tensor<1x1024xf32>
        scf.yield %inserted : tensor<1x1024xf32>
      } else {
        scf.yield %arg2 : tensor<1x1024xf32>
      }
      scf.yield %4 : tensor<1x1024xf32>
    }
    return %0 : tensor<1x1024xf32>
  }
  func.func private @_assign_layout_15185182653225509604(%arg0: tensor<10x512xf32>) -> tensor<16x1024xf32> attributes {client.pack_func = {func_name = "mnist"}} {
    %c511_i32 = arith.constant 511 : i32
    %c1018_i32 = arith.constant 1018 : i32
    %c512_i32 = arith.constant 512 : i32
    %c1535_i32 = arith.constant 1535 : i32
    %c6_i32 = arith.constant 6 : i32
    %c9_i32 = arith.constant 9 : i32
    %c16_i32 = arith.constant 16 : i32
    %cst = arith.constant dense<0.000000e+00> : tensor<16x1024xf32>
    %c0_i32 = arith.constant 0 : i32
    %c1_i32 = arith.constant 1 : i32
    %0 = scf.for %arg1 = %c0_i32 to %c16_i32 step %c1_i32 iter_args(%arg2 = %cst) -> (tensor<16x1024xf32>)  : i32 {
      %1 = scf.for %arg3 = %c0_i32 to %c1018_i32 step %c1_i32 iter_args(%arg4 = %arg2) -> (tensor<16x1024xf32>)  : i32 {
        %2 = arith.remsi %arg3, %c16_i32 : i32
        %3 = arith.cmpi sle, %2, %c9_i32 : i32
        %4 = scf.if %3 -> (tensor<16x1024xf32>) {
          %5 = arith.addi %arg3, %c6_i32 : i32
          %6 = arith.remsi %5, %c16_i32 : i32
          %7 = arith.subi %6, %c6_i32 : i32
          %8 = arith.subi %c0_i32, %arg1 : i32
          %9 = arith.subi %8, %arg3 : i32
          %10 = arith.addi %9, %c1535_i32 : i32
          %11 = arith.remsi %10, %c512_i32 : i32
          %12 = arith.subi %c511_i32, %11 : i32
          %13 = arith.index_cast %7 : i32 to index
          %14 = arith.index_cast %12 : i32 to index
          %extracted = tensor.extract %arg0[%13, %14] : tensor<10x512xf32>
          %15 = arith.index_cast %arg1 : i32 to index
          %16 = arith.index_cast %arg3 : i32 to index
          %inserted = tensor.insert %extracted into %arg4[%15, %16] : tensor<16x1024xf32>
          scf.yield %inserted : tensor<16x1024xf32>
        } else {
          scf.yield %arg4 : tensor<16x1024xf32>
        }
        scf.yield %4 : tensor<16x1024xf32>
      }
      scf.yield %1 : tensor<16x1024xf32>
    }
    return %0 : tensor<16x1024xf32>
  }
  func.func private @_assign_layout_14556556045274213717(%arg0: tensor<1x512xf32>) -> tensor<1x1024xf32> attributes {client.pack_func = {func_name = "mnist"}} {
    %c0 = arith.constant 0 : index
    %c512_i32 = arith.constant 512 : i32
    %cst = arith.constant dense<0.000000e+00> : tensor<1x1024xf32>
    %c0_i32 = arith.constant 0 : i32
    %c1_i32 = arith.constant 1 : i32
    %c1024_i32 = arith.constant 1024 : i32
    %0 = scf.for %arg1 = %c0_i32 to %c1024_i32 step %c1_i32 iter_args(%arg2 = %cst) -> (tensor<1x1024xf32>)  : i32 {
      %1 = arith.remsi %arg1, %c512_i32 : i32
      %2 = arith.index_cast %1 : i32 to index
      %extracted = tensor.extract %arg0[%c0, %2] : tensor<1x512xf32>
      %3 = arith.index_cast %arg1 : i32 to index
      %inserted = tensor.insert %extracted into %arg2[%c0, %3] : tensor<1x1024xf32>
      scf.yield %inserted : tensor<1x1024xf32>
    }
    return %0 : tensor<1x1024xf32>
  }
  func.func private @_assign_layout_1867202225542185437(%arg0: tensor<512x784xf32>) -> tensor<512x1024xf32> attributes {client.pack_func = {func_name = "mnist"}} {
    %c783_i32 = arith.constant 783 : i32
    %c1807_i32 = arith.constant 1807 : i32
    %c512_i32 = arith.constant 512 : i32
    %c1024_i32 = arith.constant 1024 : i32
    %c240_i32 = arith.constant 240 : i32
    %cst = arith.constant dense<0.000000e+00> : tensor<512x1024xf32>
    %c0_i32 = arith.constant 0 : i32
    %c1_i32 = arith.constant 1 : i32
    %0 = scf.for %arg1 = %c0_i32 to %c512_i32 step %c1_i32 iter_args(%arg2 = %cst) -> (tensor<512x1024xf32>)  : i32 {
      %1 = scf.for %arg3 = %c0_i32 to %c1024_i32 step %c1_i32 iter_args(%arg4 = %arg2) -> (tensor<512x1024xf32>)  : i32 {
        %2 = arith.addi %arg1, %arg3 : i32
        %3 = arith.addi %2, %c240_i32 : i32
        %4 = arith.remsi %3, %c1024_i32 : i32
        %5 = arith.cmpi sge, %4, %c240_i32 : i32
        %6 = scf.if %5 -> (tensor<512x1024xf32>) {
          %7 = arith.remsi %arg3, %c512_i32 : i32
          %8 = arith.subi %c0_i32, %arg1 : i32
          %9 = arith.subi %8, %arg3 : i32
          %10 = arith.addi %9, %c1807_i32 : i32
          %11 = arith.remsi %10, %c1024_i32 : i32
          %12 = arith.subi %c783_i32, %11 : i32
          %13 = arith.index_cast %7 : i32 to index
          %14 = arith.index_cast %12 : i32 to index
          %extracted = tensor.extract %arg0[%13, %14] : tensor<512x784xf32>
          %15 = arith.index_cast %arg1 : i32 to index
          %16 = arith.index_cast %arg3 : i32 to index
          %inserted = tensor.insert %extracted into %arg4[%15, %16] : tensor<512x1024xf32>
          scf.yield %inserted : tensor<512x1024xf32>
        } else {
          scf.yield %arg4 : tensor<512x1024xf32>
        }
        scf.yield %6 : tensor<512x1024xf32>
      }
      scf.yield %1 : tensor<512x1024xf32>
    }
    return %0 : tensor<512x1024xf32>
  }
  func.func @mnist__preprocessing(%encoder: !encoder, %arg0: tensor<512x784xf32>, %arg1: tensor<512xf32>, %arg2: tensor<10x512xf32>, %arg3: tensor<10xf32>) -> (tensor<34x!plaintext>, tensor<34x!plaintext>, tensor<34x!plaintext>, tensor<34x!plaintext>, tensor<34x!plaintext>, tensor<34x!plaintext>, tensor<34x!plaintext>, tensor<34x!plaintext>, tensor<34x!plaintext>, tensor<34x!plaintext>, tensor<34x!plaintext>, tensor<34x!plaintext>, tensor<34x!plaintext>, tensor<34x!plaintext>, tensor<34x!plaintext>, tensor<29x!plaintext>) attributes {client.pack_func = {func_name = "mnist"}} {
    %cst = arith.constant dense<-1.26569366> : tensor<1x512xf32>
    %cst_0 = arith.constant dense<2.000000e+00> : tensor<1x512xf32>
    %cst_1 = arith.constant dense<4.30750513> : tensor<1x512xf32>
    %cst_2 = arith.constant dense<1.000000e+01> : tensor<1x512xf32>
    %cst_3 = arith.constant dense<1.000000e+00> : tensor<1x512xf32>
    %cst_4 = arith.constant dense<6.33939934> : tensor<1x512xf32>
    %cst_5 = arith.constant dense<5.000000e-02> : tensor<1x512xf32>
    %expanded = tensor.expand_shape %arg1 [[0, 1]] output_shape [1, 512] : tensor<512xf32> into tensor<1x512xf32>
    %expanded_6 = tensor.expand_shape %arg3 [[0, 1]] output_shape [1, 10] : tensor<10xf32> into tensor<1x10xf32>
    %0 = call @_assign_layout_1867202225542185437(%arg0) : (tensor<512x784xf32>) -> tensor<512x1024xf32>
    %1 = call @_assign_layout_14556556045274213717(%expanded) : (tensor<1x512xf32>) -> tensor<1x1024xf32>
    %2 = call @_assign_layout_14556556045274213717(%cst_5) : (tensor<1x512xf32>) -> tensor<1x1024xf32>
    %3 = call @_assign_layout_14556556045274213717(%cst_2) : (tensor<1x512xf32>) -> tensor<1x1024xf32>
    %4 = call @_assign_layout_14556556045274213717(%cst_4) : (tensor<1x512xf32>) -> tensor<1x1024xf32>
    %5 = call @_assign_layout_14556556045274213717(%cst_0) : (tensor<1x512xf32>) -> tensor<1x1024xf32>
    %6 = call @_assign_layout_14556556045274213717(%cst_3) : (tensor<1x512xf32>) -> tensor<1x1024xf32>
    %7 = call @_assign_layout_14556556045274213717(%cst_1) : (tensor<1x512xf32>) -> tensor<1x1024xf32>
    %8 = call @_assign_layout_14556556045274213717(%cst) : (tensor<1x512xf32>) -> tensor<1x1024xf32>
    %9 = call @_assign_layout_15185182653225509604(%arg2) : (tensor<10x512xf32>) -> tensor<16x1024xf32>
    %10 = call @_assign_layout_18165590534372993729(%expanded_6) : (tensor<1x10xf32>) -> tensor<1x1024xf32>
    %extracted_slice = tensor.extract_slice %9[4, 0] [1, 1024] [1, 1] : tensor<16x1024xf32> to tensor<1x1024xf32>
    %extracted_slice_7 = tensor.extract_slice %9[5, 0] [1, 1024] [1, 1] : tensor<16x1024xf32> to tensor<1x1024xf32>
    %extracted_slice_8 = tensor.extract_slice %9[6, 0] [1, 1024] [1, 1] : tensor<16x1024xf32> to tensor<1x1024xf32>
    %extracted_slice_9 = tensor.extract_slice %9[7, 0] [1, 1024] [1, 1] : tensor<16x1024xf32> to tensor<1x1024xf32>
    %extracted_slice_10 = tensor.extract_slice %9[8, 0] [1, 1024] [1, 1] : tensor<16x1024xf32> to tensor<1x1024xf32>
    %extracted_slice_11 = tensor.extract_slice %9[9, 0] [1, 1024] [1, 1] : tensor<16x1024xf32> to tensor<1x1024xf32>
    %extracted_slice_12 = tensor.extract_slice %9[10, 0] [1, 1024] [1, 1] : tensor<16x1024xf32> to tensor<1x1024xf32>
    %extracted_slice_13 = tensor.extract_slice %9[11, 0] [1, 1024] [1, 1] : tensor<16x1024xf32> to tensor<1x1024xf32>
    %extracted_slice_14 = tensor.extract_slice %9[12, 0] [1, 1024] [1, 1] : tensor<16x1024xf32> to tensor<1x1024xf32>
    %extracted_slice_15 = tensor.extract_slice %9[13, 0] [1, 1024] [1, 1] : tensor<16x1024xf32> to tensor<1x1024xf32>
    %extracted_slice_16 = tensor.extract_slice %9[14, 0] [1, 1024] [1, 1] : tensor<16x1024xf32> to tensor<1x1024xf32>
    %extracted_slice_17 = tensor.extract_slice %9[15, 0] [1, 1024] [1, 1] : tensor<16x1024xf32> to tensor<1x1024xf32>
    %extracted_slice_18 = tensor.extract_slice %9[4, 0] [1, 1020] [1, 1] : tensor<16x1024xf32> to tensor<1x1020xf32>
    %extracted_slice_19 = tensor.extract_slice %9[4, 1020] [1, 4] [1, 1] : tensor<16x1024xf32> to tensor<1x4xf32>
    %inserted_slice = tensor.insert_slice %extracted_slice_18 into %extracted_slice[0, 4] [1, 1020] [1, 1] : tensor<1x1020xf32> into tensor<1x1024xf32>
    %inserted_slice_20 = tensor.insert_slice %extracted_slice_19 into %inserted_slice[0, 0] [1, 4] [1, 1] : tensor<1x4xf32> into tensor<1x1024xf32>
    %extracted_slice_21 = tensor.extract_slice %9[5, 0] [1, 1020] [1, 1] : tensor<16x1024xf32> to tensor<1x1020xf32>
    %extracted_slice_22 = tensor.extract_slice %9[5, 1020] [1, 4] [1, 1] : tensor<16x1024xf32> to tensor<1x4xf32>
    %inserted_slice_23 = tensor.insert_slice %extracted_slice_21 into %extracted_slice_7[0, 4] [1, 1020] [1, 1] : tensor<1x1020xf32> into tensor<1x1024xf32>
    %inserted_slice_24 = tensor.insert_slice %extracted_slice_22 into %inserted_slice_23[0, 0] [1, 4] [1, 1] : tensor<1x4xf32> into tensor<1x1024xf32>
    %extracted_slice_25 = tensor.extract_slice %9[6, 0] [1, 1020] [1, 1] : tensor<16x1024xf32> to tensor<1x1020xf32>
    %extracted_slice_26 = tensor.extract_slice %9[6, 1020] [1, 4] [1, 1] : tensor<16x1024xf32> to tensor<1x4xf32>
    %inserted_slice_27 = tensor.insert_slice %extracted_slice_25 into %extracted_slice_8[0, 4] [1, 1020] [1, 1] : tensor<1x1020xf32> into tensor<1x1024xf32>
    %inserted_slice_28 = tensor.insert_slice %extracted_slice_26 into %inserted_slice_27[0, 0] [1, 4] [1, 1] : tensor<1x4xf32> into tensor<1x1024xf32>
    %extracted_slice_29 = tensor.extract_slice %9[7, 0] [1, 1020] [1, 1] : tensor<16x1024xf32> to tensor<1x1020xf32>
    %extracted_slice_30 = tensor.extract_slice %9[7, 1020] [1, 4] [1, 1] : tensor<16x1024xf32> to tensor<1x4xf32>
    %inserted_slice_31 = tensor.insert_slice %extracted_slice_29 into %extracted_slice_9[0, 4] [1, 1020] [1, 1] : tensor<1x1020xf32> into tensor<1x1024xf32>
    %inserted_slice_32 = tensor.insert_slice %extracted_slice_30 into %inserted_slice_31[0, 0] [1, 4] [1, 1] : tensor<1x4xf32> into tensor<1x1024xf32>
    %extracted_slice_33 = tensor.extract_slice %9[8, 0] [1, 1016] [1, 1] : tensor<16x1024xf32> to tensor<1x1016xf32>
    %extracted_slice_34 = tensor.extract_slice %9[8, 1016] [1, 8] [1, 1] : tensor<16x1024xf32> to tensor<1x8xf32>
    %inserted_slice_35 = tensor.insert_slice %extracted_slice_33 into %extracted_slice_10[0, 8] [1, 1016] [1, 1] : tensor<1x1016xf32> into tensor<1x1024xf32>
    %inserted_slice_36 = tensor.insert_slice %extracted_slice_34 into %inserted_slice_35[0, 0] [1, 8] [1, 1] : tensor<1x8xf32> into tensor<1x1024xf32>
    %extracted_slice_37 = tensor.extract_slice %9[9, 0] [1, 1016] [1, 1] : tensor<16x1024xf32> to tensor<1x1016xf32>
    %extracted_slice_38 = tensor.extract_slice %9[9, 1016] [1, 8] [1, 1] : tensor<16x1024xf32> to tensor<1x8xf32>
    %inserted_slice_39 = tensor.insert_slice %extracted_slice_37 into %extracted_slice_11[0, 8] [1, 1016] [1, 1] : tensor<1x1016xf32> into tensor<1x1024xf32>
    %inserted_slice_40 = tensor.insert_slice %extracted_slice_38 into %inserted_slice_39[0, 0] [1, 8] [1, 1] : tensor<1x8xf32> into tensor<1x1024xf32>
    %extracted_slice_41 = tensor.extract_slice %9[10, 0] [1, 1016] [1, 1] : tensor<16x1024xf32> to tensor<1x1016xf32>
    %extracted_slice_42 = tensor.extract_slice %9[10, 1016] [1, 8] [1, 1] : tensor<16x1024xf32> to tensor<1x8xf32>
    %inserted_slice_43 = tensor.insert_slice %extracted_slice_41 into %extracted_slice_12[0, 8] [1, 1016] [1, 1] : tensor<1x1016xf32> into tensor<1x1024xf32>
    %inserted_slice_44 = tensor.insert_slice %extracted_slice_42 into %inserted_slice_43[0, 0] [1, 8] [1, 1] : tensor<1x8xf32> into tensor<1x1024xf32>
    %extracted_slice_45 = tensor.extract_slice %9[11, 0] [1, 1016] [1, 1] : tensor<16x1024xf32> to tensor<1x1016xf32>
    %extracted_slice_46 = tensor.extract_slice %9[11, 1016] [1, 8] [1, 1] : tensor<16x1024xf32> to tensor<1x8xf32>
    %inserted_slice_47 = tensor.insert_slice %extracted_slice_45 into %extracted_slice_13[0, 8] [1, 1016] [1, 1] : tensor<1x1016xf32> into tensor<1x1024xf32>
    %inserted_slice_48 = tensor.insert_slice %extracted_slice_46 into %inserted_slice_47[0, 0] [1, 8] [1, 1] : tensor<1x8xf32> into tensor<1x1024xf32>
    %extracted_slice_49 = tensor.extract_slice %9[12, 0] [1, 1012] [1, 1] : tensor<16x1024xf32> to tensor<1x1012xf32>
    %extracted_slice_50 = tensor.extract_slice %9[12, 1012] [1, 12] [1, 1] : tensor<16x1024xf32> to tensor<1x12xf32>
    %inserted_slice_51 = tensor.insert_slice %extracted_slice_49 into %extracted_slice_14[0, 12] [1, 1012] [1, 1] : tensor<1x1012xf32> into tensor<1x1024xf32>
    %inserted_slice_52 = tensor.insert_slice %extracted_slice_50 into %inserted_slice_51[0, 0] [1, 12] [1, 1] : tensor<1x12xf32> into tensor<1x1024xf32>
    %extracted_slice_53 = tensor.extract_slice %9[13, 0] [1, 1012] [1, 1] : tensor<16x1024xf32> to tensor<1x1012xf32>
    %extracted_slice_54 = tensor.extract_slice %9[13, 1012] [1, 12] [1, 1] : tensor<16x1024xf32> to tensor<1x12xf32>
    %inserted_slice_55 = tensor.insert_slice %extracted_slice_53 into %extracted_slice_15[0, 12] [1, 1012] [1, 1] : tensor<1x1012xf32> into tensor<1x1024xf32>
    %inserted_slice_56 = tensor.insert_slice %extracted_slice_54 into %inserted_slice_55[0, 0] [1, 12] [1, 1] : tensor<1x12xf32> into tensor<1x1024xf32>
    %extracted_slice_57 = tensor.extract_slice %9[14, 0] [1, 1012] [1, 1] : tensor<16x1024xf32> to tensor<1x1012xf32>
    %extracted_slice_58 = tensor.extract_slice %9[14, 1012] [1, 12] [1, 1] : tensor<16x1024xf32> to tensor<1x12xf32>
    %inserted_slice_59 = tensor.insert_slice %extracted_slice_57 into %extracted_slice_16[0, 12] [1, 1012] [1, 1] : tensor<1x1012xf32> into tensor<1x1024xf32>
    %inserted_slice_60 = tensor.insert_slice %extracted_slice_58 into %inserted_slice_59[0, 0] [1, 12] [1, 1] : tensor<1x12xf32> into tensor<1x1024xf32>
    %extracted_slice_61 = tensor.extract_slice %9[15, 0] [1, 1012] [1, 1] : tensor<16x1024xf32> to tensor<1x1012xf32>
    %extracted_slice_62 = tensor.extract_slice %9[15, 1012] [1, 12] [1, 1] : tensor<16x1024xf32> to tensor<1x12xf32>
    %inserted_slice_63 = tensor.insert_slice %extracted_slice_61 into %extracted_slice_17[0, 12] [1, 1012] [1, 1] : tensor<1x1012xf32> into tensor<1x1024xf32>
    %inserted_slice_64 = tensor.insert_slice %extracted_slice_62 into %inserted_slice_63[0, 0] [1, 12] [1, 1] : tensor<1x12xf32> into tensor<1x1024xf32>
    %extracted_slice_65 = tensor.extract_slice %0[23, 0] [1, 1024] [1, 1] : tensor<512x1024xf32> to tensor<1x1024xf32>
    %extracted_slice_66 = tensor.extract_slice %0[24, 0] [1, 1024] [1, 1] : tensor<512x1024xf32> to tensor<1x1024xf32>
    %extracted_slice_67 = tensor.extract_slice %0[25, 0] [1, 1024] [1, 1] : tensor<512x1024xf32> to tensor<1x1024xf32>
    %extracted_slice_68 = tensor.extract_slice %0[26, 0] [1, 1024] [1, 1] : tensor<512x1024xf32> to tensor<1x1024xf32>
    %extracted_slice_69 = tensor.extract_slice %0[27, 0] [1, 1024] [1, 1] : tensor<512x1024xf32> to tensor<1x1024xf32>
    %extracted_slice_70 = tensor.extract_slice %0[28, 0] [1, 1024] [1, 1] : tensor<512x1024xf32> to tensor<1x1024xf32>
    %extracted_slice_71 = tensor.extract_slice %0[29, 0] [1, 1024] [1, 1] : tensor<512x1024xf32> to tensor<1x1024xf32>
    %extracted_slice_72 = tensor.extract_slice %0[30, 0] [1, 1024] [1, 1] : tensor<512x1024xf32> to tensor<1x1024xf32>
    %extracted_slice_73 = tensor.extract_slice %0[31, 0] [1, 1024] [1, 1] : tensor<512x1024xf32> to tensor<1x1024xf32>
    %extracted_slice_74 = tensor.extract_slice %0[32, 0] [1, 1024] [1, 1] : tensor<512x1024xf32> to tensor<1x1024xf32>
    %extracted_slice_75 = tensor.extract_slice %0[33, 0] [1, 1024] [1, 1] : tensor<512x1024xf32> to tensor<1x1024xf32>
    %extracted_slice_76 = tensor.extract_slice %0[34, 0] [1, 1024] [1, 1] : tensor<512x1024xf32> to tensor<1x1024xf32>
    %extracted_slice_77 = tensor.extract_slice %0[35, 0] [1, 1024] [1, 1] : tensor<512x1024xf32> to tensor<1x1024xf32>
    %extracted_slice_78 = tensor.extract_slice %0[36, 0] [1, 1024] [1, 1] : tensor<512x1024xf32> to tensor<1x1024xf32>
    %extracted_slice_79 = tensor.extract_slice %0[37, 0] [1, 1024] [1, 1] : tensor<512x1024xf32> to tensor<1x1024xf32>
    %extracted_slice_80 = tensor.extract_slice %0[38, 0] [1, 1024] [1, 1] : tensor<512x1024xf32> to tensor<1x1024xf32>
    %extracted_slice_81 = tensor.extract_slice %0[39, 0] [1, 1024] [1, 1] : tensor<512x1024xf32> to tensor<1x1024xf32>
    %extracted_slice_82 = tensor.extract_slice %0[40, 0] [1, 1024] [1, 1] : tensor<512x1024xf32> to tensor<1x1024xf32>
    %extracted_slice_83 = tensor.extract_slice %0[41, 0] [1, 1024] [1, 1] : tensor<512x1024xf32> to tensor<1x1024xf32>
    %extracted_slice_84 = tensor.extract_slice %0[42, 0] [1, 1024] [1, 1] : tensor<512x1024xf32> to tensor<1x1024xf32>
    %extracted_slice_85 = tensor.extract_slice %0[43, 0] [1, 1024] [1, 1] : tensor<512x1024xf32> to tensor<1x1024xf32>
    %extracted_slice_86 = tensor.extract_slice %0[44, 0] [1, 1024] [1, 1] : tensor<512x1024xf32> to tensor<1x1024xf32>
    %extracted_slice_87 = tensor.extract_slice %0[45, 0] [1, 1024] [1, 1] : tensor<512x1024xf32> to tensor<1x1024xf32>
    %extracted_slice_88 = tensor.extract_slice %0[46, 0] [1, 1024] [1, 1] : tensor<512x1024xf32> to tensor<1x1024xf32>
    %extracted_slice_89 = tensor.extract_slice %0[47, 0] [1, 1024] [1, 1] : tensor<512x1024xf32> to tensor<1x1024xf32>
    %extracted_slice_90 = tensor.extract_slice %0[48, 0] [1, 1024] [1, 1] : tensor<512x1024xf32> to tensor<1x1024xf32>
    %extracted_slice_91 = tensor.extract_slice %0[49, 0] [1, 1024] [1, 1] : tensor<512x1024xf32> to tensor<1x1024xf32>
    %extracted_slice_92 = tensor.extract_slice %0[50, 0] [1, 1024] [1, 1] : tensor<512x1024xf32> to tensor<1x1024xf32>
    %extracted_slice_93 = tensor.extract_slice %0[51, 0] [1, 1024] [1, 1] : tensor<512x1024xf32> to tensor<1x1024xf32>
    %extracted_slice_94 = tensor.extract_slice %0[52, 0] [1, 1024] [1, 1] : tensor<512x1024xf32> to tensor<1x1024xf32>
    %extracted_slice_95 = tensor.extract_slice %0[53, 0] [1, 1024] [1, 1] : tensor<512x1024xf32> to tensor<1x1024xf32>
    %extracted_slice_96 = tensor.extract_slice %0[54, 0] [1, 1024] [1, 1] : tensor<512x1024xf32> to tensor<1x1024xf32>
    %extracted_slice_97 = tensor.extract_slice %0[55, 0] [1, 1024] [1, 1] : tensor<512x1024xf32> to tensor<1x1024xf32>
    %extracted_slice_98 = tensor.extract_slice %0[56, 0] [1, 1024] [1, 1] : tensor<512x1024xf32> to tensor<1x1024xf32>
    %extracted_slice_99 = tensor.extract_slice %0[57, 0] [1, 1024] [1, 1] : tensor<512x1024xf32> to tensor<1x1024xf32>
    %extracted_slice_100 = tensor.extract_slice %0[58, 0] [1, 1024] [1, 1] : tensor<512x1024xf32> to tensor<1x1024xf32>
    %extracted_slice_101 = tensor.extract_slice %0[59, 0] [1, 1024] [1, 1] : tensor<512x1024xf32> to tensor<1x1024xf32>
    %extracted_slice_102 = tensor.extract_slice %0[60, 0] [1, 1024] [1, 1] : tensor<512x1024xf32> to tensor<1x1024xf32>
    %extracted_slice_103 = tensor.extract_slice %0[61, 0] [1, 1024] [1, 1] : tensor<512x1024xf32> to tensor<1x1024xf32>
    %extracted_slice_104 = tensor.extract_slice %0[62, 0] [1, 1024] [1, 1] : tensor<512x1024xf32> to tensor<1x1024xf32>
    %extracted_slice_105 = tensor.extract_slice %0[63, 0] [1, 1024] [1, 1] : tensor<512x1024xf32> to tensor<1x1024xf32>
    %extracted_slice_106 = tensor.extract_slice %0[64, 0] [1, 1024] [1, 1] : tensor<512x1024xf32> to tensor<1x1024xf32>
    %extracted_slice_107 = tensor.extract_slice %0[65, 0] [1, 1024] [1, 1] : tensor<512x1024xf32> to tensor<1x1024xf32>
    %extracted_slice_108 = tensor.extract_slice %0[66, 0] [1, 1024] [1, 1] : tensor<512x1024xf32> to tensor<1x1024xf32>
    %extracted_slice_109 = tensor.extract_slice %0[67, 0] [1, 1024] [1, 1] : tensor<512x1024xf32> to tensor<1x1024xf32>
    %extracted_slice_110 = tensor.extract_slice %0[68, 0] [1, 1024] [1, 1] : tensor<512x1024xf32> to tensor<1x1024xf32>
    %extracted_slice_111 = tensor.extract_slice %0[69, 0] [1, 1024] [1, 1] : tensor<512x1024xf32> to tensor<1x1024xf32>
    %extracted_slice_112 = tensor.extract_slice %0[70, 0] [1, 1024] [1, 1] : tensor<512x1024xf32> to tensor<1x1024xf32>
    %extracted_slice_113 = tensor.extract_slice %0[71, 0] [1, 1024] [1, 1] : tensor<512x1024xf32> to tensor<1x1024xf32>
    %extracted_slice_114 = tensor.extract_slice %0[72, 0] [1, 1024] [1, 1] : tensor<512x1024xf32> to tensor<1x1024xf32>
    %extracted_slice_115 = tensor.extract_slice %0[73, 0] [1, 1024] [1, 1] : tensor<512x1024xf32> to tensor<1x1024xf32>
    %extracted_slice_116 = tensor.extract_slice %0[74, 0] [1, 1024] [1, 1] : tensor<512x1024xf32> to tensor<1x1024xf32>
    %extracted_slice_117 = tensor.extract_slice %0[75, 0] [1, 1024] [1, 1] : tensor<512x1024xf32> to tensor<1x1024xf32>
    %extracted_slice_118 = tensor.extract_slice %0[76, 0] [1, 1024] [1, 1] : tensor<512x1024xf32> to tensor<1x1024xf32>
    %extracted_slice_119 = tensor.extract_slice %0[77, 0] [1, 1024] [1, 1] : tensor<512x1024xf32> to tensor<1x1024xf32>
    %extracted_slice_120 = tensor.extract_slice %0[78, 0] [1, 1024] [1, 1] : tensor<512x1024xf32> to tensor<1x1024xf32>
    %extracted_slice_121 = tensor.extract_slice %0[79, 0] [1, 1024] [1, 1] : tensor<512x1024xf32> to tensor<1x1024xf32>
    %extracted_slice_122 = tensor.extract_slice %0[80, 0] [1, 1024] [1, 1] : tensor<512x1024xf32> to tensor<1x1024xf32>
    %extracted_slice_123 = tensor.extract_slice %0[81, 0] [1, 1024] [1, 1] : tensor<512x1024xf32> to tensor<1x1024xf32>
    %extracted_slice_124 = tensor.extract_slice %0[82, 0] [1, 1024] [1, 1] : tensor<512x1024xf32> to tensor<1x1024xf32>
    %extracted_slice_125 = tensor.extract_slice %0[83, 0] [1, 1024] [1, 1] : tensor<512x1024xf32> to tensor<1x1024xf32>
    %extracted_slice_126 = tensor.extract_slice %0[84, 0] [1, 1024] [1, 1] : tensor<512x1024xf32> to tensor<1x1024xf32>
    %extracted_slice_127 = tensor.extract_slice %0[85, 0] [1, 1024] [1, 1] : tensor<512x1024xf32> to tensor<1x1024xf32>
    %extracted_slice_128 = tensor.extract_slice %0[86, 0] [1, 1024] [1, 1] : tensor<512x1024xf32> to tensor<1x1024xf32>
    %extracted_slice_129 = tensor.extract_slice %0[87, 0] [1, 1024] [1, 1] : tensor<512x1024xf32> to tensor<1x1024xf32>
    %extracted_slice_130 = tensor.extract_slice %0[88, 0] [1, 1024] [1, 1] : tensor<512x1024xf32> to tensor<1x1024xf32>
    %extracted_slice_131 = tensor.extract_slice %0[89, 0] [1, 1024] [1, 1] : tensor<512x1024xf32> to tensor<1x1024xf32>
    %extracted_slice_132 = tensor.extract_slice %0[90, 0] [1, 1024] [1, 1] : tensor<512x1024xf32> to tensor<1x1024xf32>
    %extracted_slice_133 = tensor.extract_slice %0[91, 0] [1, 1024] [1, 1] : tensor<512x1024xf32> to tensor<1x1024xf32>
    %extracted_slice_134 = tensor.extract_slice %0[92, 0] [1, 1024] [1, 1] : tensor<512x1024xf32> to tensor<1x1024xf32>
    %extracted_slice_135 = tensor.extract_slice %0[93, 0] [1, 1024] [1, 1] : tensor<512x1024xf32> to tensor<1x1024xf32>
    %extracted_slice_136 = tensor.extract_slice %0[94, 0] [1, 1024] [1, 1] : tensor<512x1024xf32> to tensor<1x1024xf32>
    %extracted_slice_137 = tensor.extract_slice %0[95, 0] [1, 1024] [1, 1] : tensor<512x1024xf32> to tensor<1x1024xf32>
    %extracted_slice_138 = tensor.extract_slice %0[96, 0] [1, 1024] [1, 1] : tensor<512x1024xf32> to tensor<1x1024xf32>
    %extracted_slice_139 = tensor.extract_slice %0[97, 0] [1, 1024] [1, 1] : tensor<512x1024xf32> to tensor<1x1024xf32>
    %extracted_slice_140 = tensor.extract_slice %0[98, 0] [1, 1024] [1, 1] : tensor<512x1024xf32> to tensor<1x1024xf32>
    %extracted_slice_141 = tensor.extract_slice %0[99, 0] [1, 1024] [1, 1] : tensor<512x1024xf32> to tensor<1x1024xf32>
    %extracted_slice_142 = tensor.extract_slice %0[100, 0] [1, 1024] [1, 1] : tensor<512x1024xf32> to tensor<1x1024xf32>
    %extracted_slice_143 = tensor.extract_slice %0[101, 0] [1, 1024] [1, 1] : tensor<512x1024xf32> to tensor<1x1024xf32>
    %extracted_slice_144 = tensor.extract_slice %0[102, 0] [1, 1024] [1, 1] : tensor<512x1024xf32> to tensor<1x1024xf32>
    %extracted_slice_145 = tensor.extract_slice %0[103, 0] [1, 1024] [1, 1] : tensor<512x1024xf32> to tensor<1x1024xf32>
    %extracted_slice_146 = tensor.extract_slice %0[104, 0] [1, 1024] [1, 1] : tensor<512x1024xf32> to tensor<1x1024xf32>
    %extracted_slice_147 = tensor.extract_slice %0[105, 0] [1, 1024] [1, 1] : tensor<512x1024xf32> to tensor<1x1024xf32>
    %extracted_slice_148 = tensor.extract_slice %0[106, 0] [1, 1024] [1, 1] : tensor<512x1024xf32> to tensor<1x1024xf32>
    %extracted_slice_149 = tensor.extract_slice %0[107, 0] [1, 1024] [1, 1] : tensor<512x1024xf32> to tensor<1x1024xf32>
    %extracted_slice_150 = tensor.extract_slice %0[108, 0] [1, 1024] [1, 1] : tensor<512x1024xf32> to tensor<1x1024xf32>
    %extracted_slice_151 = tensor.extract_slice %0[109, 0] [1, 1024] [1, 1] : tensor<512x1024xf32> to tensor<1x1024xf32>
    %extracted_slice_152 = tensor.extract_slice %0[110, 0] [1, 1024] [1, 1] : tensor<512x1024xf32> to tensor<1x1024xf32>
    %extracted_slice_153 = tensor.extract_slice %0[111, 0] [1, 1024] [1, 1] : tensor<512x1024xf32> to tensor<1x1024xf32>
    %extracted_slice_154 = tensor.extract_slice %0[112, 0] [1, 1024] [1, 1] : tensor<512x1024xf32> to tensor<1x1024xf32>
    %extracted_slice_155 = tensor.extract_slice %0[113, 0] [1, 1024] [1, 1] : tensor<512x1024xf32> to tensor<1x1024xf32>
    %extracted_slice_156 = tensor.extract_slice %0[114, 0] [1, 1024] [1, 1] : tensor<512x1024xf32> to tensor<1x1024xf32>
    %extracted_slice_157 = tensor.extract_slice %0[115, 0] [1, 1024] [1, 1] : tensor<512x1024xf32> to tensor<1x1024xf32>
    %extracted_slice_158 = tensor.extract_slice %0[116, 0] [1, 1024] [1, 1] : tensor<512x1024xf32> to tensor<1x1024xf32>
    %extracted_slice_159 = tensor.extract_slice %0[117, 0] [1, 1024] [1, 1] : tensor<512x1024xf32> to tensor<1x1024xf32>
    %extracted_slice_160 = tensor.extract_slice %0[118, 0] [1, 1024] [1, 1] : tensor<512x1024xf32> to tensor<1x1024xf32>
    %extracted_slice_161 = tensor.extract_slice %0[119, 0] [1, 1024] [1, 1] : tensor<512x1024xf32> to tensor<1x1024xf32>
    %extracted_slice_162 = tensor.extract_slice %0[120, 0] [1, 1024] [1, 1] : tensor<512x1024xf32> to tensor<1x1024xf32>
    %extracted_slice_163 = tensor.extract_slice %0[121, 0] [1, 1024] [1, 1] : tensor<512x1024xf32> to tensor<1x1024xf32>
    %extracted_slice_164 = tensor.extract_slice %0[122, 0] [1, 1024] [1, 1] : tensor<512x1024xf32> to tensor<1x1024xf32>
    %extracted_slice_165 = tensor.extract_slice %0[123, 0] [1, 1024] [1, 1] : tensor<512x1024xf32> to tensor<1x1024xf32>
    %extracted_slice_166 = tensor.extract_slice %0[124, 0] [1, 1024] [1, 1] : tensor<512x1024xf32> to tensor<1x1024xf32>
    %extracted_slice_167 = tensor.extract_slice %0[125, 0] [1, 1024] [1, 1] : tensor<512x1024xf32> to tensor<1x1024xf32>
    %extracted_slice_168 = tensor.extract_slice %0[126, 0] [1, 1024] [1, 1] : tensor<512x1024xf32> to tensor<1x1024xf32>
    %extracted_slice_169 = tensor.extract_slice %0[127, 0] [1, 1024] [1, 1] : tensor<512x1024xf32> to tensor<1x1024xf32>
    %extracted_slice_170 = tensor.extract_slice %0[128, 0] [1, 1024] [1, 1] : tensor<512x1024xf32> to tensor<1x1024xf32>
    %extracted_slice_171 = tensor.extract_slice %0[129, 0] [1, 1024] [1, 1] : tensor<512x1024xf32> to tensor<1x1024xf32>
    %extracted_slice_172 = tensor.extract_slice %0[130, 0] [1, 1024] [1, 1] : tensor<512x1024xf32> to tensor<1x1024xf32>
    %extracted_slice_173 = tensor.extract_slice %0[131, 0] [1, 1024] [1, 1] : tensor<512x1024xf32> to tensor<1x1024xf32>
    %extracted_slice_174 = tensor.extract_slice %0[132, 0] [1, 1024] [1, 1] : tensor<512x1024xf32> to tensor<1x1024xf32>
    %extracted_slice_175 = tensor.extract_slice %0[133, 0] [1, 1024] [1, 1] : tensor<512x1024xf32> to tensor<1x1024xf32>
    %extracted_slice_176 = tensor.extract_slice %0[134, 0] [1, 1024] [1, 1] : tensor<512x1024xf32> to tensor<1x1024xf32>
    %extracted_slice_177 = tensor.extract_slice %0[135, 0] [1, 1024] [1, 1] : tensor<512x1024xf32> to tensor<1x1024xf32>
    %extracted_slice_178 = tensor.extract_slice %0[136, 0] [1, 1024] [1, 1] : tensor<512x1024xf32> to tensor<1x1024xf32>
    %extracted_slice_179 = tensor.extract_slice %0[137, 0] [1, 1024] [1, 1] : tensor<512x1024xf32> to tensor<1x1024xf32>
    %extracted_slice_180 = tensor.extract_slice %0[138, 0] [1, 1024] [1, 1] : tensor<512x1024xf32> to tensor<1x1024xf32>
    %extracted_slice_181 = tensor.extract_slice %0[139, 0] [1, 1024] [1, 1] : tensor<512x1024xf32> to tensor<1x1024xf32>
    %extracted_slice_182 = tensor.extract_slice %0[140, 0] [1, 1024] [1, 1] : tensor<512x1024xf32> to tensor<1x1024xf32>
    %extracted_slice_183 = tensor.extract_slice %0[141, 0] [1, 1024] [1, 1] : tensor<512x1024xf32> to tensor<1x1024xf32>
    %extracted_slice_184 = tensor.extract_slice %0[142, 0] [1, 1024] [1, 1] : tensor<512x1024xf32> to tensor<1x1024xf32>
    %extracted_slice_185 = tensor.extract_slice %0[143, 0] [1, 1024] [1, 1] : tensor<512x1024xf32> to tensor<1x1024xf32>
    %extracted_slice_186 = tensor.extract_slice %0[144, 0] [1, 1024] [1, 1] : tensor<512x1024xf32> to tensor<1x1024xf32>
    %extracted_slice_187 = tensor.extract_slice %0[145, 0] [1, 1024] [1, 1] : tensor<512x1024xf32> to tensor<1x1024xf32>
    %extracted_slice_188 = tensor.extract_slice %0[146, 0] [1, 1024] [1, 1] : tensor<512x1024xf32> to tensor<1x1024xf32>
    %extracted_slice_189 = tensor.extract_slice %0[147, 0] [1, 1024] [1, 1] : tensor<512x1024xf32> to tensor<1x1024xf32>
    %extracted_slice_190 = tensor.extract_slice %0[148, 0] [1, 1024] [1, 1] : tensor<512x1024xf32> to tensor<1x1024xf32>
    %extracted_slice_191 = tensor.extract_slice %0[149, 0] [1, 1024] [1, 1] : tensor<512x1024xf32> to tensor<1x1024xf32>
    %extracted_slice_192 = tensor.extract_slice %0[150, 0] [1, 1024] [1, 1] : tensor<512x1024xf32> to tensor<1x1024xf32>
    %extracted_slice_193 = tensor.extract_slice %0[151, 0] [1, 1024] [1, 1] : tensor<512x1024xf32> to tensor<1x1024xf32>
    %extracted_slice_194 = tensor.extract_slice %0[152, 0] [1, 1024] [1, 1] : tensor<512x1024xf32> to tensor<1x1024xf32>
    %extracted_slice_195 = tensor.extract_slice %0[153, 0] [1, 1024] [1, 1] : tensor<512x1024xf32> to tensor<1x1024xf32>
    %extracted_slice_196 = tensor.extract_slice %0[154, 0] [1, 1024] [1, 1] : tensor<512x1024xf32> to tensor<1x1024xf32>
    %extracted_slice_197 = tensor.extract_slice %0[155, 0] [1, 1024] [1, 1] : tensor<512x1024xf32> to tensor<1x1024xf32>
    %extracted_slice_198 = tensor.extract_slice %0[156, 0] [1, 1024] [1, 1] : tensor<512x1024xf32> to tensor<1x1024xf32>
    %extracted_slice_199 = tensor.extract_slice %0[157, 0] [1, 1024] [1, 1] : tensor<512x1024xf32> to tensor<1x1024xf32>
    %extracted_slice_200 = tensor.extract_slice %0[158, 0] [1, 1024] [1, 1] : tensor<512x1024xf32> to tensor<1x1024xf32>
    %extracted_slice_201 = tensor.extract_slice %0[159, 0] [1, 1024] [1, 1] : tensor<512x1024xf32> to tensor<1x1024xf32>
    %extracted_slice_202 = tensor.extract_slice %0[160, 0] [1, 1024] [1, 1] : tensor<512x1024xf32> to tensor<1x1024xf32>
    %extracted_slice_203 = tensor.extract_slice %0[161, 0] [1, 1024] [1, 1] : tensor<512x1024xf32> to tensor<1x1024xf32>
    %extracted_slice_204 = tensor.extract_slice %0[162, 0] [1, 1024] [1, 1] : tensor<512x1024xf32> to tensor<1x1024xf32>
    %extracted_slice_205 = tensor.extract_slice %0[163, 0] [1, 1024] [1, 1] : tensor<512x1024xf32> to tensor<1x1024xf32>
    %extracted_slice_206 = tensor.extract_slice %0[164, 0] [1, 1024] [1, 1] : tensor<512x1024xf32> to tensor<1x1024xf32>
    %extracted_slice_207 = tensor.extract_slice %0[165, 0] [1, 1024] [1, 1] : tensor<512x1024xf32> to tensor<1x1024xf32>
    %extracted_slice_208 = tensor.extract_slice %0[166, 0] [1, 1024] [1, 1] : tensor<512x1024xf32> to tensor<1x1024xf32>
    %extracted_slice_209 = tensor.extract_slice %0[167, 0] [1, 1024] [1, 1] : tensor<512x1024xf32> to tensor<1x1024xf32>
    %extracted_slice_210 = tensor.extract_slice %0[168, 0] [1, 1024] [1, 1] : tensor<512x1024xf32> to tensor<1x1024xf32>
    %extracted_slice_211 = tensor.extract_slice %0[169, 0] [1, 1024] [1, 1] : tensor<512x1024xf32> to tensor<1x1024xf32>
    %extracted_slice_212 = tensor.extract_slice %0[170, 0] [1, 1024] [1, 1] : tensor<512x1024xf32> to tensor<1x1024xf32>
    %extracted_slice_213 = tensor.extract_slice %0[171, 0] [1, 1024] [1, 1] : tensor<512x1024xf32> to tensor<1x1024xf32>
    %extracted_slice_214 = tensor.extract_slice %0[172, 0] [1, 1024] [1, 1] : tensor<512x1024xf32> to tensor<1x1024xf32>
    %extracted_slice_215 = tensor.extract_slice %0[173, 0] [1, 1024] [1, 1] : tensor<512x1024xf32> to tensor<1x1024xf32>
    %extracted_slice_216 = tensor.extract_slice %0[174, 0] [1, 1024] [1, 1] : tensor<512x1024xf32> to tensor<1x1024xf32>
    %extracted_slice_217 = tensor.extract_slice %0[175, 0] [1, 1024] [1, 1] : tensor<512x1024xf32> to tensor<1x1024xf32>
    %extracted_slice_218 = tensor.extract_slice %0[176, 0] [1, 1024] [1, 1] : tensor<512x1024xf32> to tensor<1x1024xf32>
    %extracted_slice_219 = tensor.extract_slice %0[177, 0] [1, 1024] [1, 1] : tensor<512x1024xf32> to tensor<1x1024xf32>
    %extracted_slice_220 = tensor.extract_slice %0[178, 0] [1, 1024] [1, 1] : tensor<512x1024xf32> to tensor<1x1024xf32>
    %extracted_slice_221 = tensor.extract_slice %0[179, 0] [1, 1024] [1, 1] : tensor<512x1024xf32> to tensor<1x1024xf32>
    %extracted_slice_222 = tensor.extract_slice %0[180, 0] [1, 1024] [1, 1] : tensor<512x1024xf32> to tensor<1x1024xf32>
    %extracted_slice_223 = tensor.extract_slice %0[181, 0] [1, 1024] [1, 1] : tensor<512x1024xf32> to tensor<1x1024xf32>
    %extracted_slice_224 = tensor.extract_slice %0[182, 0] [1, 1024] [1, 1] : tensor<512x1024xf32> to tensor<1x1024xf32>
    %extracted_slice_225 = tensor.extract_slice %0[183, 0] [1, 1024] [1, 1] : tensor<512x1024xf32> to tensor<1x1024xf32>
    %extracted_slice_226 = tensor.extract_slice %0[184, 0] [1, 1024] [1, 1] : tensor<512x1024xf32> to tensor<1x1024xf32>
    %extracted_slice_227 = tensor.extract_slice %0[185, 0] [1, 1024] [1, 1] : tensor<512x1024xf32> to tensor<1x1024xf32>
    %extracted_slice_228 = tensor.extract_slice %0[186, 0] [1, 1024] [1, 1] : tensor<512x1024xf32> to tensor<1x1024xf32>
    %extracted_slice_229 = tensor.extract_slice %0[187, 0] [1, 1024] [1, 1] : tensor<512x1024xf32> to tensor<1x1024xf32>
    %extracted_slice_230 = tensor.extract_slice %0[188, 0] [1, 1024] [1, 1] : tensor<512x1024xf32> to tensor<1x1024xf32>
    %extracted_slice_231 = tensor.extract_slice %0[189, 0] [1, 1024] [1, 1] : tensor<512x1024xf32> to tensor<1x1024xf32>
    %extracted_slice_232 = tensor.extract_slice %0[190, 0] [1, 1024] [1, 1] : tensor<512x1024xf32> to tensor<1x1024xf32>
    %extracted_slice_233 = tensor.extract_slice %0[191, 0] [1, 1024] [1, 1] : tensor<512x1024xf32> to tensor<1x1024xf32>
    %extracted_slice_234 = tensor.extract_slice %0[192, 0] [1, 1024] [1, 1] : tensor<512x1024xf32> to tensor<1x1024xf32>
    %extracted_slice_235 = tensor.extract_slice %0[193, 0] [1, 1024] [1, 1] : tensor<512x1024xf32> to tensor<1x1024xf32>
    %extracted_slice_236 = tensor.extract_slice %0[194, 0] [1, 1024] [1, 1] : tensor<512x1024xf32> to tensor<1x1024xf32>
    %extracted_slice_237 = tensor.extract_slice %0[195, 0] [1, 1024] [1, 1] : tensor<512x1024xf32> to tensor<1x1024xf32>
    %extracted_slice_238 = tensor.extract_slice %0[196, 0] [1, 1024] [1, 1] : tensor<512x1024xf32> to tensor<1x1024xf32>
    %extracted_slice_239 = tensor.extract_slice %0[197, 0] [1, 1024] [1, 1] : tensor<512x1024xf32> to tensor<1x1024xf32>
    %extracted_slice_240 = tensor.extract_slice %0[198, 0] [1, 1024] [1, 1] : tensor<512x1024xf32> to tensor<1x1024xf32>
    %extracted_slice_241 = tensor.extract_slice %0[199, 0] [1, 1024] [1, 1] : tensor<512x1024xf32> to tensor<1x1024xf32>
    %extracted_slice_242 = tensor.extract_slice %0[200, 0] [1, 1024] [1, 1] : tensor<512x1024xf32> to tensor<1x1024xf32>
    %extracted_slice_243 = tensor.extract_slice %0[201, 0] [1, 1024] [1, 1] : tensor<512x1024xf32> to tensor<1x1024xf32>
    %extracted_slice_244 = tensor.extract_slice %0[202, 0] [1, 1024] [1, 1] : tensor<512x1024xf32> to tensor<1x1024xf32>
    %extracted_slice_245 = tensor.extract_slice %0[203, 0] [1, 1024] [1, 1] : tensor<512x1024xf32> to tensor<1x1024xf32>
    %extracted_slice_246 = tensor.extract_slice %0[204, 0] [1, 1024] [1, 1] : tensor<512x1024xf32> to tensor<1x1024xf32>
    %extracted_slice_247 = tensor.extract_slice %0[205, 0] [1, 1024] [1, 1] : tensor<512x1024xf32> to tensor<1x1024xf32>
    %extracted_slice_248 = tensor.extract_slice %0[206, 0] [1, 1024] [1, 1] : tensor<512x1024xf32> to tensor<1x1024xf32>
    %extracted_slice_249 = tensor.extract_slice %0[207, 0] [1, 1024] [1, 1] : tensor<512x1024xf32> to tensor<1x1024xf32>
    %extracted_slice_250 = tensor.extract_slice %0[208, 0] [1, 1024] [1, 1] : tensor<512x1024xf32> to tensor<1x1024xf32>
    %extracted_slice_251 = tensor.extract_slice %0[209, 0] [1, 1024] [1, 1] : tensor<512x1024xf32> to tensor<1x1024xf32>
    %extracted_slice_252 = tensor.extract_slice %0[210, 0] [1, 1024] [1, 1] : tensor<512x1024xf32> to tensor<1x1024xf32>
    %extracted_slice_253 = tensor.extract_slice %0[211, 0] [1, 1024] [1, 1] : tensor<512x1024xf32> to tensor<1x1024xf32>
    %extracted_slice_254 = tensor.extract_slice %0[212, 0] [1, 1024] [1, 1] : tensor<512x1024xf32> to tensor<1x1024xf32>
    %extracted_slice_255 = tensor.extract_slice %0[213, 0] [1, 1024] [1, 1] : tensor<512x1024xf32> to tensor<1x1024xf32>
    %extracted_slice_256 = tensor.extract_slice %0[214, 0] [1, 1024] [1, 1] : tensor<512x1024xf32> to tensor<1x1024xf32>
    %extracted_slice_257 = tensor.extract_slice %0[215, 0] [1, 1024] [1, 1] : tensor<512x1024xf32> to tensor<1x1024xf32>
    %extracted_slice_258 = tensor.extract_slice %0[216, 0] [1, 1024] [1, 1] : tensor<512x1024xf32> to tensor<1x1024xf32>
    %extracted_slice_259 = tensor.extract_slice %0[217, 0] [1, 1024] [1, 1] : tensor<512x1024xf32> to tensor<1x1024xf32>
    %extracted_slice_260 = tensor.extract_slice %0[218, 0] [1, 1024] [1, 1] : tensor<512x1024xf32> to tensor<1x1024xf32>
    %extracted_slice_261 = tensor.extract_slice %0[219, 0] [1, 1024] [1, 1] : tensor<512x1024xf32> to tensor<1x1024xf32>
    %extracted_slice_262 = tensor.extract_slice %0[220, 0] [1, 1024] [1, 1] : tensor<512x1024xf32> to tensor<1x1024xf32>
    %extracted_slice_263 = tensor.extract_slice %0[221, 0] [1, 1024] [1, 1] : tensor<512x1024xf32> to tensor<1x1024xf32>
    %extracted_slice_264 = tensor.extract_slice %0[222, 0] [1, 1024] [1, 1] : tensor<512x1024xf32> to tensor<1x1024xf32>
    %extracted_slice_265 = tensor.extract_slice %0[223, 0] [1, 1024] [1, 1] : tensor<512x1024xf32> to tensor<1x1024xf32>
    %extracted_slice_266 = tensor.extract_slice %0[224, 0] [1, 1024] [1, 1] : tensor<512x1024xf32> to tensor<1x1024xf32>
    %extracted_slice_267 = tensor.extract_slice %0[225, 0] [1, 1024] [1, 1] : tensor<512x1024xf32> to tensor<1x1024xf32>
    %extracted_slice_268 = tensor.extract_slice %0[226, 0] [1, 1024] [1, 1] : tensor<512x1024xf32> to tensor<1x1024xf32>
    %extracted_slice_269 = tensor.extract_slice %0[227, 0] [1, 1024] [1, 1] : tensor<512x1024xf32> to tensor<1x1024xf32>
    %extracted_slice_270 = tensor.extract_slice %0[228, 0] [1, 1024] [1, 1] : tensor<512x1024xf32> to tensor<1x1024xf32>
    %extracted_slice_271 = tensor.extract_slice %0[229, 0] [1, 1024] [1, 1] : tensor<512x1024xf32> to tensor<1x1024xf32>
    %extracted_slice_272 = tensor.extract_slice %0[230, 0] [1, 1024] [1, 1] : tensor<512x1024xf32> to tensor<1x1024xf32>
    %extracted_slice_273 = tensor.extract_slice %0[231, 0] [1, 1024] [1, 1] : tensor<512x1024xf32> to tensor<1x1024xf32>
    %extracted_slice_274 = tensor.extract_slice %0[232, 0] [1, 1024] [1, 1] : tensor<512x1024xf32> to tensor<1x1024xf32>
    %extracted_slice_275 = tensor.extract_slice %0[233, 0] [1, 1024] [1, 1] : tensor<512x1024xf32> to tensor<1x1024xf32>
    %extracted_slice_276 = tensor.extract_slice %0[234, 0] [1, 1024] [1, 1] : tensor<512x1024xf32> to tensor<1x1024xf32>
    %extracted_slice_277 = tensor.extract_slice %0[235, 0] [1, 1024] [1, 1] : tensor<512x1024xf32> to tensor<1x1024xf32>
    %extracted_slice_278 = tensor.extract_slice %0[236, 0] [1, 1024] [1, 1] : tensor<512x1024xf32> to tensor<1x1024xf32>
    %extracted_slice_279 = tensor.extract_slice %0[237, 0] [1, 1024] [1, 1] : tensor<512x1024xf32> to tensor<1x1024xf32>
    %extracted_slice_280 = tensor.extract_slice %0[238, 0] [1, 1024] [1, 1] : tensor<512x1024xf32> to tensor<1x1024xf32>
    %extracted_slice_281 = tensor.extract_slice %0[239, 0] [1, 1024] [1, 1] : tensor<512x1024xf32> to tensor<1x1024xf32>
    %extracted_slice_282 = tensor.extract_slice %0[240, 0] [1, 1024] [1, 1] : tensor<512x1024xf32> to tensor<1x1024xf32>
    %extracted_slice_283 = tensor.extract_slice %0[241, 0] [1, 1024] [1, 1] : tensor<512x1024xf32> to tensor<1x1024xf32>
    %extracted_slice_284 = tensor.extract_slice %0[242, 0] [1, 1024] [1, 1] : tensor<512x1024xf32> to tensor<1x1024xf32>
    %extracted_slice_285 = tensor.extract_slice %0[243, 0] [1, 1024] [1, 1] : tensor<512x1024xf32> to tensor<1x1024xf32>
    %extracted_slice_286 = tensor.extract_slice %0[244, 0] [1, 1024] [1, 1] : tensor<512x1024xf32> to tensor<1x1024xf32>
    %extracted_slice_287 = tensor.extract_slice %0[245, 0] [1, 1024] [1, 1] : tensor<512x1024xf32> to tensor<1x1024xf32>
    %extracted_slice_288 = tensor.extract_slice %0[246, 0] [1, 1024] [1, 1] : tensor<512x1024xf32> to tensor<1x1024xf32>
    %extracted_slice_289 = tensor.extract_slice %0[247, 0] [1, 1024] [1, 1] : tensor<512x1024xf32> to tensor<1x1024xf32>
    %extracted_slice_290 = tensor.extract_slice %0[248, 0] [1, 1024] [1, 1] : tensor<512x1024xf32> to tensor<1x1024xf32>
    %extracted_slice_291 = tensor.extract_slice %0[249, 0] [1, 1024] [1, 1] : tensor<512x1024xf32> to tensor<1x1024xf32>
    %extracted_slice_292 = tensor.extract_slice %0[250, 0] [1, 1024] [1, 1] : tensor<512x1024xf32> to tensor<1x1024xf32>
    %extracted_slice_293 = tensor.extract_slice %0[251, 0] [1, 1024] [1, 1] : tensor<512x1024xf32> to tensor<1x1024xf32>
    %extracted_slice_294 = tensor.extract_slice %0[252, 0] [1, 1024] [1, 1] : tensor<512x1024xf32> to tensor<1x1024xf32>
    %extracted_slice_295 = tensor.extract_slice %0[253, 0] [1, 1024] [1, 1] : tensor<512x1024xf32> to tensor<1x1024xf32>
    %extracted_slice_296 = tensor.extract_slice %0[254, 0] [1, 1024] [1, 1] : tensor<512x1024xf32> to tensor<1x1024xf32>
    %extracted_slice_297 = tensor.extract_slice %0[255, 0] [1, 1024] [1, 1] : tensor<512x1024xf32> to tensor<1x1024xf32>
    %extracted_slice_298 = tensor.extract_slice %0[256, 0] [1, 1024] [1, 1] : tensor<512x1024xf32> to tensor<1x1024xf32>
    %extracted_slice_299 = tensor.extract_slice %0[257, 0] [1, 1024] [1, 1] : tensor<512x1024xf32> to tensor<1x1024xf32>
    %extracted_slice_300 = tensor.extract_slice %0[258, 0] [1, 1024] [1, 1] : tensor<512x1024xf32> to tensor<1x1024xf32>
    %extracted_slice_301 = tensor.extract_slice %0[259, 0] [1, 1024] [1, 1] : tensor<512x1024xf32> to tensor<1x1024xf32>
    %extracted_slice_302 = tensor.extract_slice %0[260, 0] [1, 1024] [1, 1] : tensor<512x1024xf32> to tensor<1x1024xf32>
    %extracted_slice_303 = tensor.extract_slice %0[261, 0] [1, 1024] [1, 1] : tensor<512x1024xf32> to tensor<1x1024xf32>
    %extracted_slice_304 = tensor.extract_slice %0[262, 0] [1, 1024] [1, 1] : tensor<512x1024xf32> to tensor<1x1024xf32>
    %extracted_slice_305 = tensor.extract_slice %0[263, 0] [1, 1024] [1, 1] : tensor<512x1024xf32> to tensor<1x1024xf32>
    %extracted_slice_306 = tensor.extract_slice %0[264, 0] [1, 1024] [1, 1] : tensor<512x1024xf32> to tensor<1x1024xf32>
    %extracted_slice_307 = tensor.extract_slice %0[265, 0] [1, 1024] [1, 1] : tensor<512x1024xf32> to tensor<1x1024xf32>
    %extracted_slice_308 = tensor.extract_slice %0[266, 0] [1, 1024] [1, 1] : tensor<512x1024xf32> to tensor<1x1024xf32>
    %extracted_slice_309 = tensor.extract_slice %0[267, 0] [1, 1024] [1, 1] : tensor<512x1024xf32> to tensor<1x1024xf32>
    %extracted_slice_310 = tensor.extract_slice %0[268, 0] [1, 1024] [1, 1] : tensor<512x1024xf32> to tensor<1x1024xf32>
    %extracted_slice_311 = tensor.extract_slice %0[269, 0] [1, 1024] [1, 1] : tensor<512x1024xf32> to tensor<1x1024xf32>
    %extracted_slice_312 = tensor.extract_slice %0[270, 0] [1, 1024] [1, 1] : tensor<512x1024xf32> to tensor<1x1024xf32>
    %extracted_slice_313 = tensor.extract_slice %0[271, 0] [1, 1024] [1, 1] : tensor<512x1024xf32> to tensor<1x1024xf32>
    %extracted_slice_314 = tensor.extract_slice %0[272, 0] [1, 1024] [1, 1] : tensor<512x1024xf32> to tensor<1x1024xf32>
    %extracted_slice_315 = tensor.extract_slice %0[273, 0] [1, 1024] [1, 1] : tensor<512x1024xf32> to tensor<1x1024xf32>
    %extracted_slice_316 = tensor.extract_slice %0[274, 0] [1, 1024] [1, 1] : tensor<512x1024xf32> to tensor<1x1024xf32>
    %extracted_slice_317 = tensor.extract_slice %0[275, 0] [1, 1024] [1, 1] : tensor<512x1024xf32> to tensor<1x1024xf32>
    %extracted_slice_318 = tensor.extract_slice %0[276, 0] [1, 1024] [1, 1] : tensor<512x1024xf32> to tensor<1x1024xf32>
    %extracted_slice_319 = tensor.extract_slice %0[277, 0] [1, 1024] [1, 1] : tensor<512x1024xf32> to tensor<1x1024xf32>
    %extracted_slice_320 = tensor.extract_slice %0[278, 0] [1, 1024] [1, 1] : tensor<512x1024xf32> to tensor<1x1024xf32>
    %extracted_slice_321 = tensor.extract_slice %0[279, 0] [1, 1024] [1, 1] : tensor<512x1024xf32> to tensor<1x1024xf32>
    %extracted_slice_322 = tensor.extract_slice %0[280, 0] [1, 1024] [1, 1] : tensor<512x1024xf32> to tensor<1x1024xf32>
    %extracted_slice_323 = tensor.extract_slice %0[281, 0] [1, 1024] [1, 1] : tensor<512x1024xf32> to tensor<1x1024xf32>
    %extracted_slice_324 = tensor.extract_slice %0[282, 0] [1, 1024] [1, 1] : tensor<512x1024xf32> to tensor<1x1024xf32>
    %extracted_slice_325 = tensor.extract_slice %0[283, 0] [1, 1024] [1, 1] : tensor<512x1024xf32> to tensor<1x1024xf32>
    %extracted_slice_326 = tensor.extract_slice %0[284, 0] [1, 1024] [1, 1] : tensor<512x1024xf32> to tensor<1x1024xf32>
    %extracted_slice_327 = tensor.extract_slice %0[285, 0] [1, 1024] [1, 1] : tensor<512x1024xf32> to tensor<1x1024xf32>
    %extracted_slice_328 = tensor.extract_slice %0[286, 0] [1, 1024] [1, 1] : tensor<512x1024xf32> to tensor<1x1024xf32>
    %extracted_slice_329 = tensor.extract_slice %0[287, 0] [1, 1024] [1, 1] : tensor<512x1024xf32> to tensor<1x1024xf32>
    %extracted_slice_330 = tensor.extract_slice %0[288, 0] [1, 1024] [1, 1] : tensor<512x1024xf32> to tensor<1x1024xf32>
    %extracted_slice_331 = tensor.extract_slice %0[289, 0] [1, 1024] [1, 1] : tensor<512x1024xf32> to tensor<1x1024xf32>
    %extracted_slice_332 = tensor.extract_slice %0[290, 0] [1, 1024] [1, 1] : tensor<512x1024xf32> to tensor<1x1024xf32>
    %extracted_slice_333 = tensor.extract_slice %0[291, 0] [1, 1024] [1, 1] : tensor<512x1024xf32> to tensor<1x1024xf32>
    %extracted_slice_334 = tensor.extract_slice %0[292, 0] [1, 1024] [1, 1] : tensor<512x1024xf32> to tensor<1x1024xf32>
    %extracted_slice_335 = tensor.extract_slice %0[293, 0] [1, 1024] [1, 1] : tensor<512x1024xf32> to tensor<1x1024xf32>
    %extracted_slice_336 = tensor.extract_slice %0[294, 0] [1, 1024] [1, 1] : tensor<512x1024xf32> to tensor<1x1024xf32>
    %extracted_slice_337 = tensor.extract_slice %0[295, 0] [1, 1024] [1, 1] : tensor<512x1024xf32> to tensor<1x1024xf32>
    %extracted_slice_338 = tensor.extract_slice %0[296, 0] [1, 1024] [1, 1] : tensor<512x1024xf32> to tensor<1x1024xf32>
    %extracted_slice_339 = tensor.extract_slice %0[297, 0] [1, 1024] [1, 1] : tensor<512x1024xf32> to tensor<1x1024xf32>
    %extracted_slice_340 = tensor.extract_slice %0[298, 0] [1, 1024] [1, 1] : tensor<512x1024xf32> to tensor<1x1024xf32>
    %extracted_slice_341 = tensor.extract_slice %0[299, 0] [1, 1024] [1, 1] : tensor<512x1024xf32> to tensor<1x1024xf32>
    %extracted_slice_342 = tensor.extract_slice %0[300, 0] [1, 1024] [1, 1] : tensor<512x1024xf32> to tensor<1x1024xf32>
    %extracted_slice_343 = tensor.extract_slice %0[301, 0] [1, 1024] [1, 1] : tensor<512x1024xf32> to tensor<1x1024xf32>
    %extracted_slice_344 = tensor.extract_slice %0[302, 0] [1, 1024] [1, 1] : tensor<512x1024xf32> to tensor<1x1024xf32>
    %extracted_slice_345 = tensor.extract_slice %0[303, 0] [1, 1024] [1, 1] : tensor<512x1024xf32> to tensor<1x1024xf32>
    %extracted_slice_346 = tensor.extract_slice %0[304, 0] [1, 1024] [1, 1] : tensor<512x1024xf32> to tensor<1x1024xf32>
    %extracted_slice_347 = tensor.extract_slice %0[305, 0] [1, 1024] [1, 1] : tensor<512x1024xf32> to tensor<1x1024xf32>
    %extracted_slice_348 = tensor.extract_slice %0[306, 0] [1, 1024] [1, 1] : tensor<512x1024xf32> to tensor<1x1024xf32>
    %extracted_slice_349 = tensor.extract_slice %0[307, 0] [1, 1024] [1, 1] : tensor<512x1024xf32> to tensor<1x1024xf32>
    %extracted_slice_350 = tensor.extract_slice %0[308, 0] [1, 1024] [1, 1] : tensor<512x1024xf32> to tensor<1x1024xf32>
    %extracted_slice_351 = tensor.extract_slice %0[309, 0] [1, 1024] [1, 1] : tensor<512x1024xf32> to tensor<1x1024xf32>
    %extracted_slice_352 = tensor.extract_slice %0[310, 0] [1, 1024] [1, 1] : tensor<512x1024xf32> to tensor<1x1024xf32>
    %extracted_slice_353 = tensor.extract_slice %0[311, 0] [1, 1024] [1, 1] : tensor<512x1024xf32> to tensor<1x1024xf32>
    %extracted_slice_354 = tensor.extract_slice %0[312, 0] [1, 1024] [1, 1] : tensor<512x1024xf32> to tensor<1x1024xf32>
    %extracted_slice_355 = tensor.extract_slice %0[313, 0] [1, 1024] [1, 1] : tensor<512x1024xf32> to tensor<1x1024xf32>
    %extracted_slice_356 = tensor.extract_slice %0[314, 0] [1, 1024] [1, 1] : tensor<512x1024xf32> to tensor<1x1024xf32>
    %extracted_slice_357 = tensor.extract_slice %0[315, 0] [1, 1024] [1, 1] : tensor<512x1024xf32> to tensor<1x1024xf32>
    %extracted_slice_358 = tensor.extract_slice %0[316, 0] [1, 1024] [1, 1] : tensor<512x1024xf32> to tensor<1x1024xf32>
    %extracted_slice_359 = tensor.extract_slice %0[317, 0] [1, 1024] [1, 1] : tensor<512x1024xf32> to tensor<1x1024xf32>
    %extracted_slice_360 = tensor.extract_slice %0[318, 0] [1, 1024] [1, 1] : tensor<512x1024xf32> to tensor<1x1024xf32>
    %extracted_slice_361 = tensor.extract_slice %0[319, 0] [1, 1024] [1, 1] : tensor<512x1024xf32> to tensor<1x1024xf32>
    %extracted_slice_362 = tensor.extract_slice %0[320, 0] [1, 1024] [1, 1] : tensor<512x1024xf32> to tensor<1x1024xf32>
    %extracted_slice_363 = tensor.extract_slice %0[321, 0] [1, 1024] [1, 1] : tensor<512x1024xf32> to tensor<1x1024xf32>
    %extracted_slice_364 = tensor.extract_slice %0[322, 0] [1, 1024] [1, 1] : tensor<512x1024xf32> to tensor<1x1024xf32>
    %extracted_slice_365 = tensor.extract_slice %0[323, 0] [1, 1024] [1, 1] : tensor<512x1024xf32> to tensor<1x1024xf32>
    %extracted_slice_366 = tensor.extract_slice %0[324, 0] [1, 1024] [1, 1] : tensor<512x1024xf32> to tensor<1x1024xf32>
    %extracted_slice_367 = tensor.extract_slice %0[325, 0] [1, 1024] [1, 1] : tensor<512x1024xf32> to tensor<1x1024xf32>
    %extracted_slice_368 = tensor.extract_slice %0[326, 0] [1, 1024] [1, 1] : tensor<512x1024xf32> to tensor<1x1024xf32>
    %extracted_slice_369 = tensor.extract_slice %0[327, 0] [1, 1024] [1, 1] : tensor<512x1024xf32> to tensor<1x1024xf32>
    %extracted_slice_370 = tensor.extract_slice %0[328, 0] [1, 1024] [1, 1] : tensor<512x1024xf32> to tensor<1x1024xf32>
    %extracted_slice_371 = tensor.extract_slice %0[329, 0] [1, 1024] [1, 1] : tensor<512x1024xf32> to tensor<1x1024xf32>
    %extracted_slice_372 = tensor.extract_slice %0[330, 0] [1, 1024] [1, 1] : tensor<512x1024xf32> to tensor<1x1024xf32>
    %extracted_slice_373 = tensor.extract_slice %0[331, 0] [1, 1024] [1, 1] : tensor<512x1024xf32> to tensor<1x1024xf32>
    %extracted_slice_374 = tensor.extract_slice %0[332, 0] [1, 1024] [1, 1] : tensor<512x1024xf32> to tensor<1x1024xf32>
    %extracted_slice_375 = tensor.extract_slice %0[333, 0] [1, 1024] [1, 1] : tensor<512x1024xf32> to tensor<1x1024xf32>
    %extracted_slice_376 = tensor.extract_slice %0[334, 0] [1, 1024] [1, 1] : tensor<512x1024xf32> to tensor<1x1024xf32>
    %extracted_slice_377 = tensor.extract_slice %0[335, 0] [1, 1024] [1, 1] : tensor<512x1024xf32> to tensor<1x1024xf32>
    %extracted_slice_378 = tensor.extract_slice %0[336, 0] [1, 1024] [1, 1] : tensor<512x1024xf32> to tensor<1x1024xf32>
    %extracted_slice_379 = tensor.extract_slice %0[337, 0] [1, 1024] [1, 1] : tensor<512x1024xf32> to tensor<1x1024xf32>
    %extracted_slice_380 = tensor.extract_slice %0[338, 0] [1, 1024] [1, 1] : tensor<512x1024xf32> to tensor<1x1024xf32>
    %extracted_slice_381 = tensor.extract_slice %0[339, 0] [1, 1024] [1, 1] : tensor<512x1024xf32> to tensor<1x1024xf32>
    %extracted_slice_382 = tensor.extract_slice %0[340, 0] [1, 1024] [1, 1] : tensor<512x1024xf32> to tensor<1x1024xf32>
    %extracted_slice_383 = tensor.extract_slice %0[341, 0] [1, 1024] [1, 1] : tensor<512x1024xf32> to tensor<1x1024xf32>
    %extracted_slice_384 = tensor.extract_slice %0[342, 0] [1, 1024] [1, 1] : tensor<512x1024xf32> to tensor<1x1024xf32>
    %extracted_slice_385 = tensor.extract_slice %0[343, 0] [1, 1024] [1, 1] : tensor<512x1024xf32> to tensor<1x1024xf32>
    %extracted_slice_386 = tensor.extract_slice %0[344, 0] [1, 1024] [1, 1] : tensor<512x1024xf32> to tensor<1x1024xf32>
    %extracted_slice_387 = tensor.extract_slice %0[345, 0] [1, 1024] [1, 1] : tensor<512x1024xf32> to tensor<1x1024xf32>
    %extracted_slice_388 = tensor.extract_slice %0[346, 0] [1, 1024] [1, 1] : tensor<512x1024xf32> to tensor<1x1024xf32>
    %extracted_slice_389 = tensor.extract_slice %0[347, 0] [1, 1024] [1, 1] : tensor<512x1024xf32> to tensor<1x1024xf32>
    %extracted_slice_390 = tensor.extract_slice %0[348, 0] [1, 1024] [1, 1] : tensor<512x1024xf32> to tensor<1x1024xf32>
    %extracted_slice_391 = tensor.extract_slice %0[349, 0] [1, 1024] [1, 1] : tensor<512x1024xf32> to tensor<1x1024xf32>
    %extracted_slice_392 = tensor.extract_slice %0[350, 0] [1, 1024] [1, 1] : tensor<512x1024xf32> to tensor<1x1024xf32>
    %extracted_slice_393 = tensor.extract_slice %0[351, 0] [1, 1024] [1, 1] : tensor<512x1024xf32> to tensor<1x1024xf32>
    %extracted_slice_394 = tensor.extract_slice %0[352, 0] [1, 1024] [1, 1] : tensor<512x1024xf32> to tensor<1x1024xf32>
    %extracted_slice_395 = tensor.extract_slice %0[353, 0] [1, 1024] [1, 1] : tensor<512x1024xf32> to tensor<1x1024xf32>
    %extracted_slice_396 = tensor.extract_slice %0[354, 0] [1, 1024] [1, 1] : tensor<512x1024xf32> to tensor<1x1024xf32>
    %extracted_slice_397 = tensor.extract_slice %0[355, 0] [1, 1024] [1, 1] : tensor<512x1024xf32> to tensor<1x1024xf32>
    %extracted_slice_398 = tensor.extract_slice %0[356, 0] [1, 1024] [1, 1] : tensor<512x1024xf32> to tensor<1x1024xf32>
    %extracted_slice_399 = tensor.extract_slice %0[357, 0] [1, 1024] [1, 1] : tensor<512x1024xf32> to tensor<1x1024xf32>
    %extracted_slice_400 = tensor.extract_slice %0[358, 0] [1, 1024] [1, 1] : tensor<512x1024xf32> to tensor<1x1024xf32>
    %extracted_slice_401 = tensor.extract_slice %0[359, 0] [1, 1024] [1, 1] : tensor<512x1024xf32> to tensor<1x1024xf32>
    %extracted_slice_402 = tensor.extract_slice %0[360, 0] [1, 1024] [1, 1] : tensor<512x1024xf32> to tensor<1x1024xf32>
    %extracted_slice_403 = tensor.extract_slice %0[361, 0] [1, 1024] [1, 1] : tensor<512x1024xf32> to tensor<1x1024xf32>
    %extracted_slice_404 = tensor.extract_slice %0[362, 0] [1, 1024] [1, 1] : tensor<512x1024xf32> to tensor<1x1024xf32>
    %extracted_slice_405 = tensor.extract_slice %0[363, 0] [1, 1024] [1, 1] : tensor<512x1024xf32> to tensor<1x1024xf32>
    %extracted_slice_406 = tensor.extract_slice %0[364, 0] [1, 1024] [1, 1] : tensor<512x1024xf32> to tensor<1x1024xf32>
    %extracted_slice_407 = tensor.extract_slice %0[365, 0] [1, 1024] [1, 1] : tensor<512x1024xf32> to tensor<1x1024xf32>
    %extracted_slice_408 = tensor.extract_slice %0[366, 0] [1, 1024] [1, 1] : tensor<512x1024xf32> to tensor<1x1024xf32>
    %extracted_slice_409 = tensor.extract_slice %0[367, 0] [1, 1024] [1, 1] : tensor<512x1024xf32> to tensor<1x1024xf32>
    %extracted_slice_410 = tensor.extract_slice %0[368, 0] [1, 1024] [1, 1] : tensor<512x1024xf32> to tensor<1x1024xf32>
    %extracted_slice_411 = tensor.extract_slice %0[369, 0] [1, 1024] [1, 1] : tensor<512x1024xf32> to tensor<1x1024xf32>
    %extracted_slice_412 = tensor.extract_slice %0[370, 0] [1, 1024] [1, 1] : tensor<512x1024xf32> to tensor<1x1024xf32>
    %extracted_slice_413 = tensor.extract_slice %0[371, 0] [1, 1024] [1, 1] : tensor<512x1024xf32> to tensor<1x1024xf32>
    %extracted_slice_414 = tensor.extract_slice %0[372, 0] [1, 1024] [1, 1] : tensor<512x1024xf32> to tensor<1x1024xf32>
    %extracted_slice_415 = tensor.extract_slice %0[373, 0] [1, 1024] [1, 1] : tensor<512x1024xf32> to tensor<1x1024xf32>
    %extracted_slice_416 = tensor.extract_slice %0[374, 0] [1, 1024] [1, 1] : tensor<512x1024xf32> to tensor<1x1024xf32>
    %extracted_slice_417 = tensor.extract_slice %0[375, 0] [1, 1024] [1, 1] : tensor<512x1024xf32> to tensor<1x1024xf32>
    %extracted_slice_418 = tensor.extract_slice %0[376, 0] [1, 1024] [1, 1] : tensor<512x1024xf32> to tensor<1x1024xf32>
    %extracted_slice_419 = tensor.extract_slice %0[377, 0] [1, 1024] [1, 1] : tensor<512x1024xf32> to tensor<1x1024xf32>
    %extracted_slice_420 = tensor.extract_slice %0[378, 0] [1, 1024] [1, 1] : tensor<512x1024xf32> to tensor<1x1024xf32>
    %extracted_slice_421 = tensor.extract_slice %0[379, 0] [1, 1024] [1, 1] : tensor<512x1024xf32> to tensor<1x1024xf32>
    %extracted_slice_422 = tensor.extract_slice %0[380, 0] [1, 1024] [1, 1] : tensor<512x1024xf32> to tensor<1x1024xf32>
    %extracted_slice_423 = tensor.extract_slice %0[381, 0] [1, 1024] [1, 1] : tensor<512x1024xf32> to tensor<1x1024xf32>
    %extracted_slice_424 = tensor.extract_slice %0[382, 0] [1, 1024] [1, 1] : tensor<512x1024xf32> to tensor<1x1024xf32>
    %extracted_slice_425 = tensor.extract_slice %0[383, 0] [1, 1024] [1, 1] : tensor<512x1024xf32> to tensor<1x1024xf32>
    %extracted_slice_426 = tensor.extract_slice %0[384, 0] [1, 1024] [1, 1] : tensor<512x1024xf32> to tensor<1x1024xf32>
    %extracted_slice_427 = tensor.extract_slice %0[385, 0] [1, 1024] [1, 1] : tensor<512x1024xf32> to tensor<1x1024xf32>
    %extracted_slice_428 = tensor.extract_slice %0[386, 0] [1, 1024] [1, 1] : tensor<512x1024xf32> to tensor<1x1024xf32>
    %extracted_slice_429 = tensor.extract_slice %0[387, 0] [1, 1024] [1, 1] : tensor<512x1024xf32> to tensor<1x1024xf32>
    %extracted_slice_430 = tensor.extract_slice %0[388, 0] [1, 1024] [1, 1] : tensor<512x1024xf32> to tensor<1x1024xf32>
    %extracted_slice_431 = tensor.extract_slice %0[389, 0] [1, 1024] [1, 1] : tensor<512x1024xf32> to tensor<1x1024xf32>
    %extracted_slice_432 = tensor.extract_slice %0[390, 0] [1, 1024] [1, 1] : tensor<512x1024xf32> to tensor<1x1024xf32>
    %extracted_slice_433 = tensor.extract_slice %0[391, 0] [1, 1024] [1, 1] : tensor<512x1024xf32> to tensor<1x1024xf32>
    %extracted_slice_434 = tensor.extract_slice %0[392, 0] [1, 1024] [1, 1] : tensor<512x1024xf32> to tensor<1x1024xf32>
    %extracted_slice_435 = tensor.extract_slice %0[393, 0] [1, 1024] [1, 1] : tensor<512x1024xf32> to tensor<1x1024xf32>
    %extracted_slice_436 = tensor.extract_slice %0[394, 0] [1, 1024] [1, 1] : tensor<512x1024xf32> to tensor<1x1024xf32>
    %extracted_slice_437 = tensor.extract_slice %0[395, 0] [1, 1024] [1, 1] : tensor<512x1024xf32> to tensor<1x1024xf32>
    %extracted_slice_438 = tensor.extract_slice %0[396, 0] [1, 1024] [1, 1] : tensor<512x1024xf32> to tensor<1x1024xf32>
    %extracted_slice_439 = tensor.extract_slice %0[397, 0] [1, 1024] [1, 1] : tensor<512x1024xf32> to tensor<1x1024xf32>
    %extracted_slice_440 = tensor.extract_slice %0[398, 0] [1, 1024] [1, 1] : tensor<512x1024xf32> to tensor<1x1024xf32>
    %extracted_slice_441 = tensor.extract_slice %0[399, 0] [1, 1024] [1, 1] : tensor<512x1024xf32> to tensor<1x1024xf32>
    %extracted_slice_442 = tensor.extract_slice %0[400, 0] [1, 1024] [1, 1] : tensor<512x1024xf32> to tensor<1x1024xf32>
    %extracted_slice_443 = tensor.extract_slice %0[401, 0] [1, 1024] [1, 1] : tensor<512x1024xf32> to tensor<1x1024xf32>
    %extracted_slice_444 = tensor.extract_slice %0[402, 0] [1, 1024] [1, 1] : tensor<512x1024xf32> to tensor<1x1024xf32>
    %extracted_slice_445 = tensor.extract_slice %0[403, 0] [1, 1024] [1, 1] : tensor<512x1024xf32> to tensor<1x1024xf32>
    %extracted_slice_446 = tensor.extract_slice %0[404, 0] [1, 1024] [1, 1] : tensor<512x1024xf32> to tensor<1x1024xf32>
    %extracted_slice_447 = tensor.extract_slice %0[405, 0] [1, 1024] [1, 1] : tensor<512x1024xf32> to tensor<1x1024xf32>
    %extracted_slice_448 = tensor.extract_slice %0[406, 0] [1, 1024] [1, 1] : tensor<512x1024xf32> to tensor<1x1024xf32>
    %extracted_slice_449 = tensor.extract_slice %0[407, 0] [1, 1024] [1, 1] : tensor<512x1024xf32> to tensor<1x1024xf32>
    %extracted_slice_450 = tensor.extract_slice %0[408, 0] [1, 1024] [1, 1] : tensor<512x1024xf32> to tensor<1x1024xf32>
    %extracted_slice_451 = tensor.extract_slice %0[409, 0] [1, 1024] [1, 1] : tensor<512x1024xf32> to tensor<1x1024xf32>
    %extracted_slice_452 = tensor.extract_slice %0[410, 0] [1, 1024] [1, 1] : tensor<512x1024xf32> to tensor<1x1024xf32>
    %extracted_slice_453 = tensor.extract_slice %0[411, 0] [1, 1024] [1, 1] : tensor<512x1024xf32> to tensor<1x1024xf32>
    %extracted_slice_454 = tensor.extract_slice %0[412, 0] [1, 1024] [1, 1] : tensor<512x1024xf32> to tensor<1x1024xf32>
    %extracted_slice_455 = tensor.extract_slice %0[413, 0] [1, 1024] [1, 1] : tensor<512x1024xf32> to tensor<1x1024xf32>
    %extracted_slice_456 = tensor.extract_slice %0[414, 0] [1, 1024] [1, 1] : tensor<512x1024xf32> to tensor<1x1024xf32>
    %extracted_slice_457 = tensor.extract_slice %0[415, 0] [1, 1024] [1, 1] : tensor<512x1024xf32> to tensor<1x1024xf32>
    %extracted_slice_458 = tensor.extract_slice %0[416, 0] [1, 1024] [1, 1] : tensor<512x1024xf32> to tensor<1x1024xf32>
    %extracted_slice_459 = tensor.extract_slice %0[417, 0] [1, 1024] [1, 1] : tensor<512x1024xf32> to tensor<1x1024xf32>
    %extracted_slice_460 = tensor.extract_slice %0[418, 0] [1, 1024] [1, 1] : tensor<512x1024xf32> to tensor<1x1024xf32>
    %extracted_slice_461 = tensor.extract_slice %0[419, 0] [1, 1024] [1, 1] : tensor<512x1024xf32> to tensor<1x1024xf32>
    %extracted_slice_462 = tensor.extract_slice %0[420, 0] [1, 1024] [1, 1] : tensor<512x1024xf32> to tensor<1x1024xf32>
    %extracted_slice_463 = tensor.extract_slice %0[421, 0] [1, 1024] [1, 1] : tensor<512x1024xf32> to tensor<1x1024xf32>
    %extracted_slice_464 = tensor.extract_slice %0[422, 0] [1, 1024] [1, 1] : tensor<512x1024xf32> to tensor<1x1024xf32>
    %extracted_slice_465 = tensor.extract_slice %0[423, 0] [1, 1024] [1, 1] : tensor<512x1024xf32> to tensor<1x1024xf32>
    %extracted_slice_466 = tensor.extract_slice %0[424, 0] [1, 1024] [1, 1] : tensor<512x1024xf32> to tensor<1x1024xf32>
    %extracted_slice_467 = tensor.extract_slice %0[425, 0] [1, 1024] [1, 1] : tensor<512x1024xf32> to tensor<1x1024xf32>
    %extracted_slice_468 = tensor.extract_slice %0[426, 0] [1, 1024] [1, 1] : tensor<512x1024xf32> to tensor<1x1024xf32>
    %extracted_slice_469 = tensor.extract_slice %0[427, 0] [1, 1024] [1, 1] : tensor<512x1024xf32> to tensor<1x1024xf32>
    %extracted_slice_470 = tensor.extract_slice %0[428, 0] [1, 1024] [1, 1] : tensor<512x1024xf32> to tensor<1x1024xf32>
    %extracted_slice_471 = tensor.extract_slice %0[429, 0] [1, 1024] [1, 1] : tensor<512x1024xf32> to tensor<1x1024xf32>
    %extracted_slice_472 = tensor.extract_slice %0[430, 0] [1, 1024] [1, 1] : tensor<512x1024xf32> to tensor<1x1024xf32>
    %extracted_slice_473 = tensor.extract_slice %0[431, 0] [1, 1024] [1, 1] : tensor<512x1024xf32> to tensor<1x1024xf32>
    %extracted_slice_474 = tensor.extract_slice %0[432, 0] [1, 1024] [1, 1] : tensor<512x1024xf32> to tensor<1x1024xf32>
    %extracted_slice_475 = tensor.extract_slice %0[433, 0] [1, 1024] [1, 1] : tensor<512x1024xf32> to tensor<1x1024xf32>
    %extracted_slice_476 = tensor.extract_slice %0[434, 0] [1, 1024] [1, 1] : tensor<512x1024xf32> to tensor<1x1024xf32>
    %extracted_slice_477 = tensor.extract_slice %0[435, 0] [1, 1024] [1, 1] : tensor<512x1024xf32> to tensor<1x1024xf32>
    %extracted_slice_478 = tensor.extract_slice %0[436, 0] [1, 1024] [1, 1] : tensor<512x1024xf32> to tensor<1x1024xf32>
    %extracted_slice_479 = tensor.extract_slice %0[437, 0] [1, 1024] [1, 1] : tensor<512x1024xf32> to tensor<1x1024xf32>
    %extracted_slice_480 = tensor.extract_slice %0[438, 0] [1, 1024] [1, 1] : tensor<512x1024xf32> to tensor<1x1024xf32>
    %extracted_slice_481 = tensor.extract_slice %0[439, 0] [1, 1024] [1, 1] : tensor<512x1024xf32> to tensor<1x1024xf32>
    %extracted_slice_482 = tensor.extract_slice %0[440, 0] [1, 1024] [1, 1] : tensor<512x1024xf32> to tensor<1x1024xf32>
    %extracted_slice_483 = tensor.extract_slice %0[441, 0] [1, 1024] [1, 1] : tensor<512x1024xf32> to tensor<1x1024xf32>
    %extracted_slice_484 = tensor.extract_slice %0[442, 0] [1, 1024] [1, 1] : tensor<512x1024xf32> to tensor<1x1024xf32>
    %extracted_slice_485 = tensor.extract_slice %0[443, 0] [1, 1024] [1, 1] : tensor<512x1024xf32> to tensor<1x1024xf32>
    %extracted_slice_486 = tensor.extract_slice %0[444, 0] [1, 1024] [1, 1] : tensor<512x1024xf32> to tensor<1x1024xf32>
    %extracted_slice_487 = tensor.extract_slice %0[445, 0] [1, 1024] [1, 1] : tensor<512x1024xf32> to tensor<1x1024xf32>
    %extracted_slice_488 = tensor.extract_slice %0[446, 0] [1, 1024] [1, 1] : tensor<512x1024xf32> to tensor<1x1024xf32>
    %extracted_slice_489 = tensor.extract_slice %0[447, 0] [1, 1024] [1, 1] : tensor<512x1024xf32> to tensor<1x1024xf32>
    %extracted_slice_490 = tensor.extract_slice %0[448, 0] [1, 1024] [1, 1] : tensor<512x1024xf32> to tensor<1x1024xf32>
    %extracted_slice_491 = tensor.extract_slice %0[449, 0] [1, 1024] [1, 1] : tensor<512x1024xf32> to tensor<1x1024xf32>
    %extracted_slice_492 = tensor.extract_slice %0[450, 0] [1, 1024] [1, 1] : tensor<512x1024xf32> to tensor<1x1024xf32>
    %extracted_slice_493 = tensor.extract_slice %0[451, 0] [1, 1024] [1, 1] : tensor<512x1024xf32> to tensor<1x1024xf32>
    %extracted_slice_494 = tensor.extract_slice %0[452, 0] [1, 1024] [1, 1] : tensor<512x1024xf32> to tensor<1x1024xf32>
    %extracted_slice_495 = tensor.extract_slice %0[453, 0] [1, 1024] [1, 1] : tensor<512x1024xf32> to tensor<1x1024xf32>
    %extracted_slice_496 = tensor.extract_slice %0[454, 0] [1, 1024] [1, 1] : tensor<512x1024xf32> to tensor<1x1024xf32>
    %extracted_slice_497 = tensor.extract_slice %0[455, 0] [1, 1024] [1, 1] : tensor<512x1024xf32> to tensor<1x1024xf32>
    %extracted_slice_498 = tensor.extract_slice %0[456, 0] [1, 1024] [1, 1] : tensor<512x1024xf32> to tensor<1x1024xf32>
    %extracted_slice_499 = tensor.extract_slice %0[457, 0] [1, 1024] [1, 1] : tensor<512x1024xf32> to tensor<1x1024xf32>
    %extracted_slice_500 = tensor.extract_slice %0[458, 0] [1, 1024] [1, 1] : tensor<512x1024xf32> to tensor<1x1024xf32>
    %extracted_slice_501 = tensor.extract_slice %0[459, 0] [1, 1024] [1, 1] : tensor<512x1024xf32> to tensor<1x1024xf32>
    %extracted_slice_502 = tensor.extract_slice %0[460, 0] [1, 1024] [1, 1] : tensor<512x1024xf32> to tensor<1x1024xf32>
    %extracted_slice_503 = tensor.extract_slice %0[461, 0] [1, 1024] [1, 1] : tensor<512x1024xf32> to tensor<1x1024xf32>
    %extracted_slice_504 = tensor.extract_slice %0[462, 0] [1, 1024] [1, 1] : tensor<512x1024xf32> to tensor<1x1024xf32>
    %extracted_slice_505 = tensor.extract_slice %0[463, 0] [1, 1024] [1, 1] : tensor<512x1024xf32> to tensor<1x1024xf32>
    %extracted_slice_506 = tensor.extract_slice %0[464, 0] [1, 1024] [1, 1] : tensor<512x1024xf32> to tensor<1x1024xf32>
    %extracted_slice_507 = tensor.extract_slice %0[465, 0] [1, 1024] [1, 1] : tensor<512x1024xf32> to tensor<1x1024xf32>
    %extracted_slice_508 = tensor.extract_slice %0[466, 0] [1, 1024] [1, 1] : tensor<512x1024xf32> to tensor<1x1024xf32>
    %extracted_slice_509 = tensor.extract_slice %0[467, 0] [1, 1024] [1, 1] : tensor<512x1024xf32> to tensor<1x1024xf32>
    %extracted_slice_510 = tensor.extract_slice %0[468, 0] [1, 1024] [1, 1] : tensor<512x1024xf32> to tensor<1x1024xf32>
    %extracted_slice_511 = tensor.extract_slice %0[469, 0] [1, 1024] [1, 1] : tensor<512x1024xf32> to tensor<1x1024xf32>
    %extracted_slice_512 = tensor.extract_slice %0[470, 0] [1, 1024] [1, 1] : tensor<512x1024xf32> to tensor<1x1024xf32>
    %extracted_slice_513 = tensor.extract_slice %0[471, 0] [1, 1024] [1, 1] : tensor<512x1024xf32> to tensor<1x1024xf32>
    %extracted_slice_514 = tensor.extract_slice %0[472, 0] [1, 1024] [1, 1] : tensor<512x1024xf32> to tensor<1x1024xf32>
    %extracted_slice_515 = tensor.extract_slice %0[473, 0] [1, 1024] [1, 1] : tensor<512x1024xf32> to tensor<1x1024xf32>
    %extracted_slice_516 = tensor.extract_slice %0[474, 0] [1, 1024] [1, 1] : tensor<512x1024xf32> to tensor<1x1024xf32>
    %extracted_slice_517 = tensor.extract_slice %0[475, 0] [1, 1024] [1, 1] : tensor<512x1024xf32> to tensor<1x1024xf32>
    %extracted_slice_518 = tensor.extract_slice %0[476, 0] [1, 1024] [1, 1] : tensor<512x1024xf32> to tensor<1x1024xf32>
    %extracted_slice_519 = tensor.extract_slice %0[477, 0] [1, 1024] [1, 1] : tensor<512x1024xf32> to tensor<1x1024xf32>
    %extracted_slice_520 = tensor.extract_slice %0[478, 0] [1, 1024] [1, 1] : tensor<512x1024xf32> to tensor<1x1024xf32>
    %extracted_slice_521 = tensor.extract_slice %0[479, 0] [1, 1024] [1, 1] : tensor<512x1024xf32> to tensor<1x1024xf32>
    %extracted_slice_522 = tensor.extract_slice %0[480, 0] [1, 1024] [1, 1] : tensor<512x1024xf32> to tensor<1x1024xf32>
    %extracted_slice_523 = tensor.extract_slice %0[481, 0] [1, 1024] [1, 1] : tensor<512x1024xf32> to tensor<1x1024xf32>
    %extracted_slice_524 = tensor.extract_slice %0[482, 0] [1, 1024] [1, 1] : tensor<512x1024xf32> to tensor<1x1024xf32>
    %extracted_slice_525 = tensor.extract_slice %0[483, 0] [1, 1024] [1, 1] : tensor<512x1024xf32> to tensor<1x1024xf32>
    %extracted_slice_526 = tensor.extract_slice %0[484, 0] [1, 1024] [1, 1] : tensor<512x1024xf32> to tensor<1x1024xf32>
    %extracted_slice_527 = tensor.extract_slice %0[485, 0] [1, 1024] [1, 1] : tensor<512x1024xf32> to tensor<1x1024xf32>
    %extracted_slice_528 = tensor.extract_slice %0[486, 0] [1, 1024] [1, 1] : tensor<512x1024xf32> to tensor<1x1024xf32>
    %extracted_slice_529 = tensor.extract_slice %0[487, 0] [1, 1024] [1, 1] : tensor<512x1024xf32> to tensor<1x1024xf32>
    %extracted_slice_530 = tensor.extract_slice %0[488, 0] [1, 1024] [1, 1] : tensor<512x1024xf32> to tensor<1x1024xf32>
    %extracted_slice_531 = tensor.extract_slice %0[489, 0] [1, 1024] [1, 1] : tensor<512x1024xf32> to tensor<1x1024xf32>
    %extracted_slice_532 = tensor.extract_slice %0[490, 0] [1, 1024] [1, 1] : tensor<512x1024xf32> to tensor<1x1024xf32>
    %extracted_slice_533 = tensor.extract_slice %0[491, 0] [1, 1024] [1, 1] : tensor<512x1024xf32> to tensor<1x1024xf32>
    %extracted_slice_534 = tensor.extract_slice %0[492, 0] [1, 1024] [1, 1] : tensor<512x1024xf32> to tensor<1x1024xf32>
    %extracted_slice_535 = tensor.extract_slice %0[493, 0] [1, 1024] [1, 1] : tensor<512x1024xf32> to tensor<1x1024xf32>
    %extracted_slice_536 = tensor.extract_slice %0[494, 0] [1, 1024] [1, 1] : tensor<512x1024xf32> to tensor<1x1024xf32>
    %extracted_slice_537 = tensor.extract_slice %0[495, 0] [1, 1024] [1, 1] : tensor<512x1024xf32> to tensor<1x1024xf32>
    %extracted_slice_538 = tensor.extract_slice %0[496, 0] [1, 1024] [1, 1] : tensor<512x1024xf32> to tensor<1x1024xf32>
    %extracted_slice_539 = tensor.extract_slice %0[497, 0] [1, 1024] [1, 1] : tensor<512x1024xf32> to tensor<1x1024xf32>
    %extracted_slice_540 = tensor.extract_slice %0[498, 0] [1, 1024] [1, 1] : tensor<512x1024xf32> to tensor<1x1024xf32>
    %extracted_slice_541 = tensor.extract_slice %0[499, 0] [1, 1024] [1, 1] : tensor<512x1024xf32> to tensor<1x1024xf32>
    %extracted_slice_542 = tensor.extract_slice %0[500, 0] [1, 1024] [1, 1] : tensor<512x1024xf32> to tensor<1x1024xf32>
    %extracted_slice_543 = tensor.extract_slice %0[501, 0] [1, 1024] [1, 1] : tensor<512x1024xf32> to tensor<1x1024xf32>
    %extracted_slice_544 = tensor.extract_slice %0[502, 0] [1, 1024] [1, 1] : tensor<512x1024xf32> to tensor<1x1024xf32>
    %extracted_slice_545 = tensor.extract_slice %0[503, 0] [1, 1024] [1, 1] : tensor<512x1024xf32> to tensor<1x1024xf32>
    %extracted_slice_546 = tensor.extract_slice %0[504, 0] [1, 1024] [1, 1] : tensor<512x1024xf32> to tensor<1x1024xf32>
    %extracted_slice_547 = tensor.extract_slice %0[505, 0] [1, 1024] [1, 1] : tensor<512x1024xf32> to tensor<1x1024xf32>
    %extracted_slice_548 = tensor.extract_slice %0[506, 0] [1, 1024] [1, 1] : tensor<512x1024xf32> to tensor<1x1024xf32>
    %extracted_slice_549 = tensor.extract_slice %0[507, 0] [1, 1024] [1, 1] : tensor<512x1024xf32> to tensor<1x1024xf32>
    %extracted_slice_550 = tensor.extract_slice %0[508, 0] [1, 1024] [1, 1] : tensor<512x1024xf32> to tensor<1x1024xf32>
    %extracted_slice_551 = tensor.extract_slice %0[509, 0] [1, 1024] [1, 1] : tensor<512x1024xf32> to tensor<1x1024xf32>
    %extracted_slice_552 = tensor.extract_slice %0[510, 0] [1, 1024] [1, 1] : tensor<512x1024xf32> to tensor<1x1024xf32>
    %extracted_slice_553 = tensor.extract_slice %0[511, 0] [1, 1024] [1, 1] : tensor<512x1024xf32> to tensor<1x1024xf32>
    %extracted_slice_554 = tensor.extract_slice %0[23, 0] [1, 1001] [1, 1] : tensor<512x1024xf32> to tensor<1x1001xf32>
    %extracted_slice_555 = tensor.extract_slice %0[23, 1001] [1, 23] [1, 1] : tensor<512x1024xf32> to tensor<1x23xf32>
    %inserted_slice_556 = tensor.insert_slice %extracted_slice_554 into %extracted_slice_65[0, 23] [1, 1001] [1, 1] : tensor<1x1001xf32> into tensor<1x1024xf32>
    %inserted_slice_557 = tensor.insert_slice %extracted_slice_555 into %inserted_slice_556[0, 0] [1, 23] [1, 1] : tensor<1x23xf32> into tensor<1x1024xf32>
    %extracted_slice_558 = tensor.extract_slice %0[24, 0] [1, 1001] [1, 1] : tensor<512x1024xf32> to tensor<1x1001xf32>
    %extracted_slice_559 = tensor.extract_slice %0[24, 1001] [1, 23] [1, 1] : tensor<512x1024xf32> to tensor<1x23xf32>
    %inserted_slice_560 = tensor.insert_slice %extracted_slice_558 into %extracted_slice_66[0, 23] [1, 1001] [1, 1] : tensor<1x1001xf32> into tensor<1x1024xf32>
    %inserted_slice_561 = tensor.insert_slice %extracted_slice_559 into %inserted_slice_560[0, 0] [1, 23] [1, 1] : tensor<1x23xf32> into tensor<1x1024xf32>
    %extracted_slice_562 = tensor.extract_slice %0[25, 0] [1, 1001] [1, 1] : tensor<512x1024xf32> to tensor<1x1001xf32>
    %extracted_slice_563 = tensor.extract_slice %0[25, 1001] [1, 23] [1, 1] : tensor<512x1024xf32> to tensor<1x23xf32>
    %inserted_slice_564 = tensor.insert_slice %extracted_slice_562 into %extracted_slice_67[0, 23] [1, 1001] [1, 1] : tensor<1x1001xf32> into tensor<1x1024xf32>
    %inserted_slice_565 = tensor.insert_slice %extracted_slice_563 into %inserted_slice_564[0, 0] [1, 23] [1, 1] : tensor<1x23xf32> into tensor<1x1024xf32>
    %extracted_slice_566 = tensor.extract_slice %0[26, 0] [1, 1001] [1, 1] : tensor<512x1024xf32> to tensor<1x1001xf32>
    %extracted_slice_567 = tensor.extract_slice %0[26, 1001] [1, 23] [1, 1] : tensor<512x1024xf32> to tensor<1x23xf32>
    %inserted_slice_568 = tensor.insert_slice %extracted_slice_566 into %extracted_slice_68[0, 23] [1, 1001] [1, 1] : tensor<1x1001xf32> into tensor<1x1024xf32>
    %inserted_slice_569 = tensor.insert_slice %extracted_slice_567 into %inserted_slice_568[0, 0] [1, 23] [1, 1] : tensor<1x23xf32> into tensor<1x1024xf32>
    %extracted_slice_570 = tensor.extract_slice %0[27, 0] [1, 1001] [1, 1] : tensor<512x1024xf32> to tensor<1x1001xf32>
    %extracted_slice_571 = tensor.extract_slice %0[27, 1001] [1, 23] [1, 1] : tensor<512x1024xf32> to tensor<1x23xf32>
    %inserted_slice_572 = tensor.insert_slice %extracted_slice_570 into %extracted_slice_69[0, 23] [1, 1001] [1, 1] : tensor<1x1001xf32> into tensor<1x1024xf32>
    %inserted_slice_573 = tensor.insert_slice %extracted_slice_571 into %inserted_slice_572[0, 0] [1, 23] [1, 1] : tensor<1x23xf32> into tensor<1x1024xf32>
    %extracted_slice_574 = tensor.extract_slice %0[28, 0] [1, 1001] [1, 1] : tensor<512x1024xf32> to tensor<1x1001xf32>
    %extracted_slice_575 = tensor.extract_slice %0[28, 1001] [1, 23] [1, 1] : tensor<512x1024xf32> to tensor<1x23xf32>
    %inserted_slice_576 = tensor.insert_slice %extracted_slice_574 into %extracted_slice_70[0, 23] [1, 1001] [1, 1] : tensor<1x1001xf32> into tensor<1x1024xf32>
    %inserted_slice_577 = tensor.insert_slice %extracted_slice_575 into %inserted_slice_576[0, 0] [1, 23] [1, 1] : tensor<1x23xf32> into tensor<1x1024xf32>
    %extracted_slice_578 = tensor.extract_slice %0[29, 0] [1, 1001] [1, 1] : tensor<512x1024xf32> to tensor<1x1001xf32>
    %extracted_slice_579 = tensor.extract_slice %0[29, 1001] [1, 23] [1, 1] : tensor<512x1024xf32> to tensor<1x23xf32>
    %inserted_slice_580 = tensor.insert_slice %extracted_slice_578 into %extracted_slice_71[0, 23] [1, 1001] [1, 1] : tensor<1x1001xf32> into tensor<1x1024xf32>
    %inserted_slice_581 = tensor.insert_slice %extracted_slice_579 into %inserted_slice_580[0, 0] [1, 23] [1, 1] : tensor<1x23xf32> into tensor<1x1024xf32>
    %extracted_slice_582 = tensor.extract_slice %0[30, 0] [1, 1001] [1, 1] : tensor<512x1024xf32> to tensor<1x1001xf32>
    %extracted_slice_583 = tensor.extract_slice %0[30, 1001] [1, 23] [1, 1] : tensor<512x1024xf32> to tensor<1x23xf32>
    %inserted_slice_584 = tensor.insert_slice %extracted_slice_582 into %extracted_slice_72[0, 23] [1, 1001] [1, 1] : tensor<1x1001xf32> into tensor<1x1024xf32>
    %inserted_slice_585 = tensor.insert_slice %extracted_slice_583 into %inserted_slice_584[0, 0] [1, 23] [1, 1] : tensor<1x23xf32> into tensor<1x1024xf32>
    %extracted_slice_586 = tensor.extract_slice %0[31, 0] [1, 1001] [1, 1] : tensor<512x1024xf32> to tensor<1x1001xf32>
    %extracted_slice_587 = tensor.extract_slice %0[31, 1001] [1, 23] [1, 1] : tensor<512x1024xf32> to tensor<1x23xf32>
    %inserted_slice_588 = tensor.insert_slice %extracted_slice_586 into %extracted_slice_73[0, 23] [1, 1001] [1, 1] : tensor<1x1001xf32> into tensor<1x1024xf32>
    %inserted_slice_589 = tensor.insert_slice %extracted_slice_587 into %inserted_slice_588[0, 0] [1, 23] [1, 1] : tensor<1x23xf32> into tensor<1x1024xf32>
    %extracted_slice_590 = tensor.extract_slice %0[32, 0] [1, 1001] [1, 1] : tensor<512x1024xf32> to tensor<1x1001xf32>
    %extracted_slice_591 = tensor.extract_slice %0[32, 1001] [1, 23] [1, 1] : tensor<512x1024xf32> to tensor<1x23xf32>
    %inserted_slice_592 = tensor.insert_slice %extracted_slice_590 into %extracted_slice_74[0, 23] [1, 1001] [1, 1] : tensor<1x1001xf32> into tensor<1x1024xf32>
    %inserted_slice_593 = tensor.insert_slice %extracted_slice_591 into %inserted_slice_592[0, 0] [1, 23] [1, 1] : tensor<1x23xf32> into tensor<1x1024xf32>
    %extracted_slice_594 = tensor.extract_slice %0[33, 0] [1, 1001] [1, 1] : tensor<512x1024xf32> to tensor<1x1001xf32>
    %extracted_slice_595 = tensor.extract_slice %0[33, 1001] [1, 23] [1, 1] : tensor<512x1024xf32> to tensor<1x23xf32>
    %inserted_slice_596 = tensor.insert_slice %extracted_slice_594 into %extracted_slice_75[0, 23] [1, 1001] [1, 1] : tensor<1x1001xf32> into tensor<1x1024xf32>
    %inserted_slice_597 = tensor.insert_slice %extracted_slice_595 into %inserted_slice_596[0, 0] [1, 23] [1, 1] : tensor<1x23xf32> into tensor<1x1024xf32>
    %extracted_slice_598 = tensor.extract_slice %0[34, 0] [1, 1001] [1, 1] : tensor<512x1024xf32> to tensor<1x1001xf32>
    %extracted_slice_599 = tensor.extract_slice %0[34, 1001] [1, 23] [1, 1] : tensor<512x1024xf32> to tensor<1x23xf32>
    %inserted_slice_600 = tensor.insert_slice %extracted_slice_598 into %extracted_slice_76[0, 23] [1, 1001] [1, 1] : tensor<1x1001xf32> into tensor<1x1024xf32>
    %inserted_slice_601 = tensor.insert_slice %extracted_slice_599 into %inserted_slice_600[0, 0] [1, 23] [1, 1] : tensor<1x23xf32> into tensor<1x1024xf32>
    %extracted_slice_602 = tensor.extract_slice %0[35, 0] [1, 1001] [1, 1] : tensor<512x1024xf32> to tensor<1x1001xf32>
    %extracted_slice_603 = tensor.extract_slice %0[35, 1001] [1, 23] [1, 1] : tensor<512x1024xf32> to tensor<1x23xf32>
    %inserted_slice_604 = tensor.insert_slice %extracted_slice_602 into %extracted_slice_77[0, 23] [1, 1001] [1, 1] : tensor<1x1001xf32> into tensor<1x1024xf32>
    %inserted_slice_605 = tensor.insert_slice %extracted_slice_603 into %inserted_slice_604[0, 0] [1, 23] [1, 1] : tensor<1x23xf32> into tensor<1x1024xf32>
    %extracted_slice_606 = tensor.extract_slice %0[36, 0] [1, 1001] [1, 1] : tensor<512x1024xf32> to tensor<1x1001xf32>
    %extracted_slice_607 = tensor.extract_slice %0[36, 1001] [1, 23] [1, 1] : tensor<512x1024xf32> to tensor<1x23xf32>
    %inserted_slice_608 = tensor.insert_slice %extracted_slice_606 into %extracted_slice_78[0, 23] [1, 1001] [1, 1] : tensor<1x1001xf32> into tensor<1x1024xf32>
    %inserted_slice_609 = tensor.insert_slice %extracted_slice_607 into %inserted_slice_608[0, 0] [1, 23] [1, 1] : tensor<1x23xf32> into tensor<1x1024xf32>
    %extracted_slice_610 = tensor.extract_slice %0[37, 0] [1, 1001] [1, 1] : tensor<512x1024xf32> to tensor<1x1001xf32>
    %extracted_slice_611 = tensor.extract_slice %0[37, 1001] [1, 23] [1, 1] : tensor<512x1024xf32> to tensor<1x23xf32>
    %inserted_slice_612 = tensor.insert_slice %extracted_slice_610 into %extracted_slice_79[0, 23] [1, 1001] [1, 1] : tensor<1x1001xf32> into tensor<1x1024xf32>
    %inserted_slice_613 = tensor.insert_slice %extracted_slice_611 into %inserted_slice_612[0, 0] [1, 23] [1, 1] : tensor<1x23xf32> into tensor<1x1024xf32>
    %extracted_slice_614 = tensor.extract_slice %0[38, 0] [1, 1001] [1, 1] : tensor<512x1024xf32> to tensor<1x1001xf32>
    %extracted_slice_615 = tensor.extract_slice %0[38, 1001] [1, 23] [1, 1] : tensor<512x1024xf32> to tensor<1x23xf32>
    %inserted_slice_616 = tensor.insert_slice %extracted_slice_614 into %extracted_slice_80[0, 23] [1, 1001] [1, 1] : tensor<1x1001xf32> into tensor<1x1024xf32>
    %inserted_slice_617 = tensor.insert_slice %extracted_slice_615 into %inserted_slice_616[0, 0] [1, 23] [1, 1] : tensor<1x23xf32> into tensor<1x1024xf32>
    %extracted_slice_618 = tensor.extract_slice %0[39, 0] [1, 1001] [1, 1] : tensor<512x1024xf32> to tensor<1x1001xf32>
    %extracted_slice_619 = tensor.extract_slice %0[39, 1001] [1, 23] [1, 1] : tensor<512x1024xf32> to tensor<1x23xf32>
    %inserted_slice_620 = tensor.insert_slice %extracted_slice_618 into %extracted_slice_81[0, 23] [1, 1001] [1, 1] : tensor<1x1001xf32> into tensor<1x1024xf32>
    %inserted_slice_621 = tensor.insert_slice %extracted_slice_619 into %inserted_slice_620[0, 0] [1, 23] [1, 1] : tensor<1x23xf32> into tensor<1x1024xf32>
    %extracted_slice_622 = tensor.extract_slice %0[40, 0] [1, 1001] [1, 1] : tensor<512x1024xf32> to tensor<1x1001xf32>
    %extracted_slice_623 = tensor.extract_slice %0[40, 1001] [1, 23] [1, 1] : tensor<512x1024xf32> to tensor<1x23xf32>
    %inserted_slice_624 = tensor.insert_slice %extracted_slice_622 into %extracted_slice_82[0, 23] [1, 1001] [1, 1] : tensor<1x1001xf32> into tensor<1x1024xf32>
    %inserted_slice_625 = tensor.insert_slice %extracted_slice_623 into %inserted_slice_624[0, 0] [1, 23] [1, 1] : tensor<1x23xf32> into tensor<1x1024xf32>
    %extracted_slice_626 = tensor.extract_slice %0[41, 0] [1, 1001] [1, 1] : tensor<512x1024xf32> to tensor<1x1001xf32>
    %extracted_slice_627 = tensor.extract_slice %0[41, 1001] [1, 23] [1, 1] : tensor<512x1024xf32> to tensor<1x23xf32>
    %inserted_slice_628 = tensor.insert_slice %extracted_slice_626 into %extracted_slice_83[0, 23] [1, 1001] [1, 1] : tensor<1x1001xf32> into tensor<1x1024xf32>
    %inserted_slice_629 = tensor.insert_slice %extracted_slice_627 into %inserted_slice_628[0, 0] [1, 23] [1, 1] : tensor<1x23xf32> into tensor<1x1024xf32>
    %extracted_slice_630 = tensor.extract_slice %0[42, 0] [1, 1001] [1, 1] : tensor<512x1024xf32> to tensor<1x1001xf32>
    %extracted_slice_631 = tensor.extract_slice %0[42, 1001] [1, 23] [1, 1] : tensor<512x1024xf32> to tensor<1x23xf32>
    %inserted_slice_632 = tensor.insert_slice %extracted_slice_630 into %extracted_slice_84[0, 23] [1, 1001] [1, 1] : tensor<1x1001xf32> into tensor<1x1024xf32>
    %inserted_slice_633 = tensor.insert_slice %extracted_slice_631 into %inserted_slice_632[0, 0] [1, 23] [1, 1] : tensor<1x23xf32> into tensor<1x1024xf32>
    %extracted_slice_634 = tensor.extract_slice %0[43, 0] [1, 1001] [1, 1] : tensor<512x1024xf32> to tensor<1x1001xf32>
    %extracted_slice_635 = tensor.extract_slice %0[43, 1001] [1, 23] [1, 1] : tensor<512x1024xf32> to tensor<1x23xf32>
    %inserted_slice_636 = tensor.insert_slice %extracted_slice_634 into %extracted_slice_85[0, 23] [1, 1001] [1, 1] : tensor<1x1001xf32> into tensor<1x1024xf32>
    %inserted_slice_637 = tensor.insert_slice %extracted_slice_635 into %inserted_slice_636[0, 0] [1, 23] [1, 1] : tensor<1x23xf32> into tensor<1x1024xf32>
    %extracted_slice_638 = tensor.extract_slice %0[44, 0] [1, 1001] [1, 1] : tensor<512x1024xf32> to tensor<1x1001xf32>
    %extracted_slice_639 = tensor.extract_slice %0[44, 1001] [1, 23] [1, 1] : tensor<512x1024xf32> to tensor<1x23xf32>
    %inserted_slice_640 = tensor.insert_slice %extracted_slice_638 into %extracted_slice_86[0, 23] [1, 1001] [1, 1] : tensor<1x1001xf32> into tensor<1x1024xf32>
    %inserted_slice_641 = tensor.insert_slice %extracted_slice_639 into %inserted_slice_640[0, 0] [1, 23] [1, 1] : tensor<1x23xf32> into tensor<1x1024xf32>
    %extracted_slice_642 = tensor.extract_slice %0[45, 0] [1, 1001] [1, 1] : tensor<512x1024xf32> to tensor<1x1001xf32>
    %extracted_slice_643 = tensor.extract_slice %0[45, 1001] [1, 23] [1, 1] : tensor<512x1024xf32> to tensor<1x23xf32>
    %inserted_slice_644 = tensor.insert_slice %extracted_slice_642 into %extracted_slice_87[0, 23] [1, 1001] [1, 1] : tensor<1x1001xf32> into tensor<1x1024xf32>
    %inserted_slice_645 = tensor.insert_slice %extracted_slice_643 into %inserted_slice_644[0, 0] [1, 23] [1, 1] : tensor<1x23xf32> into tensor<1x1024xf32>
    %extracted_slice_646 = tensor.extract_slice %0[46, 0] [1, 978] [1, 1] : tensor<512x1024xf32> to tensor<1x978xf32>
    %extracted_slice_647 = tensor.extract_slice %0[46, 978] [1, 46] [1, 1] : tensor<512x1024xf32> to tensor<1x46xf32>
    %inserted_slice_648 = tensor.insert_slice %extracted_slice_646 into %extracted_slice_88[0, 46] [1, 978] [1, 1] : tensor<1x978xf32> into tensor<1x1024xf32>
    %inserted_slice_649 = tensor.insert_slice %extracted_slice_647 into %inserted_slice_648[0, 0] [1, 46] [1, 1] : tensor<1x46xf32> into tensor<1x1024xf32>
    %extracted_slice_650 = tensor.extract_slice %0[47, 0] [1, 978] [1, 1] : tensor<512x1024xf32> to tensor<1x978xf32>
    %extracted_slice_651 = tensor.extract_slice %0[47, 978] [1, 46] [1, 1] : tensor<512x1024xf32> to tensor<1x46xf32>
    %inserted_slice_652 = tensor.insert_slice %extracted_slice_650 into %extracted_slice_89[0, 46] [1, 978] [1, 1] : tensor<1x978xf32> into tensor<1x1024xf32>
    %inserted_slice_653 = tensor.insert_slice %extracted_slice_651 into %inserted_slice_652[0, 0] [1, 46] [1, 1] : tensor<1x46xf32> into tensor<1x1024xf32>
    %extracted_slice_654 = tensor.extract_slice %0[48, 0] [1, 978] [1, 1] : tensor<512x1024xf32> to tensor<1x978xf32>
    %extracted_slice_655 = tensor.extract_slice %0[48, 978] [1, 46] [1, 1] : tensor<512x1024xf32> to tensor<1x46xf32>
    %inserted_slice_656 = tensor.insert_slice %extracted_slice_654 into %extracted_slice_90[0, 46] [1, 978] [1, 1] : tensor<1x978xf32> into tensor<1x1024xf32>
    %inserted_slice_657 = tensor.insert_slice %extracted_slice_655 into %inserted_slice_656[0, 0] [1, 46] [1, 1] : tensor<1x46xf32> into tensor<1x1024xf32>
    %extracted_slice_658 = tensor.extract_slice %0[49, 0] [1, 978] [1, 1] : tensor<512x1024xf32> to tensor<1x978xf32>
    %extracted_slice_659 = tensor.extract_slice %0[49, 978] [1, 46] [1, 1] : tensor<512x1024xf32> to tensor<1x46xf32>
    %inserted_slice_660 = tensor.insert_slice %extracted_slice_658 into %extracted_slice_91[0, 46] [1, 978] [1, 1] : tensor<1x978xf32> into tensor<1x1024xf32>
    %inserted_slice_661 = tensor.insert_slice %extracted_slice_659 into %inserted_slice_660[0, 0] [1, 46] [1, 1] : tensor<1x46xf32> into tensor<1x1024xf32>
    %extracted_slice_662 = tensor.extract_slice %0[50, 0] [1, 978] [1, 1] : tensor<512x1024xf32> to tensor<1x978xf32>
    %extracted_slice_663 = tensor.extract_slice %0[50, 978] [1, 46] [1, 1] : tensor<512x1024xf32> to tensor<1x46xf32>
    %inserted_slice_664 = tensor.insert_slice %extracted_slice_662 into %extracted_slice_92[0, 46] [1, 978] [1, 1] : tensor<1x978xf32> into tensor<1x1024xf32>
    %inserted_slice_665 = tensor.insert_slice %extracted_slice_663 into %inserted_slice_664[0, 0] [1, 46] [1, 1] : tensor<1x46xf32> into tensor<1x1024xf32>
    %extracted_slice_666 = tensor.extract_slice %0[51, 0] [1, 978] [1, 1] : tensor<512x1024xf32> to tensor<1x978xf32>
    %extracted_slice_667 = tensor.extract_slice %0[51, 978] [1, 46] [1, 1] : tensor<512x1024xf32> to tensor<1x46xf32>
    %inserted_slice_668 = tensor.insert_slice %extracted_slice_666 into %extracted_slice_93[0, 46] [1, 978] [1, 1] : tensor<1x978xf32> into tensor<1x1024xf32>
    %inserted_slice_669 = tensor.insert_slice %extracted_slice_667 into %inserted_slice_668[0, 0] [1, 46] [1, 1] : tensor<1x46xf32> into tensor<1x1024xf32>
    %extracted_slice_670 = tensor.extract_slice %0[52, 0] [1, 978] [1, 1] : tensor<512x1024xf32> to tensor<1x978xf32>
    %extracted_slice_671 = tensor.extract_slice %0[52, 978] [1, 46] [1, 1] : tensor<512x1024xf32> to tensor<1x46xf32>
    %inserted_slice_672 = tensor.insert_slice %extracted_slice_670 into %extracted_slice_94[0, 46] [1, 978] [1, 1] : tensor<1x978xf32> into tensor<1x1024xf32>
    %inserted_slice_673 = tensor.insert_slice %extracted_slice_671 into %inserted_slice_672[0, 0] [1, 46] [1, 1] : tensor<1x46xf32> into tensor<1x1024xf32>
    %extracted_slice_674 = tensor.extract_slice %0[53, 0] [1, 978] [1, 1] : tensor<512x1024xf32> to tensor<1x978xf32>
    %extracted_slice_675 = tensor.extract_slice %0[53, 978] [1, 46] [1, 1] : tensor<512x1024xf32> to tensor<1x46xf32>
    %inserted_slice_676 = tensor.insert_slice %extracted_slice_674 into %extracted_slice_95[0, 46] [1, 978] [1, 1] : tensor<1x978xf32> into tensor<1x1024xf32>
    %inserted_slice_677 = tensor.insert_slice %extracted_slice_675 into %inserted_slice_676[0, 0] [1, 46] [1, 1] : tensor<1x46xf32> into tensor<1x1024xf32>
    %extracted_slice_678 = tensor.extract_slice %0[54, 0] [1, 978] [1, 1] : tensor<512x1024xf32> to tensor<1x978xf32>
    %extracted_slice_679 = tensor.extract_slice %0[54, 978] [1, 46] [1, 1] : tensor<512x1024xf32> to tensor<1x46xf32>
    %inserted_slice_680 = tensor.insert_slice %extracted_slice_678 into %extracted_slice_96[0, 46] [1, 978] [1, 1] : tensor<1x978xf32> into tensor<1x1024xf32>
    %inserted_slice_681 = tensor.insert_slice %extracted_slice_679 into %inserted_slice_680[0, 0] [1, 46] [1, 1] : tensor<1x46xf32> into tensor<1x1024xf32>
    %extracted_slice_682 = tensor.extract_slice %0[55, 0] [1, 978] [1, 1] : tensor<512x1024xf32> to tensor<1x978xf32>
    %extracted_slice_683 = tensor.extract_slice %0[55, 978] [1, 46] [1, 1] : tensor<512x1024xf32> to tensor<1x46xf32>
    %inserted_slice_684 = tensor.insert_slice %extracted_slice_682 into %extracted_slice_97[0, 46] [1, 978] [1, 1] : tensor<1x978xf32> into tensor<1x1024xf32>
    %inserted_slice_685 = tensor.insert_slice %extracted_slice_683 into %inserted_slice_684[0, 0] [1, 46] [1, 1] : tensor<1x46xf32> into tensor<1x1024xf32>
    %extracted_slice_686 = tensor.extract_slice %0[56, 0] [1, 978] [1, 1] : tensor<512x1024xf32> to tensor<1x978xf32>
    %extracted_slice_687 = tensor.extract_slice %0[56, 978] [1, 46] [1, 1] : tensor<512x1024xf32> to tensor<1x46xf32>
    %inserted_slice_688 = tensor.insert_slice %extracted_slice_686 into %extracted_slice_98[0, 46] [1, 978] [1, 1] : tensor<1x978xf32> into tensor<1x1024xf32>
    %inserted_slice_689 = tensor.insert_slice %extracted_slice_687 into %inserted_slice_688[0, 0] [1, 46] [1, 1] : tensor<1x46xf32> into tensor<1x1024xf32>
    %extracted_slice_690 = tensor.extract_slice %0[57, 0] [1, 978] [1, 1] : tensor<512x1024xf32> to tensor<1x978xf32>
    %extracted_slice_691 = tensor.extract_slice %0[57, 978] [1, 46] [1, 1] : tensor<512x1024xf32> to tensor<1x46xf32>
    %inserted_slice_692 = tensor.insert_slice %extracted_slice_690 into %extracted_slice_99[0, 46] [1, 978] [1, 1] : tensor<1x978xf32> into tensor<1x1024xf32>
    %inserted_slice_693 = tensor.insert_slice %extracted_slice_691 into %inserted_slice_692[0, 0] [1, 46] [1, 1] : tensor<1x46xf32> into tensor<1x1024xf32>
    %extracted_slice_694 = tensor.extract_slice %0[58, 0] [1, 978] [1, 1] : tensor<512x1024xf32> to tensor<1x978xf32>
    %extracted_slice_695 = tensor.extract_slice %0[58, 978] [1, 46] [1, 1] : tensor<512x1024xf32> to tensor<1x46xf32>
    %inserted_slice_696 = tensor.insert_slice %extracted_slice_694 into %extracted_slice_100[0, 46] [1, 978] [1, 1] : tensor<1x978xf32> into tensor<1x1024xf32>
    %inserted_slice_697 = tensor.insert_slice %extracted_slice_695 into %inserted_slice_696[0, 0] [1, 46] [1, 1] : tensor<1x46xf32> into tensor<1x1024xf32>
    %extracted_slice_698 = tensor.extract_slice %0[59, 0] [1, 978] [1, 1] : tensor<512x1024xf32> to tensor<1x978xf32>
    %extracted_slice_699 = tensor.extract_slice %0[59, 978] [1, 46] [1, 1] : tensor<512x1024xf32> to tensor<1x46xf32>
    %inserted_slice_700 = tensor.insert_slice %extracted_slice_698 into %extracted_slice_101[0, 46] [1, 978] [1, 1] : tensor<1x978xf32> into tensor<1x1024xf32>
    %inserted_slice_701 = tensor.insert_slice %extracted_slice_699 into %inserted_slice_700[0, 0] [1, 46] [1, 1] : tensor<1x46xf32> into tensor<1x1024xf32>
    %extracted_slice_702 = tensor.extract_slice %0[60, 0] [1, 978] [1, 1] : tensor<512x1024xf32> to tensor<1x978xf32>
    %extracted_slice_703 = tensor.extract_slice %0[60, 978] [1, 46] [1, 1] : tensor<512x1024xf32> to tensor<1x46xf32>
    %inserted_slice_704 = tensor.insert_slice %extracted_slice_702 into %extracted_slice_102[0, 46] [1, 978] [1, 1] : tensor<1x978xf32> into tensor<1x1024xf32>
    %inserted_slice_705 = tensor.insert_slice %extracted_slice_703 into %inserted_slice_704[0, 0] [1, 46] [1, 1] : tensor<1x46xf32> into tensor<1x1024xf32>
    %extracted_slice_706 = tensor.extract_slice %0[61, 0] [1, 978] [1, 1] : tensor<512x1024xf32> to tensor<1x978xf32>
    %extracted_slice_707 = tensor.extract_slice %0[61, 978] [1, 46] [1, 1] : tensor<512x1024xf32> to tensor<1x46xf32>
    %inserted_slice_708 = tensor.insert_slice %extracted_slice_706 into %extracted_slice_103[0, 46] [1, 978] [1, 1] : tensor<1x978xf32> into tensor<1x1024xf32>
    %inserted_slice_709 = tensor.insert_slice %extracted_slice_707 into %inserted_slice_708[0, 0] [1, 46] [1, 1] : tensor<1x46xf32> into tensor<1x1024xf32>
    %extracted_slice_710 = tensor.extract_slice %0[62, 0] [1, 978] [1, 1] : tensor<512x1024xf32> to tensor<1x978xf32>
    %extracted_slice_711 = tensor.extract_slice %0[62, 978] [1, 46] [1, 1] : tensor<512x1024xf32> to tensor<1x46xf32>
    %inserted_slice_712 = tensor.insert_slice %extracted_slice_710 into %extracted_slice_104[0, 46] [1, 978] [1, 1] : tensor<1x978xf32> into tensor<1x1024xf32>
    %inserted_slice_713 = tensor.insert_slice %extracted_slice_711 into %inserted_slice_712[0, 0] [1, 46] [1, 1] : tensor<1x46xf32> into tensor<1x1024xf32>
    %extracted_slice_714 = tensor.extract_slice %0[63, 0] [1, 978] [1, 1] : tensor<512x1024xf32> to tensor<1x978xf32>
    %extracted_slice_715 = tensor.extract_slice %0[63, 978] [1, 46] [1, 1] : tensor<512x1024xf32> to tensor<1x46xf32>
    %inserted_slice_716 = tensor.insert_slice %extracted_slice_714 into %extracted_slice_105[0, 46] [1, 978] [1, 1] : tensor<1x978xf32> into tensor<1x1024xf32>
    %inserted_slice_717 = tensor.insert_slice %extracted_slice_715 into %inserted_slice_716[0, 0] [1, 46] [1, 1] : tensor<1x46xf32> into tensor<1x1024xf32>
    %extracted_slice_718 = tensor.extract_slice %0[64, 0] [1, 978] [1, 1] : tensor<512x1024xf32> to tensor<1x978xf32>
    %extracted_slice_719 = tensor.extract_slice %0[64, 978] [1, 46] [1, 1] : tensor<512x1024xf32> to tensor<1x46xf32>
    %inserted_slice_720 = tensor.insert_slice %extracted_slice_718 into %extracted_slice_106[0, 46] [1, 978] [1, 1] : tensor<1x978xf32> into tensor<1x1024xf32>
    %inserted_slice_721 = tensor.insert_slice %extracted_slice_719 into %inserted_slice_720[0, 0] [1, 46] [1, 1] : tensor<1x46xf32> into tensor<1x1024xf32>
    %extracted_slice_722 = tensor.extract_slice %0[65, 0] [1, 978] [1, 1] : tensor<512x1024xf32> to tensor<1x978xf32>
    %extracted_slice_723 = tensor.extract_slice %0[65, 978] [1, 46] [1, 1] : tensor<512x1024xf32> to tensor<1x46xf32>
    %inserted_slice_724 = tensor.insert_slice %extracted_slice_722 into %extracted_slice_107[0, 46] [1, 978] [1, 1] : tensor<1x978xf32> into tensor<1x1024xf32>
    %inserted_slice_725 = tensor.insert_slice %extracted_slice_723 into %inserted_slice_724[0, 0] [1, 46] [1, 1] : tensor<1x46xf32> into tensor<1x1024xf32>
    %extracted_slice_726 = tensor.extract_slice %0[66, 0] [1, 978] [1, 1] : tensor<512x1024xf32> to tensor<1x978xf32>
    %extracted_slice_727 = tensor.extract_slice %0[66, 978] [1, 46] [1, 1] : tensor<512x1024xf32> to tensor<1x46xf32>
    %inserted_slice_728 = tensor.insert_slice %extracted_slice_726 into %extracted_slice_108[0, 46] [1, 978] [1, 1] : tensor<1x978xf32> into tensor<1x1024xf32>
    %inserted_slice_729 = tensor.insert_slice %extracted_slice_727 into %inserted_slice_728[0, 0] [1, 46] [1, 1] : tensor<1x46xf32> into tensor<1x1024xf32>
    %extracted_slice_730 = tensor.extract_slice %0[67, 0] [1, 978] [1, 1] : tensor<512x1024xf32> to tensor<1x978xf32>
    %extracted_slice_731 = tensor.extract_slice %0[67, 978] [1, 46] [1, 1] : tensor<512x1024xf32> to tensor<1x46xf32>
    %inserted_slice_732 = tensor.insert_slice %extracted_slice_730 into %extracted_slice_109[0, 46] [1, 978] [1, 1] : tensor<1x978xf32> into tensor<1x1024xf32>
    %inserted_slice_733 = tensor.insert_slice %extracted_slice_731 into %inserted_slice_732[0, 0] [1, 46] [1, 1] : tensor<1x46xf32> into tensor<1x1024xf32>
    %extracted_slice_734 = tensor.extract_slice %0[68, 0] [1, 978] [1, 1] : tensor<512x1024xf32> to tensor<1x978xf32>
    %extracted_slice_735 = tensor.extract_slice %0[68, 978] [1, 46] [1, 1] : tensor<512x1024xf32> to tensor<1x46xf32>
    %inserted_slice_736 = tensor.insert_slice %extracted_slice_734 into %extracted_slice_110[0, 46] [1, 978] [1, 1] : tensor<1x978xf32> into tensor<1x1024xf32>
    %inserted_slice_737 = tensor.insert_slice %extracted_slice_735 into %inserted_slice_736[0, 0] [1, 46] [1, 1] : tensor<1x46xf32> into tensor<1x1024xf32>
    %extracted_slice_738 = tensor.extract_slice %0[69, 0] [1, 955] [1, 1] : tensor<512x1024xf32> to tensor<1x955xf32>
    %extracted_slice_739 = tensor.extract_slice %0[69, 955] [1, 69] [1, 1] : tensor<512x1024xf32> to tensor<1x69xf32>
    %inserted_slice_740 = tensor.insert_slice %extracted_slice_738 into %extracted_slice_111[0, 69] [1, 955] [1, 1] : tensor<1x955xf32> into tensor<1x1024xf32>
    %inserted_slice_741 = tensor.insert_slice %extracted_slice_739 into %inserted_slice_740[0, 0] [1, 69] [1, 1] : tensor<1x69xf32> into tensor<1x1024xf32>
    %extracted_slice_742 = tensor.extract_slice %0[70, 0] [1, 955] [1, 1] : tensor<512x1024xf32> to tensor<1x955xf32>
    %extracted_slice_743 = tensor.extract_slice %0[70, 955] [1, 69] [1, 1] : tensor<512x1024xf32> to tensor<1x69xf32>
    %inserted_slice_744 = tensor.insert_slice %extracted_slice_742 into %extracted_slice_112[0, 69] [1, 955] [1, 1] : tensor<1x955xf32> into tensor<1x1024xf32>
    %inserted_slice_745 = tensor.insert_slice %extracted_slice_743 into %inserted_slice_744[0, 0] [1, 69] [1, 1] : tensor<1x69xf32> into tensor<1x1024xf32>
    %extracted_slice_746 = tensor.extract_slice %0[71, 0] [1, 955] [1, 1] : tensor<512x1024xf32> to tensor<1x955xf32>
    %extracted_slice_747 = tensor.extract_slice %0[71, 955] [1, 69] [1, 1] : tensor<512x1024xf32> to tensor<1x69xf32>
    %inserted_slice_748 = tensor.insert_slice %extracted_slice_746 into %extracted_slice_113[0, 69] [1, 955] [1, 1] : tensor<1x955xf32> into tensor<1x1024xf32>
    %inserted_slice_749 = tensor.insert_slice %extracted_slice_747 into %inserted_slice_748[0, 0] [1, 69] [1, 1] : tensor<1x69xf32> into tensor<1x1024xf32>
    %extracted_slice_750 = tensor.extract_slice %0[72, 0] [1, 955] [1, 1] : tensor<512x1024xf32> to tensor<1x955xf32>
    %extracted_slice_751 = tensor.extract_slice %0[72, 955] [1, 69] [1, 1] : tensor<512x1024xf32> to tensor<1x69xf32>
    %inserted_slice_752 = tensor.insert_slice %extracted_slice_750 into %extracted_slice_114[0, 69] [1, 955] [1, 1] : tensor<1x955xf32> into tensor<1x1024xf32>
    %inserted_slice_753 = tensor.insert_slice %extracted_slice_751 into %inserted_slice_752[0, 0] [1, 69] [1, 1] : tensor<1x69xf32> into tensor<1x1024xf32>
    %extracted_slice_754 = tensor.extract_slice %0[73, 0] [1, 955] [1, 1] : tensor<512x1024xf32> to tensor<1x955xf32>
    %extracted_slice_755 = tensor.extract_slice %0[73, 955] [1, 69] [1, 1] : tensor<512x1024xf32> to tensor<1x69xf32>
    %inserted_slice_756 = tensor.insert_slice %extracted_slice_754 into %extracted_slice_115[0, 69] [1, 955] [1, 1] : tensor<1x955xf32> into tensor<1x1024xf32>
    %inserted_slice_757 = tensor.insert_slice %extracted_slice_755 into %inserted_slice_756[0, 0] [1, 69] [1, 1] : tensor<1x69xf32> into tensor<1x1024xf32>
    %extracted_slice_758 = tensor.extract_slice %0[74, 0] [1, 955] [1, 1] : tensor<512x1024xf32> to tensor<1x955xf32>
    %extracted_slice_759 = tensor.extract_slice %0[74, 955] [1, 69] [1, 1] : tensor<512x1024xf32> to tensor<1x69xf32>
    %inserted_slice_760 = tensor.insert_slice %extracted_slice_758 into %extracted_slice_116[0, 69] [1, 955] [1, 1] : tensor<1x955xf32> into tensor<1x1024xf32>
    %inserted_slice_761 = tensor.insert_slice %extracted_slice_759 into %inserted_slice_760[0, 0] [1, 69] [1, 1] : tensor<1x69xf32> into tensor<1x1024xf32>
    %extracted_slice_762 = tensor.extract_slice %0[75, 0] [1, 955] [1, 1] : tensor<512x1024xf32> to tensor<1x955xf32>
    %extracted_slice_763 = tensor.extract_slice %0[75, 955] [1, 69] [1, 1] : tensor<512x1024xf32> to tensor<1x69xf32>
    %inserted_slice_764 = tensor.insert_slice %extracted_slice_762 into %extracted_slice_117[0, 69] [1, 955] [1, 1] : tensor<1x955xf32> into tensor<1x1024xf32>
    %inserted_slice_765 = tensor.insert_slice %extracted_slice_763 into %inserted_slice_764[0, 0] [1, 69] [1, 1] : tensor<1x69xf32> into tensor<1x1024xf32>
    %extracted_slice_766 = tensor.extract_slice %0[76, 0] [1, 955] [1, 1] : tensor<512x1024xf32> to tensor<1x955xf32>
    %extracted_slice_767 = tensor.extract_slice %0[76, 955] [1, 69] [1, 1] : tensor<512x1024xf32> to tensor<1x69xf32>
    %inserted_slice_768 = tensor.insert_slice %extracted_slice_766 into %extracted_slice_118[0, 69] [1, 955] [1, 1] : tensor<1x955xf32> into tensor<1x1024xf32>
    %inserted_slice_769 = tensor.insert_slice %extracted_slice_767 into %inserted_slice_768[0, 0] [1, 69] [1, 1] : tensor<1x69xf32> into tensor<1x1024xf32>
    %extracted_slice_770 = tensor.extract_slice %0[77, 0] [1, 955] [1, 1] : tensor<512x1024xf32> to tensor<1x955xf32>
    %extracted_slice_771 = tensor.extract_slice %0[77, 955] [1, 69] [1, 1] : tensor<512x1024xf32> to tensor<1x69xf32>
    %inserted_slice_772 = tensor.insert_slice %extracted_slice_770 into %extracted_slice_119[0, 69] [1, 955] [1, 1] : tensor<1x955xf32> into tensor<1x1024xf32>
    %inserted_slice_773 = tensor.insert_slice %extracted_slice_771 into %inserted_slice_772[0, 0] [1, 69] [1, 1] : tensor<1x69xf32> into tensor<1x1024xf32>
    %extracted_slice_774 = tensor.extract_slice %0[78, 0] [1, 955] [1, 1] : tensor<512x1024xf32> to tensor<1x955xf32>
    %extracted_slice_775 = tensor.extract_slice %0[78, 955] [1, 69] [1, 1] : tensor<512x1024xf32> to tensor<1x69xf32>
    %inserted_slice_776 = tensor.insert_slice %extracted_slice_774 into %extracted_slice_120[0, 69] [1, 955] [1, 1] : tensor<1x955xf32> into tensor<1x1024xf32>
    %inserted_slice_777 = tensor.insert_slice %extracted_slice_775 into %inserted_slice_776[0, 0] [1, 69] [1, 1] : tensor<1x69xf32> into tensor<1x1024xf32>
    %extracted_slice_778 = tensor.extract_slice %0[79, 0] [1, 955] [1, 1] : tensor<512x1024xf32> to tensor<1x955xf32>
    %extracted_slice_779 = tensor.extract_slice %0[79, 955] [1, 69] [1, 1] : tensor<512x1024xf32> to tensor<1x69xf32>
    %inserted_slice_780 = tensor.insert_slice %extracted_slice_778 into %extracted_slice_121[0, 69] [1, 955] [1, 1] : tensor<1x955xf32> into tensor<1x1024xf32>
    %inserted_slice_781 = tensor.insert_slice %extracted_slice_779 into %inserted_slice_780[0, 0] [1, 69] [1, 1] : tensor<1x69xf32> into tensor<1x1024xf32>
    %extracted_slice_782 = tensor.extract_slice %0[80, 0] [1, 955] [1, 1] : tensor<512x1024xf32> to tensor<1x955xf32>
    %extracted_slice_783 = tensor.extract_slice %0[80, 955] [1, 69] [1, 1] : tensor<512x1024xf32> to tensor<1x69xf32>
    %inserted_slice_784 = tensor.insert_slice %extracted_slice_782 into %extracted_slice_122[0, 69] [1, 955] [1, 1] : tensor<1x955xf32> into tensor<1x1024xf32>
    %inserted_slice_785 = tensor.insert_slice %extracted_slice_783 into %inserted_slice_784[0, 0] [1, 69] [1, 1] : tensor<1x69xf32> into tensor<1x1024xf32>
    %extracted_slice_786 = tensor.extract_slice %0[81, 0] [1, 955] [1, 1] : tensor<512x1024xf32> to tensor<1x955xf32>
    %extracted_slice_787 = tensor.extract_slice %0[81, 955] [1, 69] [1, 1] : tensor<512x1024xf32> to tensor<1x69xf32>
    %inserted_slice_788 = tensor.insert_slice %extracted_slice_786 into %extracted_slice_123[0, 69] [1, 955] [1, 1] : tensor<1x955xf32> into tensor<1x1024xf32>
    %inserted_slice_789 = tensor.insert_slice %extracted_slice_787 into %inserted_slice_788[0, 0] [1, 69] [1, 1] : tensor<1x69xf32> into tensor<1x1024xf32>
    %extracted_slice_790 = tensor.extract_slice %0[82, 0] [1, 955] [1, 1] : tensor<512x1024xf32> to tensor<1x955xf32>
    %extracted_slice_791 = tensor.extract_slice %0[82, 955] [1, 69] [1, 1] : tensor<512x1024xf32> to tensor<1x69xf32>
    %inserted_slice_792 = tensor.insert_slice %extracted_slice_790 into %extracted_slice_124[0, 69] [1, 955] [1, 1] : tensor<1x955xf32> into tensor<1x1024xf32>
    %inserted_slice_793 = tensor.insert_slice %extracted_slice_791 into %inserted_slice_792[0, 0] [1, 69] [1, 1] : tensor<1x69xf32> into tensor<1x1024xf32>
    %extracted_slice_794 = tensor.extract_slice %0[83, 0] [1, 955] [1, 1] : tensor<512x1024xf32> to tensor<1x955xf32>
    %extracted_slice_795 = tensor.extract_slice %0[83, 955] [1, 69] [1, 1] : tensor<512x1024xf32> to tensor<1x69xf32>
    %inserted_slice_796 = tensor.insert_slice %extracted_slice_794 into %extracted_slice_125[0, 69] [1, 955] [1, 1] : tensor<1x955xf32> into tensor<1x1024xf32>
    %inserted_slice_797 = tensor.insert_slice %extracted_slice_795 into %inserted_slice_796[0, 0] [1, 69] [1, 1] : tensor<1x69xf32> into tensor<1x1024xf32>
    %extracted_slice_798 = tensor.extract_slice %0[84, 0] [1, 955] [1, 1] : tensor<512x1024xf32> to tensor<1x955xf32>
    %extracted_slice_799 = tensor.extract_slice %0[84, 955] [1, 69] [1, 1] : tensor<512x1024xf32> to tensor<1x69xf32>
    %inserted_slice_800 = tensor.insert_slice %extracted_slice_798 into %extracted_slice_126[0, 69] [1, 955] [1, 1] : tensor<1x955xf32> into tensor<1x1024xf32>
    %inserted_slice_801 = tensor.insert_slice %extracted_slice_799 into %inserted_slice_800[0, 0] [1, 69] [1, 1] : tensor<1x69xf32> into tensor<1x1024xf32>
    %extracted_slice_802 = tensor.extract_slice %0[85, 0] [1, 955] [1, 1] : tensor<512x1024xf32> to tensor<1x955xf32>
    %extracted_slice_803 = tensor.extract_slice %0[85, 955] [1, 69] [1, 1] : tensor<512x1024xf32> to tensor<1x69xf32>
    %inserted_slice_804 = tensor.insert_slice %extracted_slice_802 into %extracted_slice_127[0, 69] [1, 955] [1, 1] : tensor<1x955xf32> into tensor<1x1024xf32>
    %inserted_slice_805 = tensor.insert_slice %extracted_slice_803 into %inserted_slice_804[0, 0] [1, 69] [1, 1] : tensor<1x69xf32> into tensor<1x1024xf32>
    %extracted_slice_806 = tensor.extract_slice %0[86, 0] [1, 955] [1, 1] : tensor<512x1024xf32> to tensor<1x955xf32>
    %extracted_slice_807 = tensor.extract_slice %0[86, 955] [1, 69] [1, 1] : tensor<512x1024xf32> to tensor<1x69xf32>
    %inserted_slice_808 = tensor.insert_slice %extracted_slice_806 into %extracted_slice_128[0, 69] [1, 955] [1, 1] : tensor<1x955xf32> into tensor<1x1024xf32>
    %inserted_slice_809 = tensor.insert_slice %extracted_slice_807 into %inserted_slice_808[0, 0] [1, 69] [1, 1] : tensor<1x69xf32> into tensor<1x1024xf32>
    %extracted_slice_810 = tensor.extract_slice %0[87, 0] [1, 955] [1, 1] : tensor<512x1024xf32> to tensor<1x955xf32>
    %extracted_slice_811 = tensor.extract_slice %0[87, 955] [1, 69] [1, 1] : tensor<512x1024xf32> to tensor<1x69xf32>
    %inserted_slice_812 = tensor.insert_slice %extracted_slice_810 into %extracted_slice_129[0, 69] [1, 955] [1, 1] : tensor<1x955xf32> into tensor<1x1024xf32>
    %inserted_slice_813 = tensor.insert_slice %extracted_slice_811 into %inserted_slice_812[0, 0] [1, 69] [1, 1] : tensor<1x69xf32> into tensor<1x1024xf32>
    %extracted_slice_814 = tensor.extract_slice %0[88, 0] [1, 955] [1, 1] : tensor<512x1024xf32> to tensor<1x955xf32>
    %extracted_slice_815 = tensor.extract_slice %0[88, 955] [1, 69] [1, 1] : tensor<512x1024xf32> to tensor<1x69xf32>
    %inserted_slice_816 = tensor.insert_slice %extracted_slice_814 into %extracted_slice_130[0, 69] [1, 955] [1, 1] : tensor<1x955xf32> into tensor<1x1024xf32>
    %inserted_slice_817 = tensor.insert_slice %extracted_slice_815 into %inserted_slice_816[0, 0] [1, 69] [1, 1] : tensor<1x69xf32> into tensor<1x1024xf32>
    %extracted_slice_818 = tensor.extract_slice %0[89, 0] [1, 955] [1, 1] : tensor<512x1024xf32> to tensor<1x955xf32>
    %extracted_slice_819 = tensor.extract_slice %0[89, 955] [1, 69] [1, 1] : tensor<512x1024xf32> to tensor<1x69xf32>
    %inserted_slice_820 = tensor.insert_slice %extracted_slice_818 into %extracted_slice_131[0, 69] [1, 955] [1, 1] : tensor<1x955xf32> into tensor<1x1024xf32>
    %inserted_slice_821 = tensor.insert_slice %extracted_slice_819 into %inserted_slice_820[0, 0] [1, 69] [1, 1] : tensor<1x69xf32> into tensor<1x1024xf32>
    %extracted_slice_822 = tensor.extract_slice %0[90, 0] [1, 955] [1, 1] : tensor<512x1024xf32> to tensor<1x955xf32>
    %extracted_slice_823 = tensor.extract_slice %0[90, 955] [1, 69] [1, 1] : tensor<512x1024xf32> to tensor<1x69xf32>
    %inserted_slice_824 = tensor.insert_slice %extracted_slice_822 into %extracted_slice_132[0, 69] [1, 955] [1, 1] : tensor<1x955xf32> into tensor<1x1024xf32>
    %inserted_slice_825 = tensor.insert_slice %extracted_slice_823 into %inserted_slice_824[0, 0] [1, 69] [1, 1] : tensor<1x69xf32> into tensor<1x1024xf32>
    %extracted_slice_826 = tensor.extract_slice %0[91, 0] [1, 955] [1, 1] : tensor<512x1024xf32> to tensor<1x955xf32>
    %extracted_slice_827 = tensor.extract_slice %0[91, 955] [1, 69] [1, 1] : tensor<512x1024xf32> to tensor<1x69xf32>
    %inserted_slice_828 = tensor.insert_slice %extracted_slice_826 into %extracted_slice_133[0, 69] [1, 955] [1, 1] : tensor<1x955xf32> into tensor<1x1024xf32>
    %inserted_slice_829 = tensor.insert_slice %extracted_slice_827 into %inserted_slice_828[0, 0] [1, 69] [1, 1] : tensor<1x69xf32> into tensor<1x1024xf32>
    %extracted_slice_830 = tensor.extract_slice %0[92, 0] [1, 932] [1, 1] : tensor<512x1024xf32> to tensor<1x932xf32>
    %extracted_slice_831 = tensor.extract_slice %0[92, 932] [1, 92] [1, 1] : tensor<512x1024xf32> to tensor<1x92xf32>
    %inserted_slice_832 = tensor.insert_slice %extracted_slice_830 into %extracted_slice_134[0, 92] [1, 932] [1, 1] : tensor<1x932xf32> into tensor<1x1024xf32>
    %inserted_slice_833 = tensor.insert_slice %extracted_slice_831 into %inserted_slice_832[0, 0] [1, 92] [1, 1] : tensor<1x92xf32> into tensor<1x1024xf32>
    %extracted_slice_834 = tensor.extract_slice %0[93, 0] [1, 932] [1, 1] : tensor<512x1024xf32> to tensor<1x932xf32>
    %extracted_slice_835 = tensor.extract_slice %0[93, 932] [1, 92] [1, 1] : tensor<512x1024xf32> to tensor<1x92xf32>
    %inserted_slice_836 = tensor.insert_slice %extracted_slice_834 into %extracted_slice_135[0, 92] [1, 932] [1, 1] : tensor<1x932xf32> into tensor<1x1024xf32>
    %inserted_slice_837 = tensor.insert_slice %extracted_slice_835 into %inserted_slice_836[0, 0] [1, 92] [1, 1] : tensor<1x92xf32> into tensor<1x1024xf32>
    %extracted_slice_838 = tensor.extract_slice %0[94, 0] [1, 932] [1, 1] : tensor<512x1024xf32> to tensor<1x932xf32>
    %extracted_slice_839 = tensor.extract_slice %0[94, 932] [1, 92] [1, 1] : tensor<512x1024xf32> to tensor<1x92xf32>
    %inserted_slice_840 = tensor.insert_slice %extracted_slice_838 into %extracted_slice_136[0, 92] [1, 932] [1, 1] : tensor<1x932xf32> into tensor<1x1024xf32>
    %inserted_slice_841 = tensor.insert_slice %extracted_slice_839 into %inserted_slice_840[0, 0] [1, 92] [1, 1] : tensor<1x92xf32> into tensor<1x1024xf32>
    %extracted_slice_842 = tensor.extract_slice %0[95, 0] [1, 932] [1, 1] : tensor<512x1024xf32> to tensor<1x932xf32>
    %extracted_slice_843 = tensor.extract_slice %0[95, 932] [1, 92] [1, 1] : tensor<512x1024xf32> to tensor<1x92xf32>
    %inserted_slice_844 = tensor.insert_slice %extracted_slice_842 into %extracted_slice_137[0, 92] [1, 932] [1, 1] : tensor<1x932xf32> into tensor<1x1024xf32>
    %inserted_slice_845 = tensor.insert_slice %extracted_slice_843 into %inserted_slice_844[0, 0] [1, 92] [1, 1] : tensor<1x92xf32> into tensor<1x1024xf32>
    %extracted_slice_846 = tensor.extract_slice %0[96, 0] [1, 932] [1, 1] : tensor<512x1024xf32> to tensor<1x932xf32>
    %extracted_slice_847 = tensor.extract_slice %0[96, 932] [1, 92] [1, 1] : tensor<512x1024xf32> to tensor<1x92xf32>
    %inserted_slice_848 = tensor.insert_slice %extracted_slice_846 into %extracted_slice_138[0, 92] [1, 932] [1, 1] : tensor<1x932xf32> into tensor<1x1024xf32>
    %inserted_slice_849 = tensor.insert_slice %extracted_slice_847 into %inserted_slice_848[0, 0] [1, 92] [1, 1] : tensor<1x92xf32> into tensor<1x1024xf32>
    %extracted_slice_850 = tensor.extract_slice %0[97, 0] [1, 932] [1, 1] : tensor<512x1024xf32> to tensor<1x932xf32>
    %extracted_slice_851 = tensor.extract_slice %0[97, 932] [1, 92] [1, 1] : tensor<512x1024xf32> to tensor<1x92xf32>
    %inserted_slice_852 = tensor.insert_slice %extracted_slice_850 into %extracted_slice_139[0, 92] [1, 932] [1, 1] : tensor<1x932xf32> into tensor<1x1024xf32>
    %inserted_slice_853 = tensor.insert_slice %extracted_slice_851 into %inserted_slice_852[0, 0] [1, 92] [1, 1] : tensor<1x92xf32> into tensor<1x1024xf32>
    %extracted_slice_854 = tensor.extract_slice %0[98, 0] [1, 932] [1, 1] : tensor<512x1024xf32> to tensor<1x932xf32>
    %extracted_slice_855 = tensor.extract_slice %0[98, 932] [1, 92] [1, 1] : tensor<512x1024xf32> to tensor<1x92xf32>
    %inserted_slice_856 = tensor.insert_slice %extracted_slice_854 into %extracted_slice_140[0, 92] [1, 932] [1, 1] : tensor<1x932xf32> into tensor<1x1024xf32>
    %inserted_slice_857 = tensor.insert_slice %extracted_slice_855 into %inserted_slice_856[0, 0] [1, 92] [1, 1] : tensor<1x92xf32> into tensor<1x1024xf32>
    %extracted_slice_858 = tensor.extract_slice %0[99, 0] [1, 932] [1, 1] : tensor<512x1024xf32> to tensor<1x932xf32>
    %extracted_slice_859 = tensor.extract_slice %0[99, 932] [1, 92] [1, 1] : tensor<512x1024xf32> to tensor<1x92xf32>
    %inserted_slice_860 = tensor.insert_slice %extracted_slice_858 into %extracted_slice_141[0, 92] [1, 932] [1, 1] : tensor<1x932xf32> into tensor<1x1024xf32>
    %inserted_slice_861 = tensor.insert_slice %extracted_slice_859 into %inserted_slice_860[0, 0] [1, 92] [1, 1] : tensor<1x92xf32> into tensor<1x1024xf32>
    %extracted_slice_862 = tensor.extract_slice %0[100, 0] [1, 932] [1, 1] : tensor<512x1024xf32> to tensor<1x932xf32>
    %extracted_slice_863 = tensor.extract_slice %0[100, 932] [1, 92] [1, 1] : tensor<512x1024xf32> to tensor<1x92xf32>
    %inserted_slice_864 = tensor.insert_slice %extracted_slice_862 into %extracted_slice_142[0, 92] [1, 932] [1, 1] : tensor<1x932xf32> into tensor<1x1024xf32>
    %inserted_slice_865 = tensor.insert_slice %extracted_slice_863 into %inserted_slice_864[0, 0] [1, 92] [1, 1] : tensor<1x92xf32> into tensor<1x1024xf32>
    %extracted_slice_866 = tensor.extract_slice %0[101, 0] [1, 932] [1, 1] : tensor<512x1024xf32> to tensor<1x932xf32>
    %extracted_slice_867 = tensor.extract_slice %0[101, 932] [1, 92] [1, 1] : tensor<512x1024xf32> to tensor<1x92xf32>
    %inserted_slice_868 = tensor.insert_slice %extracted_slice_866 into %extracted_slice_143[0, 92] [1, 932] [1, 1] : tensor<1x932xf32> into tensor<1x1024xf32>
    %inserted_slice_869 = tensor.insert_slice %extracted_slice_867 into %inserted_slice_868[0, 0] [1, 92] [1, 1] : tensor<1x92xf32> into tensor<1x1024xf32>
    %extracted_slice_870 = tensor.extract_slice %0[102, 0] [1, 932] [1, 1] : tensor<512x1024xf32> to tensor<1x932xf32>
    %extracted_slice_871 = tensor.extract_slice %0[102, 932] [1, 92] [1, 1] : tensor<512x1024xf32> to tensor<1x92xf32>
    %inserted_slice_872 = tensor.insert_slice %extracted_slice_870 into %extracted_slice_144[0, 92] [1, 932] [1, 1] : tensor<1x932xf32> into tensor<1x1024xf32>
    %inserted_slice_873 = tensor.insert_slice %extracted_slice_871 into %inserted_slice_872[0, 0] [1, 92] [1, 1] : tensor<1x92xf32> into tensor<1x1024xf32>
    %extracted_slice_874 = tensor.extract_slice %0[103, 0] [1, 932] [1, 1] : tensor<512x1024xf32> to tensor<1x932xf32>
    %extracted_slice_875 = tensor.extract_slice %0[103, 932] [1, 92] [1, 1] : tensor<512x1024xf32> to tensor<1x92xf32>
    %inserted_slice_876 = tensor.insert_slice %extracted_slice_874 into %extracted_slice_145[0, 92] [1, 932] [1, 1] : tensor<1x932xf32> into tensor<1x1024xf32>
    %inserted_slice_877 = tensor.insert_slice %extracted_slice_875 into %inserted_slice_876[0, 0] [1, 92] [1, 1] : tensor<1x92xf32> into tensor<1x1024xf32>
    %extracted_slice_878 = tensor.extract_slice %0[104, 0] [1, 932] [1, 1] : tensor<512x1024xf32> to tensor<1x932xf32>
    %extracted_slice_879 = tensor.extract_slice %0[104, 932] [1, 92] [1, 1] : tensor<512x1024xf32> to tensor<1x92xf32>
    %inserted_slice_880 = tensor.insert_slice %extracted_slice_878 into %extracted_slice_146[0, 92] [1, 932] [1, 1] : tensor<1x932xf32> into tensor<1x1024xf32>
    %inserted_slice_881 = tensor.insert_slice %extracted_slice_879 into %inserted_slice_880[0, 0] [1, 92] [1, 1] : tensor<1x92xf32> into tensor<1x1024xf32>
    %extracted_slice_882 = tensor.extract_slice %0[105, 0] [1, 932] [1, 1] : tensor<512x1024xf32> to tensor<1x932xf32>
    %extracted_slice_883 = tensor.extract_slice %0[105, 932] [1, 92] [1, 1] : tensor<512x1024xf32> to tensor<1x92xf32>
    %inserted_slice_884 = tensor.insert_slice %extracted_slice_882 into %extracted_slice_147[0, 92] [1, 932] [1, 1] : tensor<1x932xf32> into tensor<1x1024xf32>
    %inserted_slice_885 = tensor.insert_slice %extracted_slice_883 into %inserted_slice_884[0, 0] [1, 92] [1, 1] : tensor<1x92xf32> into tensor<1x1024xf32>
    %extracted_slice_886 = tensor.extract_slice %0[106, 0] [1, 932] [1, 1] : tensor<512x1024xf32> to tensor<1x932xf32>
    %extracted_slice_887 = tensor.extract_slice %0[106, 932] [1, 92] [1, 1] : tensor<512x1024xf32> to tensor<1x92xf32>
    %inserted_slice_888 = tensor.insert_slice %extracted_slice_886 into %extracted_slice_148[0, 92] [1, 932] [1, 1] : tensor<1x932xf32> into tensor<1x1024xf32>
    %inserted_slice_889 = tensor.insert_slice %extracted_slice_887 into %inserted_slice_888[0, 0] [1, 92] [1, 1] : tensor<1x92xf32> into tensor<1x1024xf32>
    %extracted_slice_890 = tensor.extract_slice %0[107, 0] [1, 932] [1, 1] : tensor<512x1024xf32> to tensor<1x932xf32>
    %extracted_slice_891 = tensor.extract_slice %0[107, 932] [1, 92] [1, 1] : tensor<512x1024xf32> to tensor<1x92xf32>
    %inserted_slice_892 = tensor.insert_slice %extracted_slice_890 into %extracted_slice_149[0, 92] [1, 932] [1, 1] : tensor<1x932xf32> into tensor<1x1024xf32>
    %inserted_slice_893 = tensor.insert_slice %extracted_slice_891 into %inserted_slice_892[0, 0] [1, 92] [1, 1] : tensor<1x92xf32> into tensor<1x1024xf32>
    %extracted_slice_894 = tensor.extract_slice %0[108, 0] [1, 932] [1, 1] : tensor<512x1024xf32> to tensor<1x932xf32>
    %extracted_slice_895 = tensor.extract_slice %0[108, 932] [1, 92] [1, 1] : tensor<512x1024xf32> to tensor<1x92xf32>
    %inserted_slice_896 = tensor.insert_slice %extracted_slice_894 into %extracted_slice_150[0, 92] [1, 932] [1, 1] : tensor<1x932xf32> into tensor<1x1024xf32>
    %inserted_slice_897 = tensor.insert_slice %extracted_slice_895 into %inserted_slice_896[0, 0] [1, 92] [1, 1] : tensor<1x92xf32> into tensor<1x1024xf32>
    %extracted_slice_898 = tensor.extract_slice %0[109, 0] [1, 932] [1, 1] : tensor<512x1024xf32> to tensor<1x932xf32>
    %extracted_slice_899 = tensor.extract_slice %0[109, 932] [1, 92] [1, 1] : tensor<512x1024xf32> to tensor<1x92xf32>
    %inserted_slice_900 = tensor.insert_slice %extracted_slice_898 into %extracted_slice_151[0, 92] [1, 932] [1, 1] : tensor<1x932xf32> into tensor<1x1024xf32>
    %inserted_slice_901 = tensor.insert_slice %extracted_slice_899 into %inserted_slice_900[0, 0] [1, 92] [1, 1] : tensor<1x92xf32> into tensor<1x1024xf32>
    %extracted_slice_902 = tensor.extract_slice %0[110, 0] [1, 932] [1, 1] : tensor<512x1024xf32> to tensor<1x932xf32>
    %extracted_slice_903 = tensor.extract_slice %0[110, 932] [1, 92] [1, 1] : tensor<512x1024xf32> to tensor<1x92xf32>
    %inserted_slice_904 = tensor.insert_slice %extracted_slice_902 into %extracted_slice_152[0, 92] [1, 932] [1, 1] : tensor<1x932xf32> into tensor<1x1024xf32>
    %inserted_slice_905 = tensor.insert_slice %extracted_slice_903 into %inserted_slice_904[0, 0] [1, 92] [1, 1] : tensor<1x92xf32> into tensor<1x1024xf32>
    %extracted_slice_906 = tensor.extract_slice %0[111, 0] [1, 932] [1, 1] : tensor<512x1024xf32> to tensor<1x932xf32>
    %extracted_slice_907 = tensor.extract_slice %0[111, 932] [1, 92] [1, 1] : tensor<512x1024xf32> to tensor<1x92xf32>
    %inserted_slice_908 = tensor.insert_slice %extracted_slice_906 into %extracted_slice_153[0, 92] [1, 932] [1, 1] : tensor<1x932xf32> into tensor<1x1024xf32>
    %inserted_slice_909 = tensor.insert_slice %extracted_slice_907 into %inserted_slice_908[0, 0] [1, 92] [1, 1] : tensor<1x92xf32> into tensor<1x1024xf32>
    %extracted_slice_910 = tensor.extract_slice %0[112, 0] [1, 932] [1, 1] : tensor<512x1024xf32> to tensor<1x932xf32>
    %extracted_slice_911 = tensor.extract_slice %0[112, 932] [1, 92] [1, 1] : tensor<512x1024xf32> to tensor<1x92xf32>
    %inserted_slice_912 = tensor.insert_slice %extracted_slice_910 into %extracted_slice_154[0, 92] [1, 932] [1, 1] : tensor<1x932xf32> into tensor<1x1024xf32>
    %inserted_slice_913 = tensor.insert_slice %extracted_slice_911 into %inserted_slice_912[0, 0] [1, 92] [1, 1] : tensor<1x92xf32> into tensor<1x1024xf32>
    %extracted_slice_914 = tensor.extract_slice %0[113, 0] [1, 932] [1, 1] : tensor<512x1024xf32> to tensor<1x932xf32>
    %extracted_slice_915 = tensor.extract_slice %0[113, 932] [1, 92] [1, 1] : tensor<512x1024xf32> to tensor<1x92xf32>
    %inserted_slice_916 = tensor.insert_slice %extracted_slice_914 into %extracted_slice_155[0, 92] [1, 932] [1, 1] : tensor<1x932xf32> into tensor<1x1024xf32>
    %inserted_slice_917 = tensor.insert_slice %extracted_slice_915 into %inserted_slice_916[0, 0] [1, 92] [1, 1] : tensor<1x92xf32> into tensor<1x1024xf32>
    %extracted_slice_918 = tensor.extract_slice %0[114, 0] [1, 932] [1, 1] : tensor<512x1024xf32> to tensor<1x932xf32>
    %extracted_slice_919 = tensor.extract_slice %0[114, 932] [1, 92] [1, 1] : tensor<512x1024xf32> to tensor<1x92xf32>
    %inserted_slice_920 = tensor.insert_slice %extracted_slice_918 into %extracted_slice_156[0, 92] [1, 932] [1, 1] : tensor<1x932xf32> into tensor<1x1024xf32>
    %inserted_slice_921 = tensor.insert_slice %extracted_slice_919 into %inserted_slice_920[0, 0] [1, 92] [1, 1] : tensor<1x92xf32> into tensor<1x1024xf32>
    %extracted_slice_922 = tensor.extract_slice %0[115, 0] [1, 909] [1, 1] : tensor<512x1024xf32> to tensor<1x909xf32>
    %extracted_slice_923 = tensor.extract_slice %0[115, 909] [1, 115] [1, 1] : tensor<512x1024xf32> to tensor<1x115xf32>
    %inserted_slice_924 = tensor.insert_slice %extracted_slice_922 into %extracted_slice_157[0, 115] [1, 909] [1, 1] : tensor<1x909xf32> into tensor<1x1024xf32>
    %inserted_slice_925 = tensor.insert_slice %extracted_slice_923 into %inserted_slice_924[0, 0] [1, 115] [1, 1] : tensor<1x115xf32> into tensor<1x1024xf32>
    %extracted_slice_926 = tensor.extract_slice %0[116, 0] [1, 909] [1, 1] : tensor<512x1024xf32> to tensor<1x909xf32>
    %extracted_slice_927 = tensor.extract_slice %0[116, 909] [1, 115] [1, 1] : tensor<512x1024xf32> to tensor<1x115xf32>
    %inserted_slice_928 = tensor.insert_slice %extracted_slice_926 into %extracted_slice_158[0, 115] [1, 909] [1, 1] : tensor<1x909xf32> into tensor<1x1024xf32>
    %inserted_slice_929 = tensor.insert_slice %extracted_slice_927 into %inserted_slice_928[0, 0] [1, 115] [1, 1] : tensor<1x115xf32> into tensor<1x1024xf32>
    %extracted_slice_930 = tensor.extract_slice %0[117, 0] [1, 909] [1, 1] : tensor<512x1024xf32> to tensor<1x909xf32>
    %extracted_slice_931 = tensor.extract_slice %0[117, 909] [1, 115] [1, 1] : tensor<512x1024xf32> to tensor<1x115xf32>
    %inserted_slice_932 = tensor.insert_slice %extracted_slice_930 into %extracted_slice_159[0, 115] [1, 909] [1, 1] : tensor<1x909xf32> into tensor<1x1024xf32>
    %inserted_slice_933 = tensor.insert_slice %extracted_slice_931 into %inserted_slice_932[0, 0] [1, 115] [1, 1] : tensor<1x115xf32> into tensor<1x1024xf32>
    %extracted_slice_934 = tensor.extract_slice %0[118, 0] [1, 909] [1, 1] : tensor<512x1024xf32> to tensor<1x909xf32>
    %extracted_slice_935 = tensor.extract_slice %0[118, 909] [1, 115] [1, 1] : tensor<512x1024xf32> to tensor<1x115xf32>
    %inserted_slice_936 = tensor.insert_slice %extracted_slice_934 into %extracted_slice_160[0, 115] [1, 909] [1, 1] : tensor<1x909xf32> into tensor<1x1024xf32>
    %inserted_slice_937 = tensor.insert_slice %extracted_slice_935 into %inserted_slice_936[0, 0] [1, 115] [1, 1] : tensor<1x115xf32> into tensor<1x1024xf32>
    %extracted_slice_938 = tensor.extract_slice %0[119, 0] [1, 909] [1, 1] : tensor<512x1024xf32> to tensor<1x909xf32>
    %extracted_slice_939 = tensor.extract_slice %0[119, 909] [1, 115] [1, 1] : tensor<512x1024xf32> to tensor<1x115xf32>
    %inserted_slice_940 = tensor.insert_slice %extracted_slice_938 into %extracted_slice_161[0, 115] [1, 909] [1, 1] : tensor<1x909xf32> into tensor<1x1024xf32>
    %inserted_slice_941 = tensor.insert_slice %extracted_slice_939 into %inserted_slice_940[0, 0] [1, 115] [1, 1] : tensor<1x115xf32> into tensor<1x1024xf32>
    %extracted_slice_942 = tensor.extract_slice %0[120, 0] [1, 909] [1, 1] : tensor<512x1024xf32> to tensor<1x909xf32>
    %extracted_slice_943 = tensor.extract_slice %0[120, 909] [1, 115] [1, 1] : tensor<512x1024xf32> to tensor<1x115xf32>
    %inserted_slice_944 = tensor.insert_slice %extracted_slice_942 into %extracted_slice_162[0, 115] [1, 909] [1, 1] : tensor<1x909xf32> into tensor<1x1024xf32>
    %inserted_slice_945 = tensor.insert_slice %extracted_slice_943 into %inserted_slice_944[0, 0] [1, 115] [1, 1] : tensor<1x115xf32> into tensor<1x1024xf32>
    %extracted_slice_946 = tensor.extract_slice %0[121, 0] [1, 909] [1, 1] : tensor<512x1024xf32> to tensor<1x909xf32>
    %extracted_slice_947 = tensor.extract_slice %0[121, 909] [1, 115] [1, 1] : tensor<512x1024xf32> to tensor<1x115xf32>
    %inserted_slice_948 = tensor.insert_slice %extracted_slice_946 into %extracted_slice_163[0, 115] [1, 909] [1, 1] : tensor<1x909xf32> into tensor<1x1024xf32>
    %inserted_slice_949 = tensor.insert_slice %extracted_slice_947 into %inserted_slice_948[0, 0] [1, 115] [1, 1] : tensor<1x115xf32> into tensor<1x1024xf32>
    %extracted_slice_950 = tensor.extract_slice %0[122, 0] [1, 909] [1, 1] : tensor<512x1024xf32> to tensor<1x909xf32>
    %extracted_slice_951 = tensor.extract_slice %0[122, 909] [1, 115] [1, 1] : tensor<512x1024xf32> to tensor<1x115xf32>
    %inserted_slice_952 = tensor.insert_slice %extracted_slice_950 into %extracted_slice_164[0, 115] [1, 909] [1, 1] : tensor<1x909xf32> into tensor<1x1024xf32>
    %inserted_slice_953 = tensor.insert_slice %extracted_slice_951 into %inserted_slice_952[0, 0] [1, 115] [1, 1] : tensor<1x115xf32> into tensor<1x1024xf32>
    %extracted_slice_954 = tensor.extract_slice %0[123, 0] [1, 909] [1, 1] : tensor<512x1024xf32> to tensor<1x909xf32>
    %extracted_slice_955 = tensor.extract_slice %0[123, 909] [1, 115] [1, 1] : tensor<512x1024xf32> to tensor<1x115xf32>
    %inserted_slice_956 = tensor.insert_slice %extracted_slice_954 into %extracted_slice_165[0, 115] [1, 909] [1, 1] : tensor<1x909xf32> into tensor<1x1024xf32>
    %inserted_slice_957 = tensor.insert_slice %extracted_slice_955 into %inserted_slice_956[0, 0] [1, 115] [1, 1] : tensor<1x115xf32> into tensor<1x1024xf32>
    %extracted_slice_958 = tensor.extract_slice %0[124, 0] [1, 909] [1, 1] : tensor<512x1024xf32> to tensor<1x909xf32>
    %extracted_slice_959 = tensor.extract_slice %0[124, 909] [1, 115] [1, 1] : tensor<512x1024xf32> to tensor<1x115xf32>
    %inserted_slice_960 = tensor.insert_slice %extracted_slice_958 into %extracted_slice_166[0, 115] [1, 909] [1, 1] : tensor<1x909xf32> into tensor<1x1024xf32>
    %inserted_slice_961 = tensor.insert_slice %extracted_slice_959 into %inserted_slice_960[0, 0] [1, 115] [1, 1] : tensor<1x115xf32> into tensor<1x1024xf32>
    %extracted_slice_962 = tensor.extract_slice %0[125, 0] [1, 909] [1, 1] : tensor<512x1024xf32> to tensor<1x909xf32>
    %extracted_slice_963 = tensor.extract_slice %0[125, 909] [1, 115] [1, 1] : tensor<512x1024xf32> to tensor<1x115xf32>
    %inserted_slice_964 = tensor.insert_slice %extracted_slice_962 into %extracted_slice_167[0, 115] [1, 909] [1, 1] : tensor<1x909xf32> into tensor<1x1024xf32>
    %inserted_slice_965 = tensor.insert_slice %extracted_slice_963 into %inserted_slice_964[0, 0] [1, 115] [1, 1] : tensor<1x115xf32> into tensor<1x1024xf32>
    %extracted_slice_966 = tensor.extract_slice %0[126, 0] [1, 909] [1, 1] : tensor<512x1024xf32> to tensor<1x909xf32>
    %extracted_slice_967 = tensor.extract_slice %0[126, 909] [1, 115] [1, 1] : tensor<512x1024xf32> to tensor<1x115xf32>
    %inserted_slice_968 = tensor.insert_slice %extracted_slice_966 into %extracted_slice_168[0, 115] [1, 909] [1, 1] : tensor<1x909xf32> into tensor<1x1024xf32>
    %inserted_slice_969 = tensor.insert_slice %extracted_slice_967 into %inserted_slice_968[0, 0] [1, 115] [1, 1] : tensor<1x115xf32> into tensor<1x1024xf32>
    %extracted_slice_970 = tensor.extract_slice %0[127, 0] [1, 909] [1, 1] : tensor<512x1024xf32> to tensor<1x909xf32>
    %extracted_slice_971 = tensor.extract_slice %0[127, 909] [1, 115] [1, 1] : tensor<512x1024xf32> to tensor<1x115xf32>
    %inserted_slice_972 = tensor.insert_slice %extracted_slice_970 into %extracted_slice_169[0, 115] [1, 909] [1, 1] : tensor<1x909xf32> into tensor<1x1024xf32>
    %inserted_slice_973 = tensor.insert_slice %extracted_slice_971 into %inserted_slice_972[0, 0] [1, 115] [1, 1] : tensor<1x115xf32> into tensor<1x1024xf32>
    %extracted_slice_974 = tensor.extract_slice %0[128, 0] [1, 909] [1, 1] : tensor<512x1024xf32> to tensor<1x909xf32>
    %extracted_slice_975 = tensor.extract_slice %0[128, 909] [1, 115] [1, 1] : tensor<512x1024xf32> to tensor<1x115xf32>
    %inserted_slice_976 = tensor.insert_slice %extracted_slice_974 into %extracted_slice_170[0, 115] [1, 909] [1, 1] : tensor<1x909xf32> into tensor<1x1024xf32>
    %inserted_slice_977 = tensor.insert_slice %extracted_slice_975 into %inserted_slice_976[0, 0] [1, 115] [1, 1] : tensor<1x115xf32> into tensor<1x1024xf32>
    %extracted_slice_978 = tensor.extract_slice %0[129, 0] [1, 909] [1, 1] : tensor<512x1024xf32> to tensor<1x909xf32>
    %extracted_slice_979 = tensor.extract_slice %0[129, 909] [1, 115] [1, 1] : tensor<512x1024xf32> to tensor<1x115xf32>
    %inserted_slice_980 = tensor.insert_slice %extracted_slice_978 into %extracted_slice_171[0, 115] [1, 909] [1, 1] : tensor<1x909xf32> into tensor<1x1024xf32>
    %inserted_slice_981 = tensor.insert_slice %extracted_slice_979 into %inserted_slice_980[0, 0] [1, 115] [1, 1] : tensor<1x115xf32> into tensor<1x1024xf32>
    %extracted_slice_982 = tensor.extract_slice %0[130, 0] [1, 909] [1, 1] : tensor<512x1024xf32> to tensor<1x909xf32>
    %extracted_slice_983 = tensor.extract_slice %0[130, 909] [1, 115] [1, 1] : tensor<512x1024xf32> to tensor<1x115xf32>
    %inserted_slice_984 = tensor.insert_slice %extracted_slice_982 into %extracted_slice_172[0, 115] [1, 909] [1, 1] : tensor<1x909xf32> into tensor<1x1024xf32>
    %inserted_slice_985 = tensor.insert_slice %extracted_slice_983 into %inserted_slice_984[0, 0] [1, 115] [1, 1] : tensor<1x115xf32> into tensor<1x1024xf32>
    %extracted_slice_986 = tensor.extract_slice %0[131, 0] [1, 909] [1, 1] : tensor<512x1024xf32> to tensor<1x909xf32>
    %extracted_slice_987 = tensor.extract_slice %0[131, 909] [1, 115] [1, 1] : tensor<512x1024xf32> to tensor<1x115xf32>
    %inserted_slice_988 = tensor.insert_slice %extracted_slice_986 into %extracted_slice_173[0, 115] [1, 909] [1, 1] : tensor<1x909xf32> into tensor<1x1024xf32>
    %inserted_slice_989 = tensor.insert_slice %extracted_slice_987 into %inserted_slice_988[0, 0] [1, 115] [1, 1] : tensor<1x115xf32> into tensor<1x1024xf32>
    %extracted_slice_990 = tensor.extract_slice %0[132, 0] [1, 909] [1, 1] : tensor<512x1024xf32> to tensor<1x909xf32>
    %extracted_slice_991 = tensor.extract_slice %0[132, 909] [1, 115] [1, 1] : tensor<512x1024xf32> to tensor<1x115xf32>
    %inserted_slice_992 = tensor.insert_slice %extracted_slice_990 into %extracted_slice_174[0, 115] [1, 909] [1, 1] : tensor<1x909xf32> into tensor<1x1024xf32>
    %inserted_slice_993 = tensor.insert_slice %extracted_slice_991 into %inserted_slice_992[0, 0] [1, 115] [1, 1] : tensor<1x115xf32> into tensor<1x1024xf32>
    %extracted_slice_994 = tensor.extract_slice %0[133, 0] [1, 909] [1, 1] : tensor<512x1024xf32> to tensor<1x909xf32>
    %extracted_slice_995 = tensor.extract_slice %0[133, 909] [1, 115] [1, 1] : tensor<512x1024xf32> to tensor<1x115xf32>
    %inserted_slice_996 = tensor.insert_slice %extracted_slice_994 into %extracted_slice_175[0, 115] [1, 909] [1, 1] : tensor<1x909xf32> into tensor<1x1024xf32>
    %inserted_slice_997 = tensor.insert_slice %extracted_slice_995 into %inserted_slice_996[0, 0] [1, 115] [1, 1] : tensor<1x115xf32> into tensor<1x1024xf32>
    %extracted_slice_998 = tensor.extract_slice %0[134, 0] [1, 909] [1, 1] : tensor<512x1024xf32> to tensor<1x909xf32>
    %extracted_slice_999 = tensor.extract_slice %0[134, 909] [1, 115] [1, 1] : tensor<512x1024xf32> to tensor<1x115xf32>
    %inserted_slice_1000 = tensor.insert_slice %extracted_slice_998 into %extracted_slice_176[0, 115] [1, 909] [1, 1] : tensor<1x909xf32> into tensor<1x1024xf32>
    %inserted_slice_1001 = tensor.insert_slice %extracted_slice_999 into %inserted_slice_1000[0, 0] [1, 115] [1, 1] : tensor<1x115xf32> into tensor<1x1024xf32>
    %extracted_slice_1002 = tensor.extract_slice %0[135, 0] [1, 909] [1, 1] : tensor<512x1024xf32> to tensor<1x909xf32>
    %extracted_slice_1003 = tensor.extract_slice %0[135, 909] [1, 115] [1, 1] : tensor<512x1024xf32> to tensor<1x115xf32>
    %inserted_slice_1004 = tensor.insert_slice %extracted_slice_1002 into %extracted_slice_177[0, 115] [1, 909] [1, 1] : tensor<1x909xf32> into tensor<1x1024xf32>
    %inserted_slice_1005 = tensor.insert_slice %extracted_slice_1003 into %inserted_slice_1004[0, 0] [1, 115] [1, 1] : tensor<1x115xf32> into tensor<1x1024xf32>
    %extracted_slice_1006 = tensor.extract_slice %0[136, 0] [1, 909] [1, 1] : tensor<512x1024xf32> to tensor<1x909xf32>
    %extracted_slice_1007 = tensor.extract_slice %0[136, 909] [1, 115] [1, 1] : tensor<512x1024xf32> to tensor<1x115xf32>
    %inserted_slice_1008 = tensor.insert_slice %extracted_slice_1006 into %extracted_slice_178[0, 115] [1, 909] [1, 1] : tensor<1x909xf32> into tensor<1x1024xf32>
    %inserted_slice_1009 = tensor.insert_slice %extracted_slice_1007 into %inserted_slice_1008[0, 0] [1, 115] [1, 1] : tensor<1x115xf32> into tensor<1x1024xf32>
    %extracted_slice_1010 = tensor.extract_slice %0[137, 0] [1, 909] [1, 1] : tensor<512x1024xf32> to tensor<1x909xf32>
    %extracted_slice_1011 = tensor.extract_slice %0[137, 909] [1, 115] [1, 1] : tensor<512x1024xf32> to tensor<1x115xf32>
    %inserted_slice_1012 = tensor.insert_slice %extracted_slice_1010 into %extracted_slice_179[0, 115] [1, 909] [1, 1] : tensor<1x909xf32> into tensor<1x1024xf32>
    %inserted_slice_1013 = tensor.insert_slice %extracted_slice_1011 into %inserted_slice_1012[0, 0] [1, 115] [1, 1] : tensor<1x115xf32> into tensor<1x1024xf32>
    %extracted_slice_1014 = tensor.extract_slice %0[138, 0] [1, 886] [1, 1] : tensor<512x1024xf32> to tensor<1x886xf32>
    %extracted_slice_1015 = tensor.extract_slice %0[138, 886] [1, 138] [1, 1] : tensor<512x1024xf32> to tensor<1x138xf32>
    %inserted_slice_1016 = tensor.insert_slice %extracted_slice_1014 into %extracted_slice_180[0, 138] [1, 886] [1, 1] : tensor<1x886xf32> into tensor<1x1024xf32>
    %inserted_slice_1017 = tensor.insert_slice %extracted_slice_1015 into %inserted_slice_1016[0, 0] [1, 138] [1, 1] : tensor<1x138xf32> into tensor<1x1024xf32>
    %extracted_slice_1018 = tensor.extract_slice %0[139, 0] [1, 886] [1, 1] : tensor<512x1024xf32> to tensor<1x886xf32>
    %extracted_slice_1019 = tensor.extract_slice %0[139, 886] [1, 138] [1, 1] : tensor<512x1024xf32> to tensor<1x138xf32>
    %inserted_slice_1020 = tensor.insert_slice %extracted_slice_1018 into %extracted_slice_181[0, 138] [1, 886] [1, 1] : tensor<1x886xf32> into tensor<1x1024xf32>
    %inserted_slice_1021 = tensor.insert_slice %extracted_slice_1019 into %inserted_slice_1020[0, 0] [1, 138] [1, 1] : tensor<1x138xf32> into tensor<1x1024xf32>
    %extracted_slice_1022 = tensor.extract_slice %0[140, 0] [1, 886] [1, 1] : tensor<512x1024xf32> to tensor<1x886xf32>
    %extracted_slice_1023 = tensor.extract_slice %0[140, 886] [1, 138] [1, 1] : tensor<512x1024xf32> to tensor<1x138xf32>
    %inserted_slice_1024 = tensor.insert_slice %extracted_slice_1022 into %extracted_slice_182[0, 138] [1, 886] [1, 1] : tensor<1x886xf32> into tensor<1x1024xf32>
    %inserted_slice_1025 = tensor.insert_slice %extracted_slice_1023 into %inserted_slice_1024[0, 0] [1, 138] [1, 1] : tensor<1x138xf32> into tensor<1x1024xf32>
    %extracted_slice_1026 = tensor.extract_slice %0[141, 0] [1, 886] [1, 1] : tensor<512x1024xf32> to tensor<1x886xf32>
    %extracted_slice_1027 = tensor.extract_slice %0[141, 886] [1, 138] [1, 1] : tensor<512x1024xf32> to tensor<1x138xf32>
    %inserted_slice_1028 = tensor.insert_slice %extracted_slice_1026 into %extracted_slice_183[0, 138] [1, 886] [1, 1] : tensor<1x886xf32> into tensor<1x1024xf32>
    %inserted_slice_1029 = tensor.insert_slice %extracted_slice_1027 into %inserted_slice_1028[0, 0] [1, 138] [1, 1] : tensor<1x138xf32> into tensor<1x1024xf32>
    %extracted_slice_1030 = tensor.extract_slice %0[142, 0] [1, 886] [1, 1] : tensor<512x1024xf32> to tensor<1x886xf32>
    %extracted_slice_1031 = tensor.extract_slice %0[142, 886] [1, 138] [1, 1] : tensor<512x1024xf32> to tensor<1x138xf32>
    %inserted_slice_1032 = tensor.insert_slice %extracted_slice_1030 into %extracted_slice_184[0, 138] [1, 886] [1, 1] : tensor<1x886xf32> into tensor<1x1024xf32>
    %inserted_slice_1033 = tensor.insert_slice %extracted_slice_1031 into %inserted_slice_1032[0, 0] [1, 138] [1, 1] : tensor<1x138xf32> into tensor<1x1024xf32>
    %extracted_slice_1034 = tensor.extract_slice %0[143, 0] [1, 886] [1, 1] : tensor<512x1024xf32> to tensor<1x886xf32>
    %extracted_slice_1035 = tensor.extract_slice %0[143, 886] [1, 138] [1, 1] : tensor<512x1024xf32> to tensor<1x138xf32>
    %inserted_slice_1036 = tensor.insert_slice %extracted_slice_1034 into %extracted_slice_185[0, 138] [1, 886] [1, 1] : tensor<1x886xf32> into tensor<1x1024xf32>
    %inserted_slice_1037 = tensor.insert_slice %extracted_slice_1035 into %inserted_slice_1036[0, 0] [1, 138] [1, 1] : tensor<1x138xf32> into tensor<1x1024xf32>
    %extracted_slice_1038 = tensor.extract_slice %0[144, 0] [1, 886] [1, 1] : tensor<512x1024xf32> to tensor<1x886xf32>
    %extracted_slice_1039 = tensor.extract_slice %0[144, 886] [1, 138] [1, 1] : tensor<512x1024xf32> to tensor<1x138xf32>
    %inserted_slice_1040 = tensor.insert_slice %extracted_slice_1038 into %extracted_slice_186[0, 138] [1, 886] [1, 1] : tensor<1x886xf32> into tensor<1x1024xf32>
    %inserted_slice_1041 = tensor.insert_slice %extracted_slice_1039 into %inserted_slice_1040[0, 0] [1, 138] [1, 1] : tensor<1x138xf32> into tensor<1x1024xf32>
    %extracted_slice_1042 = tensor.extract_slice %0[145, 0] [1, 886] [1, 1] : tensor<512x1024xf32> to tensor<1x886xf32>
    %extracted_slice_1043 = tensor.extract_slice %0[145, 886] [1, 138] [1, 1] : tensor<512x1024xf32> to tensor<1x138xf32>
    %inserted_slice_1044 = tensor.insert_slice %extracted_slice_1042 into %extracted_slice_187[0, 138] [1, 886] [1, 1] : tensor<1x886xf32> into tensor<1x1024xf32>
    %inserted_slice_1045 = tensor.insert_slice %extracted_slice_1043 into %inserted_slice_1044[0, 0] [1, 138] [1, 1] : tensor<1x138xf32> into tensor<1x1024xf32>
    %extracted_slice_1046 = tensor.extract_slice %0[146, 0] [1, 886] [1, 1] : tensor<512x1024xf32> to tensor<1x886xf32>
    %extracted_slice_1047 = tensor.extract_slice %0[146, 886] [1, 138] [1, 1] : tensor<512x1024xf32> to tensor<1x138xf32>
    %inserted_slice_1048 = tensor.insert_slice %extracted_slice_1046 into %extracted_slice_188[0, 138] [1, 886] [1, 1] : tensor<1x886xf32> into tensor<1x1024xf32>
    %inserted_slice_1049 = tensor.insert_slice %extracted_slice_1047 into %inserted_slice_1048[0, 0] [1, 138] [1, 1] : tensor<1x138xf32> into tensor<1x1024xf32>
    %extracted_slice_1050 = tensor.extract_slice %0[147, 0] [1, 886] [1, 1] : tensor<512x1024xf32> to tensor<1x886xf32>
    %extracted_slice_1051 = tensor.extract_slice %0[147, 886] [1, 138] [1, 1] : tensor<512x1024xf32> to tensor<1x138xf32>
    %inserted_slice_1052 = tensor.insert_slice %extracted_slice_1050 into %extracted_slice_189[0, 138] [1, 886] [1, 1] : tensor<1x886xf32> into tensor<1x1024xf32>
    %inserted_slice_1053 = tensor.insert_slice %extracted_slice_1051 into %inserted_slice_1052[0, 0] [1, 138] [1, 1] : tensor<1x138xf32> into tensor<1x1024xf32>
    %extracted_slice_1054 = tensor.extract_slice %0[148, 0] [1, 886] [1, 1] : tensor<512x1024xf32> to tensor<1x886xf32>
    %extracted_slice_1055 = tensor.extract_slice %0[148, 886] [1, 138] [1, 1] : tensor<512x1024xf32> to tensor<1x138xf32>
    %inserted_slice_1056 = tensor.insert_slice %extracted_slice_1054 into %extracted_slice_190[0, 138] [1, 886] [1, 1] : tensor<1x886xf32> into tensor<1x1024xf32>
    %inserted_slice_1057 = tensor.insert_slice %extracted_slice_1055 into %inserted_slice_1056[0, 0] [1, 138] [1, 1] : tensor<1x138xf32> into tensor<1x1024xf32>
    %extracted_slice_1058 = tensor.extract_slice %0[149, 0] [1, 886] [1, 1] : tensor<512x1024xf32> to tensor<1x886xf32>
    %extracted_slice_1059 = tensor.extract_slice %0[149, 886] [1, 138] [1, 1] : tensor<512x1024xf32> to tensor<1x138xf32>
    %inserted_slice_1060 = tensor.insert_slice %extracted_slice_1058 into %extracted_slice_191[0, 138] [1, 886] [1, 1] : tensor<1x886xf32> into tensor<1x1024xf32>
    %inserted_slice_1061 = tensor.insert_slice %extracted_slice_1059 into %inserted_slice_1060[0, 0] [1, 138] [1, 1] : tensor<1x138xf32> into tensor<1x1024xf32>
    %extracted_slice_1062 = tensor.extract_slice %0[150, 0] [1, 886] [1, 1] : tensor<512x1024xf32> to tensor<1x886xf32>
    %extracted_slice_1063 = tensor.extract_slice %0[150, 886] [1, 138] [1, 1] : tensor<512x1024xf32> to tensor<1x138xf32>
    %inserted_slice_1064 = tensor.insert_slice %extracted_slice_1062 into %extracted_slice_192[0, 138] [1, 886] [1, 1] : tensor<1x886xf32> into tensor<1x1024xf32>
    %inserted_slice_1065 = tensor.insert_slice %extracted_slice_1063 into %inserted_slice_1064[0, 0] [1, 138] [1, 1] : tensor<1x138xf32> into tensor<1x1024xf32>
    %extracted_slice_1066 = tensor.extract_slice %0[151, 0] [1, 886] [1, 1] : tensor<512x1024xf32> to tensor<1x886xf32>
    %extracted_slice_1067 = tensor.extract_slice %0[151, 886] [1, 138] [1, 1] : tensor<512x1024xf32> to tensor<1x138xf32>
    %inserted_slice_1068 = tensor.insert_slice %extracted_slice_1066 into %extracted_slice_193[0, 138] [1, 886] [1, 1] : tensor<1x886xf32> into tensor<1x1024xf32>
    %inserted_slice_1069 = tensor.insert_slice %extracted_slice_1067 into %inserted_slice_1068[0, 0] [1, 138] [1, 1] : tensor<1x138xf32> into tensor<1x1024xf32>
    %extracted_slice_1070 = tensor.extract_slice %0[152, 0] [1, 886] [1, 1] : tensor<512x1024xf32> to tensor<1x886xf32>
    %extracted_slice_1071 = tensor.extract_slice %0[152, 886] [1, 138] [1, 1] : tensor<512x1024xf32> to tensor<1x138xf32>
    %inserted_slice_1072 = tensor.insert_slice %extracted_slice_1070 into %extracted_slice_194[0, 138] [1, 886] [1, 1] : tensor<1x886xf32> into tensor<1x1024xf32>
    %inserted_slice_1073 = tensor.insert_slice %extracted_slice_1071 into %inserted_slice_1072[0, 0] [1, 138] [1, 1] : tensor<1x138xf32> into tensor<1x1024xf32>
    %extracted_slice_1074 = tensor.extract_slice %0[153, 0] [1, 886] [1, 1] : tensor<512x1024xf32> to tensor<1x886xf32>
    %extracted_slice_1075 = tensor.extract_slice %0[153, 886] [1, 138] [1, 1] : tensor<512x1024xf32> to tensor<1x138xf32>
    %inserted_slice_1076 = tensor.insert_slice %extracted_slice_1074 into %extracted_slice_195[0, 138] [1, 886] [1, 1] : tensor<1x886xf32> into tensor<1x1024xf32>
    %inserted_slice_1077 = tensor.insert_slice %extracted_slice_1075 into %inserted_slice_1076[0, 0] [1, 138] [1, 1] : tensor<1x138xf32> into tensor<1x1024xf32>
    %extracted_slice_1078 = tensor.extract_slice %0[154, 0] [1, 886] [1, 1] : tensor<512x1024xf32> to tensor<1x886xf32>
    %extracted_slice_1079 = tensor.extract_slice %0[154, 886] [1, 138] [1, 1] : tensor<512x1024xf32> to tensor<1x138xf32>
    %inserted_slice_1080 = tensor.insert_slice %extracted_slice_1078 into %extracted_slice_196[0, 138] [1, 886] [1, 1] : tensor<1x886xf32> into tensor<1x1024xf32>
    %inserted_slice_1081 = tensor.insert_slice %extracted_slice_1079 into %inserted_slice_1080[0, 0] [1, 138] [1, 1] : tensor<1x138xf32> into tensor<1x1024xf32>
    %extracted_slice_1082 = tensor.extract_slice %0[155, 0] [1, 886] [1, 1] : tensor<512x1024xf32> to tensor<1x886xf32>
…
    %ct_1990 = cheddar.mult_plain %ctx, %ct_564, %extracted_491, %dps_2531 : (!context, tensor<!ciphertext>, tensor<!plaintext>, tensor<!ciphertext>) -> tensor<!ciphertext>
    %dps_2532 = bufferization.alloc_tensor() : tensor<!ciphertext>
    %ct_1991 = cheddar.rescale %ctx, %ct_1990, %dps_2532 : (!context, tensor<!ciphertext>, tensor<!ciphertext>) -> tensor<!ciphertext>
    %dps_2533 = bufferization.alloc_tensor() : tensor<!ciphertext>
    %ct_1992 = cheddar.mult_plain %ctx, %ct_567, %extracted_492, %dps_2533 : (!context, tensor<!ciphertext>, tensor<!plaintext>, tensor<!ciphertext>) -> tensor<!ciphertext>
    %dps_2534 = bufferization.alloc_tensor() : tensor<!ciphertext>
    %ct_1993 = cheddar.rescale %ctx, %ct_1992, %dps_2534 : (!context, tensor<!ciphertext>, tensor<!ciphertext>) -> tensor<!ciphertext>
    %dps_2535 = bufferization.alloc_tensor() : tensor<!ciphertext>
    %ct_1994 = cheddar.mult_plain %ctx, %ct_570, %extracted_493, %dps_2535 : (!context, tensor<!ciphertext>, tensor<!plaintext>, tensor<!ciphertext>) -> tensor<!ciphertext>
    %dps_2536 = bufferization.alloc_tensor() : tensor<!ciphertext>
    %ct_1995 = cheddar.rescale %ctx, %ct_1994, %dps_2536 : (!context, tensor<!ciphertext>, tensor<!ciphertext>) -> tensor<!ciphertext>
    %dps_2537 = bufferization.alloc_tensor() : tensor<!ciphertext>
    %ct_1996 = cheddar.mult_plain %ctx, %ct_573, %extracted_494, %dps_2537 : (!context, tensor<!ciphertext>, tensor<!plaintext>, tensor<!ciphertext>) -> tensor<!ciphertext>
    %dps_2538 = bufferization.alloc_tensor() : tensor<!ciphertext>
    %ct_1997 = cheddar.rescale %ctx, %ct_1996, %dps_2538 : (!context, tensor<!ciphertext>, tensor<!ciphertext>) -> tensor<!ciphertext>
    %dps_2539 = bufferization.alloc_tensor() : tensor<!ciphertext>
    %ct_1998 = cheddar.mult_plain %ctx, %ct_576, %extracted_495, %dps_2539 : (!context, tensor<!ciphertext>, tensor<!plaintext>, tensor<!ciphertext>) -> tensor<!ciphertext>
    %dps_2540 = bufferization.alloc_tensor() : tensor<!ciphertext>
    %ct_1999 = cheddar.rescale %ctx, %ct_1998, %dps_2540 : (!context, tensor<!ciphertext>, tensor<!ciphertext>) -> tensor<!ciphertext>
    %dps_2541 = bufferization.alloc_tensor() : tensor<!ciphertext>
    %ct_2000 = cheddar.mult_plain %ctx, %ct_579, %extracted_496, %dps_2541 : (!context, tensor<!ciphertext>, tensor<!plaintext>, tensor<!ciphertext>) -> tensor<!ciphertext>
    %dps_2542 = bufferization.alloc_tensor() : tensor<!ciphertext>
    %ct_2001 = cheddar.rescale %ctx, %ct_2000, %dps_2542 : (!context, tensor<!ciphertext>, tensor<!ciphertext>) -> tensor<!ciphertext>
    %dps_2543 = bufferization.alloc_tensor() : tensor<!ciphertext>
    %ct_2002 = cheddar.mult_plain %ctx, %ct_582, %extracted_497, %dps_2543 : (!context, tensor<!ciphertext>, tensor<!plaintext>, tensor<!ciphertext>) -> tensor<!ciphertext>
    %dps_2544 = bufferization.alloc_tensor() : tensor<!ciphertext>
    %ct_2003 = cheddar.rescale %ctx, %ct_2002, %dps_2544 : (!context, tensor<!ciphertext>, tensor<!ciphertext>) -> tensor<!ciphertext>
    %dps_2545 = bufferization.alloc_tensor() : tensor<!ciphertext>
    %ct_2004 = cheddar.mult_plain %ctx, %ct_585, %extracted_498, %dps_2545 : (!context, tensor<!ciphertext>, tensor<!plaintext>, tensor<!ciphertext>) -> tensor<!ciphertext>
    %dps_2546 = bufferization.alloc_tensor() : tensor<!ciphertext>
    %ct_2005 = cheddar.rescale %ctx, %ct_2004, %dps_2546 : (!context, tensor<!ciphertext>, tensor<!ciphertext>) -> tensor<!ciphertext>
    %dps_2547 = bufferization.alloc_tensor() : tensor<!ciphertext>
    %ct_2006 = cheddar.mult_plain %ctx, %ct_588, %extracted_499, %dps_2547 : (!context, tensor<!ciphertext>, tensor<!plaintext>, tensor<!ciphertext>) -> tensor<!ciphertext>
    %dps_2548 = bufferization.alloc_tensor() : tensor<!ciphertext>
    %ct_2007 = cheddar.rescale %ctx, %ct_2006, %dps_2548 : (!context, tensor<!ciphertext>, tensor<!ciphertext>) -> tensor<!ciphertext>
    %dps_2549 = bufferization.alloc_tensor() : tensor<!ciphertext>
    %ct_2008 = cheddar.mult_plain %ctx, %ct_591, %extracted_500, %dps_2549 : (!context, tensor<!ciphertext>, tensor<!plaintext>, tensor<!ciphertext>) -> tensor<!ciphertext>
    %dps_2550 = bufferization.alloc_tensor() : tensor<!ciphertext>
    %ct_2009 = cheddar.rescale %ctx, %ct_2008, %dps_2550 : (!context, tensor<!ciphertext>, tensor<!ciphertext>) -> tensor<!ciphertext>
    %dps_2551 = bufferization.alloc_tensor() : tensor<!ciphertext>
    %ct_2010 = cheddar.mult_plain %ctx, %ct_594, %extracted_501, %dps_2551 : (!context, tensor<!ciphertext>, tensor<!plaintext>, tensor<!ciphertext>) -> tensor<!ciphertext>
    %dps_2552 = bufferization.alloc_tensor() : tensor<!ciphertext>
    %ct_2011 = cheddar.rescale %ctx, %ct_2010, %dps_2552 : (!context, tensor<!ciphertext>, tensor<!ciphertext>) -> tensor<!ciphertext>
    %dps_2553 = bufferization.alloc_tensor() : tensor<!ciphertext>
    %ct_2012 = cheddar.mult_plain %ctx, %ct_597, %extracted_502, %dps_2553 : (!context, tensor<!ciphertext>, tensor<!plaintext>, tensor<!ciphertext>) -> tensor<!ciphertext>
    %dps_2554 = bufferization.alloc_tensor() : tensor<!ciphertext>
    %ct_2013 = cheddar.rescale %ctx, %ct_2012, %dps_2554 : (!context, tensor<!ciphertext>, tensor<!ciphertext>) -> tensor<!ciphertext>
    %dps_2555 = bufferization.alloc_tensor() : tensor<!ciphertext>
    %ct_2014 = cheddar.mult_plain %ctx, %ct_600, %extracted_503, %dps_2555 : (!context, tensor<!ciphertext>, tensor<!plaintext>, tensor<!ciphertext>) -> tensor<!ciphertext>
    %dps_2556 = bufferization.alloc_tensor() : tensor<!ciphertext>
    %ct_2015 = cheddar.rescale %ctx, %ct_2014, %dps_2556 : (!context, tensor<!ciphertext>, tensor<!ciphertext>) -> tensor<!ciphertext>
    %dps_2557 = bufferization.alloc_tensor() : tensor<!ciphertext>
    %ct_2016 = cheddar.mult_plain %ctx, %ct_603, %extracted_504, %dps_2557 : (!context, tensor<!ciphertext>, tensor<!plaintext>, tensor<!ciphertext>) -> tensor<!ciphertext>
    %dps_2558 = bufferization.alloc_tensor() : tensor<!ciphertext>
    %ct_2017 = cheddar.rescale %ctx, %ct_2016, %dps_2558 : (!context, tensor<!ciphertext>, tensor<!ciphertext>) -> tensor<!ciphertext>
    %dps_2559 = bufferization.alloc_tensor() : tensor<!ciphertext>
    %ct_2018 = cheddar.add %ctx, %ct_1973, %ct_1975, %dps_2559 : (!context, tensor<!ciphertext>, tensor<!ciphertext>, tensor<!ciphertext>) -> tensor<!ciphertext>
    %dps_2560 = bufferization.alloc_tensor() : tensor<!ciphertext>
    %ct_2019 = cheddar.add %ctx, %ct_1977, %ct_1979, %dps_2560 : (!context, tensor<!ciphertext>, tensor<!ciphertext>, tensor<!ciphertext>) -> tensor<!ciphertext>
    %dps_2561 = bufferization.alloc_tensor() : tensor<!ciphertext>
    %ct_2020 = cheddar.add %ctx, %ct_2019, %ct_1981, %dps_2561 : (!context, tensor<!ciphertext>, tensor<!ciphertext>, tensor<!ciphertext>) -> tensor<!ciphertext>
    %dps_2562 = bufferization.alloc_tensor() : tensor<!ciphertext>
    %ct_2021 = cheddar.add %ctx, %ct_2018, %ct_2020, %dps_2562 : (!context, tensor<!ciphertext>, tensor<!ciphertext>, tensor<!ciphertext>) -> tensor<!ciphertext>
    %dps_2563 = bufferization.alloc_tensor() : tensor<!ciphertext>
    %ct_2022 = cheddar.add %ctx, %ct_1983, %ct_1985, %dps_2563 : (!context, tensor<!ciphertext>, tensor<!ciphertext>, tensor<!ciphertext>) -> tensor<!ciphertext>
    %dps_2564 = bufferization.alloc_tensor() : tensor<!ciphertext>
    %ct_2023 = cheddar.add %ctx, %ct_2022, %ct_1987, %dps_2564 : (!context, tensor<!ciphertext>, tensor<!ciphertext>, tensor<!ciphertext>) -> tensor<!ciphertext>
    %dps_2565 = bufferization.alloc_tensor() : tensor<!ciphertext>
    %ct_2024 = cheddar.add %ctx, %ct_1989, %ct_1991, %dps_2565 : (!context, tensor<!ciphertext>, tensor<!ciphertext>, tensor<!ciphertext>) -> tensor<!ciphertext>
    %dps_2566 = bufferization.alloc_tensor() : tensor<!ciphertext>
    %ct_2025 = cheddar.add %ctx, %ct_2024, %ct_1993, %dps_2566 : (!context, tensor<!ciphertext>, tensor<!ciphertext>, tensor<!ciphertext>) -> tensor<!ciphertext>
    %dps_2567 = bufferization.alloc_tensor() : tensor<!ciphertext>
    %ct_2026 = cheddar.add %ctx, %ct_2023, %ct_2025, %dps_2567 : (!context, tensor<!ciphertext>, tensor<!ciphertext>, tensor<!ciphertext>) -> tensor<!ciphertext>
    %dps_2568 = bufferization.alloc_tensor() : tensor<!ciphertext>
    %ct_2027 = cheddar.add %ctx, %ct_2021, %ct_2026, %dps_2568 : (!context, tensor<!ciphertext>, tensor<!ciphertext>, tensor<!ciphertext>) -> tensor<!ciphertext>
    %dps_2569 = bufferization.alloc_tensor() : tensor<!ciphertext>
    %ct_2028 = cheddar.add %ctx, %ct_1995, %ct_1997, %dps_2569 : (!context, tensor<!ciphertext>, tensor<!ciphertext>, tensor<!ciphertext>) -> tensor<!ciphertext>
    %dps_2570 = bufferization.alloc_tensor() : tensor<!ciphertext>
    %ct_2029 = cheddar.add %ctx, %ct_2028, %ct_1999, %dps_2570 : (!context, tensor<!ciphertext>, tensor<!ciphertext>, tensor<!ciphertext>) -> tensor<!ciphertext>
    %dps_2571 = bufferization.alloc_tensor() : tensor<!ciphertext>
    %ct_2030 = cheddar.add %ctx, %ct_2001, %ct_2003, %dps_2571 : (!context, tensor<!ciphertext>, tensor<!ciphertext>, tensor<!ciphertext>) -> tensor<!ciphertext>
    %dps_2572 = bufferization.alloc_tensor() : tensor<!ciphertext>
    %ct_2031 = cheddar.add %ctx, %ct_2030, %ct_2005, %dps_2572 : (!context, tensor<!ciphertext>, tensor<!ciphertext>, tensor<!ciphertext>) -> tensor<!ciphertext>
    %dps_2573 = bufferization.alloc_tensor() : tensor<!ciphertext>
    %ct_2032 = cheddar.add %ctx, %ct_2029, %ct_2031, %dps_2573 : (!context, tensor<!ciphertext>, tensor<!ciphertext>, tensor<!ciphertext>) -> tensor<!ciphertext>
    %dps_2574 = bufferization.alloc_tensor() : tensor<!ciphertext>
    %ct_2033 = cheddar.add %ctx, %ct_2007, %ct_2009, %dps_2574 : (!context, tensor<!ciphertext>, tensor<!ciphertext>, tensor<!ciphertext>) -> tensor<!ciphertext>
    %dps_2575 = bufferization.alloc_tensor() : tensor<!ciphertext>
    %ct_2034 = cheddar.add %ctx, %ct_2033, %ct_2011, %dps_2575 : (!context, tensor<!ciphertext>, tensor<!ciphertext>, tensor<!ciphertext>) -> tensor<!ciphertext>
    %dps_2576 = bufferization.alloc_tensor() : tensor<!ciphertext>
    %ct_2035 = cheddar.add %ctx, %ct_2013, %ct_2015, %dps_2576 : (!context, tensor<!ciphertext>, tensor<!ciphertext>, tensor<!ciphertext>) -> tensor<!ciphertext>
    %dps_2577 = bufferization.alloc_tensor() : tensor<!ciphertext>
    %ct_2036 = cheddar.add %ctx, %ct_2035, %ct_2017, %dps_2577 : (!context, tensor<!ciphertext>, tensor<!ciphertext>, tensor<!ciphertext>) -> tensor<!ciphertext>
    %dps_2578 = bufferization.alloc_tensor() : tensor<!ciphertext>
    %ct_2037 = cheddar.add %ctx, %ct_2034, %ct_2036, %dps_2578 : (!context, tensor<!ciphertext>, tensor<!ciphertext>, tensor<!ciphertext>) -> tensor<!ciphertext>
    %dps_2579 = bufferization.alloc_tensor() : tensor<!ciphertext>
    %ct_2038 = cheddar.add %ctx, %ct_2032, %ct_2037, %dps_2579 : (!context, tensor<!ciphertext>, tensor<!ciphertext>, tensor<!ciphertext>) -> tensor<!ciphertext>
    %dps_2580 = bufferization.alloc_tensor() : tensor<!ciphertext>
    %ct_2039 = cheddar.add %ctx, %ct_2027, %ct_2038, %dps_2580 : (!context, tensor<!ciphertext>, tensor<!ciphertext>, tensor<!ciphertext>) -> tensor<!ciphertext>
    %dps_2581 = bufferization.alloc_tensor() : tensor<!ciphertext>
    %ct_2040 = cheddar.hrot %ctx, %ct_2039, %dps_2581, %c483 : (!context, tensor<!ciphertext>, tensor<!ciphertext>, index) -> tensor<!ciphertext>
    %dps_2582 = bufferization.alloc_tensor() : tensor<!ciphertext>
    %ct_2041 = cheddar.mult_plain %ctx, %extracted_538, %extracted_505, %dps_2582 : (!context, tensor<!ciphertext>, tensor<!plaintext>, tensor<!ciphertext>) -> tensor<!ciphertext>
    %dps_2583 = bufferization.alloc_tensor() : tensor<!ciphertext>
    %ct_2042 = cheddar.rescale %ctx, %ct_2041, %dps_2583 : (!context, tensor<!ciphertext>, tensor<!ciphertext>) -> tensor<!ciphertext>
    %dps_2584 = bufferization.alloc_tensor() : tensor<!ciphertext>
    %ct_2043 = cheddar.mult_plain %ctx, %ct_540, %extracted_506, %dps_2584 : (!context, tensor<!ciphertext>, tensor<!plaintext>, tensor<!ciphertext>) -> tensor<!ciphertext>
    %dps_2585 = bufferization.alloc_tensor() : tensor<!ciphertext>
    %ct_2044 = cheddar.rescale %ctx, %ct_2043, %dps_2585 : (!context, tensor<!ciphertext>, tensor<!ciphertext>) -> tensor<!ciphertext>
    %dps_2586 = bufferization.alloc_tensor() : tensor<!ciphertext>
    %ct_2045 = cheddar.mult_plain %ctx, %ct_543, %extracted_507, %dps_2586 : (!context, tensor<!ciphertext>, tensor<!plaintext>, tensor<!ciphertext>) -> tensor<!ciphertext>
    %dps_2587 = bufferization.alloc_tensor() : tensor<!ciphertext>
    %ct_2046 = cheddar.rescale %ctx, %ct_2045, %dps_2587 : (!context, tensor<!ciphertext>, tensor<!ciphertext>) -> tensor<!ciphertext>
    %dps_2588 = bufferization.alloc_tensor() : tensor<!ciphertext>
    %ct_2047 = cheddar.mult_plain %ctx, %ct_546, %extracted_508, %dps_2588 : (!context, tensor<!ciphertext>, tensor<!plaintext>, tensor<!ciphertext>) -> tensor<!ciphertext>
    %dps_2589 = bufferization.alloc_tensor() : tensor<!ciphertext>
    %ct_2048 = cheddar.rescale %ctx, %ct_2047, %dps_2589 : (!context, tensor<!ciphertext>, tensor<!ciphertext>) -> tensor<!ciphertext>
    %dps_2590 = bufferization.alloc_tensor() : tensor<!ciphertext>
    %ct_2049 = cheddar.mult_plain %ctx, %ct_549, %extracted_509, %dps_2590 : (!context, tensor<!ciphertext>, tensor<!plaintext>, tensor<!ciphertext>) -> tensor<!ciphertext>
    %dps_2591 = bufferization.alloc_tensor() : tensor<!ciphertext>
    %ct_2050 = cheddar.rescale %ctx, %ct_2049, %dps_2591 : (!context, tensor<!ciphertext>, tensor<!ciphertext>) -> tensor<!ciphertext>
    %dps_2592 = bufferization.alloc_tensor() : tensor<!ciphertext>
    %ct_2051 = cheddar.mult_plain %ctx, %ct_552, %extracted_510, %dps_2592 : (!context, tensor<!ciphertext>, tensor<!plaintext>, tensor<!ciphertext>) -> tensor<!ciphertext>
    %dps_2593 = bufferization.alloc_tensor() : tensor<!ciphertext>
    %ct_2052 = cheddar.rescale %ctx, %ct_2051, %dps_2593 : (!context, tensor<!ciphertext>, tensor<!ciphertext>) -> tensor<!ciphertext>
    %dps_2594 = bufferization.alloc_tensor() : tensor<!ciphertext>
    %ct_2053 = cheddar.add %ctx, %ct_2042, %ct_2044, %dps_2594 : (!context, tensor<!ciphertext>, tensor<!ciphertext>, tensor<!ciphertext>) -> tensor<!ciphertext>
    %dps_2595 = bufferization.alloc_tensor() : tensor<!ciphertext>
    %ct_2054 = cheddar.add %ctx, %ct_2053, %ct_2046, %dps_2595 : (!context, tensor<!ciphertext>, tensor<!ciphertext>, tensor<!ciphertext>) -> tensor<!ciphertext>
    %dps_2596 = bufferization.alloc_tensor() : tensor<!ciphertext>
    %ct_2055 = cheddar.add %ctx, %ct_2048, %ct_2050, %dps_2596 : (!context, tensor<!ciphertext>, tensor<!ciphertext>, tensor<!ciphertext>) -> tensor<!ciphertext>
    %dps_2597 = bufferization.alloc_tensor() : tensor<!ciphertext>
    %ct_2056 = cheddar.add %ctx, %ct_2055, %ct_2052, %dps_2597 : (!context, tensor<!ciphertext>, tensor<!ciphertext>, tensor<!ciphertext>) -> tensor<!ciphertext>
    %dps_2598 = bufferization.alloc_tensor() : tensor<!ciphertext>
    %ct_2057 = cheddar.add %ctx, %ct_2054, %ct_2056, %dps_2598 : (!context, tensor<!ciphertext>, tensor<!ciphertext>, tensor<!ciphertext>) -> tensor<!ciphertext>
    %dps_2599 = bufferization.alloc_tensor() : tensor<!ciphertext>
    %ct_2058 = cheddar.add %ctx, %ct_539, %ct_542, %dps_2599 : (!context, tensor<!ciphertext>, tensor<!ciphertext>, tensor<!ciphertext>) -> tensor<!ciphertext>
    %dps_2600 = bufferization.alloc_tensor() : tensor<!ciphertext>
    %ct_2059 = cheddar.add %ctx, %ct_545, %ct_548, %dps_2600 : (!context, tensor<!ciphertext>, tensor<!ciphertext>, tensor<!ciphertext>) -> tensor<!ciphertext>
    %dps_2601 = bufferization.alloc_tensor() : tensor<!ciphertext>
    %ct_2060 = cheddar.add %ctx, %ct_2059, %ct_551, %dps_2601 : (!context, tensor<!ciphertext>, tensor<!ciphertext>, tensor<!ciphertext>) -> tensor<!ciphertext>
    %dps_2602 = bufferization.alloc_tensor() : tensor<!ciphertext>
    %ct_2061 = cheddar.add %ctx, %ct_2058, %ct_2060, %dps_2602 : (!context, tensor<!ciphertext>, tensor<!ciphertext>, tensor<!ciphertext>) -> tensor<!ciphertext>
    %dps_2603 = bufferization.alloc_tensor() : tensor<!ciphertext>
    %ct_2062 = cheddar.add %ctx, %ct_554, %ct_557, %dps_2603 : (!context, tensor<!ciphertext>, tensor<!ciphertext>, tensor<!ciphertext>) -> tensor<!ciphertext>
    %dps_2604 = bufferization.alloc_tensor() : tensor<!ciphertext>
    %ct_2063 = cheddar.add %ctx, %ct_2062, %ct_560, %dps_2604 : (!context, tensor<!ciphertext>, tensor<!ciphertext>, tensor<!ciphertext>) -> tensor<!ciphertext>
    %dps_2605 = bufferization.alloc_tensor() : tensor<!ciphertext>
    %ct_2064 = cheddar.add %ctx, %ct_563, %ct_566, %dps_2605 : (!context, tensor<!ciphertext>, tensor<!ciphertext>, tensor<!ciphertext>) -> tensor<!ciphertext>
    %dps_2606 = bufferization.alloc_tensor() : tensor<!ciphertext>
    %ct_2065 = cheddar.add %ctx, %ct_2064, %ct_569, %dps_2606 : (!context, tensor<!ciphertext>, tensor<!ciphertext>, tensor<!ciphertext>) -> tensor<!ciphertext>
    %dps_2607 = bufferization.alloc_tensor() : tensor<!ciphertext>
    %ct_2066 = cheddar.add %ctx, %ct_2063, %ct_2065, %dps_2607 : (!context, tensor<!ciphertext>, tensor<!ciphertext>, tensor<!ciphertext>) -> tensor<!ciphertext>
    %dps_2608 = bufferization.alloc_tensor() : tensor<!ciphertext>
    %ct_2067 = cheddar.add %ctx, %ct_2061, %ct_2066, %dps_2608 : (!context, tensor<!ciphertext>, tensor<!ciphertext>, tensor<!ciphertext>) -> tensor<!ciphertext>
    %dps_2609 = bufferization.alloc_tensor() : tensor<!ciphertext>
    %ct_2068 = cheddar.add %ctx, %ct_572, %ct_575, %dps_2609 : (!context, tensor<!ciphertext>, tensor<!ciphertext>, tensor<!ciphertext>) -> tensor<!ciphertext>
    %dps_2610 = bufferization.alloc_tensor() : tensor<!ciphertext>
    %ct_2069 = cheddar.add %ctx, %ct_578, %ct_581, %dps_2610 : (!context, tensor<!ciphertext>, tensor<!ciphertext>, tensor<!ciphertext>) -> tensor<!ciphertext>
    %dps_2611 = bufferization.alloc_tensor() : tensor<!ciphertext>
    %ct_2070 = cheddar.add %ctx, %ct_2069, %ct_584, %dps_2611 : (!context, tensor<!ciphertext>, tensor<!ciphertext>, tensor<!ciphertext>) -> tensor<!ciphertext>
    %dps_2612 = bufferization.alloc_tensor() : tensor<!ciphertext>
    %ct_2071 = cheddar.add %ctx, %ct_2068, %ct_2070, %dps_2612 : (!context, tensor<!ciphertext>, tensor<!ciphertext>, tensor<!ciphertext>) -> tensor<!ciphertext>
    %dps_2613 = bufferization.alloc_tensor() : tensor<!ciphertext>
    %ct_2072 = cheddar.add %ctx, %ct_587, %ct_590, %dps_2613 : (!context, tensor<!ciphertext>, tensor<!ciphertext>, tensor<!ciphertext>) -> tensor<!ciphertext>
    %dps_2614 = bufferization.alloc_tensor() : tensor<!ciphertext>
    %ct_2073 = cheddar.add %ctx, %ct_2072, %ct_593, %dps_2614 : (!context, tensor<!ciphertext>, tensor<!ciphertext>, tensor<!ciphertext>) -> tensor<!ciphertext>
    %dps_2615 = bufferization.alloc_tensor() : tensor<!ciphertext>
    %ct_2074 = cheddar.add %ctx, %ct_596, %ct_599, %dps_2615 : (!context, tensor<!ciphertext>, tensor<!ciphertext>, tensor<!ciphertext>) -> tensor<!ciphertext>
    %dps_2616 = bufferization.alloc_tensor() : tensor<!ciphertext>
    %ct_2075 = cheddar.add %ctx, %ct_2074, %ct_602, %dps_2616 : (!context, tensor<!ciphertext>, tensor<!ciphertext>, tensor<!ciphertext>) -> tensor<!ciphertext>
    %dps_2617 = bufferization.alloc_tensor() : tensor<!ciphertext>
    %ct_2076 = cheddar.add %ctx, %ct_2073, %ct_2075, %dps_2617 : (!context, tensor<!ciphertext>, tensor<!ciphertext>, tensor<!ciphertext>) -> tensor<!ciphertext>
    %dps_2618 = bufferization.alloc_tensor() : tensor<!ciphertext>
    %ct_2077 = cheddar.add %ctx, %ct_2071, %ct_2076, %dps_2618 : (!context, tensor<!ciphertext>, tensor<!ciphertext>, tensor<!ciphertext>) -> tensor<!ciphertext>
    %dps_2619 = bufferization.alloc_tensor() : tensor<!ciphertext>
    %ct_2078 = cheddar.add %ctx, %ct_2067, %ct_2077, %dps_2619 : (!context, tensor<!ciphertext>, tensor<!ciphertext>, tensor<!ciphertext>) -> tensor<!ciphertext>
    %dps_2620 = bufferization.alloc_tensor() : tensor<!ciphertext>
    %ct_2079 = cheddar.hrot_add %ctx, %ct_673, %ct_605, %dps_2620 {distance = 23 : i64} : (!context, tensor<!ciphertext>, tensor<!ciphertext>, tensor<!ciphertext>) -> tensor<!ciphertext>
    %dps_2621 = bufferization.alloc_tensor() : tensor<!ciphertext>
    %ct_2080 = cheddar.hrot_add %ctx, %ct_741, %ct_810, %dps_2621 {distance = 46 : i64} : (!context, tensor<!ciphertext>, tensor<!ciphertext>, tensor<!ciphertext>) -> tensor<!ciphertext>
    %dps_2622 = bufferization.alloc_tensor() : tensor<!ciphertext>
    %ct_2081 = cheddar.hrot_add %ctx, %ct_878, %ct_2080, %dps_2622 {distance = 92 : i64} : (!context, tensor<!ciphertext>, tensor<!ciphertext>, tensor<!ciphertext>) -> tensor<!ciphertext>
    %dps_2623 = bufferization.alloc_tensor() : tensor<!ciphertext>
    %ct_2082 = cheddar.add %ctx, %ct_2079, %ct_2081, %dps_2623 : (!context, tensor<!ciphertext>, tensor<!ciphertext>, tensor<!ciphertext>) -> tensor<!ciphertext>
    %dps_2624 = bufferization.alloc_tensor() : tensor<!ciphertext>
    %ct_2083 = cheddar.hrot_add %ctx, %ct_946, %ct_1015, %dps_2624 {distance = 115 : i64} : (!context, tensor<!ciphertext>, tensor<!ciphertext>, tensor<!ciphertext>) -> tensor<!ciphertext>
    %dps_2625 = bufferization.alloc_tensor() : tensor<!ciphertext>
    %ct_2084 = cheddar.hrot_add %ctx, %ct_1083, %ct_2083, %dps_2625 {distance = 161 : i64} : (!context, tensor<!ciphertext>, tensor<!ciphertext>, tensor<!ciphertext>) -> tensor<!ciphertext>
    %dps_2626 = bufferization.alloc_tensor() : tensor<!ciphertext>
    %ct_2085 = cheddar.hrot_add %ctx, %ct_1151, %ct_1220, %dps_2626 {distance = 184 : i64} : (!context, tensor<!ciphertext>, tensor<!ciphertext>, tensor<!ciphertext>) -> tensor<!ciphertext>
    %dps_2627 = bufferization.alloc_tensor() : tensor<!ciphertext>
    %ct_2086 = cheddar.hrot_add %ctx, %ct_1288, %ct_2085, %dps_2627 {distance = 230 : i64} : (!context, tensor<!ciphertext>, tensor<!ciphertext>, tensor<!ciphertext>) -> tensor<!ciphertext>
    %dps_2628 = bufferization.alloc_tensor() : tensor<!ciphertext>
    %ct_2087 = cheddar.add %ctx, %ct_2084, %ct_2086, %dps_2628 : (!context, tensor<!ciphertext>, tensor<!ciphertext>, tensor<!ciphertext>) -> tensor<!ciphertext>
    %dps_2629 = bufferization.alloc_tensor() : tensor<!ciphertext>
    %ct_2088 = cheddar.add %ctx, %ct_2082, %ct_2087, %dps_2629 : (!context, tensor<!ciphertext>, tensor<!ciphertext>, tensor<!ciphertext>) -> tensor<!ciphertext>
    %dps_2630 = bufferization.alloc_tensor() : tensor<!ciphertext>
    %ct_2089 = cheddar.hrot_add %ctx, %ct_1356, %ct_1425, %dps_2630 {distance = 253 : i64} : (!context, tensor<!ciphertext>, tensor<!ciphertext>, tensor<!ciphertext>) -> tensor<!ciphertext>
    %dps_2631 = bufferization.alloc_tensor() : tensor<!ciphertext>
    %ct_2090 = cheddar.hrot_add %ctx, %ct_1493, %ct_2089, %dps_2631 {distance = 299 : i64} : (!context, tensor<!ciphertext>, tensor<!ciphertext>, tensor<!ciphertext>) -> tensor<!ciphertext>
    %dps_2632 = bufferization.alloc_tensor() : tensor<!ciphertext>
    %ct_2091 = cheddar.hrot_add %ctx, %ct_1561, %ct_1630, %dps_2632 {distance = 322 : i64} : (!context, tensor<!ciphertext>, tensor<!ciphertext>, tensor<!ciphertext>) -> tensor<!ciphertext>
    %dps_2633 = bufferization.alloc_tensor() : tensor<!ciphertext>
    %ct_2092 = cheddar.hrot_add %ctx, %ct_1698, %ct_2091, %dps_2633 {distance = 368 : i64} : (!context, tensor<!ciphertext>, tensor<!ciphertext>, tensor<!ciphertext>) -> tensor<!ciphertext>
    %dps_2634 = bufferization.alloc_tensor() : tensor<!ciphertext>
    %ct_2093 = cheddar.add %ctx, %ct_2090, %ct_2092, %dps_2634 : (!context, tensor<!ciphertext>, tensor<!ciphertext>, tensor<!ciphertext>) -> tensor<!ciphertext>
    %dps_2635 = bufferization.alloc_tensor() : tensor<!ciphertext>
    %ct_2094 = cheddar.hrot_add %ctx, %ct_1766, %ct_1835, %dps_2635 {distance = 391 : i64} : (!context, tensor<!ciphertext>, tensor<!ciphertext>, tensor<!ciphertext>) -> tensor<!ciphertext>
    %dps_2636 = bufferization.alloc_tensor() : tensor<!ciphertext>
    %ct_2095 = cheddar.hrot_add %ctx, %ct_1903, %ct_2094, %dps_2636 {distance = 437 : i64} : (!context, tensor<!ciphertext>, tensor<!ciphertext>, tensor<!ciphertext>) -> tensor<!ciphertext>
    %dps_2637 = bufferization.alloc_tensor() : tensor<!ciphertext>
    %ct_2096 = cheddar.hrot_add %ctx, %ct_1971, %ct_2040, %dps_2637 {distance = 460 : i64} : (!context, tensor<!ciphertext>, tensor<!ciphertext>, tensor<!ciphertext>) -> tensor<!ciphertext>
    %dps_2638 = bufferization.alloc_tensor() : tensor<!ciphertext>
    %ct_2097 = cheddar.hrot_add %ctx, %ct_2057, %ct_2096, %dps_2638 {distance = 506 : i64} : (!context, tensor<!ciphertext>, tensor<!ciphertext>, tensor<!ciphertext>) -> tensor<!ciphertext>
    %dps_2639 = bufferization.alloc_tensor() : tensor<!ciphertext>
    %ct_2098 = cheddar.add %ctx, %ct_2095, %ct_2097, %dps_2639 : (!context, tensor<!ciphertext>, tensor<!ciphertext>, tensor<!ciphertext>) -> tensor<!ciphertext>
    %dps_2640 = bufferization.alloc_tensor() : tensor<!ciphertext>
    %ct_2099 = cheddar.add %ctx, %ct_2093, %ct_2098, %dps_2640 : (!context, tensor<!ciphertext>, tensor<!ciphertext>, tensor<!ciphertext>) -> tensor<!ciphertext>
    %dps_2641 = bufferization.alloc_tensor() : tensor<!ciphertext>
    %ct_2100 = cheddar.add %ctx, %ct_2088, %ct_2099, %dps_2641 : (!context, tensor<!ciphertext>, tensor<!ciphertext>, tensor<!ciphertext>) -> tensor<!ciphertext>
    %dps_2642 = bufferization.alloc_tensor() : tensor<!ciphertext>
    %ct_2101 = cheddar.add %ctx, %ct_2078, %ct_2100, %dps_2642 : (!context, tensor<!ciphertext>, tensor<!ciphertext>, tensor<!ciphertext>) -> tensor<!ciphertext>
    %dps_2643 = bufferization.alloc_tensor() : tensor<!ciphertext>
    %ct_2102 = cheddar.add_plain %ctx, %ct_2101, %extracted_511, %dps_2643 : (!context, tensor<!ciphertext>, tensor<!plaintext>, tensor<!ciphertext>) -> tensor<!ciphertext>
    %dps_2644 = bufferization.alloc_tensor() : tensor<!ciphertext>
    %ct_2103 = cheddar.hrot_add %ctx, %ct_2101, %ct_2102, %dps_2644 {distance = 512 : i64} : (!context, tensor<!ciphertext>, tensor<!ciphertext>, tensor<!ciphertext>) -> tensor<!ciphertext>
    %dps_2645 = bufferization.alloc_tensor() : tensor<!ciphertext>
    %ct_2104 = cheddar.mult_plain %ctx, %ct_2103, %extracted_512, %dps_2645 : (!context, tensor<!ciphertext>, tensor<!plaintext>, tensor<!ciphertext>) -> tensor<!ciphertext>
    %dps_2646 = bufferization.alloc_tensor() : tensor<!ciphertext>
    %ct_2105 = cheddar.rescale %ctx, %ct_2104, %dps_2646 : (!context, tensor<!ciphertext>, tensor<!ciphertext>) -> tensor<!ciphertext>
    %dps_2647 = bufferization.alloc_tensor() : tensor<!ciphertext>
    %ct_2106 = cheddar.mult_plain %ctx, %ct_2105, %extracted_513, %dps_2647 : (!context, tensor<!ciphertext>, tensor<!plaintext>, tensor<!ciphertext>) -> tensor<!ciphertext>
    %dps_2648 = bufferization.alloc_tensor() : tensor<!ciphertext>
    %ct_2107 = cheddar.rescale %ctx, %ct_2106, %dps_2648 : (!context, tensor<!ciphertext>, tensor<!ciphertext>) -> tensor<!ciphertext>
    %dps_2649 = bufferization.alloc_tensor() : tensor<!ciphertext>
    %ct_2108 = cheddar.mult_plain %ctx, %ct_2105, %extracted_514, %dps_2649 : (!context, tensor<!ciphertext>, tensor<!plaintext>, tensor<!ciphertext>) -> tensor<!ciphertext>
    %dps_2650 = bufferization.alloc_tensor() : tensor<!ciphertext>
    %ct_2109 = cheddar.rescale %ctx, %ct_2108, %dps_2650 : (!context, tensor<!ciphertext>, tensor<!ciphertext>) -> tensor<!ciphertext>
    %dps_2651 = bufferization.alloc_tensor() : tensor<!ciphertext>
    %ct_2110 = cheddar.level_down %ctx, %ct_2105, %dps_2651 {targetLevel = 5 : i64} : (!context, tensor<!ciphertext>, tensor<!ciphertext>) -> tensor<!ciphertext>
    %dps_2652 = bufferization.alloc_tensor() : tensor<!ciphertext>
    %ct_2111 = cheddar.hmult %ctx, %ct_2109, %ct_2110, %evk, %dps_2652 : (!context, tensor<!ciphertext>, tensor<!ciphertext>, !eval_key, tensor<!ciphertext>) -> tensor<!ciphertext>
    %dps_2653 = bufferization.alloc_tensor() : tensor<!ciphertext>
    %ct_2112 = cheddar.sub_plain %ctx, %ct_2111, %extracted_515, %dps_2653 : (!context, tensor<!ciphertext>, tensor<!plaintext>, tensor<!ciphertext>) -> tensor<!ciphertext>
    %dps_2654 = bufferization.alloc_tensor() : tensor<!ciphertext>
    %ct_2113 = cheddar.mult_plain %ctx, %ct_2112, %extracted_516, %dps_2654 : (!context, tensor<!ciphertext>, tensor<!plaintext>, tensor<!ciphertext>) -> tensor<!ciphertext>
    %dps_2655 = bufferization.alloc_tensor() : tensor<!ciphertext>
    %ct_2114 = cheddar.rescale %ctx, %ct_2113, %dps_2655 : (!context, tensor<!ciphertext>, tensor<!ciphertext>) -> tensor<!ciphertext>
    %dps_2656 = bufferization.alloc_tensor() : tensor<!ciphertext>
    %ct_2115 = cheddar.mult_plain %ctx, %ct_2112, %extracted_517, %dps_2656 : (!context, tensor<!ciphertext>, tensor<!plaintext>, tensor<!ciphertext>) -> tensor<!ciphertext>
    %dps_2657 = bufferization.alloc_tensor() : tensor<!ciphertext>
    %ct_2116 = cheddar.rescale %ctx, %ct_2115, %dps_2657 : (!context, tensor<!ciphertext>, tensor<!ciphertext>) -> tensor<!ciphertext>
    %dps_2658 = bufferization.alloc_tensor() : tensor<!ciphertext>
    %ct_2117 = cheddar.level_down %ctx, %ct_2112, %dps_2658 {targetLevel = 3 : i64} : (!context, tensor<!ciphertext>, tensor<!ciphertext>) -> tensor<!ciphertext>
    %dps_2659 = bufferization.alloc_tensor() : tensor<!ciphertext>
    %ct_2118 = cheddar.hmult %ctx, %ct_2116, %ct_2117, %evk, %dps_2659 : (!context, tensor<!ciphertext>, tensor<!ciphertext>, !eval_key, tensor<!ciphertext>) -> tensor<!ciphertext>
    %dps_2660 = bufferization.alloc_tensor() : tensor<!ciphertext>
    %ct_2119 = cheddar.sub_plain %ctx, %ct_2118, %extracted_518, %dps_2660 : (!context, tensor<!ciphertext>, tensor<!plaintext>, tensor<!ciphertext>) -> tensor<!ciphertext>
    %dps_2661 = bufferization.alloc_tensor() : tensor<!ciphertext>
    %ct_2120 = cheddar.mult_plain %ctx, %ct_2119, %extracted_519, %dps_2661 : (!context, tensor<!ciphertext>, tensor<!plaintext>, tensor<!ciphertext>) -> tensor<!ciphertext>
    %dps_2662 = bufferization.alloc_tensor() : tensor<!ciphertext>
    %ct_2121 = cheddar.rescale %ctx, %ct_2120, %dps_2662 : (!context, tensor<!ciphertext>, tensor<!ciphertext>) -> tensor<!ciphertext>
    %dps_2663 = bufferization.alloc_tensor() : tensor<!ciphertext>
    %ct_2122 = cheddar.add_plain %ctx, %ct_2107, %extracted_520, %dps_2663 : (!context, tensor<!ciphertext>, tensor<!plaintext>, tensor<!ciphertext>) -> tensor<!ciphertext>
    %dps_2664 = bufferization.alloc_tensor() : tensor<!ciphertext>
    %ct_2123 = cheddar.level_down %ctx, %ct_2114, %dps_2664 {targetLevel = 1 : i64} : (!context, tensor<!ciphertext>, tensor<!ciphertext>) -> tensor<!ciphertext>
    %dps_2665 = bufferization.alloc_tensor() : tensor<!ciphertext>
    %ct_2124 = cheddar.add %ctx, %ct_2123, %ct_2121, %dps_2665 : (!context, tensor<!ciphertext>, tensor<!ciphertext>, tensor<!ciphertext>) -> tensor<!ciphertext>
    %dps_2666 = bufferization.alloc_tensor() : tensor<!ciphertext>
    %ct_2125 = cheddar.level_down %ctx, %ct_2122, %dps_2666 {targetLevel = 1 : i64} : (!context, tensor<!ciphertext>, tensor<!ciphertext>) -> tensor<!ciphertext>
    %dps_2667 = bufferization.alloc_tensor() : tensor<!ciphertext>
    %ct_2126 = cheddar.add %ctx, %ct_2125, %ct_2124, %dps_2667 : (!context, tensor<!ciphertext>, tensor<!ciphertext>, tensor<!ciphertext>) -> tensor<!ciphertext>
    %dps_2668 = bufferization.alloc_tensor() : tensor<!ciphertext>
    %ct_2127 = cheddar.mult_plain %ctx, %ct_2126, %extracted_521, %dps_2668 : (!context, tensor<!ciphertext>, tensor<!plaintext>, tensor<!ciphertext>) -> tensor<!ciphertext>
    %dps_2669 = bufferization.alloc_tensor() : tensor<!ciphertext>
    %ct_2128 = cheddar.rescale %ctx, %ct_2127, %dps_2669 : (!context, tensor<!ciphertext>, tensor<!ciphertext>) -> tensor<!ciphertext>
    %dps_2670 = bufferization.alloc_tensor() : tensor<!ciphertext>
    %ct_2129 = cheddar.hrot %ctx, %ct_2126, %dps_2670, %c1 : (!context, tensor<!ciphertext>, tensor<!ciphertext>, index) -> tensor<!ciphertext>
    %dps_2671 = bufferization.alloc_tensor() : tensor<!ciphertext>
    %ct_2130 = cheddar.mult_plain %ctx, %ct_2129, %extracted_522, %dps_2671 : (!context, tensor<!ciphertext>, tensor<!plaintext>, tensor<!ciphertext>) -> tensor<!ciphertext>
    %dps_2672 = bufferization.alloc_tensor() : tensor<!ciphertext>
    %ct_2131 = cheddar.rescale %ctx, %ct_2130, %dps_2672 : (!context, tensor<!ciphertext>, tensor<!ciphertext>) -> tensor<!ciphertext>
    %dps_2673 = bufferization.alloc_tensor() : tensor<!ciphertext>
    %ct_2132 = cheddar.hrot %ctx, %ct_2126, %dps_2673, %c2 : (!context, tensor<!ciphertext>, tensor<!ciphertext>, index) -> tensor<!ciphertext>
    %dps_2674 = bufferization.alloc_tensor() : tensor<!ciphertext>
    %ct_2133 = cheddar.mult_plain %ctx, %ct_2132, %extracted_523, %dps_2674 : (!context, tensor<!ciphertext>, tensor<!plaintext>, tensor<!ciphertext>) -> tensor<!ciphertext>
    %dps_2675 = bufferization.alloc_tensor() : tensor<!ciphertext>
    %ct_2134 = cheddar.rescale %ctx, %ct_2133, %dps_2675 : (!context, tensor<!ciphertext>, tensor<!ciphertext>) -> tensor<!ciphertext>
    %dps_2676 = bufferization.alloc_tensor() : tensor<!ciphertext>
    %ct_2135 = cheddar.hrot %ctx, %ct_2126, %dps_2676, %c3 : (!context, tensor<!ciphertext>, tensor<!ciphertext>, index) -> tensor<!ciphertext>
    %dps_2677 = bufferization.alloc_tensor() : tensor<!ciphertext>
    %ct_2136 = cheddar.mult_plain %ctx, %ct_2135, %extracted_524, %dps_2677 : (!context, tensor<!ciphertext>, tensor<!plaintext>, tensor<!ciphertext>) -> tensor<!ciphertext>
    %dps_2678 = bufferization.alloc_tensor() : tensor<!ciphertext>
    %ct_2137 = cheddar.rescale %ctx, %ct_2136, %dps_2678 : (!context, tensor<!ciphertext>, tensor<!ciphertext>) -> tensor<!ciphertext>
    %dps_2679 = bufferization.alloc_tensor() : tensor<!ciphertext>
    %ct_2138 = cheddar.mult_plain %ctx, %ct_2126, %extracted_525, %dps_2679 : (!context, tensor<!ciphertext>, tensor<!plaintext>, tensor<!ciphertext>) -> tensor<!ciphertext>
    %dps_2680 = bufferization.alloc_tensor() : tensor<!ciphertext>
    %ct_2139 = cheddar.rescale %ctx, %ct_2138, %dps_2680 : (!context, tensor<!ciphertext>, tensor<!ciphertext>) -> tensor<!ciphertext>
    %dps_2681 = bufferization.alloc_tensor() : tensor<!ciphertext>
    %ct_2140 = cheddar.mult_plain %ctx, %ct_2129, %extracted_526, %dps_2681 : (!context, tensor<!ciphertext>, tensor<!plaintext>, tensor<!ciphertext>) -> tensor<!ciphertext>
    %dps_2682 = bufferization.alloc_tensor() : tensor<!ciphertext>
    %ct_2141 = cheddar.rescale %ctx, %ct_2140, %dps_2682 : (!context, tensor<!ciphertext>, tensor<!ciphertext>) -> tensor<!ciphertext>
    %dps_2683 = bufferization.alloc_tensor() : tensor<!ciphertext>
    %ct_2142 = cheddar.mult_plain %ctx, %ct_2132, %extracted_527, %dps_2683 : (!context, tensor<!ciphertext>, tensor<!plaintext>, tensor<!ciphertext>) -> tensor<!ciphertext>
    %dps_2684 = bufferization.alloc_tensor() : tensor<!ciphertext>
    %ct_2143 = cheddar.rescale %ctx, %ct_2142, %dps_2684 : (!context, tensor<!ciphertext>, tensor<!ciphertext>) -> tensor<!ciphertext>
    %dps_2685 = bufferization.alloc_tensor() : tensor<!ciphertext>
    %ct_2144 = cheddar.mult_plain %ctx, %ct_2135, %extracted_528, %dps_2685 : (!context, tensor<!ciphertext>, tensor<!plaintext>, tensor<!ciphertext>) -> tensor<!ciphertext>
    %dps_2686 = bufferization.alloc_tensor() : tensor<!ciphertext>
    %ct_2145 = cheddar.rescale %ctx, %ct_2144, %dps_2686 : (!context, tensor<!ciphertext>, tensor<!ciphertext>) -> tensor<!ciphertext>
    %dps_2687 = bufferization.alloc_tensor() : tensor<!ciphertext>
    %ct_2146 = cheddar.add %ctx, %ct_2139, %ct_2141, %dps_2687 : (!context, tensor<!ciphertext>, tensor<!ciphertext>, tensor<!ciphertext>) -> tensor<!ciphertext>
    %dps_2688 = bufferization.alloc_tensor() : tensor<!ciphertext>
    %ct_2147 = cheddar.add %ctx, %ct_2143, %ct_2145, %dps_2688 : (!context, tensor<!ciphertext>, tensor<!ciphertext>, tensor<!ciphertext>) -> tensor<!ciphertext>
    %dps_2689 = bufferization.alloc_tensor() : tensor<!ciphertext>
    %ct_2148 = cheddar.add %ctx, %ct_2146, %ct_2147, %dps_2689 : (!context, tensor<!ciphertext>, tensor<!ciphertext>, tensor<!ciphertext>) -> tensor<!ciphertext>
    %dps_2690 = bufferization.alloc_tensor() : tensor<!ciphertext>
    %ct_2149 = cheddar.mult_plain %ctx, %ct_2126, %extracted_529, %dps_2690 : (!context, tensor<!ciphertext>, tensor<!plaintext>, tensor<!ciphertext>) -> tensor<!ciphertext>
    %dps_2691 = bufferization.alloc_tensor() : tensor<!ciphertext>
    %ct_2150 = cheddar.rescale %ctx, %ct_2149, %dps_2691 : (!context, tensor<!ciphertext>, tensor<!ciphertext>) -> tensor<!ciphertext>
    %dps_2692 = bufferization.alloc_tensor() : tensor<!ciphertext>
    %ct_2151 = cheddar.mult_plain %ctx, %ct_2129, %extracted_530, %dps_2692 : (!context, tensor<!ciphertext>, tensor<!plaintext>, tensor<!ciphertext>) -> tensor<!ciphertext>
    %dps_2693 = bufferization.alloc_tensor() : tensor<!ciphertext>
    %ct_2152 = cheddar.rescale %ctx, %ct_2151, %dps_2693 : (!context, tensor<!ciphertext>, tensor<!ciphertext>) -> tensor<!ciphertext>
    %dps_2694 = bufferization.alloc_tensor() : tensor<!ciphertext>
    %ct_2153 = cheddar.mult_plain %ctx, %ct_2132, %extracted_531, %dps_2694 : (!context, tensor<!ciphertext>, tensor<!plaintext>, tensor<!ciphertext>) -> tensor<!ciphertext>
    %dps_2695 = bufferization.alloc_tensor() : tensor<!ciphertext>
    %ct_2154 = cheddar.rescale %ctx, %ct_2153, %dps_2695 : (!context, tensor<!ciphertext>, tensor<!ciphertext>) -> tensor<!ciphertext>
    %dps_2696 = bufferization.alloc_tensor() : tensor<!ciphertext>
    %ct_2155 = cheddar.mult_plain %ctx, %ct_2135, %extracted_532, %dps_2696 : (!context, tensor<!ciphertext>, tensor<!plaintext>, tensor<!ciphertext>) -> tensor<!ciphertext>
    %dps_2697 = bufferization.alloc_tensor() : tensor<!ciphertext>
    %ct_2156 = cheddar.rescale %ctx, %ct_2155, %dps_2697 : (!context, tensor<!ciphertext>, tensor<!ciphertext>) -> tensor<!ciphertext>
    %dps_2698 = bufferization.alloc_tensor() : tensor<!ciphertext>
    %ct_2157 = cheddar.add %ctx, %ct_2150, %ct_2152, %dps_2698 : (!context, tensor<!ciphertext>, tensor<!ciphertext>, tensor<!ciphertext>) -> tensor<!ciphertext>
    %dps_2699 = bufferization.alloc_tensor() : tensor<!ciphertext>
    %ct_2158 = cheddar.add %ctx, %ct_2154, %ct_2156, %dps_2699 : (!context, tensor<!ciphertext>, tensor<!ciphertext>, tensor<!ciphertext>) -> tensor<!ciphertext>
    %dps_2700 = bufferization.alloc_tensor() : tensor<!ciphertext>
    %ct_2159 = cheddar.add %ctx, %ct_2157, %ct_2158, %dps_2700 : (!context, tensor<!ciphertext>, tensor<!ciphertext>, tensor<!ciphertext>) -> tensor<!ciphertext>
    %dps_2701 = bufferization.alloc_tensor() : tensor<!ciphertext>
    %ct_2160 = cheddar.mult_plain %ctx, %ct_2126, %extracted_533, %dps_2701 : (!context, tensor<!ciphertext>, tensor<!plaintext>, tensor<!ciphertext>) -> tensor<!ciphertext>
    %dps_2702 = bufferization.alloc_tensor() : tensor<!ciphertext>
    %ct_2161 = cheddar.rescale %ctx, %ct_2160, %dps_2702 : (!context, tensor<!ciphertext>, tensor<!ciphertext>) -> tensor<!ciphertext>
    %dps_2703 = bufferization.alloc_tensor() : tensor<!ciphertext>
    %ct_2162 = cheddar.mult_plain %ctx, %ct_2129, %extracted_534, %dps_2703 : (!context, tensor<!ciphertext>, tensor<!plaintext>, tensor<!ciphertext>) -> tensor<!ciphertext>
    %dps_2704 = bufferization.alloc_tensor() : tensor<!ciphertext>
    %ct_2163 = cheddar.rescale %ctx, %ct_2162, %dps_2704 : (!context, tensor<!ciphertext>, tensor<!ciphertext>) -> tensor<!ciphertext>
    %dps_2705 = bufferization.alloc_tensor() : tensor<!ciphertext>
    %ct_2164 = cheddar.mult_plain %ctx, %ct_2132, %extracted_535, %dps_2705 : (!context, tensor<!ciphertext>, tensor<!plaintext>, tensor<!ciphertext>) -> tensor<!ciphertext>
    %dps_2706 = bufferization.alloc_tensor() : tensor<!ciphertext>
    %ct_2165 = cheddar.rescale %ctx, %ct_2164, %dps_2706 : (!context, tensor<!ciphertext>, tensor<!ciphertext>) -> tensor<!ciphertext>
    %dps_2707 = bufferization.alloc_tensor() : tensor<!ciphertext>
    %ct_2166 = cheddar.mult_plain %ctx, %ct_2135, %extracted_536, %dps_2707 : (!context, tensor<!ciphertext>, tensor<!plaintext>, tensor<!ciphertext>) -> tensor<!ciphertext>
    %dps_2708 = bufferization.alloc_tensor() : tensor<!ciphertext>
    %ct_2167 = cheddar.rescale %ctx, %ct_2166, %dps_2708 : (!context, tensor<!ciphertext>, tensor<!ciphertext>) -> tensor<!ciphertext>
    %dps_2709 = bufferization.alloc_tensor() : tensor<!ciphertext>
    %ct_2168 = cheddar.add %ctx, %ct_2161, %ct_2163, %dps_2709 : (!context, tensor<!ciphertext>, tensor<!ciphertext>, tensor<!ciphertext>) -> tensor<!ciphertext>
    %dps_2710 = bufferization.alloc_tensor() : tensor<!ciphertext>
    %ct_2169 = cheddar.add %ctx, %ct_2165, %ct_2167, %dps_2710 : (!context, tensor<!ciphertext>, tensor<!ciphertext>, tensor<!ciphertext>) -> tensor<!ciphertext>
    %dps_2711 = bufferization.alloc_tensor() : tensor<!ciphertext>
    %ct_2170 = cheddar.add %ctx, %ct_2168, %ct_2169, %dps_2711 : (!context, tensor<!ciphertext>, tensor<!ciphertext>, tensor<!ciphertext>) -> tensor<!ciphertext>
    %dps_2712 = bufferization.alloc_tensor() : tensor<!ciphertext>
    %ct_2171 = cheddar.hrot %ctx, %ct_2170, %dps_2712, %c12 : (!context, tensor<!ciphertext>, tensor<!ciphertext>, index) -> tensor<!ciphertext>
    %dps_2713 = bufferization.alloc_tensor() : tensor<!ciphertext>
    %ct_2172 = cheddar.add %ctx, %ct_2128, %ct_2131, %dps_2713 : (!context, tensor<!ciphertext>, tensor<!ciphertext>, tensor<!ciphertext>) -> tensor<!ciphertext>
    %dps_2714 = bufferization.alloc_tensor() : tensor<!ciphertext>
    %ct_2173 = cheddar.add %ctx, %ct_2172, %ct_2134, %dps_2714 : (!context, tensor<!ciphertext>, tensor<!ciphertext>, tensor<!ciphertext>) -> tensor<!ciphertext>
    %dps_2715 = bufferization.alloc_tensor() : tensor<!ciphertext>
    %ct_2174 = cheddar.hrot_add %ctx, %ct_2148, %ct_2137, %dps_2715 {distance = 4 : i64} : (!context, tensor<!ciphertext>, tensor<!ciphertext>, tensor<!ciphertext>) -> tensor<!ciphertext>
    %dps_2716 = bufferization.alloc_tensor() : tensor<!ciphertext>
    %ct_2175 = cheddar.hrot_add %ctx, %ct_2159, %ct_2171, %dps_2716 {distance = 8 : i64} : (!context, tensor<!ciphertext>, tensor<!ciphertext>, tensor<!ciphertext>) -> tensor<!ciphertext>
    %dps_2717 = bufferization.alloc_tensor() : tensor<!ciphertext>
    %ct_2176 = cheddar.add %ctx, %ct_2174, %ct_2175, %dps_2717 : (!context, tensor<!ciphertext>, tensor<!ciphertext>, tensor<!ciphertext>) -> tensor<!ciphertext>
    %dps_2718 = bufferization.alloc_tensor() : tensor<!ciphertext>
    %ct_2177 = cheddar.add %ctx, %ct_2173, %ct_2176, %dps_2718 : (!context, tensor<!ciphertext>, tensor<!ciphertext>, tensor<!ciphertext>) -> tensor<!ciphertext>
    %dps_2719 = bufferization.alloc_tensor() : tensor<!ciphertext>
    %ct_2178 = cheddar.hrot_add %ctx, %ct_2177, %ct_2177, %dps_2719 {distance = 256 : i64} : (!context, tensor<!ciphertext>, tensor<!ciphertext>, tensor<!ciphertext>) -> tensor<!ciphertext>
    %dps_2720 = bufferization.alloc_tensor() : tensor<!ciphertext>
    %ct_2179 = cheddar.hrot_add %ctx, %ct_2178, %ct_2178, %dps_2720 {distance = 128 : i64} : (!context, tensor<!ciphertext>, tensor<!ciphertext>, tensor<!ciphertext>) -> tensor<!ciphertext>
    %dps_2721 = bufferization.alloc_tensor() : tensor<!ciphertext>
    %ct_2180 = cheddar.hrot_add %ctx, %ct_2179, %ct_2179, %dps_2721 {distance = 64 : i64} : (!context, tensor<!ciphertext>, tensor<!ciphertext>, tensor<!ciphertext>) -> tensor<!ciphertext>
    %dps_2722 = bufferization.alloc_tensor() : tensor<!ciphertext>
    %ct_2181 = cheddar.hrot_add %ctx, %ct_2180, %ct_2180, %dps_2722 {distance = 32 : i64} : (!context, tensor<!ciphertext>, tensor<!ciphertext>, tensor<!ciphertext>) -> tensor<!ciphertext>
    %dps_2723 = bufferization.alloc_tensor() : tensor<!ciphertext>
    %ct_2182 = cheddar.add_plain %ctx, %ct_2181, %extracted_537, %dps_2723 : (!context, tensor<!ciphertext>, tensor<!plaintext>, tensor<!ciphertext>) -> tensor<!ciphertext>
    %0 = tensor.empty() : tensor<1x!ciphertext>
    %dps_2724 = bufferization.alloc_tensor() : tensor<!ciphertext>
    %ct_2183 = cheddar.hrot_add %ctx, %ct_2181, %ct_2182, %dps_2724 {distance = 16 : i64} : (!context, tensor<!ciphertext>, tensor<!ciphertext>, tensor<!ciphertext>) -> tensor<!ciphertext>
    %inserted = tensor.insert_slice %ct_2183 into %0[0] [1] [1] : tensor<!ciphertext> into tensor<1x!ciphertext>
    return %inserted : tensor<1x!ciphertext>
  }
  func.func public @mnist(%ctx: !context, %encoder: !encoder, %ui: !user_interface, %evk: !eval_key, %arg0: tensor<512x784xf32> {mhlo.sharding = "{replicated}"}, %arg1: tensor<512xf32> {mhlo.sharding = "{replicated}"}, %arg2: tensor<10x512xf32> {mhlo.sharding = "{replicated}"}, %arg3: tensor<10xf32> {mhlo.sharding = "{replicated}"}, %arg4: tensor<1x!ciphertext> {tensor_ext.original_type = #tensor_ext.original_type<originalType = tensor<1x784xf32>, layout = #tensor_ext.layout<"{ [i0, i1] -> [ct, slot] : i0 = 0 and ct = 0 and (-i1 + slot) mod 1024 = 0 and 0 <= i1 <= 783 and 0 <= slot <= 1023 }">>}) -> (tensor<1x!ciphertext> {jax.result_info = "result[0]", tensor_ext.original_type = #original_type}) {
    %0:16 = call @mnist__preprocessing(%encoder, %arg0, %arg1, %arg2, %arg3) : (!encoder, tensor<512x784xf32>, tensor<512xf32>, tensor<10x512xf32>, tensor<10xf32>) -> (tensor<34x!plaintext>, tensor<34x!plaintext>, tensor<34x!plaintext>, tensor<34x!plaintext>, tensor<34x!plaintext>, tensor<34x!plaintext>, tensor<34x!plaintext>, tensor<34x!plaintext>, tensor<34x!plaintext>, tensor<34x!plaintext>, tensor<34x!plaintext>, tensor<34x!plaintext>, tensor<34x!plaintext>, tensor<34x!plaintext>, tensor<34x!plaintext>, tensor<29x!plaintext>)
    %1 = call @mnist__preprocessed(%ctx, %encoder, %ui, %evk, %arg4, %0#0, %0#1, %0#2, %0#3, %0#4, %0#5, %0#6, %0#7, %0#8, %0#9, %0#10, %0#11, %0#12, %0#13, %0#14, %0#15) : (!context, !encoder, !user_interface, !eval_key, tensor<1x!ciphertext>, tensor<34x!plaintext>, tensor<34x!plaintext>, tensor<34x!plaintext>, tensor<34x!plaintext>, tensor<34x!plaintext>, tensor<34x!plaintext>, tensor<34x!plaintext>, tensor<34x!plaintext>, tensor<34x!plaintext>, tensor<34x!plaintext>, tensor<34x!plaintext>, tensor<34x!plaintext>, tensor<34x!plaintext>, tensor<34x!plaintext>, tensor<34x!plaintext>, tensor<29x!plaintext>) -> tensor<1x!ciphertext>
    return %1 : tensor<1x!ciphertext>
  }
  func.func @mnist__encrypt__arg4(%ctx: !context, %encoder: !encoder, %ui: !user_interface, %evk: !eval_key, %arg0: tensor<1x784xf32>, %ui_0: !user_interface) -> tensor<1x!ciphertext> attributes {client.enc_func = {func_name = "mnist", index = 4 : i64}} {
    %c0 = arith.constant 0 : index
    %cst = arith.constant dense<0.000000e+00> : tensor<1x1024xf32>
    %c0_i32 = arith.constant 0 : i32
    %c1_i32 = arith.constant 1 : i32
    %c784_i32 = arith.constant 784 : i32
    %0 = scf.for %arg1 = %c0_i32 to %c784_i32 step %c1_i32 iter_args(%arg2 = %cst) -> (tensor<1x1024xf32>)  : i32 {
      %1 = arith.index_cast %arg1 : i32 to index
      %extracted = tensor.extract %arg0[%c0, %1] : tensor<1x784xf32>
      %inserted = tensor.insert %extracted into %arg2[%c0, %1] : tensor<1x1024xf32>
      scf.yield %inserted : tensor<1x1024xf32>
    }
    %extracted_slice = tensor.extract_slice %0[0, 0] [1, 1024] [1, 1] : tensor<1x1024xf32> to tensor<1024xf32>
    %dps_2725 = bufferization.alloc_tensor() : tensor<!plaintext>
    %pt = cheddar.encode %encoder, %extracted_slice, %dps_2725 {level = 8 : i64, scale = 4.500000e+01 : f64} : (!encoder, tensor<1024xf32>, tensor<!plaintext>) -> tensor<!plaintext>
    %dps_2726 = bufferization.alloc_tensor() : tensor<!ciphertext>
    %ct = cheddar.encrypt %ui, %pt, %dps_2726 : (!user_interface, tensor<!plaintext>, tensor<!ciphertext>) -> tensor<!ciphertext>
    %fe_2727 = tensor.empty() : tensor<1x!ciphertext>
    %from_elements = tensor.insert_slice %ct into %fe_2727[0] [1] [1] : tensor<!ciphertext> into tensor<1x!ciphertext>
    return %from_elements : tensor<1x!ciphertext>
  }
  func.func @mnist__decrypt__result0(%ctx: !context, %encoder: !encoder, %ui: !user_interface, %evk: !eval_key, %arg0: tensor<1x!ciphertext>, %ui_0: !user_interface) -> tensor<1x10xf32> attributes {client.dec_func = {func_name = "mnist", index = 0 : i64}} {
    %c0 = arith.constant 0 : index
    %c1024_i32 = arith.constant 1024 : i32
    %c16_i32 = arith.constant 16 : i32
    %c6_i32 = arith.constant 6 : i32
    %c1_i32 = arith.constant 1 : i32
    %c1023_i32 = arith.constant 1023 : i32
    %c0_i32 = arith.constant 0 : i32
    %cst = arith.constant dense<0.000000e+00> : tensor<1x10xf32>
    %c1029_i32 = arith.constant 1029 : i32
    %extracted = tensor.extract_slice %arg0[0] [1] [1] : tensor<1x!ciphertext> to tensor<!ciphertext>
    %dps_2728 = bufferization.alloc_tensor() : tensor<!plaintext>
    %pt = cheddar.decrypt %ui, %extracted, %dps_2728 : (!user_interface, tensor<!ciphertext>, tensor<!plaintext>) -> tensor<!plaintext>
    %0 = tensor.empty() : tensor<1x1024xf32>
    %1 = cheddar.decode %encoder, %pt, %0 : (!encoder, tensor<!plaintext>, tensor<1x1024xf32>) -> tensor<1x1024xf32>
    %2 = scf.for %arg1 = %c0_i32 to %c1024_i32 step %c1_i32 iter_args(%arg2 = %cst) -> (tensor<1x10xf32>)  : i32 {
      %3 = arith.subi %c1023_i32, %arg1 : i32
      %4 = arith.subi %c1029_i32, %arg1 : i32
      %5 = arith.remsi %4, %c16_i32 : i32
      %6 = arith.cmpi sge, %5, %c6_i32 : i32
      %7 = scf.if %6 -> (tensor<1x10xf32>) {
        %8 = arith.remsi %3, %c16_i32 : i32
        %9 = arith.index_cast %3 : i32 to index
        %extracted_1 = tensor.extract %1[%c0, %9] : tensor<1x1024xf32>
        %10 = arith.index_cast %8 : i32 to index
        %inserted = tensor.insert %extracted_1 into %arg2[%c0, %10] : tensor<1x10xf32>
        scf.yield %inserted : tensor<1x10xf32>
      } else {
        scf.yield %arg2 : tensor<1x10xf32>
      }
      scf.yield %7 : tensor<1x10xf32>
    }
    return %2 : tensor<1x10xf32>
  }
}
